experiments/Datasets/PJM_energy_datasets/transformer_5min.pth (torch, 818909 bytes, 255 tensors)

input_linear.weight f4 [24, 6]
0.31903133 -0.25573134 -0.324741 0.18756655 0.2997912 -0.31987026 -0.3534442 0.09130553
-0.17988758 0.15350808 -0.17791593 0.20279849 0.18958385 0.23367946 0.229915 0.2622501
0.20223121 0.39737967 -0.15083846 -0.39740762 -0.38025096 0.27179044 0.08852607 -0.14518087
0.24040511 -0.06631279 0.035835344 0.23663987 0.028100919 0.2606773 -0.22393484 0.18393725
0.2523761 -0.3123133 0.307731 -0.34838244 -0.14848612 -0.3635405 0.26626986 0.013594085
-0.24587043 0.31334862 0.17173615 -0.34539002 0.36822033 0.0909552 0.13666037 0.084793925
-0.13297148 -0.0030619032 0.0077454736 -0.018580996 -0.34710747 0.3726512 0.152713 0.35487837
0.23957103 0.04849768 0.2899526 -0.33671552 -0.35432395 0.116744936 0.1597679 -0.31712666
-0.083720185 0.38321385 0.13527036 -0.06471268 -0.1176525 0.32246858 -0.30132422 -0.12212667
0.375481 0.39329907 0.11336099 0.21560146 0.1540828 -0.18420395 -0.20330937 -0.12970002
-0.12679255 0.32488957 -0.14306928 0.16742414 -0.25972882 -0.29938832 0.09652401 -0.20020811
0.18132211 -0.09949973 -0.04892493 -0.10382936 0.37375483 -0.26944664 -0.26254046 -0.070547774
-0.22328341 0.11891434 -0.09646428 0.22231786 -0.3457808 -0.13613895 0.11333231 -0.051199306
-0.20237987 0.101507574 -0.023130674 -0.3452925 0.13034856 0.20522328 -0.21217084 0.27428877
0.3842888 -0.30625057 0.19438083 -0.299467 0.25281462 -0.08309703 -0.17269345 -0.28787893
0.35198528 -0.31103554 0.09518957 0.025024246 0.1344268 -0.2839773 -0.19527173 -0.07018709
0.020711645 0.05616395 -0.3731144 0.19147749 0.043679837 -0.10602573 0.0077576577 -0.26150575
-0.08246326 -0.36110616 -0.21191043 0.14518888 0.40051216 -0.21203478 -0.025400858 -0.378439
00000000: 1358 a33e 38ef 82be 7444 a6be 7211 403e
00000010: 3b7e 993e 09c6 a3be a3f6 b4be 65fe ba3d
00000020: 7334 38be 3931 1d3e 982f 36be 68aa 4f3e
00000030: 4522 423e ab49 6f3e d66e 6b3e a545 863e
00000040: b315 4f3e 5975 cb3e 6675 1abe 0379 cbbe
00000050: 41b0 c2be 1e28 8b3e 284d b53d 4baa 14be
00000060: c22c 763e 00cf 87bd 15c8 123d b951 723e
00000070: e633 e63c 7f77 853e 2d4f 65be 0c5a 3c3e
00000080: 7137 813e 87e7 9fbe eb8e 9d3e 2f5f b2be
00000090: bf0c 18be fb21 babe 8654 883e bab9 5e3c
000000a0: 75c5 7bbe 3b6f a03e 9adb 2f3e f6d6 b0be
000000b0: 6087 bc3e b846 ba3d b2f0 0b3e 70a8 ad3d
000000c0: ad29 08be 36aa 48bb becd fd3b 2c37 98bc
000000d0: 12b8 b1be 23cc be3e cc60 1c3e 9eb2 b53e
000000e0: 1c52 753e 81a5 463d ab74 943e fa65 acbe
000000f0: f369 b5be f817 ef3d 329a 233e 6d5e a2be
00000100: 7d75 abbd 9b34 c43e 5084 0a3e 1588 84bd
00000110: cbf3 f0bd 9a1a a53e 2b47 9abe 8c1d fabd
00000120: 0c3f c03e 7f5e c93e cf29 e83d a1c6 5c3e
00000130: e2c7 1d3e f69f 3cbe 5530 50be 15d0 04be
00000140: e8d5 01be ed57 a63e c180 12be 3c71 2b3e
00000150: 2dfb 84be 6d49 99be 61ae c53d 5b03 4dbe
00000160: 81ac 393e 84c6 cbbd 8265 48bd 7da4 d4bd
00000170: cb5c bf3e e9f4 89be b46b 86be 5a7b 90bd
00000180: 68a4 64be 5d89 f33d 108f c5bd 4ba7 633e
00000190: 2e0a b1be 0268 0bbe c51a e83d 5db6 51bd
000001a0: ab3c 4fbe 34e3 cf3d 8a7c bdbc 2eca b0be
000001b0: 187a 053e 0d26 523e 5043 59be 946f 8c3e
000001c0: 80c1 c43e e0cc 9cbe c50b 473e bd53 99be
000001d0: eb70 813e c72e aabd 8dd6 30be de64 93be
000001e0: 6a37 b43e 0d40 9fbe c0f2 c23d a6ff cc3c
000001f0: 2ea7 093e 7965 91be 50f5 47be 40be 8fbd
00000200: 78ab a93c 2c0c 663d da08 bfbe ad12 443e
00000210: a1e9 323d 0524 d9bd f333 fe3b 15e4 85be
00000220: 7fe2 a8bd e8e2 b8be 0cff 58be 65ac 143e
00000230: ee0f cd3e a51f 59be 7615 d0bc c2c2 c1be

input_linear.bias f4 [24]
-0.27479905 -0.041499484 -0.10353148 -0.016747989 -0.19214234 0.24355538 0.15869756 0.38164288
0.26047343 -0.19490722 -0.122223794 -0.19298874 0.19832551 0.2702266 -0.39317533 0.3461911
0.34192747 0.027913796 0.4147207 -0.35576305 0.11133865 0.30436435 0.3002714 0.043217875
00000000: 76b2 8cbe 5dfb 29bd 5008 d4bd 1433 89bc
00000010: f6c0 44be 9566 793e 9d81 223e b266 c33e
00000020: c65c 853e c295 47be 7850 fabd d79e 45be
00000030: d815 4b3e 245b 8a3e 474e c9be f63f b13e
00000040: 1e11 af3e 79ab e43c 4656 d43e 9326 b6be
00000050: 8505 e43d a5d5 9b3e 2cbd 993e 3a05 313d

pe.pe f4 [816, 1, 24]
0.02258749 0.0070096017 0.0051965252 -0.02506354 0.02307596 -0.0040524956 -0.018276501 0.0055980715
0.032180786 0.0028761837 0.0068151476 0.0053882613 0.015818367 -0.007889716 0.03740184 -0.022070773
0.019051833 -0.0018018181 -0.01146623 -0.016125083 0.017160403 0.00018158974 0.0101088565 -0.024343014
0.01186021 0.003627814 0.022671863 0.011289493 -0.043324035 -0.009916323 -0.036066458 -0.0146763045
0.0126016 0.03037821 0.0139914 -0.008074657 -0.02619194 -0.0075744116 -0.044086512 0.014549791
-0.016070714 -0.022797888 -0.038061846 0.016480118 0.01188782 -0.028867658 -0.010024873 0.042782024
0.013592536 -0.0016511318 0.0044277715 -0.036542516 -0.000117376585 -0.0035850685 0.014142729 0.008044668
-0.013372727 -0.023589412 0.010277605 -0.014053378 0.00399292 -0.019897934 -0.0063560116 -0.011962165
-0.00933722 -0.01441704 0.0052618245 -0.021524454 0.0058270176 -0.008296025 -0.024687573 0.007980001
-0.009629534 -0.033924267 -0.006456426 0.020412598 0.0007333171 0.00972402 0.03815007 0.012477462
-0.012154989 0.013140741 0.019243062 0.0041450234 0.016467605 -0.044557117 0.006379108 -0.025260411
-0.01300338 0.019831758 0.0071123843 -0.011676013 -0.020910945 0.0056004943 0.013824224 0.011952933
-0.007732873 -0.04099423 0.019279057 0.022179604 -0.016477952 -0.01886154 0.034265567 -0.01711591
0.044505637 0.016811877 0.026440078 -0.0015296758 -0.0059104688 0.015189506 0.00026108147 0.01213384
0.013931091 0.03321116 0.016578179 -0.018490214 0.01138312 -0.0045668515 -0.015193726 0.014441359
-0.016303582 0.0015017391 -0.0020768743 -0.008676089 -0.031882033 0.011512859 0.037710987 -0.020670565
0.008408326 -0.0025308449 0.0034599565 -0.008834183 0.002982879 0.032220848 0.0080859335 0.0009687848
0.0066260137 -0.0046538166 0.004554247 0.01573032 0.020018825 -0.0047598486 0.0077603525 -4.04048e-05
0.024302546 -0.023768824 0.02775884 -0.03081534 0.004198913 0.016650463 -0.0021530858 -0.0076610087
0.017610345 0.013788914 0.035515793 0.005223198 0.023004057 0.0007787656 0.013436941 -0.010909707
-0.015128096 0.016820053 0.044696245 0.00035426975 0.025909211 0.019101936 0.0047676917 0.012837964
0.005286428 -0.013514489 -0.011520091 0.016689422 -0.0032258604 0.0050915503 0.018936498 -0.0024830787
-0.021234743 0.02139466 -0.023635704 0.025552785 0.010469415 0.0052620354 -0.014349578 -0.0035108416
0.010330041 -0.0030971272 0.009110777 0.0025445314 -0.025443813 -0.008897135 0.019484995 0.026289511
0.007489072 -0.0040463894 -0.011624242 0.013186454 -0.0061911503 0.0026872475 -0.021251643 -0.018272817
-0.021764861 -0.007915457 0.011916756 -0.000848278 -0.045603096 0.033454333 0.012451095 0.017659936
-0.017874088 0.026343495 0.013939736 0.023571573 -0.051513124 0.010760103 0.0049011963 0.017986827
-0.00617783 0.014945181 0.0038713089 0.016338386 -0.028357757 0.0019954995 -0.0095945215 -0.0171941
0.01196461 0.012960356 0.008449461 0.0059037465 0.035734385 0.0033087302 0.047480583 -0.024435828
0.0032659294 0.00983315 -0.027349418 0.024203762 0.008312709 -0.0028414687 -0.0073631946 -0.0037937865
0.015789665 0.009504257 -0.013537704 -0.03642706 0.016070046 -0.00891854 0.00342472 0.030501178
0.006984795 0.0016921362 -0.009136701 -0.03281923 0.016955834 0.0005003606 0.009626592 -0.02837003
00000000: 6609 b93c cdb0 e53b 9d47 aa3b 0e52 cdbc
00000010: cc09 bd3c ccca 84bb 9ab8 95bc 0770 b73b
00000020: 00d0 033d 5b7e 3c3b 9a51 df3b 0390 b03b
00000030: 8595 813c de43 01bc ac32 193d c4cd b4bc
00000040: 9712 9c3c fc2a ecba dbdc 3bbc c018 84bc
00000050: f993 8c3c 2069 3e39 9e9f 253c 006b c7bc
00000060: 5451 423c 9ec0 6d3b 58ba b93c 91f7 383c
00000070: 8b74 31bd 1378 22bc 6cba 13bd e274 70bc
00000080: f176 4e3c b9db f83c 2f3c 653c 914b 04bc
00000090: 7b90 d6bc c532 f8bb 0f94 34bd 3f62 6e3c
000000a0: bba6 83bc a3c2 babc bde6 1bbd 5001 873c
000000b0: 22c5 423c de7b ecbc 5d3f 24bc 343c 2f3d
000000c0: 3ab3 5e3c ca6a d8ba d716 913b 9bad 15bd
000000d0: 1328 f6b8 78f3 6abb e8b6 673c c8cd 033c
000000e0: 4819 5bbc 953e c1bc 6663 283c 2440 66bc
000000f0: 0ad7 823b fe00 a3bc 1746 d0bb f5fc 43bc
00000100: 24fb 18bc 7335 6cbc 626b ac3b 0d54 b0bc
00000110: 91f0 be3b 0dec 07bc 983d cabc 8dbe 023c
00000120: 31c5 1dbc 2cf4 0abd 6d90 d3bb 5238 a73c
00000130: 143c 403a 7f51 1f3c 3f43 1c3d 456e 4c3c
00000140: b825 47bc 434c 573c a0a3 9d3c fad2 873b
00000150: 12e7 863c 8681 36bd d607 d13b ecee cebc
00000160: 210c 55bc 3676 a23c 010f e93b bf4c 3fbc
00000170: 6e4d abbc 5a84 b73b ff7e 623c 3cd6 433c
00000180: 0a64 fdbb 91e9 27bd 1def 9d3c 00b2 b53c
00000190: c5fc 86bc 8483 9abc 0d5a 0c3d aa36 8cbc
000001a0: 8b4b 363d 10b9 893c dd98 d83c 677f c8ba
000001b0: 9bac c1bb 68dd 783c c3e1 8839 03cd 463c
000001c0: 3b3f 643c 6d08 083d f6ce 873c ca78 97bc
000001d0: 4480 3a3c 87a5 95bb 1bef 78bc 739b 6c3c
000001e0: 178f 85bc 01d6 c43a 2b1c 08bb 2826 0ebc
000001f0: bc96 02bd 6ea0 3c3c d676 1a3d 5155 a9bc
00000200: 13c3 093c 88dc 25bb 70c0 623b 40bd 10bc
00000210: 687c 433b 02fa 033d dd7a 043c 0cf6 7d3a
00000220: 081f d93b 0b7f 98bb cb3b 953b dfdc 803c
00000230: 85fe a33c 81f8 9bbb 8e4a fe3b 5378 29b8
00000240: 2216 c73c d6b6 c2bc 8266 e33c 7470 fcbc
00000250: 0997 893b 8d66 883c c91a 0dbb 3309 fbbb
00000260: 9243 903c e6ea 613c 0279 113d 5c27 ab3b
00000270: 0173 bc3c 1326 4c3a 9e26 5c3c a1be 32bc
00000280: d5db 77bc 35ca 893c 6913 373d 48bd b939
00000290: 8e3f d43c aa7b 9c3c 4c3a 9c3b 5356 523c
000002a0: c639 ad3b e06b 5dbc c4be 3cbc 41b8 883c
000002b0: f568 53bb 05d7 a63b b720 9b3c 26bb 22bb
000002c0: 7cf4 adbc db43 af3c aa9f c1bc 1354 d13c
000002d0: e987 2b3c 276d ac3b 7e1a 6bbc 2616 66bb
000002e0: 553f 293c 2cf9 4abb 5e45 153c 27c2 263b
000002f0: 8b6f d0bc 4ac5 11bc ff9e 9f3c 1a5d d73c
00000300: e466 f53b 9397 84bb 9b73 3ebc ff0b 583c
00000310: 22df cabb 881c 303b ed17 aebc e0b0 95bc
00000320: 394c b2bc d5af 01bc 7f3e 433c f95e 5eba
00000330: 50ca 3abd 6907 093d adff 4b3c 92ab 903c
00000340: ae6c 92bc 50ce d73c 7e63 643c 2c19 c13c
00000350: 6dff 52bd 254b 303c 379a a03b 1c59 933c
00000360: 656f cabb a2dc 743c c9b5 7d3b 14d8 853c
00000370: 874e e8bc edc6 023b 5732 1dbc a4da 8cbc
00000380: 3607 443c ac57 543c 9c6f 0a3c 3774 c13b
00000390: 385e 123d 48d7 583b 007b 423d a52d c8bc
000003a0: 3409 563b 381b 213c e30b e0bc f846 c63c
000003b0: 0732 083c ef37 3abb f446 f1bb 2da1 78bb
000003c0: 5459 813c beb7 1b3c 3fcd 5dbc 8a34 15bd
000003d0: 54a5 833c 111f 12bc 4471 603b 9bdd f93c
000003e0: b5e0 e43b abca dd3a 1ab2 15bc 756d 06bd
000003f0: f6e6 8a3c a22a 033a dab8 1d3c 4468 e8bc

trf_el.self_attn.in_proj_weight f4 [72, 24]
-0.17036739 0.016194314 -0.056129307 0.024168015 -0.119333655 0.004876435 0.09709197 -0.20128801
0.11914885 0.03131798 0.21895066 0.0774734 -0.00030097365 0.053616375 0.12002301 -0.12357682
0.13053536 0.17469841 0.096592635 0.0021223128 0.14954114 0.037626863 0.14059693 0.19527176
-0.21642435 -0.05569148 -0.046566814 0.24066687 -0.07916415 0.0873324 0.17112735 -0.16587582
0.17598686 -0.22120878 0.120119184 0.056620598 -0.1124194 0.054017633 -0.07878786 -0.22356522
0.116140485 -0.008777529 0.0050216615 -0.071655214 -0.06630388 0.07875922 0.10193458 0.17875192
0.21990442 0.11838606 0.2118356 -0.019977003 0.08580908 0.17441496 -0.23259416 -0.021968395
-0.10938835 0.16215852 0.18843794 -0.050635397 0.18832713 0.1121262 -0.11546442 0.06785557
-0.11824137 0.11112878 0.16958728 0.21887887 0.14613786 -0.07303977 0.14527965 0.17338666
-0.09718567 -0.060258508 0.11348653 0.12169352 0.06301987 0.21853533 0.14022756 0.00044858456
0.24666911 -0.18774599 0.23445836 -0.2045275 -0.18912268 0.19844055 0.04403144 0.10515794
-0.10500014 0.1982845 -0.11436021 0.21906397 -0.24997237 0.057249814 -0.06987423 -0.06393051
0.22116148 0.09312281 -0.09681678 -0.15322343 0.13620514 -0.093031794 0.00043430924 0.15334284
-0.09315848 -0.2269173 0.21177414 -0.21012318 -0.03959021 0.11686903 0.01341632 -0.17946342
-0.1394465 0.13871178 -0.12404987 -0.021374643 0.03613171 0.16139188 0.016147435 0.21676394
-0.18095845 -0.23913184 -0.12230003 -0.069046736 -0.1018998 -0.024096817 -0.14715052 0.09046644
-0.0162265 -0.15713936 0.01609978 0.14195725 0.1382133 0.014569312 0.04493934 -0.07381773
0.18849099 0.09539208 0.23852977 -0.1400738 -0.20420697 -0.09572309 -0.15103975 0.22148702
0.20648992 -0.018481493 -0.015507758 0.1267533 0.22784421 -0.06330049 0.07040623 -0.1845026
0.008101732 0.1275112 0.118825346 -0.15936515 -0.108899176 -0.12615544 -0.08724952 -0.010717064
-0.0620656 -0.06276569 0.00014734268 0.23785084 0.17077357 -0.1470671 0.078864336 -0.04563135
-0.017483562 -0.08391261 -0.06869128 0.068026274 -0.11211744 0.0026186705 0.07859361 0.14519954
0.12873277 -0.14134693 -0.044857025 0.06277764 -0.16007137 -0.003960073 0.107976615 0.22831488
0.24052295 -0.12922671 -0.18551493 0.17428228 -0.138239 -0.022424132 0.20616716 0.17661485
-0.022785723 -0.16931444 -0.21237367 -0.13333759 0.093303025 0.18726179 -0.035325527 -0.24775699
-0.23698288 -0.123562664 0.0014116168 -0.1372182 -0.22156411 0.1431753 0.23061135 -0.0988082
0.02996254 -0.11031273 -0.16422594 0.17480025 -0.21977505 -0.17432389 -0.039305806 0.11131066
-0.13046834 -0.19419235 -0.2418598 0.24467197 -0.18108612 -0.103595406 -0.19292021 -0.24108931
-0.09483644 0.07712686 -0.021844268 -0.16069338 -0.042083144 -0.10819116 0.19291428 -0.11092031
0.09268439 -0.188871 -0.21745962 -0.056011528 0.21736953 -0.096301675 0.23661372 -0.10401046
0.21801558 -0.08563787 0.044247597 0.13036135 0.09493607 0.012809783 0.15048537 -0.22773746
0.19012973 -0.16094431 -0.12972832 0.04318449 0.09593332 -0.16119283 -0.2358025 -0.18189344
00000000: ca74 2ebe f0a9 843c d8e7 65bd 00fc c53c
00000010: 3465 f4bd 80ca 9f3b 28d8 c63d 721e 4ebe
00000020: 5004 f43d 4847 003d 9a34 603e 60aa 9e3d
00000030: 00cc 9db9 d89c 5b3d a0ce f53d d815 fdbd
00000040: 10ab 053e 24e4 323e 5cd2 c53d 8016 0b3b
00000050: 5021 193e a01e 1a3d a4f8 0f3e 52f5 473e
00000060: 589e 5dbe c01c 64bd d8bc 3ebd 6071 763e
00000070: d020 a2bd 54db b23d 023c 2f3e 5adb 29be
00000080: e635 343e 8e84 62be 0c01 f63d 00eb 673d
00000090: 243c e6bd 9841 5d3d 885b a1bd 48ee 64be
000000a0: 10db ed3d a0cf 0fbc c08c a43b f8bf 92bd
000000b0: 54ca 87bd 844c a13d 14c3 d03d be0a 373e
000000c0: a02e 613e 6474 f23d 6eeb 583e d0a6 a3bc
000000d0: acbc af3d d699 323e 2a2d 6ebe 10f7 b3bc
000000e0: 0007 e0bd e20c 263e e0f5 403e 1067 4fbd
000000f0: d4d8 403e 6ca2 e53d 9c78 ecbd dcf7 8a3d
00000100: 8828 f2bd 7c97 e33d 4aa8 2d3e c821 603e
00000110: 2aa5 153e e095 95bd 30c4 143e 468c 313e
00000120: 4809 c7bd a0d1 76bd a06b e83d 743a f93d
00000130: 9010 813d bac7 5f3e d097 0f3e 0030 eb39
00000140: d496 7c3e 7c40 40be da15 703e a86f 51be
00000150: 60a9 41be 0034 4b3e 505a 343d 0c5d d73d
00000160: 500a d7bd 180b 4b3e b035 eabd 4e52 603e
00000170: c2f8 7fbe c87e 6a3d 381a 8fbd 00ee 82bd
00000180: 2878 623e 2cb7 be3d e047 c6bd 9ae6 1cbe
00000190: 5c79 0b3e 7487 bebd 00b4 e339 e805 1d3e
000001a0: e0c9 bebd 025d 68be 52db 583e 882a 57be
000001b0: 5829 22bd 0859 ef3d 20d0 5b3c 42c5 37be
000001c0: 10cb 0ebe 760a 0e3e dc0d febd e019 afbc
000001d0: d8fe 133d ea43 253e a047 843c 5ef7 5d3e
000001e0: 2c4d 39be fade 74be 7078 fabd 6068 8dbd
000001f0: d8b0 d0bd b066 c5bc a0ae 16be 7846 b93d
00000200: 70ed 84bc 24e9 20be b0e3 833c 3e5d 113e
00000210: ca87 0d3e 20b4 6e3c 5012 383d c02d 97bd
00000220: c803 413e ec5c c33d 2641 743e 826f 0fbe
00000230: a21b 51be 780a c4bd 2aaa 1abe 7ecd 623e
00000240: 1872 533e 8066 97bc 4014 7ebc 9ecb 013e
00000250: fe4f 693e b0a3 81bd 2431 903d 40ee 3cbe
00000260: 20bd 043c 4c92 023e b45a f33d 9e30 23be
00000270: 8806 dfbd e42e 01be e0af b2bd a096 2fbc
00000280: 8038 7ebd 4c8b 80bd 0080 1a39 2c8f 733e
00000290: 44df 2e3e c298 16be a083 a13d f0e7 3abd
000002a0: b039 8fbc 60da abbd 04ae 8cbd 5c51 8b3d
000002b0: d49d e5bd 009e 2b3b b0f5 a03d 30af 143e
000002c0: 86d2 033e 40bd 10be 00bc 37bd 9091 803d
000002d0: c0e9 23be 80c3 81bb d822 dd3d 60cb 693e
000002e0: a64b 763e 0254 04be a0f7 3dbe 0e77 323e
000002f0: 868e 0dbe d0b2 b7bc 7c1d 533e 86da 343e
00000300: 20a9 babc c460 2dbe 7c78 59be a689 08be
00000310: a815 bf3d 8ec1 3f3e 80b1 10bd 02b4 7dbe
00000320: a4ab 72be 6c0e fdbd 0006 b93a ee82 0cbe
00000330: b4e1 62be 8c9c 123e 6225 6c3e f45b cabd
00000340: 0074 f53c a4eb e1bd d82a 28be d6fe 323e
00000350: b60c 61be f681 32be 20ff 20bd d8f6 e33d
00000360: 7e99 05be 5cda 46be 18aa 77be 4a8b 7a3e
00000370: a46e 39be d429 d4bd e08c 45be 1ee0 76be
00000380: 9c39 c2bd b0f4 9d3d c0f2 b2bc ce8c 24be
00000390: 605f 2cbd 5493 ddbd 528b 453e 302a e3bd
000003a0: 50d1 bd3d 6667 41be bcad 5ebe 586c 65bd
000003b0: 1e96 5e3e d039 c5bd de4a 723e 7003 d5bd
000003c0: 7a3f 5f3e e862 afbd f83c 353d 727d 053e
000003d0: d86d c23d 20e0 513c d618 1a3e 0234 69be
000003e0: 5eb1 423e 96ce 24be 80d7 04be 38e2 303d
000003f0: b078 c43d bc0f 25be 3676 71be 4642 3abe

trf_el.self_attn.in_proj_bias f4 [72]
0.0 0.0 0.0 0.0 0.0 0.0 0.0 0.0
0.0 0.0 0.0 0.0 0.0 0.0 0.0 0.0
0.0 0.0 0.0 0.0 0.0 0.0 0.0 0.0
0.0 0.0 0.0 0.0 0.0 0.0 0.0 0.0
0.0 0.0 0.0 0.0 0.0 0.0 0.0 0.0
0.0 0.0 0.0 0.0 0.0 0.0 0.0 0.0
0.0 0.0 0.0 0.0 0.0 0.0 0.0 0.0
0.0 0.0 0.0 0.0 0.0 0.0 0.0 0.0
0.0 0.0 0.0 0.0 0.0 0.0 0.0 0.0
00000000: 0000 0000 0000 0000 0000 0000 0000 0000
00000010: 0000 0000 0000 0000 0000 0000 0000 0000
00000020: 0000 0000 0000 0000 0000 0000 0000 0000
00000030: 0000 0000 0000 0000 0000 0000 0000 0000
00000040: 0000 0000 0000 0000 0000 0000 0000 0000
00000050: 0000 0000 0000 0000 0000 0000 0000 0000
00000060: 0000 0000 0000 0000 0000 0000 0000 0000
00000070: 0000 0000 0000 0000 0000 0000 0000 0000
00000080: 0000 0000 0000 0000 0000 0000 0000 0000
00000090: 0000 0000 0000 0000 0000 0000 0000 0000
000000a0: 0000 0000 0000 0000 0000 0000 0000 0000
000000b0: 0000 0000 0000 0000 0000 0000 0000 0000
000000c0: 0000 0000 0000 0000 0000 0000 0000 0000
000000d0: 0000 0000 0000 0000 0000 0000 0000 0000
000000e0: 0000 0000 0000 0000 0000 0000 0000 0000
000000f0: 0000 0000 0000 0000 0000 0000 0000 0000
00000100: 0000 0000 0000 0000 0000 0000 0000 0000
00000110: 0000 0000 0000 0000 0000 0000 0000 0000

trf_el.self_attn.out_proj.weight f4 [24, 24]
0.030877545 0.07640597 -0.117320344 0.06864101 0.08027947 -0.18235785 -0.13145794 0.00559853
0.1916095 -0.111733325 0.026975527 -0.13989139 -0.08233253 0.035748586 0.1354545 0.09651202
-0.06691928 -0.020395756 0.09553632 0.12386191 0.12612602 0.0533441 0.03996487 -0.07616545
-0.10159103 -0.10792039 -0.11481217 0.09366271 -0.1659778 -0.06298396 -0.0068402886 0.016236529
-0.05108501 0.060667664 0.018931627 0.18996876 -0.06081228 -0.07622336 0.16038454 0.03915727
-0.17153871 -0.07726705 0.051766574 0.03969744 -0.05708006 -0.1520252 -0.042954266 -0.06973554
0.1746988 0.020792514 0.1155228 0.1258055 0.084148526 -0.1602608 0.1346663 -0.045556292
0.05654803 -0.026598975 0.20177907 -0.17607068 0.083960325 0.13186073 -0.030746639 -0.020516768
0.11012003 -0.0703112 -0.08433077 -0.027610287 0.17196068 -0.06593563 0.01767677 0.05828798
-0.13839093 0.13491824 0.07641232 -0.19472182 -0.13846254 -0.08366919 0.070355326 -0.09151979
0.13486388 -0.16535199 0.060435534 0.1270507 0.088150024 0.17732221 0.016955584 0.08630973
0.048359245 -0.17771652 0.0334097 -0.09437855 -0.1200591 0.11787942 0.038624316 0.082455665
-0.06470299 0.12085378 0.16237229 -0.17337029 -0.019624144 -0.07679029 0.077965796 0.020485714
-0.0013410747 -0.015678823 -0.08824973 -0.008204475 0.00052957237 0.1948176 0.023758858 0.13513717
0.093604684 0.11166254 0.18150032 0.128894 -0.0056572706 0.10454345 0.10265887 -0.027859911
0.10219723 -0.04271266 -0.07520518 -0.040571377 0.0690791 -0.013262972 -0.19169421 0.08582425
0.06359476 0.02191618 -0.15662083 0.15158325 0.099714935 -0.058704793 -0.03881 -0.15317538
0.14272147 -0.08287164 0.14284095 0.08730638 -0.06978363 -0.12929273 0.06041348 0.13329068
0.10018915 0.030646876 0.16578019 -0.040840313 0.12611589 0.0707019 0.093619436 0.14323121
-0.008805439 -0.08917294 -0.029453889 0.09584123 -0.060615838 -0.10990824 0.15548187 -0.19012187
0.04162021 0.19639513 -0.12975386 -0.04773484 0.048994094 -0.0029660612 -0.16698135 -0.16714561
0.02577886 -0.108601145 0.04558663 0.0348742 -0.18526633 0.114391625 -0.08393712 0.030840367
-0.06640074 0.14677244 0.07890034 0.14974019 0.11208889 0.14413685 0.06008792 0.07236853
0.09640056 -0.10299361 0.2007224 0.1519742 -0.16935751 0.14806217 -0.112154804 -0.058009088
0.05131927 -0.11548606 -0.08766492 -0.016606227 0.11416745 -0.17203447 0.10321739 -0.11516496
0.027154848 0.03383845 -0.20296502 -0.028429389 0.16698298 0.104290724 -0.14716583 -0.1339083
0.19526675 0.12551937 -0.1259419 0.08019781 -0.055200607 -0.12305042 -0.070321634 -0.02838549
0.14869314 0.1350252 -0.17562948 0.013144836 -0.19213608 0.0668059 -0.117304385 0.20344532
0.16871458 0.008850306 0.09542328 0.010126561 0.10069534 0.02646248 0.039447784 0.13191247
-0.024482459 -0.1340301 0.003791213 0.023073941 -0.013426244 0.14158317 0.12529382 -0.0013374835
0.07358247 0.073042125 0.1667335 -0.121130705 0.037292033 0.027998224 0.04259725 -0.009655923
0.19759673 0.17357796 -0.08660074 0.021373197 -0.08678529 0.10050377 0.13298792 -0.13752863
00000000: e8f2 fc3c bc7a 9c3d a645 f0bd a893 8c3d
00000010: 9069 a43d 04bc 3abe e99c 06be e073 b73b
00000020: 4835 443e 71d4 e4bd c8fb dc3c b03f 0fbe
00000030: f59d a8bd 1c6d 123d 96b4 0a3e 18a8 c53d
00000040: fa0c 89bd 0015 a7bc 8ca8 c33d 50ab fd3d
00000050: 2e27 013e 587f 5a3d 34b2 233d a2fc 9bbd
00000060: f50e d0bd 5e05 ddbd a522 ebbd 3cd2 bf3d
00000070: 16f6 29be bcfd 80bd 8024 e0bb 7802 853c
00000080: 843e 51bd a87e 783d 8016 9b3c 2c87 423e
00000090: 4c16 79bd fe1a 9cbd d83b 243e 6063 203d
000000a0: d8a7 2fbe 303e 9ebd 3009 543d c899 223d
000000b0: c8cc 69bd 7eac 1bbe d0f0 2fbd 82d1 8ebd
000000c0: 3ee4 323e 1055 aa3c 3897 ec3d 28d3 003e
000000d0: 1056 ac3d 681b 24be f6e5 093e 3c99 3abd
000000e0: e89e 673d 18e6 d9bc 2c9f 4e3e df4b 34be
000000f0: 64f3 ab3d 8006 073e 60e0 fbbc c812 a8bc
00000100: 9c86 e13d 52ff 8fbd 9cb5 acbd f82e e2bc
00000110: 7616 303e 4209 87bd e0ce 903c 60bf 6e3d
00000120: 5ab6 0dbe 0228 0a3e 107e 9c3d 2865 47be
00000130: 20c9 0dbe c15a abbd 7416 903d ba6e bbbd
00000140: c219 0a3e 0852 29be 408b 773d 9419 023e
00000150: 0088 b43d f493 353e 70e6 8a3c 28c3 b03d
00000160: 5814 463d 52fb 35be 9cd8 083d 8b49 c1bd
00000170: 8ce1 f5bd c46a f13d 8834 1e3d 84de a83d
00000180: 0083 84bd 3082 f73d ec44 263e fb87 31be
00000190: d0c2 a0bc 3a44 9dbd 88ac 9f3d a8d1 a73c
000001a0: 00c7 afba e070 80bc 46bc b4bd 106c 06bc
000001b0: 00d3 0a3a 447e 473e f0a1 c23c 6661 0a3e
000001c0: d0b3 bf3d 54af e43d 38db 393e cafc 033e
000001d0: a060 b9bb e01a d63d d03e d23d 783a e4bc
000001e0: c84c d13d 78f3 2ebd 2c05 9abd 2c2e 26bd
000001f0: 5879 8d3d f04c 59bc 7d4b 44be a0c4 af3d
00000200: f83d 823d 9089 b33c 3661 20be a438 1b3e
00000210: 5837 cc3d 7074 70bd 3cf7 1ebd 02da 1cbe
00000220: 9425 123e 9bb8 a9bd e644 123e b0cd b23d
00000230: b8ea 8ebd 5065 04be 2074 773d 5a7d 083e
00000240: f82f cd3d 280f fb3c 48c2 293e 2c48 27bd
00000250: 8624 013e 28cc 903d 8cbb bf3d 34ab 123e
00000260: b044 10bc 4da0 b6bd 4849 f1bc 6848 c43d
00000270: 5048 78bd 9217 e1bd a436 1f3e 4faf 42be
00000280: f479 2a3d ce1b 493e 32de 04be 9c85 43bd
00000290: 08ae 483d 4062 42bb 29fd 2abe 3828 2bbe
000002a0: 302e d33c 476a debd 0cb9 3a3d 40d8 0e3d
000002b0: 75b6 3dbe 2846 ea3d 3ae7 abbd f0a4 fc3c
000002c0: 1cfd 87bd 844b 163e 8096 a13d 7e55 193e
000002d0: dc8e e53d 9c98 133e c01e 763d f435 943d
000002e0: a86d c53d 50ee d2bd 2c8a 4d3e 209f 1b3e
000002f0: 0e6c 2dbe 9c9d 173e 6bb1 e5bd f09a 6dbd
00000300: 2834 523d f583 ecbd aa89 b3bd c809 88bc
00000310: a0d0 e93d ce29 30be a463 d33d 9bdb ebbd
00000320: d873 de3c 309a 0a3d 10d6 4fbe c0e4 e8bc
00000330: 96fd 2a3e 6096 d53d a4b2 16be 421f 09be
00000340: 02f4 473e 2688 003e eaf6 00be c03e a43d
00000350: 081a 62bd dc01 fcbd ca04 90bd b088 e8bc
00000360: 0443 183e 0c44 0a3e 37d8 33be 705d 573c
00000370: 52bf 44be 88d1 883d 483d f0bd f853 503e
00000380: 84c3 2c3e e000 113c 486d c33d e0e9 253c
00000390: 5c39 ce3d d8c7 d83c 0094 213d 1014 073e
000003a0: 708f c8bc 303f 09be 0076 783b 9005 bd3c
000003b0: c0f9 5bbc 2efb 103e 064d 003e 804e afba
000003c0: 68b2 963d 1c97 953d 30bc 2a3e 6013 f8bd
000003d0: 88bf 183d 885c e53c 747a 2e3d e033 1ebc
000003e0: cc56 4a3e 6cbe 313e bb5b b1bd d816 af3c
000003f0: 7cbc b1bd ecd4 cd3d fc2d 083e 4ed4 0cbe

trf_el.self_attn.out_proj.bias f4 [24]
0.0 0.0 0.0 0.0 0.0 0.0 0.0 0.0
0.0 0.0 0.0 0.0 0.0 0.0 0.0 0.0
0.0 0.0 0.0 0.0 0.0 0.0 0.0 0.0
00000000: 0000 0000 0000 0000 0000 0000 0000 0000
00000010: 0000 0000 0000 0000 0000 0000 0000 0000
00000020: 0000 0000 0000 0000 0000 0000 0000 0000
00000030: 0000 0000 0000 0000 0000 0000 0000 0000
00000040: 0000 0000 0000 0000 0000 0000 0000 0000
00000050: 0000 0000 0000 0000 0000 0000 0000 0000

trf_el.linear1.weight f4 [256, 24]
0.037550524 0.08195174 -0.13702399 0.06834242 0.08215541 -0.050545663 0.10997778 -0.11598327
0.14085424 0.15733796 -0.19298887 0.10012537 0.10789332 0.028207853 0.13869089 0.07396239
-0.16499487 0.07856193 0.056783587 0.020950526 0.08969051 0.11309594 -0.20373486 -0.12976065
0.18795928 0.123946816 -0.027174532 0.19543383 -0.13715251 -0.19881517 0.18876946 0.067484766
0.1940465 0.06982729 0.12296203 -0.15735608 -0.16001287 0.10956243 -0.07092187 0.16060323
0.1562474 0.11035961 -0.024475142 -0.13525635 -0.2012355 0.10332054 0.07703251 0.08975658
0.05455312 -0.099814706 0.032005608 0.103524804 0.12572518 0.18497708 0.050489485 0.016514853
0.16092521 0.17254013 -0.0034679323 -0.14720833 0.07868087 -0.062275305 -0.00704737 0.15587664
0.1945352 -0.022681594 -0.16783288 0.18354604 0.035015687 0.036367968 0.020563573 0.081061006
0.10373166 -0.09165313 -0.03219068 0.045115814 0.13734877 -0.124141194 0.14082909 -0.06663518
-0.080184534 0.001822874 -0.06503962 -0.08204374 0.203015 -0.038372904 0.17324603 0.10011041
0.046361595 0.15942726 0.19577155 -0.18173513 0.1522235 -0.16806768 -0.019452706 0.12499589
0.11218777 0.122832865 -0.16718332 -0.07814093 0.011914924 -0.070751294 0.016078085 -0.16442603
-0.0036649853 0.065720916 0.09101555 -0.08609256 0.16948158 -0.1745747 0.12234765 -0.124011956
0.099867135 0.044295773 -0.1394104 0.12481794 -0.16622804 -0.05052483 0.06682408 0.08094299
-0.082519844 0.08500725 0.083827734 -0.12860435 -0.018113509 -0.12872589 -0.10723236 -0.0021584034
0.19420621 -0.11808405 0.19534755 0.20189515 0.04289338 0.1335445 -0.010490298 -0.034057796
-0.15637456 0.07424152 0.15945789 -0.15667525 -0.067610174 -0.051372096 -0.18088342 -0.06128919
-0.183545 0.18657175 -0.00595434 0.12500331 0.034752294 -0.10614251 -0.07559198 0.045719177
0.11666706 0.010013819 0.028826699 0.12539732 0.16932806 -0.060109615 0.17264336 0.054327875
0.15158209 -0.19632123 0.17798492 0.12551048 -0.18728258 -0.03769 -0.010499448 -0.18103896
0.032735676 -0.19084746 0.14745104 -0.113241225 0.010640889 -0.16011518 -0.11959207 0.012403533
-0.073083684 0.19011945 0.06864685 -0.0433127 -0.10677202 -0.02584146 -0.08688408 0.02429317
-0.19718654 0.047560424 0.19506332 0.12587968 -0.12565139 -0.16593249 0.1250661 -0.17280874
-0.007570252 0.027400196 0.13300318 0.07309666 0.15377629 0.07681131 0.0011460334 0.1599594
-0.0032428056 0.1979675 -0.19781463 0.15401426 -0.14248867 -0.1618483 0.08546224 -0.07942507
-0.1180422 0.16988719 0.114580065 0.09845859 -0.053147152 -0.16643429 0.02069062 0.18999463
0.16257021 -0.1541324 -0.15488279 -0.12943743 -0.015816182 0.18328843 0.16865018 -0.110465184
0.09876454 -0.06921831 0.18141362 0.16061687 0.07939026 -0.117903866 0.0001577586 -0.18620494
-0.051540866 -0.08195842 0.075880855 0.052490443 0.039953917 -0.03492731 -0.057089865 -0.13352588
0.055438817 -0.08557241 -0.15958558 -0.08834132 0.042877972 -0.16722792 0.08000752 0.100985885
0.083109826 -0.18726939 0.18182582 0.031508148 -0.14432259 -0.11873845 -0.07883632 0.054084927
00000000: 94ce 193d 50d6 a73d 0450 0cbe 1cf7 8b3d
00000010: 1841 a83d f808 4fbd 083c e13d a388 edbd
00000020: 183c 103e 341d 213e e09e 45be 880e cd3d
00000030: 2cf7 dc3d 2814 e73c fc04 0e3e 9879 973d
00000040: 6af4 28be 14e5 a03d e895 683d 70a0 ab3c
00000050: a8af b73d d89e e73d df9f 50be fadf 04be
00000060: 6678 403e d4d7 fd3d 209d debc ce1f 483e
00000070: b571 0cbe 3496 4bbe c84c 413e 7435 8a3d
00000080: 20b4 463e 9c01 8f3d 84d3 fb3d f421 21be
00000090: 6ada 23be 4462 e03d 7c3f 91bd 2c75 243e
000000a0: 52ff 1f3e 3804 e23d 1880 c8bc a480 0abe
000000b0: ae10 4ebe b899 d33d 38c3 9d3d 4cd2 b73d
000000c0: 1873 5f3d a76b ccbd 5018 033d d004 d43d
000000d0: 1abe 003e a26a 3d3e 10ce 4e3d 284a 873c
000000e0: 94c9 243e 5cae 303e 4046 63bb c8bd 16be
000000f0: 7023 a13d 6414 7fbd a0ed e6bb 209e 1f3e
00000100: 3c34 473e c0ce b9bc 62dc 2bbe 7ef3 3b3e
00000110: 9c6c 0f3d 94f6 143d f074 a83c 5003 a63d
00000120: 4471 d43d a3b4 bbbd 60da 03bd 5ccb 383d
00000130: 28a5 0c3e bd3d febd 8035 103e 0678 88bd
00000140: ca37 a4bd 80ed ee3a 7e33 85bd 8c06 a8bd
00000150: 2ae3 4f3e e82c 1dbd 6867 313e b006 cd3d
00000160: a8e5 3d3d e640 233e 5678 483e c618 3abe
00000170: 7ae0 1b3e ef19 2cbe 485b 9fbc d8fd ff3d
00000180: b4c2 e53d cc8f fb3d 1b32 2bbe 5a08 a0bd
00000190: d036 433c 0ee6 90bd 30b6 833c 4c5f 28be
000001a0: 4030 70bb b098 863d 5c66 ba3d 4c51 b0bd
000001b0: 948c 2d3e b6c3 32be 6891 fa3d fbf9 fdbd
000001c0: 2487 cc3d 7c6f 353d 9ac1 0ebe 8ca0 ff3d
000001d0: af37 2abe 20f3 4ebd 10db 883d 70c5 a53d
000001e0: 2a00 a9bd 4818 ae3d e0ad ab3d dcb0 03be
000001f0: c862 94bc b8d0 03be a49c dbbd 0074 0dbb
00000200: fedd 463e 0dd6 f1bd 3009 483e 9abd 4e3e
00000210: f8b0 2f3d e4bf 083e 80df 2bbc 3080 0bbd
00000220: a720 20be f00b 983d ee48 233e 7a6f 20be
00000230: 3477 8abd 8c6b 52bd 8139 39be 600a 7bbd
00000240: 38f3 3bbe aa0c 3f3e a01c c3bb de00 003e
00000250: 6c58 0e3d 3f61 d9bd f8cf 9abd 0844 3b3d
00000260: 24ef ee3d 0011 243c f825 ec3c 2868 003e
00000270: 5664 2d3e 8035 76bd 6cc9 303e e886 5e3d
00000280: 5638 1b3e 6f08 49be ae41 363e d285 003e
00000290: 01c7 3fbe d460 1abd e005 2cbc 4762 39be
000002a0: d815 063d 846d 43be 68fd 163e 04eb e7bd
000002b0: 2057 2e3c 3cf5 23be b0ec f4bd 3038 4b3c
000002c0: e6ac 95bd acae 423e b896 8c3d a868 31bd
000002d0: 4aab dabd 78b1 d3bc 48f0 b1bd 7802 c73c
000002e0: 45eb 49be b8ce 423d aebe 473e 9ae6 003e
000002f0: c2aa 00be 35ea 29be 5411 003e c6f4 30be
00000300: e00f f8bb 6076 e03c fc31 083e b4b3 953d
00000310: 8877 1d3e 404f 9d3d 8036 963a 66cc 233e
00000320: 4085 54bb feb7 4a3e eb8f 4abe eab5 1d3e
00000330: 8de8 11be 90bb 25be d406 af3d 9ca9 a2bd
00000340: 1cc0 f1bd e8f6 2d3e f4a8 ea3d a8a4 c93d
00000350: d4b0 59bd c06d 2abe 607f a93c f48d 423e
00000360: ce78 263e e2d4 1dbe 9899 1ebe 3f8b 04be
00000370: f090 81bc f6af 3b3e a2b2 2c3e 923b e2bd
00000380: 1045 ca3d 54c2 8dbd 7ec4 393e c078 243e
00000390: 5c97 a23d 9577 f1bd 006c 2539 82ac 3ebe
000003a0: 841c 53bd d1d9 a7bd 6c67 9b3d 3800 573d
000003b0: b8a6 233d f00f 0fbd 10d7 69bd 02bb 08be
000003c0: d013 633d 9640 afbd 676a 23be 4bec b4bd
000003d0: d0a0 2f3d cc3d 2bbe fcda a33d b0d1 ce3d
000003e0: 7c35 aa3d 8cc3 3fbe 8c30 3a3e b00e 013d
000003f0: 4dc9 13be 252d f3bd f074 a1bd 2888 5d3d

trf_el.linear1.bias f4 [256]
-0.17517099 -0.042203695 0.008024365 0.17635739 0.05005431 -0.027897522 0.06883305 0.07881743
0.022882149 -0.07773532 0.05905205 -0.16006364 -0.10763615 -0.023778856 0.14594835 -0.021302924
-0.018578336 -0.14087197 -0.060770005 0.1461303 0.07107058 -0.13558054 -0.09926689 0.1922943
-0.016228452 -0.20208432 0.119205475 -0.03212045 0.005807072 0.10895735 0.11593455 -0.18692896
0.12921119 0.040476456 0.055086195 0.1862297 0.20199427 0.06678334 -0.04980412 -0.16268761
0.168933 0.023148626 0.009205893 0.08044535 -0.027186006 0.062859505 0.001436621 -0.1405623
-0.12595516 0.02537772 0.12703046 0.18210897 0.1852606 -0.15964887 0.048170686 -0.10558111
0.1737746 -0.12799451 0.14995271 0.1760954 0.1281847 -0.031867146 -0.10536065 0.068302035
0.050512016 0.18177551 0.19577089 0.04709649 0.097895235 -0.17800575 -0.072869346 -0.045683146
-0.17935908 0.17157021 0.082220614 -0.052686647 -0.018031508 -0.03409332 -0.13999532 0.058849037
-0.01700744 0.18395516 -0.13193917 -0.13896689 -0.07356478 0.087643355 0.15189987 0.011500597
-0.11729562 -0.1119643 0.14785287 -0.16746402 0.089021385 0.14508548 -0.15255065 0.10155964
-0.01745464 -0.07343885 0.13273126 0.12272164 -0.20168813 0.11717245 0.12779543 0.10986686
0.13961995 0.04400666 0.087911844 -0.15888904 0.00063079596 -0.19713065 -0.12480122 0.080058575
0.10310665 0.12349987 0.0017019063 0.062630266 0.044438675 -0.10900106 0.14254776 0.023536041
0.15751934 0.10177204 -0.19916087 -0.08968642 0.03554827 -0.03543967 0.17454949 -0.12396894
-0.16459522 -0.047829673 0.035982773 0.06577557 -0.1529799 0.05375269 0.10806975 0.01834473
-0.09329696 0.007825673 0.021877691 0.08094004 -0.10731604 0.0068456978 0.076156676 0.17317706
0.1788432 0.14554384 -0.16111025 0.0021973401 0.101018965 -0.09178234 -0.16661789 -0.16816543
0.06648514 -0.005773723 0.1493335 -0.13870648 0.19958279 -0.1840797 -0.012474224 -0.023671433
-0.04093626 -0.008780614 0.14523971 0.07090551 0.18826234 -0.08004145 0.11110085 -0.06477672
-0.058196574 0.04166223 0.20207998 0.08126199 -0.10566234 0.026936471 -0.047599554 -0.04623559
0.20220974 0.06918293 0.024228126 -0.16649953 0.10845935 0.036031976 0.1962147 0.060445398
0.03612964 -0.15126008 0.19354203 -0.18847951 -0.16521351 0.15936932 0.14573228 0.12054795
-0.0096196085 -0.033793986 -0.10635356 0.08732614 0.049273044 -0.051269487 0.16930541 0.076410264
-0.040134594 0.007014245 0.08291066 0.13081387 0.17445654 -0.15434079 -0.08576655 -0.036211655
0.18807659 0.043482155 0.17638782 0.17591804 0.17956045 0.1665164 -0.05717437 -0.19252111
0.12015337 0.06281501 -0.12646294 0.1371885 -0.16778485 0.14061788 -0.12142879 -0.085441664
0.0077943355 -0.15174875 -0.06043689 0.07997596 0.14386621 0.19815081 -0.17666504 -0.09221609
0.1630592 -0.09003753 0.118772864 0.022126302 -0.13021785 0.13577929 0.10188916 -0.030243546
-0.06239356 0.088300526 0.15324208 -0.161867 0.13095635 -0.01015614 -0.009475857 0.018251121
-0.024674267 0.077056855 0.1116361 0.20255882 0.022147983 0.10039833 -0.054569513 -0.055120528
00000000: 0660 33be c8dd 2cbd a078 033c 0897 343e
00000010: c005 4d3d 5889 e4bc 58f8 8c3d 086b a13d
00000020: 5873 bb3c b233 9fbd 90e0 713d b9e7 23be
00000030: 5870 dcbd e0cb c2bc 7c73 153e 7883 aebc
00000040: 9831 98bc be40 10be f8e9 78bd 2ea3 153e
00000050: 748d 913d a0d5 0abe 704c cbbd cce8 443e
00000060: 88f1 84bc 31ef 4ebe 0022 f43d bc90 03bd
00000070: 4049 be3b 0825 df3d 186f ed3d 4e6a 3fbe
00000080: f04f 043e a4ca 253d 10a2 613d 00b3 3e3e
00000090: 96d7 4e3e b4c5 883d 68ff 4bbd 9597 26be
000000a0: c6fc 2c3e 30a2 bd3c 50d4 163c 88c0 a43d
000000b0: 30b5 debc 7cbc 803d 004d bc3a 90ef 0fbe
000000c0: 64fa 00be f0e4 cf3c 4614 023e c67a 3a3e
000000d0: f4b4 3d3e fe7a 23be a04e 453d e93a d8bd
000000e0: f8f1 313e fe10 03be 348d 193e 5a52 343e
000000f0: da42 033e 2087 02bd 53c7 d7bd f0e1 8b3d
00000100: b0e5 4e3d 5c23 3a3e 2a78 483e 40e8 403d
00000110: 4c7d c83d 2447 36be 863c 95bd 401e 3bbd
00000120: e8a9 37be 1ab0 2f3e 4863 a83d f4cd 57bd
00000130: d0b6 93bc 70a5 0bbd ef5a 0fbe b00b 713d
00000140: 3053 8bbc be5e 3c3e 101b 07be 564d 0ebe
00000150: 22a9 96bd 5c7e b33d a48b 1b3e 006d 3c3c
00000160: b038 f0bd 8a4d e5bd be66 173e b07b 2bbe
00000170: d850 b63d 4a91 143e 3d36 1cbe 80fe cf3d
00000180: 08fd 8ebc 1c67 96bd b4ea 073e 7c55 fb3d
00000190: 5587 4ebe 1cf8 ef3d cedc 023e e001 e13d
000001a0: 88f8 0e3e 5440 343d 200b b43d cfb3 22be
000001b0: 005c 253a 9edc 49be c897 ffbd c0f5 a33d
000001c0: 9429 d33d 80ed fc3d 8012 df3a 4c44 803d
000001d0: 5405 363d f33b dfbd 0af8 113e a8ce c03c
000001e0: c04c 213e dc6d d03d d4f0 4bbe 84ad b7bd
000001f0: 109b 113d 3029 11bd 1abd 323e 6de3 fdbd
00000200: a68b 28be 0ce9 43bd ac62 133d 58b5 863d
00000210: c3a6 1cbe c82b 5c3d ac53 dd3d b047 963c
00000220: 7a12 bfbd 4037 003c d838 b33c e4c3 a53d
00000230: 83c8 dbbd e051 e03b 08f8 9b3d 5455 313e
00000240: ac22 373e 7209 153e 16fa 24be 4001 103b
00000250: 08e3 ce3d 61f8 bbbd e19d 2abe 8f33 2cbe
00000260: 5c29 883d 8031 bdbb e2ea 183e 1209 0ebe
00000270: 6e5f 4c3e 647f 3cbe b060 4cbc 98ea c1bc
00000280: c8ac 27bd 90dc 0fbc b8b9 143e e836 913d
00000290: d8c7 403e c6ec a3bd d888 e33d a8a9 84bd
000002a0: 885f 6ebd 04a6 2a3d 0eee 4e3e b06c a63d
000002b0: 7f65 d8bd e0a9 dc3c c0f7 42bd 8861 3dbd
000002c0: 1210 4f3e c8af 8d3d 107a c63c da7e 2abe
000002d0: f01f de3d 4496 133d 82ec 483e 9895 773d
000002e0: acfc 133d ece3 1abe e22f 463e c600 41be
000002f0: bb2d 29be b631 233e d83a 153e d8e1 f63d
00000300: 909b 1dbc 906b 0abd e5cf d9bd 0cd8 b23d
00000310: 88d2 493d f4ff 51bd 665e 2d3e fc7c 9c3d
00000320: 2c64 24bd c0d7 e53b 10cd a93d 12f4 053e
00000330: bca4 323e 830b 1ebe 5fa6 afbd ac52 14bd
00000340: 2697 403e 581a 323d 029f 343e dc23 343e
00000350: b2de 373e 4683 2a3e ac2f 6abd 4124 45be
00000360: f812 f63d 28a5 803d 807f 01be 247b 0c3e
00000370: cbcf 2bbe 22fe 0f3e a8af f8bd 0afc aebd
00000380: a067 ff3b 0664 1bbe ac8c 77bd 70ca a33d
00000390: aa51 133e 0ce8 4a3e aee7 34be cadb bcbd
000003a0: fef8 263e 9965 b8bd 303f f33d 3842 b53c
000003b0: d457 05be ba09 0b3e 44ab d03d 50c1 f7bc
000003c0: 6490 7fbd e8d6 b43d 7eeb 1c3e 76c0 25be
000003d0: 6c19 063e f065 26bc a040 1bbc 6083 953c
000003e0: b021 cabc fccf 9d3d 78a1 e43d 946b 4f3e
000003f0: b06f b53c a49d cd3d 4884 5fbd 10c6 61bd

trf_el.linear2.weight f4 [24, 256]
-0.0047007203 -0.032098666 0.05050037 0.0014581829 -0.010998346 -0.020332165 0.035565242 0.0058623776
-0.01230634 0.021278284 -0.02341073 -0.027705677 -0.014954612 -0.038415715 -0.036453843 -0.056071855
0.035737164 0.033300757 0.055810414 0.00078145415 -0.030583903 -0.0035824403 0.05923619 0.0616472
0.027747668 -0.050599083 0.026345514 -0.0060576275 -0.0072077364 0.0042999983 0.031933278 -0.052217826
-0.051960826 0.03195537 -0.06213504 0.012515977 -0.0048100725 -0.036417313 0.04575097 0.01706715
-0.013702035 -0.010404661 0.03546021 0.053221524 -0.05791705 -0.017535463 0.00815466 0.061527014
-0.045162737 -0.02345676 0.048480883 -0.0076133534 0.02861423 -0.046361245 0.01589942 0.055555932
0.012045622 -0.02814234 -0.008933209 -0.03387829 0.042832226 -0.009739503 -0.026480198 0.04740265
-0.03472639 -0.027441673 -0.004789099 -0.018360376 -0.0027988106 -0.039258726 0.038272798 -0.032598265
-0.034024917 -0.02976738 0.008598305 0.040447704 -0.054047972 0.012392409 0.028902203 0.024583124
-0.02823925 0.030845784 0.059166268 -0.053932033 0.026968874 -0.025315285 -0.031058133 -0.052800998
0.024354897 0.014125735 0.03696867 0.04686051 0.009334631 0.045536004 0.056260936 -0.045725472
0.027505793 0.0069411695 0.03733258 -0.057423465 0.046850078 0.005850725 0.029515699 0.040311635
0.02492199 -0.04892104 -0.024263017 0.023642667 0.056316115 -0.049547143 0.060809016 0.0114096925
-0.03140804 0.05132956 0.03959842 -0.024876207 0.052154794 0.04378044 -0.055349946 -0.0076508746
0.035594 -0.02576138 -0.013909176 -0.055432536 0.0324954 -0.026557572 0.0047084466 0.013392307
-0.01859498 0.03431443 -0.03186491 -0.0027399212 -0.015930593 0.019192249 0.005106114 -0.014996089
0.0328482 0.00820528 -0.028092258 -0.017879762 0.06149154 -0.039783522 -0.021112204 0.049172856
0.061501414 0.056605496 -0.01766 0.0022334233 -0.054229975 -0.015285067 0.016640924 -0.04554075
0.0020038188 -0.039397486 -0.048841275 0.0037261099 -0.0544713 -0.038959645 -0.052377112 -0.012558617
-0.051553503 -0.055305243 0.05987353 0.025469027 -0.0019434243 -0.051127978 4.7020614e-05 0.01797501
-0.004348859 0.022971101 0.0039802343 0.021829292 -0.045852236 -0.0040288046 -0.031039074 -0.0025161281
-0.043730736 0.0008159727 0.010306962 0.055705912 0.047928505 0.014471263 0.04389797 0.028599426
0.02191811 0.020859085 -0.020706736 -0.031807043 -0.00479389 0.026649907 -0.02665212 0.013442814
-0.004287794 -0.056777433 -0.03731376 -0.04650698 0.031355113 0.028882682 0.026732102 0.0027850494
-0.018552154 -0.00862129 -0.02971489 -0.032190047 0.04369378 0.052591175 -0.031386666 -0.02500505
-0.05325213 0.0061292723 0.006767586 -0.035914898 -0.037105314 0.014636464 0.014045857 -0.007417679
-0.05766362 0.01752586 0.0061087385 0.047475703 -0.021037437 0.022028573 -0.028990455 0.014533892
-0.0050766245 -0.03168895 -0.03621415 -0.0015915558 0.05732748 0.01936429 -0.05110001 0.012687989
0.021267124 0.059403136 -0.057354227 -0.055307657 -0.003875643 -0.005189158 0.010578588 0.033362746
-0.047260046 -0.0010939091 0.056448027 -1.7933547e-05 -0.008555651 -0.040676706 0.005215779 0.013120644
0.02635432 0.041139953 0.042762533 0.022977032 -0.04357157 0.05819433 -0.042583227 -0.027252667
00000000: 8008 9abb e479 03bd 7ad9 4e3d 8020 bf3a
00000010: 6832 34bc a48f a6bc dcac 113d 3019 c03b
00000020: 88a0 49bc cc4f ae3c dcc7 bfbc 04f7 e2bc
00000030: 3004 75bc cc59 1dbd a050 15bd 9aab 65bd
00000040: 2261 123d 6066 083d 7699 643d 80da 4c3a
00000050: 188b fabc 60c7 6abb a6a1 723d c681 7c3d
00000060: 144f e33c fc40 4fbd 8cd2 d73c 107f c6bb
00000070: e02e ecbb 00e7 8c3b 78cc 023d 5ce2 55bd
00000080: e0d4 54bd a2e3 023d 5081 7ebd d00f 4d3c
00000090: d09d 9dbb 522a 15bd 5e65 3b3d 68d0 8b3c
000000a0: 807e 60bc 5078 2abc ba3e 113d d0fe 593d
000000b0: 6e3a 6dbd 88a6 8fbc 209b 053c c003 7c3d
000000c0: 90fc 38bd 6428 c0bc e493 463d 7079 f9bb
000000d0: 6468 ea3c 4ae5 3dbd 803f 823c 9e8e 633d
000000e0: 005b 453c c48a e6bc 985c 12bc f6c3 0abd
000000f0: d870 2f3d 7092 1fbc 00ed d8bc 4829 423d
00000100: 423d 0ebd 5ccd e0bc e0ed 9cbb 8068 96bc
00000110: 406c 37bb c2cd 20bd f0c3 1c3d c285 05bd
00000120: b65d 0bbd b8da f3bc e8df 0c3c 7eac 253d
00000130: 6861 5dbd 8809 4b3c 50c4 ec3c 8c62 c93c
00000140: 0056 e7bc 4cb0 fc3c 5458 723d d6e7 5cbd
00000150: d4ed dc3c 0062 cfbc a06d febc dc45 58bd
00000160: ec83 c73c a06f 673c 766c 173d cef0 3f3d
00000170: 48f0 183c f683 3a3d de71 663d a24a 3bbd
00000180: d453 e13c c072 e33b 0cea 183d de34 6bbd
00000190: dee5 3f3d 70b7 bf3b e8ca f13c d01d 253d
000001a0: 3429 cc3c 6e61 48bd 3cc3 c6bc 44ae c13c
000001b0: baab 663d f2f1 4abd e012 793d b8ef 3a3c
000001c0: b8a5 00bd f23e 523d f431 223d 30c9 cbbc
000001d0: 44a0 553d 1e53 333d a0b6 62bd 30b4 fabb
000001e0: 04cb 113d 8809 d3bc 50e3 63bc 3a0d 63bd
000001f0: e619 053d 448f d9bc 5049 9a3b 686b 5b3c
00000200: 8054 98bc 4a8d 0c3d c884 02bd 4090 33bb
00000210: e080 82bc 1039 9d3c 3051 a73b 28b2 75bc
00000220: d68b 063d 706f 063c bc21 e6bc 9478 92bc
00000230: 8ede 7b3d 0cf4 22bd 80f3 acbc 7a69 493d
00000240: e8e8 7b3d 2adb 673d b4ab 90bc a05e 123b
00000250: 4020 5ebd 386e 7abc 8c52 883c f088 3abd
00000260: 8052 033b 425f 21bd ca0d 48bd c031 743b
00000270: 4c1d 5fbd 2694 1fbd 6289 56bd a8c2 4dbc
00000280: c429 53bd c087 62bd f23d 753d 6ca4 d03c
00000290: 80ba feba 926b 51bd 0038 4538 5440 933c
000002a0: e080 8ebb e42d bc3c a06c 823b 58d3 b23c
000002b0: 8ecf 3bbd 1004 84bb a845 febc a0e5 24bb
000002c0: 001f 33bd 00e7 553a 88de 283c e22b 643d
000002d0: ae50 443d e018 6d3c 5cce 333d 5849 ea3c
000002e0: 9c8d b33c ace0 aa3c 2ca1 a9bc 1a48 02bd
000002f0: 1016 9dbb e850 da3c 8c55 dabc 403f 5c3c
00000300: a080 8cbb 748f 68bd 50d6 18bd 1a7e 3ebd
00000310: 386e 003d 609b ec3c 48fd da3c 6085 363b
00000320: b0fa 97bc 5040 0dbc a46c f3bc b6d9 03bd
00000330: 40f8 323d d869 573d 4e8f 00bd 64d7 ccbc
00000340: e81e 5abd 10d8 c83b a0c2 dd3b 801b 13bd
00000350: befb 17bd c8cd 6f3c 9820 663c 0010 f3bb
00000360: b030 6cbd 6492 8f3c d02b c83b e275 423d
00000370: b456 acbc 4475 b43c 647d edbc 901f 6e3c
00000380: d059 a6bb 46cc 01bd 4a55 14bd c09b d0ba
00000390: 38d0 6a3d dca1 9e3c 3e4e 51bd 48e1 4f3c
000003a0: 6438 ae3c b450 733d 44ec 6abd 488a 62bd
000003b0: 80fe 7dbb d009 aabb d051 2d3c 60a7 083d
000003c0: c093 41bd 8061 8fba 0c36 673d 0070 96b7
000003d0: 002d 0cbc 9e9c 26bd 20e9 aa3b f8f7 563c
000003e0: 04e5 d73c 5e82 283d c427 2f3d 543a bc3c
000003f0: 1a78 32bd 2e5d 6e3d c06b 2ebd fc40 dfbc

trf_el.linear2.bias f4 [24]
0.059865326 0.03840705 0.017857768 -0.054378957 -0.014405049 0.05653374 -0.056724623 0.026043661
-0.0046932176 -0.04355979 0.05626227 -0.0372151 -0.007830158 -0.016134776 0.021649592 -0.0005990416
-0.05503542 0.022331938 0.050649732 0.015821427 -0.061995372 0.025951147 0.016229331 -0.01905822
00000000: 5835 753d b650 1d3d 744a 923c 78bc 5ebd
00000010: 2803 6cbc ec8f 673d 1458 68bd 8459 d53c
00000020: 90c9 99bb c06b 32bd 4473 663d dc6e 18bd
00000030: 104a 00bc 142d 84bc 7c5a b13c 0009 1dba
00000040: d26c 61bd 78f1 b63c 1876 4f3d f09b 813c
00000050: dcee 7dbd 8097 d43c 60f3 843c fc1f 9cbc

trf_el.norm1.weight f4 [24]
1.0 1.0 1.0 1.0 1.0 1.0 1.0 1.0
1.0 1.0 1.0 1.0 1.0 1.0 1.0 1.0
1.0 1.0 1.0 1.0 1.0 1.0 1.0 1.0
00000000: 0000 803f 0000 803f 0000 803f 0000 803f
00000010: 0000 803f 0000 803f 0000 803f 0000 803f
00000020: 0000 803f 0000 803f 0000 803f 0000 803f
00000030: 0000 803f 0000 803f 0000 803f 0000 803f
00000040: 0000 803f 0000 803f 0000 803f 0000 803f
00000050: 0000 803f 0000 803f 0000 803f 0000 803f

trf_el.norm1.bias f4 [24]
0.0 0.0 0.0 0.0 0.0 0.0 0.0 0.0
0.0 0.0 0.0 0.0 0.0 0.0 0.0 0.0
0.0 0.0 0.0 0.0 0.0 0.0 0.0 0.0
00000000: 0000 0000 0000 0000 0000 0000 0000 0000
00000010: 0000 0000 0000 0000 0000 0000 0000 0000
00000020: 0000 0000 0000 0000 0000 0000 0000 0000
00000030: 0000 0000 0000 0000 0000 0000 0000 0000
00000040: 0000 0000 0000 0000 0000 0000 0000 0000
00000050: 0000 0000 0000 0000 0000 0000 0000 0000

trf_el.norm1.bn.weight f4 [24]
1.0 1.0 1.0 1.0 1.0 1.0 1.0 1.0
1.0 1.0 1.0 1.0 1.0 1.0 1.0 1.0
1.0 1.0 1.0 1.0 1.0 1.0 1.0 1.0
00000000: 0000 803f 0000 803f 0000 803f 0000 803f
00000010: 0000 803f 0000 803f 0000 803f 0000 803f
00000020: 0000 803f 0000 803f 0000 803f 0000 803f
00000030: 0000 803f 0000 803f 0000 803f 0000 803f
00000040: 0000 803f 0000 803f 0000 803f 0000 803f
00000050: 0000 803f 0000 803f 0000 803f 0000 803f

trf_el.norm1.bn.bias f4 [24]
0.0 0.0 0.0 0.0 0.0 0.0 0.0 0.0
0.0 0.0 0.0 0.0 0.0 0.0 0.0 0.0
0.0 0.0 0.0 0.0 0.0 0.0 0.0 0.0
00000000: 0000 0000 0000 0000 0000 0000 0000 0000
00000010: 0000 0000 0000 0000 0000 0000 0000 0000
00000020: 0000 0000 0000 0000 0000 0000 0000 0000
00000030: 0000 0000 0000 0000 0000 0000 0000 0000
00000040: 0000 0000 0000 0000 0000 0000 0000 0000
00000050: 0000 0000 0000 0000 0000 0000 0000 0000

trf_el.norm1.bn.running_mean f4 [24]
0.0 0.0 0.0 0.0 0.0 0.0 0.0 0.0
0.0 0.0 0.0 0.0 0.0 0.0 0.0 0.0
0.0 0.0 0.0 0.0 0.0 0.0 0.0 0.0
00000000: 0000 0000 0000 0000 0000 0000 0000 0000
00000010: 0000 0000 0000 0000 0000 0000 0000 0000
00000020: 0000 0000 0000 0000 0000 0000 0000 0000
00000030: 0000 0000 0000 0000 0000 0000 0000 0000
00000040: 0000 0000 0000 0000 0000 0000 0000 0000
00000050: 0000 0000 0000 0000 0000 0000 0000 0000

trf_el.norm1.bn.running_var f4 [24]
1.0 1.0 1.0 1.0 1.0 1.0 1.0 1.0
1.0 1.0 1.0 1.0 1.0 1.0 1.0 1.0
1.0 1.0 1.0 1.0 1.0 1.0 1.0 1.0
00000000: 0000 803f 0000 803f 0000 803f 0000 803f
00000010: 0000 803f 0000 803f 0000 803f 0000 803f
00000020: 0000 803f 0000 803f 0000 803f 0000 803f
00000030: 0000 803f 0000 803f 0000 803f 0000 803f
00000040: 0000 803f 0000 803f 0000 803f 0000 803f
00000050: 0000 803f 0000 803f 0000 803f 0000 803f

trf_el.norm2.weight f4 [24]
1.0 1.0 1.0 1.0 1.0 1.0 1.0 1.0
1.0 1.0 1.0 1.0 1.0 1.0 1.0 1.0
1.0 1.0 1.0 1.0 1.0 1.0 1.0 1.0
00000000: 0000 803f 0000 803f 0000 803f 0000 803f
00000010: 0000 803f 0000 803f 0000 803f 0000 803f
00000020: 0000 803f 0000 803f 0000 803f 0000 803f
00000030: 0000 803f 0000 803f 0000 803f 0000 803f
00000040: 0000 803f 0000 803f 0000 803f 0000 803f
00000050: 0000 803f 0000 803f 0000 803f 0000 803f

trf_el.norm2.bias f4 [24]
0.0 0.0 0.0 0.0 0.0 0.0 0.0 0.0
0.0 0.0 0.0 0.0 0.0 0.0 0.0 0.0
0.0 0.0 0.0 0.0 0.0 0.0 0.0 0.0
00000000: 0000 0000 0000 0000 0000 0000 0000 0000
00000010: 0000 0000 0000 0000 0000 0000 0000 0000
00000020: 0000 0000 0000 0000 0000 0000 0000 0000
00000030: 0000 0000 0000 0000 0000 0000 0000 0000
00000040: 0000 0000 0000 0000 0000 0000 0000 0000
00000050: 0000 0000 0000 0000 0000 0000 0000 0000

trf_el.norm2.bn.weight f4 [24]
1.0 1.0 1.0 1.0 1.0 1.0 1.0 1.0
1.0 1.0 1.0 1.0 1.0 1.0 1.0 1.0
1.0 1.0 1.0 1.0 1.0 1.0 1.0 1.0
00000000: 0000 803f 0000 803f 0000 803f 0000 803f
00000010: 0000 803f 0000 803f 0000 803f 0000 803f
00000020: 0000 803f 0000 803f 0000 803f 0000 803f
00000030: 0000 803f 0000 803f 0000 803f 0000 803f
00000040: 0000 803f 0000 803f 0000 803f 0000 803f
00000050: 0000 803f 0000 803f 0000 803f 0000 803f

trf_el.norm2.bn.bias f4 [24]
0.0 0.0 0.0 0.0 0.0 0.0 0.0 0.0
0.0 0.0 0.0 0.0 0.0 0.0 0.0 0.0
0.0 0.0 0.0 0.0 0.0 0.0 0.0 0.0
00000000: 0000 0000 0000 0000 0000 0000 0000 0000
00000010: 0000 0000 0000 0000 0000 0000 0000 0000
00000020: 0000 0000 0000 0000 0000 0000 0000 0000
00000030: 0000 0000 0000 0000 0000 0000 0000 0000
00000040: 0000 0000 0000 0000 0000 0000 0000 0000
00000050: 0000 0000 0000 0000 0000 0000 0000 0000

trf_el.norm2.bn.running_mean f4 [24]
0.0 0.0 0.0 0.0 0.0 0.0 0.0 0.0
0.0 0.0 0.0 0.0 0.0 0.0 0.0 0.0
0.0 0.0 0.0 0.0 0.0 0.0 0.0 0.0
00000000: 0000 0000 0000 0000 0000 0000 0000 0000
00000010: 0000 0000 0000 0000 0000 0000 0000 0000
00000020: 0000 0000 0000 0000 0000 0000 0000 0000
00000030: 0000 0000 0000 0000 0000 0000 0000 0000
00000040: 0000 0000 0000 0000 0000 0000 0000 0000
00000050: 0000 0000 0000 0000 0000 0000 0000 0000

trf_el.norm2.bn.running_var f4 [24]
1.0 1.0 1.0 1.0 1.0 1.0 1.0 1.0
1.0 1.0 1.0 1.0 1.0 1.0 1.0 1.0
1.0 1.0 1.0 1.0 1.0 1.0 1.0 1.0
00000000: 0000 803f 0000 803f 0000 803f 0000 803f
00000010: 0000 803f 0000 803f 0000 803f 0000 803f
00000020: 0000 803f 0000 803f 0000 803f 0000 803f
00000030: 0000 803f 0000 803f 0000 803f 0000 803f
00000040: 0000 803f 0000 803f 0000 803f 0000 803f
00000050: 0000 803f 0000 803f 0000 803f 0000 803f
