experiments/Datasets/darts_logs/modwt_pred_transformer_5_24_4/checkpoints/last-epoch=6.ckpt (torch, 668955 bytes, 206 tensors)

encoder.weight f8 [16, 1]
0	0x4008bc8971603335	3.092059026478092
1	0xc00bb2eadffac687	-3.462362050858079
2	0xc00a549e66145257	-3.291317746634643
3	0xc007822bb8bb7abf	-2.9385599548544117
4	0xbffde9ac7b149260	-1.8695492561174873
5	0x3ff816a4cdff3a9a	1.5055282637364713
6	0x400a3b24196afdb2	3.278877447679144
7	0x4012bf3c2089320e	4.686752804158926
8	0xc0119cc511ff3632	-4.4030955135363445
9	0x40086e34e2352f6a	3.0538118050080145
10	0x40091cc799ab91ed	3.139052582310106
11	0xc01165e27f76459b	-4.349496833413833
12	0xbff45a7b75fdfc86	-1.2720903977458717
13	0xc00ee1a7d7bd88e8	-3.8601834158626964
14	0xbff42525485c9568	-1.2590687586428775
15	0x4005ea2ab5cb1353	2.7393392756079407

encoder.bias f8 [16]
0	0xbfb645ff6bdd940e	-0.08700558074413342
1	0xbfd38570e44c9486	-0.3050195912822534
2	0xbfd12e974f919066	-0.2684686924969867
3	0xbfc4d5d86834dd7a	-0.16277604187210298
4	0x3f7fda168e30b09e	0.007776344401502792
5	0xbff0452aa14c8799	-1.0168863583316805
6	0xbfe840032fcb87fc	-0.7578140195366809
7	0xbfd99c16dc22391e	-0.4001519345992096
8	0xbfcbc9768361e683	-0.21708566107900049
9	0xbfef9bdcca725d7e	-0.9877761796987412
10	0xbfb14b59ca205804	-0.06755601105427905
11	0xbfe98bb62d6da1b5	-0.798304642417
12	0xbf914183258b5081	-0.016851472059741916
13	0xbfe2a3d7356267ea	-0.5825000803627038
14	0xbf97f410fcc144d1	-0.023391976763666392
15	0xbfed17bde1f9ab97	-0.9091481603221493

transformer.encoder.layers.0.self_attn.in_proj_weight f8 [48, 16]
0	0x3fbeece23a53c165	0.1208020584488217
1	0x3fba77465d0f41de	0.10338248989069806
2	0xbfdb91297ca129e7	-0.4307349888883025
3	0x3fd4fbd6a7619190	0.3278710016805002
4	0x3fe398d3459a60d4	0.6124054297861456
5	0x3fc70de8b6c0a9ac	0.18011197017160663
6	0xbfea7615b0fb3330	-0.8269146401085887
7	0x3fe254efa7fcee00	0.5728681832328562
8	0xbfe15b3f163b438b	-0.5423884805878613
9	0x3fda5013c0ec4fdd	0.4111375221266352
10	0xbfded780655ee52e	-0.4819031705806819
11	0xbfdae1d7fa80df40	-0.42003440345023435
12	0xbff42f9ae9a8cbfd	-1.2616223456686833
13	0xbfde46b6c6f0029e	-0.47306603839391836
14	0xbff3a8dbdbeae230	-1.2287252989318738
15	0xbfad337a0b76353b	-0.05703336133874833
16	0x3fc8d62112e4f33c	0.19403470442366622
17	0xbfa943709f2400b8	-0.049342650820109524
18	0xbfd4ebeb1af39f8e	-0.32689931518552207
19	0x3f9b423680059d54	0.02661976963409292
20	0xbfccddb7bd0241e1	-0.22551628807970217
21	0xbfb214ea04197e7d	-0.07063162422263676
22	0x3fd94760c337e5e5	0.39498156608860163
23	0xbfe9794298a21207	-0.7960522633662216
24	0xbfdaafa0890ceb71	-0.41696942695460054
25	0x3fe46c9cad6d80b2	0.6382583033810276
26	0x3ff3fb9855ef6042	1.2489245755041485
27	0xbfec582c2b10e336	-0.8857632485515754
28	0xbff97a290b709a2d	-1.5923242995137443
29	0xbfa6d10acc4c154b	-0.0445636152635794
30	0xbff3af85964bdc3d	-1.2303520079565395
31	0x3feb30c636177cc5	0.8497038895110555
32	0x3fd04a3615e55262	0.25452949655781343
33	0x3fd262128f8c02c4	0.28723587053540833
34	0xbfe22c023f7b4990	-0.5678721656679944
35	0xbfe815b593578906	-0.7526500585338745
36	0xbfdd35e7d502d635	-0.4564151363550509
37	0x3ff1e15d632547e3	1.1175207016826725
38	0x3fe149a8a17bf649	0.5402415422428898
39	0xbff3ecc20bdea577	-1.2453022445355069
40	0x3fdd2c784cc02715	0.4558392285840552
41	0x3f850548e8ac3d4e	0.010263986206637068
42	0x3fda28e761d2ed24	0.4087465720474077
43	0xbfd74bce3ab0fb27	-0.3640018056066076
44	0x3fdef11ee3e7f0f7	0.4834668374676449
45	0xbfdc342a7a763ecb	-0.4406839557568502
46	0x3fde1c48256775b8	0.4704761853480153
47	0xbfda4134ce33a9bc	-0.41022987496276264
48	0x3fd62a91e383322b	0.3463482591439823
49	0x3fc499c0c01292c1	0.16094216707747047
50	0x3fdff192caa7bf59	0.4991194705062206
51	0xbfae8dd5f617da3d	-0.05967587117259086
52	0x3fc0bfcaf4d04626	0.1308530516985666
53	0x3febe076dfbbbad0	0.8711504335204499
54	0x3fd50197e04039c9	0.32822224521160287
55	0xbfe3e68c75618fe4	-0.6218931477164884
56	0xbfd467dce6288d26	-0.3188392875328695
57	0xbfb4cf07da670cec	-0.0812840374192551
58	0x3fd178a6d592489b	0.27298899513801594
59	0xbfda36edfc8f1b58	-0.4096026388546554
60	0x3fd53fb2bfa2b248	0.3320128318253279
61	0xbfe6b75844605c48	-0.7098809562184067
62	0x3fc135c4b4159f7b	0.13445338051974062
63	0xbfb804804a9a5819	-0.09381868192062405
64	0xbfcf61d256499772	-0.24517277920966368
65	0xbfd11d061b5bdfac	-0.26739647552266876
66	0xbfb31c6a8d29332c	-0.07465234705268803
67	0xbf9596444d07cc4b	-0.021081034852567886
68	0xbfc20b54b2358ae2	-0.14097078992479967
69	0x3feb09b24bbb0e2d	0.8449336508860533
70	0xbfc01e000fa39d2b	-0.12591553462628133
71	0xbfdce408b730451d	-0.4514180935812691
72	0xbfc1d06d6bbf3309	-0.13917320023610838
73	0x3fe081a9395d30b6	0.5158277626410583
74	0xbfd5a467c1da3274	-0.3381595032777007
75	0xbfe8750daf448743	-0.7642887519070672
76	0xbfea1e504e9c2e3f	-0.8162004027703417
77	0xbfdf9acbeec09548	-0.4938230353894437
78	0xbfe585433c865bc6	-0.6725174123883952
79	0x3fc22ec8ddde22f9	0.1420527537668688
80	0x3fcf1fd09b089c7f	0.24315841264726498
81	0x3fcfd90c1ca3890b	0.24881125830058468
82	0x3fc42099cdfe3fe2	0.1572448974443424
83	0xbfbcb987afbfa6d8	-0.11220596352327605
84	0x3fd08bf3f9547920	0.25854205464010427
85	0x3f7ceae11c94f8dd	0.0070599358962779276
86	0x3fc86e3f9b699b89	0.19086451614859026
87	0x3fde1bfe862f0678	0.4704586325061437
88	0xbfcb1fb66cdf2919	-0.21190529170991892
89	0x3fcf2ead524f1581	0.2436119701289208
90	0xbfc50bdf241d9f0c	-0.16442479384863196
91	0x3fb6882584a9471d	0.0880149315719589
92	0xbfd07faa1bd523ec	-0.25779202192330675
93	0x3f8edfcb7fa5edcd	0.015075292428028764
94	0xbff360e1e2eb3afe	-1.2111529220598523
95	0x3ff14fe3026ed7f3	1.0820036025083908
96	0xbfb7f2d00a221529	-0.09354877707854271
97	0x3f9819a6a0286cee	0.023535350346816246
98	0x3fae4de4d383dbc8	0.05918803293200586
99	0x3fdbbc4f2eae01fa	0.43336848791662386
100	0x3f6de8738a7a53d7	0.003650880494954194
101	0x3fe42b2afcb7cda5	0.6302695213220671
102	0x3ff27a9c6e5bcca6	1.1549343405611494
103	0xbfd7ff4dd9922326	-0.3749575257029839
104	0x3fda71a7a1070f7c	0.41318693852758037
105	0x3fdb548579c64a69	0.42703377620742927
106	0x3fe2510a9ba7393b	0.5723927536107917
107	0x3fd2c5cc74235752	0.29332267133337553
108	0xbfd001d5a0ab3a68	-0.25011196794813495
109	0xbfb7fea9087a2b7c	-0.09372955758060003
110	0xbfefadf275a91ce4	-0.9899837778147256
111	0x3fd4c73cb01b2c30	0.3246604652201226
112	0xbfccc3e1c1ea8d5f	-0.2247278401238004
113	0xbfdd942ac27e4f1f	-0.46216839784141145
114	0xbfca360be1dbb66a	-0.2047743656943795
115	0xbfbc1c8f58172b4d	-0.10981079006812174
116	0xbfeb883268b3586a	-0.860375599377915
117	0xbfcf7afd5ec63458	-0.24594084861419918
118	0x3fd68385e94c1d93	0.35177753241483706
119	0xbfe69ff73d524e40	-0.7070270726857828
120	0x3fd810f65103f7f2	0.376035288922025
121	0xbfe2a9c32b1023b2	-0.5832229462695209
122	0xbfebdd2df6a18b43	-0.8707494561207131
123	0xbfa588bb34210734	-0.04205880175915269
124	0x3fe1122e2c89501f	0.5334692830897473
125	0x3fb3379f288091ba	0.07506746996711558
126	0x3fd96f0e4c72a8ae	0.39740331140149976
127	0xbfdefa58b9c28599	-0.48402994289980367
128	0x3fb4362aa4e59134	0.07895151639747128
129	0xbfc1799322b7d453	-0.13652266688555645
130	0x3fbe9b4aa850a8e1	0.11955706223730857
131	0x3fbe045ea2e17203	0.11725417591646452
132	0x3fd78759c1ccf6fc	0.3676361458382045
133	0x3fbc5c392af96e5f	0.11078221606424553
134	0xbfeb17bafa26cb62	-0.84664677484248
135	0x3fd87b6f964ae9ef	0.3825339286519513
136	0xbfe6acb4d4be9088	-0.708582320705788
137	0xbfe5ec741518bddb	-0.6851139461559187
138	0xbff19769274ed0eb	-1.0994655166114693
139	0x3fc9924f0c618f94	0.19977748970552212
140	0x3fd4a1e064ff45f5	0.32238015997890496
141	0xbfc5e3609cb3d39a	-0.17100150729643532
142	0x3feac08d1d66741b	0.8360047888014636
143	0xbfe5ff55b997577e	-0.6874188065364562
144	0x3fd3e8bcae74e996	0.3110801414183241
145	0xbfc1b1eae4e84865	-0.13824211289517332
146	0x3fc3dafa354ca1e3	0.1551201591730794
147	0x3fdc0631d4313f82	0.43787809106742526
148	0x3fd90ecd09b2b0ae	0.39152837702819
149	0xbfc2431124f1a8af	-0.14267172149567872
150	0x3fe08ca41217bfe9	0.5171680787443594
151	0x3fd2eec5404de80e	0.29582339553564985
152	0x3fe04947ad8efa35	0.5089453115286405
153	0x3fe51a2db36d3816	0.6594456200052743
154	0x3fef1d517a3e63ef	0.9723288905689723
155	0x3f7d3b738c1a44c7	0.007136775356813624
156	0xbfe7bc2b93dc8733	-0.7417199981611929
157	0x3fdd11f7f30c5634	0.4542217134015545
158	0xbfe7c5d11ecfdae7	-0.7428975679202637
159	0x3fc4e78d10e09f9f	0.16331637691587006
160	0xbfcbd650fc2eda46	-0.2174779158937829
161	0x3fa2e27e7eb04941	0.03688426300517956
162	0x3fd4e20dc0f13dbb	0.3262972244455928
163	0x3fb433ddf8ce58b8	0.07891642879835359
164	0xbfc5bdab4a9d6f6b	-0.16985074179944645
165	0x3fd189c3d0195262	0.2740335018363905
166	0x3ff3118bcea606bc	1.1917837211807827
167	0xbfee620c39957d10	-0.9494687199293441
168	0x3fc4e8cca5ed11c2	0.16335447408540743
169	0x3fc063417bf0ac40	0.1280290465523155
170	0x3fd71f08d0059e19	0.36126919092791493
171	0xbfe3520ed0f9d63c	-0.6037668305932082
172	0x3fdb9453fb5692f7	0.43092822594398633
173	0xbfd62a589104ffd7	-0.3463345924574219
174	0x3fd519ac19ffca42	0.3296919111154787
175	0xbfc2faf473c24df7	-0.14828353550238635
176	0x3fb0f2f0e1cb6f06	0.06620698463978777
177	0x3fc266f47d543719	0.1437669383962479
178	0xbfcb762e6fe6dfa8	-0.21454410995442896
179	0x3fbee1018965a5cd	0.12062081913395346
180	0xbfcfac9fa0ec5241	-0.2474555526502105
181	0xbfcd353723861df1	-0.22818650469365268
182	0x3fd70e21b34b90d5	0.3602375269822578
183	0xbfd959c90ebb9152	-0.3961050647615326
184	0x3fda902993cc7731	0.4150489753100031
185	0xbfd80da0fc5eec3f	-0.3758318390425223
186	0xbfeaf2827ac42376	-0.8421032331253702
187	0x3fd1c778a00bc040	0.27779975537760393
188	0x3fde3a5544c4acf9	0.47231036868716064
189	0xbf8474e87aad2b88	-0.009988609546459207
190	0x3fb9032e95cc0904	0.09770480305818202
191	0xbfc7259ba707bde4	-0.18083520561002253
192	0xbfbd8002e409ae6a	-0.1152345473034814
193	0xbfcb4d28ad28788b	-0.21329220252022582
194	0xbfe68e4454c8ea54	-0.7048665672258019
195	0xbfd084cba7547b8f	-0.25810519543477367
196	0x3fb081fc6eb01b8d	0.06448342993108565
197	0x3fba443ece78a5b9	0.1026038412170668
198	0x3f9b3101afdeb8c8	0.026554132804158553
199	0x3fe2a9f22c1a7d7c	0.5832453595539131
200	0xbfe5822b473901fc	-0.6721397772853943
201	0xbf6ebb57a0c3be03	-0.0037514411434285146
202	0x3fd1b243af7a6a09	0.2765053952840906
203	0xbf96c1dd2c079d19	-0.022223907291757692
204	0xbfa47ae8864e6573	-0.040000215906910074
205	0x3fd300e509c537fd	0.2969296069539949
206	0xbfda2f1b2ec3f7ce	-0.40912513319915156
207	0x3fcdf7f3bbee8bfc	0.2341293971668107
208	0xbfc92dedd44f8c53	-0.19671414248213867
209	0x3fd51b5777c8741c	0.329793803191764
210	0xbfcaa9959f4055be	-0.2083003070444373
211	0xbfcf961053332ba2	-0.24676708281034815
212	0xbfcc75f7def06751	-0.2223501051492414
213	0x3fc316403ee67c06	0.14911654540352987
214	0x3fda3d5d0dd01f22	0.40999533032344193
215	0xbfe47dcadbf91415	-0.6403555199000289
216	0xbfedc3e8d583c47e	-0.930164734860355
217	0x3fd79ff1e9540e30	0.3691372660252652
218	0xbfc908300a62e05e	-0.1955623675073665
219	0xbfe800b1dfbe07ef	-0.7500848169295277
220	0xbfff86c513326995	-1.970402789104445
221	0xbfd9c78c07bb362e	-0.4028043818951542
222	0xbfd2d801ef3affad	-0.2944340549693106
223	0x3fd6774cd474394f	0.3510315012689675
224	0x3fd49933708888a4	0.32185064305861943
225	0x3fa03cacf36406ec	0.03171291800573592
226	0xbfd8b4b91cdef089	-0.3860304624502154
227	0x3fdea5dedf055868	0.4788739374101909
228	0x3fc0809572f955e1	0.1289240657230684
229	0xbfd174baff273640	-0.27274966161062153
230	0xbfe9b294fdbac209	-0.8030495601324797
231	0x3fe9e67853c6534a	0.8093835483765386
232	0x3f7534a94f37e3e4	0.005177174916291858
233	0x3fd1e5583694a258	0.2796230824483579
234	0xbfb4e3c73c0284aa	-0.08160062041362673
235	0x3fb57eb6778ff66d	0.08396473330500394
236	0xbfe18bcc9ecef805	-0.5483153440216034
237	0x3f7cac6d6157de30	0.0070003769555948975
238	0xbfdfd2b4f9d6e729	-0.4972355308378718
239	0x3fde229ca9d06b22	0.470862546762577
240	0x3fae3295e02ce916	0.05897968637005328
241	0x3fc1de198d8fe641	0.13959044849598182
242	0x3fd277112f99b146	0.2885172810408857
243	0xbfd2335933f57b6c	-0.2843840606128001
244	0xbf6d77f401d18400	-0.003597237182973334
245	0x3fccc4afc144c0d5	0.22475239693586127
246	0x3ff370d6d4db63ab	1.2150486292577891
247	0xbfe8d46a00720689	-0.7759294518184144
248	0x3fcfe65aec19185b	0.24921738174652117
249	0x3fba04f479aa15a1	0.10163810701677402
250	0x3fb8d5570371e1be	0.09700530847647479
251	0xbfe78930682d4258	-0.735496715040493
252	0x3fa0bcead7e84b75	0.03269132505024334
253	0xbfe36a27efe5aec0	-0.6067084966175216
254	0xbfcc55652d836521	-0.22135605547263373
255	0xbfc2406c90ad90ba	-0.14259106697421037

transformer.encoder.layers.0.self_attn.in_proj_bias f8 [48]
0	0x3fc2bf213c36974e	0.14645781936740793
1	0xbfc03c32bd942fab	-0.12683710343150997
2	0xbfe04de40b4b1d0d	-0.5095081539701894
3	0xbfd500b058971edc	-0.3281670441760818
4	0xbfe0f8fc8b7f1ca9	-0.5303938602964041
5	0x3ff0e0cbe0b49d4e	1.0548819329795438
6	0x3fdf3490c2de27ee	0.48758334188516883
7	0xbfc9f52b1eee6d3e	-0.20279444704361
8	0x3f7bd36b737e8538	0.006793422442485757
9	0xbf957beb73564a5a	-0.020980528750053608
10	0xbfe663fd0b842e5b	-0.6997056221893659
11	0x3fb1602edfc6edbc	0.06787388766581776
12	0x3fe5d7c76d872f1a	0.6825902117938967
13	0xbfdef63f74ccc710	-0.4837797775863786
14	0x3fe2ddf3e5107b3f	0.5895938371576007
15	0xbfda371b7845d6d6	-0.40961348290816824
16	0x3d0d2da4cbaa017c	1.2957766340241017e-14
17	0xbd1833af9dfe935c	-2.1495603923760752e-14
18	0xbd1571e9d5ed3d39	-1.904696338328677e-14
19	0x3cd1ad0a1dca0b4b	9.81211534993164e-16
20	0xbcba9a9807cbb7c2	-3.6920303343182194e-16
21	0xbcfeed1e4288d2ae	-6.86700540418417e-15
22	0xbd1226bbc9d99ff2	-1.6121595547209827e-14
23	0x3cf9841d1fc0025e	5.665705548570363e-15
24	0x3d07c6d11d8cdd1d	1.0558944096071233e-14
25	0xbcff38610cd97c81	-6.932283828849314e-15
26	0xbd1df7de7d3a6c6f	-2.6617142858991433e-14
27	0x3d20270cd1dc2fba	2.8692673773110856e-14
28	0xbcf468d5f3dc04dc	-4.531822618775417e-15
29	0x3d05df3818c90934	9.713096868815853e-15
30	0xbcfb71c2d5630974	-6.093876331087221e-15
31	0xbd0d0d9b50d751fa	-1.2902190951540067e-14
32	0xbfc1e0e38bb09f37	-0.1396755630569204
33	0x3fb13338f2db8c88	0.0671878426469893
34	0x3fb0423ff0def2d2	0.06351089125287082
35	0xbfb36894716d1eed	-0.07581451195903428
36	0x3f9676a2cc407f90	0.021936935154485193
37	0x3faaec3e0efa744b	0.05258363659707096
38	0x3fa5358c0280c8e6	0.0414241555266857
39	0x3fbf8f1feaf850a1	0.12327765928813729
40	0xbfa28bf958e48a94	-0.03622416696659517
41	0x3f98a0761b60235b	0.024049611492986993
42	0xbfb679cab69aa39b	-0.0877958961306277
43	0xbfb6da00b86e31e8	-0.08926395895668515
44	0x3fb740055a360ee5	0.09082063152714744
45	0x3f676c3c6a69bafa	0.0028592281335514365
46	0x3fbba849235873a3	0.10803658593108749
47	0xbfa89bc70bd87969	-0.04806348819350854

transformer.encoder.layers.0.self_attn.out_proj.weight f8 [16, 16]
0	0x3f98c5f5457c33cb	0.024192650190389558
1	0x3f80178a30ec6778	0.007857398622536968
2	0xbfd9094d24ac98b6	-0.391192708792356
3	0x3fdd0b7fdfe9a834	0.4538268744132694
4	0xbfd556ff6b6f16fb	-0.3334349202308286
5	0x3fd4ebda108bb050	0.32689525237833994
6	0xbfcc9d8ed9bcd43f	-0.22355828887671866
7	0xbfaa034d83caf53f	-0.05080644830511937
8	0xbfc7979b06acebb2	-0.184314134845264
9	0x3fb478dd4bc7255d	0.07996924495741582
10	0xbfda7ab09ae75169	-0.4137383949976284
11	0xbf92828eb952f602	-0.018076162396701186
12	0xbfbd3ba3700bba7d	-0.11419126019948496
13	0x3f851ed7bc960ba1	0.01031273407239103
14	0xbfe3067d28ac18dc	-0.5945421022777526
15	0xbfaf1f24325b6b56	-0.060784464976413474
16	0xbfc1f5041a2ff1c4	-0.14028979567218702
17	0xbfdd5acc9fc590cb	-0.45866695025166554
18	0xbfc297d347414cf0	-0.1452583406377026
19	0x3fc52659e473a2e9	0.16523288397663485
20	0xbfd2e48a0035bd28	-0.29519891758441696
21	0xbfdb8f5804a46b21	-0.43062401250215215
22	0xbfdc377d457a8811	-0.4408868006231624
23	0xbfea24cda56d9189	-0.816992591001097
24	0x3fde74311ddc1fae	0.4758417884445362
25	0xbfa3891e5298284f	-0.03815550573570247
26	0x3fd937c48b193c1b	0.3940287931808954
27	0xbfd6c6b3261d42d5	-0.35587767335986814
28	0xbfd7cb17dc529bf4	-0.37177082553756624
29	0x3fdc484be06d6b32	0.44191262165775236
30	0x3fde16394292836f	0.4701064252968114
31	0xbfde3b2dec0ec3fc	-0.472362022900654
32	0x3fb0e03c53ae1a79	0.06592156451197607
33	0xbfa516775ddb3446	-0.04118702908235909
34	0xbfbd18c37c6449a3	-0.1136591128054421
35	0xbfcd12108ae9430c	-0.2271137884404414
36	0x3fc271120ab44fa1	0.14407563707993368
37	0xbfcc9a1653ea4093	-0.2234523687116093
38	0x3fa8ecf3d2e09fb5	0.0486828036230799
39	0xbfa579c90bde7e69	-0.04194477338682818
40	0x3fcb8c8831801f13	0.21522619645133342
41	0xbfb51b0b39ead9a2	-0.08244390644072166
42	0x3faf8b7aabdb7f7e	0.06161101673001122
43	0x3fbeca58aef23523	0.12027506133218373
44	0x3fb45787efed9aa4	0.07946061713810565
45	0xbf9bef267cae06eb	-0.02727947364792886
46	0x3fb4916a8f5605f4	0.08034387587942843
47	0x3fc1254522642d23	0.13394989184630743
48	0x3fb22a3e76eeced8	0.07095709231981162
49	0xbfba3512f6eb3fdf	-0.10237234619421497
50	0xbf985ab4b6cd0fa7	-0.023783515603340934
51	0x3fa544a73026b718	0.04153940642150483
52	0xbfca718fb496ff69	-0.20659061735022569
53	0xbfb2bab3bbcb799c	-0.07316134772142963
54	0xbf70562895d01740	-0.003988417182886839
55	0xbf7988d10e468a01	-0.006233994125440124
56	0x3fc0f49124660caa	0.1324635913589181
57	0xbfb6dc9e60f98bd5	-0.08930387370632727
58	0xbf8ed0076051d1e1	-0.015045220972958741
59	0xbfb62031c9823bda	-0.08642874879500032
60	0x3f80dc479889b2d7	0.008232650129877879
61	0xbf9d73a7fd6dcb96	-0.02876150593096901
62	0xbfaaf9017979d4e7	-0.0526810131822602
63	0xbf9aa244295ddc57	-0.026009621643847982
64	0x3fb4a2f20c684bf2	0.08061135104098563
65	0x3fb25c525d7bb27e	0.07172121794037342
66	0x3fc18d93b934a4fd	0.13713308852428688
67	0x3fa976f88f2f0585	0.0497358011994136
68	0xbfc7ada35de4d667	-0.1849865158525745
69	0xbf8efe8836b8b7b9	-0.015133918924302369
70	0x3fa63e231bb719ad	0.04344281876869913
71	0xbfd0a57cb86615f9	-0.2601005364197984
72	0xbfa69373bfb0dfd4	-0.044093720578927936
73	0x3fa175e9471fa782	0.034102716381155154
74	0xbfc16d314c7f97cc	-0.13614479289316106
75	0xbfbbe430b668aa9e	-0.10895065739956997
76	0x3fc31769373f4a30	0.1491519469987721
77	0x3fc1b1e452cbe7ac	0.13824132960126911
78	0xbf81c73f35ed872e	-0.00868081458401412
79	0x3f904664cd0679d0	0.015893530858756055
80	0x3fad0dc1555699b1	0.05674556891181071
81	0x3fa0a83317ae2e2a	0.03253326095645222
82	0xbfbaf91efa84675a	-0.10536378494398715
83	0x3f700a2a0ca45ee9	0.003915943389322976
84	0x3f583e490c7c6814	0.001479693733875913
85	0xbf9b9fab640f45d7	-0.02697627828803725
86	0xbfa91cf24a1fd387	-0.04904896883809955
87	0xbfbef258a50025c2	-0.12088541057905558
88	0x3f92acf9cdf6b047	0.018237975307485745
89	0xbfb1e83327cb46f2	-0.06994933816465812
90	0x3fa60ee5f9b79519	0.04308241532616303
91	0x3f9e2776a1b54d4d	0.029447415943036948
92	0xbf605c9011d2066a	-0.0019972623691167273
93	0x3fb2c13def5b55e0	0.07326113790198674
94	0xbfc1232b5d76e4a4	-0.13388578475659074
95	0x3fbebc75a776b8f1	0.12006316507788363
96	0xbfa3270ec1d79ffb	-0.03740736118544415
97	0xbfab41ef28ff2711	-0.05323741317222475
98	0xbf9a5c09e0360811	-0.025741724309689632
99	0x3fd34952340304fd	0.30135016516949503
100	0xbfaf022dbdc8b268	-0.060563496987332155
101	0x3fbcbc4c4401bc98	0.11224819813081621
102	0x3fd03651c2dfd27f	0.2533153918332473
103	0xbfb2ff51abad37a4	-0.07420835915874463
104	0x3fb23f6f222895f1	0.07128042777966194
105	0xbfc89be096a9fd62	-0.19225699764863707
106	0xbfc059b781154b8f	-0.1277379398621545
107	0xbfd07ba6a52eeea5	-0.25754705554184404
108	0xbfc2c8f373a48b0d	-0.14675753733271116
109	0x3f7411198ab5d976	0.004899120114137614
110	0xbf988b8a39e0aaca	-0.023969802649086693
111	0xbfcf13a606a32616	-0.24278712581717404
112	0x3fa0f8474346e868	0.03314421364071124
113	0x3fa5b8dae970b457	0.042425957676052554
114	0xbfa276242815b7cc	-0.03605759610478251
115	0xbf7950db303c68b1	-0.006180626110813645
116	0x3f89a20f61993474	0.012516136327713513
117	0xbf9407b041ee782a	-0.019560579322949113
118	0x3f91249856daa9cb	0.01674116163364107
119	0x3f95d8e74f65ff79	0.021335233899207637
120	0xbf902eff43f8880e	-0.015804279826745975
121	0x3fa3bd0d95ae5c49	0.03855173542177021
122	0x3f0b0d8e8068e8d5	5.159941797612677e-05
123	0xbf8ae54d52f8f5f5	-0.013132671446437686
124	0xbf81cdcefea81c34	-0.008693329950814378
125	0xbf790afb7ed3ad7d	-0.006113989261602779
126	0x3f7cedd6b65d9c64	0.007062758178881887
127	0xbf9ddc94e4d19660	-0.029161764589295536
128	0xbf9159c3c30a8f66	-0.016943987635968404
129	0xbfa6025666b9c249	-0.04298658374762405
130	0x3f9142bac9e4dc24	0.01685611588728987
131	0xbf96922c6fb6b474	-0.022041982954466424
132	0xbf784f5db97f8d4c	-0.005935064422348656
133	0xbf62a073b63970a7	-0.0022737751003614917
134	0x3fbd5dde4b56612b	0.11471356715481267
135	0xbfbbdd3fd87c44e8	-0.10884474787987453
136	0xbf879afef6b51dc6	-0.011526100067057576
137	0xbf822dc6f0934cf7	-0.008876375405100207
138	0xbf908edd3cbcd609	-0.016169983703738598
139	0xbf8416315e01c6b5	-0.009807954484333118
140	0xbf9151e1a9433e6e	-0.01691391559216842
141	0x3fba36bd8539a6c6	0.10239777090614685
142	0xbf95bd1d6910cf12	-0.021229228532504037
143	0x3fabbfc3d3d33027	0.05419742546800448
144	0xbfc14b503f3d7eae	-0.13511088455105863
145	0x3fbeaddf6c9fbb36	0.11984058763458169
146	0x3fb678224b134d58	0.08777059872527582
147	0xbf85ad5d4a490d86	-0.010584572629460675
148	0x3fbce1051cd3f94e	0.11280853227433349
149	0x3fac885751c930a1	0.0557276999794294
150	0xbfa33615e433fd0e	-0.03752201471979265
151	0xbf5da79f4d06c3d1	-0.001809983794469828
152	0xbfbb17ea65888ccb	-0.10583367327540143
153	0x3fbad0c4801d3176	0.10474804046424943
154	0x3fc85e26a8c90482	0.1903732608934981
155	0xbfb6ab4c6b552bfe	-0.08855130787303264
156	0x3fa2ba08ee0d1307	0.03657558351418371
157	0xbfc7b9e88c71a9c0	-0.18536097390763295
158	0x3f6d76e01d4717fc	0.0035967232927047715
159	0x3f5181e0eb396bad	0.001068563124951831
160	0xbfafbceca5bc4fd9	-0.06198825381412094
161	0x3fa6cb2c0f993c47	0.044518830207942055
162	0x3fa8b6a915a82fba	0.04826858891837511
163	0xbf71c0e78e680949	-0.004334358708094684
164	0xbf284eb68412d290	-0.00018545129754489855
165	0x3fa9632c06e5951d	0.04958474716367276
166	0x3f97e9b531c1c42f	0.02335246196929946
167	0x3fb1194a955be7a9	0.06679216524562882
168	0xbf6b5a0beb21bbf7	-0.003338835981643747
169	0x3fb81af8c6d803b9	0.09416155676446082
170	0x3fae2eb2c9d60793	0.058950030458631585
171	0x3f775b95e975b016	0.005702577203333467
172	0xbf95a462bc7daf94	-0.021134894136977403
173	0x3fb95c61fb146226	0.09906589870332336
174	0x3f92ee7f711bc5bf	0.018487921980470775
175	0xbfa2d72ae846507e	-0.036797848562088994
176	0x3fa70f07a07e348e	0.04503654321806848
177	0xbf7479902fd97a5c	-0.004998744230390342
178	0x3fb1aa5bf8edc810	0.0690057261215602
179	0xbfc0202862ce3283	-0.1259813768814589
180	0xbfa752e02d57e0d1	-0.0455541663504292
181	0xbfa24e52f1111ae5	-0.03575381462774433
182	0x3fb8515f746a6ff4	0.094991651460475
183	0xbfab78dc1eaef45f	-0.05365646242669508
184	0xbfb550aaca0649e8	-0.08326213295212137
185	0x3f8c97173ef0baf9	0.013960057838713779
186	0x3fa1f2b3778632bd	0.03505478700671947
187	0xbfc5ae64bd274e95	-0.16938456760418732
188	0xbfb9b47416df6056	-0.10040975149547768
189	0x3fc1845718f11f9e	0.1368512031351629
190	0x3fb94c4a7263a3db	0.09882035534577886
191	0xbfc8b9258e54e325	-0.19315022897515025
192	0xbfa632dec6b1328c	-0.04335685897294636
193	0xbf9a3c32a4e50f24	-0.0256202614921356
194	0x3f9549dc6f1bc123	0.020789570123214262
195	0xbf963a614d98fd78	-0.021707077370817868
196	0xbf9ef2502ed23a87	-0.030221226556529614
197	0x3f9d3e283a0d01b8	0.02855742315591822
198	0x3f9f5a4d885d1446	0.03061791558072382
199	0xbfc69fe16e7b9b3f	-0.17675416845960432
200	0x3fabce9daa19e4f5	0.05431072904043247
201	0xbfbcf1869aab5d9e	-0.11306039119823771
202	0x3f92edc4f55b18da	0.01848514316113712
203	0x3fb05d7c7a66f4ca	0.0639264868577413
204	0x3fc06ab46561740a	0.12825636816242564
205	0xbfabaa3657b030e0	-0.05403299160397679
206	0xbfb3e15534e8a67b	-0.0776570562526561
207	0x3f90ea8f90b99fe0	0.01651977845031627
208	0x3fd54dbba7355a40	0.33286944703050736
209	0x3fd16efa1d36ef51	0.2723984990404818
210	0xbfdc16fe591877fd	-0.43890341473331757
211	0xbfb855733c753e11	-0.09505386568093167
212	0x3f9a75ca3c5f4aa7	0.02583995812876574
213	0xbfb4623b7d93d5c1	-0.07962390724045233
214	0x3fb55ab0292d3fe2	0.08341504102031608
215	0x3fd55d554e854739	0.33382160823849777
216	0xbfcb328f1ff09522	-0.21248044070777278
217	0xbfdef2d6ff535243	-0.4835717671788055
218	0x3fb64a12698ef3cb	0.08706774785146291
219	0xbfd0321fdc3815d6	-0.2530593538834557
220	0xbfd1e12e1862fe0e	-0.2793689001227627
221	0x3fcd527fceee0ee0	0.2290801773452733
222	0xbf9882bb0b95e6b2	-0.023936197836042346
223	0x3fd73093c14d7f76	0.3623399150583205
224	0x3fc67da41b8171e9	0.1757092603974251
225	0xbf8d7d3b3419292d	-0.014399015929616421
226	0xbfdca3a8fa94c360	-0.44748901816188
227	0x3fbee6811be3b332	0.12070471697707033
228	0xbfb7a4e7dcde9639	-0.09236001150437624
229	0xbfca9fd32eda4fe0	-0.20800246989949667
230	0xbfcef9eaf2887b01	-0.24200188486516797
231	0xbf7466958283fede	-0.004980644247779968
232	0x3fa2bc15dc69a1e5	0.036591227680052
233	0xbfc5dd499b8693c7	-0.17081565946605634
234	0x3f96e800ff7deb3a	0.022369399637209166
235	0x3fc65a658f9233af	0.1746336890249984
236	0x3fcefc1aa13e22a5	0.24206860421351908
237	0x3fcd4ec7be90882e	0.22896668248091728
238	0x3fad7e7e26075bdc	0.057605688230686986
239	0x3fda8bbfbca5e24d	0.41477960035948486
240	0xbfc788eaf3ce92a2	-0.1838658991302014
241	0x3fc353ba1895d50f	0.15099264336064563
242	0x3fced65b2a67b4b7	0.24091662951051315
243	0xbfe6e59c5bcc63e3	-0.7155286591470226
244	0xbfaa17aca245e5d7	-0.050961870964737414
245	0x3fc84919d35ec6c9	0.18973086186229285
246	0x3fa49c69d1c6c65c	0.0402558392119203
247	0x3fd321c5f1b42466	0.29893635372042693
248	0x3fc829fe6d531cc1	0.18878155077093164
249	0x3fd3e25ab62cf298	0.31069057264884625
250	0xbfd847543dd4d735	-0.37935358083938137
251	0x3fdbdb088234f74b	0.43524372783200665
252	0x3fdf9f62d7dc854f	0.49410315590110526
253	0x3fdcf7339e55ea20	0.4525879904028063
254	0x3fe0420a310f0d94	0.5080615003757196
255	0xbfcfe6f72845103f	-0.24923600641534624

transformer.encoder.layers.0.self_attn.out_proj.bias f8 [16]
0	0x3f9049938671e9dd	0.01590567119681362
1	0x3fa57b94849ece34	0.04195846671009598
2	0xbf9c82b22e736874	-0.027842315755016903
3	0x3f76aacad1e34807	0.005533973946699084
4	0x3f9f280c1715e37f	0.03042620554831243
5	0x3f9937bed2cbedd5	0.02462671434021309
6	0x3f90eeded7c4bbf8	0.01653621856638307
7	0x3f306bd39272fabb	0.00025056758245149317
8	0x3f91fd261920f486	0.017567248615013152
9	0xbf951890226e3fcf	-0.020601513005715163
10	0x3f83647c9197f721	0.009469006722607145
11	0x3f81d0d4438e774f	0.008699091254864703
12	0x3f90b502ab936fae	0.01631549999443365
13	0x3f8a3178eafbc178	0.012789673491597084
14	0x3f619cecdcbbd49e	0.002150023099484046
15	0x3fb27f6b8ce2b944	0.07225677671042258

transformer.encoder.layers.0.linear1.weight f8 [128, 16]
0	0x3fce94459f267e13	0.2388999011136411
1	0x3fd05599f6cae309	0.255224696167304
2	0xbfc8074b90a0d5e6	-0.18772263109137483
3	0x3fb585bbd93ad222	0.0840718655916324
4	0xbfd3d7458d5c2ef4	-0.3100141411275523
5	0x3fdb09189ba6b99d	0.4224301834136897
6	0xbfd3c78dfbf88124	-0.3090548477794235
7	0xbf9dbd9d6890eea7	-0.02904363585206107
8	0x3fba318d93df1026	0.10231861934795514
9	0xbfc0c318e587211d	-0.13095389563955787
10	0xbfc66534b1d25503	-0.1749635570783213
11	0xbfb701849f2c938e	-0.08986691366278718
12	0xbfd0d5afa2921d63	-0.2630423629384124
13	0xbfd9e9bebedd3b7d	-0.40489166869240717
14	0xbfb05e6a8212257f	-0.06394067454870898
15	0xbfbe1e299e95582c	-0.11764774438538045
16	0x3fc6fdc123ffa1b4	0.17961897142164462
17	0xbfc4ac75d4f015e4	-0.16151307008128335
18	0xbfd246f364f3cf98	-0.2855804906714581
19	0x3f907b52910f1945	0.016095438102433652
20	0x3f9e2c87cef35800	0.02946674538255678
21	0x3fd1b819cff6d31a	0.2768616228961932
22	0xbfcaf746f2b0465b	-0.21067129945781712
23	0x3fc352b881c3aa7c	0.1509619363417477
24	0x3fa82fc42b0416b4	0.047239427805874895
25	0x3fb8ae0ddee06f77	0.09640585604978279
26	0x3fb0a8b6bebae996	0.0650743690156673
27	0xbff3eded55ad0001	-1.2455876681051452
28	0xbfd3b9cae4bb22aa	-0.30821487748157017
29	0xbfe88a2ebc2a8338	-0.7668679881208851
30	0x3fd71ad089880dbd	0.3610116332131062
31	0x3f9065aaae930cf7	0.016012827782799523
32	0xbfa39992df73c8e7	-0.03828104951561944
33	0xbfc4c10d2af81dfe	-0.1621414623079857
34	0xbfbcb99975ee4a74	-0.11220702294512269
35	0x3f9482739a2244a1	0.020028883249839983
36	0xbf6b87e60da706e9	-0.0033606999615763866
37	0x3fc4110b7741945a	0.15677016566329166
38	0xbfd71d945a481b5c	-0.361180389562312
39	0x3fd3a081c7ef2bc2	0.3066715671999952
40	0x3fd7b69878709043	0.3705197502297361
41	0x3fda7ac99030527d	0.41374434548314537
42	0xbfe3c4bda22d7d47	-0.6177662055523933
43	0x3f9c7efd9aa5086e	0.027828180850754718
44	0x3fc9c12eceff6a9a	0.20120797259626927
45	0xbfb7edcd2098381b	-0.09347230954901457
46	0x3fcb924ad5fbd8d6	0.215401987537638
47	0x3f9dda07a370ddea	0.029152030325546287
48	0x3faaebaf7a52f9eb	0.052579387361664086
49	0x3fdd48de89dc10dc	0.4575725885663482
50	0xbf9021e9e5343841	-0.015754370321751535
51	0x3fa2a0dfb6b0f276	0.03638362031094726
52	0x3fbc39d14dd6bd3d	0.1102572264705843
53	0xbfc736fba9b3dd97	-0.1813654497743584
54	0x3faf1db171a77d76	0.06077341568356591
55	0xbfe052f961c0d9bb	-0.5101286801571442
56	0xbfdc09edaec2f54d	-0.4381059843688789
57	0x3fd2fd05ce6133a5	0.29669327883021374
58	0x3fc455f56a58b7e5	0.1588732499380391
59	0xbfd00dd4e094e8ad	-0.25084421092800363
60	0x3fd5d9a97eec73ed	0.34141003985297297
61	0xbf9aa8b79b97c30b	-0.026034230109817574
62	0x3fd3b31f55ac0ebd	0.3078077637330628
63	0x3fc4be7fc5de5081	0.1620635715631842
64	0xbfc1cc5be126a992	-0.13904903882696523
65	0x3fd1842ef3dc0c60	0.2736928349915555
66	0x3fd312374ce9c977	0.2979868174653783
67	0x3fc8052d4472d05b	0.18765798418246757
68	0x3fba3991bd7d799d	0.10244093776916548
69	0x3fab66dab9992bbe	0.0535190917549566
70	0xbfd4ad32035281c8	-0.32307100605433137
71	0xbfe2f1ca750b89de	-0.5920154844318934
72	0xbfb4eb79a7419061	-0.0817180665340529
73	0x3fda4a16150c8b40	0.4107718663746489
74	0x3fc443e1a2901787	0.15832157552375412
75	0xbf9942cd64c8e099	-0.024668893124016298
76	0xbfa6aefb49ab2774	-0.044303753607507185
77	0xbfc76663d935e323	-0.18281219583493521
78	0x3fa23917aadd2a6f	0.03559183083287542
79	0xbfcc121ac5f50455	-0.2193025080287351
80	0x3fd0d443b3b40fe7	0.26295559453160283
81	0x3fc1511a887eda75	0.1352875868303333
82	0x3fc50f8f372e7878	0.16453733629618106
83	0x3fcd6df53688d0e4	0.22991814768614127
84	0xbfc640df80a20cc9	-0.17385476857098173
85	0x3fbcc93774a7c517	0.11244532201796563
86	0xbfc7cfd552429065	-0.18603006855585416
87	0x3fcb2ddc5a26827a	0.21233705903889072
88	0xbfd9890f2cb6620c	-0.3989904343266353
89	0x3fbd1aeb72476bf3	0.11369201221479823
90	0xbfce965a98547516	-0.2389634364889523
91	0xbfd8e8522e75a8e9	-0.38917974984236864
92	0xbfd17c9566215210	-0.2732289788594082
93	0xbfc2a8ec25b6f37e	-0.1457801040795878
94	0x3fd6f7c2bc3c7a9c	0.35887211210676084
95	0xbfbbb6de89d651c2	-0.10825911393323565
96	0xbfc27f6e61958d8e	-0.14451389088490568
97	0x3fb2760d6f266c8e	0.07211383784890499
98	0xbfc14584982ce4cf	-0.1349340193790227
99	0x3fcd85bb9eefb213	0.23064370403825815
100	0xbf962ca95e7ba488	-0.02165474547556248
101	0xbf9d33d106154bf4	-0.028517976757324662
102	0x3fc33eb39abf9120	0.150351000366876
103	0x3fc123a3413452e2	0.13390007671173182
104	0xbfce58fd1bdd6546	-0.23709071980082735
105	0x3fba457883074553	0.10262253951011262
106	0xbfc32f1e21c90588	-0.14987541818304018
107	0x3fa1de2dce291567	0.0348982156906839
108	0x3fb12788a041897b	0.06700948631763552
109	0xbfc149d4303619a9	-0.1350655780226593
110	0xbff06ec0f0ced471	-1.027039471298192
111	0xbfdfadb4a5a45bbb	-0.4949771516416452
112	0xbfa4b7fce8363ac1	-0.04046621641747584
113	0xbfa838ceec60a754	-0.0473084128901308
114	0xbf6ced37e1457aea	-0.0035310832410425557
115	0xbf875eaa7e63e834	-0.011411029798626605
116	0xbfb81894268bc91f	-0.0941250413996255
117	0xbfa8c71e844809b3	-0.0483941589809719
118	0xbfa66fbb3215b069	-0.0438211916578844
119	0xbfba4310b7e08517	-0.10258583535371134
120	0xbfe8d46762407cdd	-0.7759282034857297
121	0xbfaca46d106d5a4a	-0.055941971068638255
122	0xbfa773262d4ae062	-0.04580039313208385
123	0x3fd382ec01113ebd	0.30486583809122775
124	0x3fdffb2a3c28dcf3	0.49970489382708577
125	0x3fc389a08a6a8bc0	0.15263754614451663
126	0x3fb72160d4b8b776	0.0903530616130562
127	0xbf9c613c429e2a58	-0.027714673582105526
128	0xbfa76d1d6b6d2688	-0.045754355777330835
129	0xbfb78fc083bb07fe	-0.0920372315986526
130	0xbf96924369dd2cb7	-0.02204232534067493
131	0xbf9b0e4e5b109748	-0.026421760852961357
132	0xbfa996b3dd835082	-0.049977894582895935
133	0xbfad3641c96997d3	-0.05705457290314055
134	0xbfb9b759c0e2e69b	-0.10045395812167117
135	0x3fa757af784fe126	0.0455908617368002
136	0x3fe3b66c07b5c992	0.6160183096492793
137	0x3fe2eeb9adbaea15	0.5916412728468595
138	0xbfe17c84bd746e9b	-0.5464500141419707
139	0xbf884e5f65e35177	-0.011868233963846049
140	0xbfdac915d394c101	-0.418523270246638
141	0xbf843dc2cfc573eb	-0.009883424726178055
142	0x3f9edfce461bc023	0.030150626210286312
143	0xbf829e61cf4cf6ea	-0.009091152323545033
144	0xbfb946566fe534fc	-0.09872951728648965
145	0x3fa3196cd91e6c84	0.03730335379005914
146	0x3fc390eb13c531a9	0.15286005463930266
147	0xbfaf479352f17c0e	-0.06109295260898061
148	0xbf659b96b78d7bfc	-0.0026376670543153385
149	0x3fb5ffd92b6b52b4	0.08593518552818119
150	0xbfb115af20a16e6d	-0.06673712298054975
151	0x3fd1c5d2801fa641	0.27769911300729083
152	0xbfdadea0609a46c2	-0.4198380416283777
153	0x3fd17f2ae2a8c555	0.2733866895169588
154	0xbfbc35b817232b4d	-0.11019468846204213
155	0xbfcdf95e2efa5d0b	-0.23417260450217045
156	0xbfc0c44b7633db28	-0.13099044105157387
157	0xbfc5de9892ec75b5	-0.17085559057242752
158	0x3fa1b3eeeaa74c13	0.03457590689108527
159	0x3fa686557d22e77d	0.0439936366323783
160	0x3fc0547d16241534	0.12757838803387644
161	0xbf96612a66fe4620	-0.021855032478532377
162	0xbfc0e00991122405	-0.13183707793749036
163	0x3fc0c592227b1ad0	0.1310293835033094
164	0x3f4cf618a1fffb22	0.0008838291432765359
165	0x3fcc79854f606c2a	0.22245851875126849
166	0x3fc3167bc5e752f9	0.14912364161741445
167	0x3fd30d70d090afbd	0.29769535415357123
168	0xbfd48befd24ca0af	-0.3210410646156658
169	0x3fc554fedb1c7c08	0.16665635775368082
170	0x3fb15867796382b2	0.06775519097892405
171	0x3fca1e36f9b13a51	0.20404708091742177
172	0xbfd49355e105899c	-0.32149264311569836
173	0xbfc685a74b684c50	-0.17595378095629366
174	0xbfeea388b098446c	-0.9574626397244521
175	0xbfcb7ad732910de5	-0.21468629807541997
176	0xbfb1d1d6ac850190	-0.06960813247588349
177	0xbfd12dec912630b1	-0.26842798399662643
178	0xbfae9be8ddb2688f	-0.05978324610005458
179	0xbfb78d4bd36a2f84	-0.09199975883001171
180	0xbfad1c156210804e	-0.05685488531185055
181	0xbfc117fd89f703ef	-0.13354462849204604
182	0xbfa9e798a178d6e6	-0.05059506388753991
183	0x3fbb80c1fbe6bbb7	0.10743343734678389
184	0x3fe6257aa7943136	0.6920750878357811
185	0x3fa87e9d4f1cd1fa	0.04784099188546871
186	0xbfc26043bcb4adee	-0.14356276239537585
187	0xbfd7a76b5d1da8c3	-0.36959346860261294
188	0xbfd19711cbe3db89	-0.27484555159701834
189	0xbfc452e435ab3cce	-0.15877964611579504
190	0xbfd9c0d78f695e3e	-0.40239514355696204
191	0xbfcf780b6015fcce	-0.2458509654206637
192	0x3fa09bc872ec2f35	0.03243852999557221
193	0x3fcb16d1aa8db12f	0.21163388088042143
194	0x3fc32b997b1840df	0.1497680522011313
195	0x3fb98df92e5b3479	0.09982259160752162
196	0x3fab0537a1bafbc3	0.05277417992828461
197	0xbfcf3a22537803c7	-0.24396161151528714
198	0x3fc772bbb2f8fa75	0.1831888793839941
199	0x3fbae3e9e812e4bf	0.10504018703331307
200	0x3fe04359e0012b3c	0.5082215666855983
201	0x3fc1503a38daf3dd	0.13526084686409848
202	0x3fb0c1b4edc2b929	0.06545573048308441
203	0xbfd7d8a14604d49c	-0.37259704435138885
204	0x3fd527aa585ae8b5	0.3305459845393089
205	0xbfd329fa2495ddf8	-0.2994370801238513
206	0x3fc4da0bf2161409	0.1629042560636267
207	0x3fbbe916b8d4953a	0.10902540218792903
208	0xbfc0549059096677	-0.12758068416114884
209	0xbf8187a6fa93537d	-0.008559517404515432
210	0xbfc59919acb0438c	-0.16873475009972727
211	0x3fb57927d4a5ec0a	0.0838799375687104
212	0x3fb05f655a5eb502	0.06395562607095331
213	0x3fc3a7e5f21ce16b	0.15356134721674705
214	0xbfc34994b03211a6	-0.15068300822543995
215	0xbfb456fef301a7b8	-0.07945245201849971
216	0x3fa3341ffcd3b228	0.03750705682054828
217	0xbf8588877187b965	-0.010514314796605981
218	0xbfdded38c59dcb7b	-0.4676038675162812
219	0xbfc901db5e9b3729	-0.19536916846703292
220	0x3f936328e552d9ae	0.018932951924136958
221	0xbfc2a40c2dc254e5	-0.1456313346322197
222	0x3fd28950da0e2588	0.28963109297236445
223	0xbfe62d01f4d614e1	-0.692994096942723
224	0xbfc99c2f7cdc48cf	-0.20007890316680352
225	0xbfa128d2c3ea45cf	-0.03351458207647406
226	0x3fe2a95452ab24ec	0.5831700911159294
227	0xbfa4e283257dd068	-0.04079065163287582
228	0x3fa0037cbc1c288e	0.03127660557045529
229	0x3fd0600c6fdd4285	0.2558623402046936
230	0xbfd36c87c041373e	-0.3034991624343667
231	0x3fc2930d6a6b9827	0.1451126832609486
232	0xbfe38e6309129fd1	-0.611131208152978
233	0xbfb3b05f84e304e9	-0.07690999025637137
234	0xbfd557b23d45180e	-0.3334775541628695
235	0xbfd0bd718cb0c8f2	-0.2615627168589888
236	0x3f85ef6af5987c26	0.010710559482559456
237	0xbfd6a7e08adf0edb	-0.35399640618946443
238	0x3fe8793192753f53	0.7647941456325306
239	0xbfd3f237f740d50a	-0.3116588511068846
240	0xbfd41c0f3711e7e9	-0.3142126119415694
241	0x3f951c4d5a39cb76	0.020615776664679918
242	0xbfa31232195f87db	-0.03724819717150726
243	0xbfc58c81910b640f	-0.16835040647745855
244	0xbf878205314a9825	-0.011478462759736694
245	0xbfa27313a5ea784a	-0.036034215930371774
246	0xbfda1e8219e07d71	-0.40811207320253745
247	0x3fa517de0970b8b6	0.04119771828878653
248	0xbfa584eb032df310	-0.04202970899402747
249	0xbf7b8a0fd4c497a2	-0.006723462906199547
250	0xbfd5a983903da329	-0.3384713085747984
251	0x3fba7b52bc45a1dc	0.10344426247105026
252	0x3fb6a77d8c7ece26	0.08849320106565325
253	0x3fb29eddb5e0dfc1	0.07273660364523861
254	0x3fd5308c6d769fb6	0.331088168046786
255	0xbfbd782af67275b5	-0.11511486546301948

transformer.encoder.layers.0.linear1.bias f8 [128]
0	0x3fa90af7283fdff9	0.04891178480460207
1	0xbfd2b198f4982c18	-0.29208969007658103
2	0xbfc357cb2f87c8f1	-0.15111675091572566
3	0xbfc638e8ed1c0667	-0.17361175134287807
4	0xbfc6d1a336d4449c	-0.17827263047414454
5	0xbfcd99977d3249eb	-0.23124974835498277
6	0xbfc8f7f4ff24d1be	-0.19506704767412758
7	0xbfd43008790e22cb	-0.3154317075900905
8	0xbfb6049eb2a4632c	-0.08600799428348854
9	0x3fa376d7846e364e	0.03801606647094201
10	0xbfb3d0a2387b1632	-0.07740224722791636
11	0xbfc863b814f4eb8e	-0.19054318450238522
12	0xbfce35d9196d0518	-0.23601831189629574
13	0xbfc1e5b18df2bd28	-0.13982219153465647
14	0xbfda4d0989f9217c	-0.4109519812959872
15	0xbfb2fd68a0bd0cac	-0.07417920994071164
16	0xbfb313d7ddccaecb	-0.07452153363254437
17	0xbfc05d11bc06611b	-0.1278402488794733
18	0xbfd1e761a1a41232	-0.27974739823574446
19	0xbfc3c59fe97f68f6	-0.15446852589850096
20	0xbfd57fe4d991b2b8	-0.3359310269068305
21	0xbfd43d5d872b2b8e	-0.31624544334470606
22	0xbfb7c61f283951c7	-0.09286684734372051
23	0xbfb0d0d89dfbe473	-0.06568673951177732
24	0xbfa77dfb10ca8843	-0.045883031654071725
25	0xbfd5b5a558688cbe	-0.3392117846835382
26	0xbfd850a8c05b1ce2	-0.3799230459666899
27	0xbfe26e3000f0ab05	-0.5759506243096842
28	0xbfd305b5db0526ba	-0.29722353352245146
29	0xbfdd28cd63ec296a	-0.45561537511880223
30	0xbfde3d2997b4b06d	-0.4724830609800453
31	0xbfa98dcdafede46d	-0.049909999585857935
32	0xbfcd573098ab2f05	-0.2292233224346704
33	0xbfd26ac81c18f09b	-0.2877674364460831
34	0xbfbed0fbd0c30f27	-0.1203763374970178
35	0xbf8ae3581aa4cbf1	-0.013128937066175768
36	0xbfce5fb35c4c2783	-0.23729555136406696
37	0xbfbc3253160faab8	-0.11014289177516445
38	0x3f9f3ace357b831a	0.030497762693701615
39	0xbfdc141398bd47a4	-0.43872537532763034
40	0xbfbe276ffcf8906c	-0.11778926778839754
41	0x3fafd41bb0369e2b	0.06216513181726343
42	0xbfe191b02eb80937	-0.5490342056730587
43	0xbf83ed83325cc984	-0.009730362867774962
44	0x3fcc515ebdbd4bfe	0.22123321785565503
45	0xbfcb0df0248c35ee	-0.21136285576396524
46	0xbfcd4ccd5c56e246	-0.2289063168407372
47	0xbfbfa36414ce3e7d	-0.12358689792585582
48	0xbfc3684ebfe8f88d	-0.15162071581466244
49	0xbfcfa38ecf1c7954	-0.24717888939717148
50	0xbfc7e4d2dcbef26e	-0.18667064455611942
51	0xbfcee8388e8514aa	-0.24146182021119006
52	0xbfd4abfe1f7e3d06	-0.32299759936809413
53	0xbfcea33458a579ec	-0.23935560539662448
54	0xbfde9586fe0356e3	-0.47787642293893223
55	0xbfc24d2d54f06479	-0.14298025748647428
56	0xbfdba917e30dd078	-0.43219563649405
57	0xbfd32a2e286b4df3	-0.2994494814604131
58	0xbf9933ef087ed17b	-0.02461217393256863
59	0xbfb083218fda1187	-0.06450090181357925
60	0x3fd0bf232b7b5a3d	0.261666099989643
61	0xbfb8c5f6541eeb30	-0.09677066377382171
62	0xbfc2561dbb96d688	-0.14325305614118045
63	0xbfe40521e6857197	-0.6256265165680358
64	0xbfdef6d215a5f3db	-0.4838147365006173
65	0x3fb33759abca35d5	0.07506332820977175
66	0xbfd6c935978a72b5	-0.3560308437243223
67	0x3faeb1edd35aeebf	0.0599512405874214
68	0xbfdbe03b2b3af64f	-0.4355609819575407
69	0xbfc778fd9c39bb6a	-0.18337984207343122
70	0xbfbf6e5fefeb2e2b	-0.12277793509854777
71	0xbfd55a69d63f145d	-0.3336433975458187
72	0xbfc89cc10b1e0be0	-0.19228375475731152
73	0xbfd8d806086d0c20	-0.3881850321087672
74	0xbfd166857bcb9383	-0.27188241090180315
75	0xbfb75f339778b3a2	-0.09129641006502578
76	0xbfb7f173992b9972	-0.09352800836095357
77	0xbfcd77fcd5cba60a	-0.23022423209413062
78	0xbfbfc96994ff9837	-0.1241670597806611
79	0xbfbf8704a65cad78	-0.12315396367619325
80	0xbfd901e0f8405ca9	-0.3907396721201147
81	0xbfd3f404d5d171de	-0.3117687309329805
82	0xbfd3a6325070e692	-0.3070188317829913
83	0xbfd566b6e8ff4c5e	-0.33439419511450363
84	0xbfcd5dd7a99f6237	-0.22942634374955315
85	0x3f93507845ba6ef4	0.018861655479311915
86	0xbfd5eae59958f12f	-0.34246196723303773
87	0xbfae63340dc6fa51	-0.05935061138324172
88	0xbfde759674c5f8ec	-0.4759269848217531
89	0xbfc0070da57b493a	-0.12521524982600757
90	0xbfd43e0d923e0044	-0.3162874153276827
91	0xbfdacffea79bd656	-0.41894499176064437
92	0xbfb0ea75a7a466e7	-0.06607756941630392
93	0xbfd7c4530612581b	-0.37135768502173655
94	0xbfd0cb6d86e5f425	-0.2624162499776637
95	0x3f945f329eb563e9	0.019894400536347865
96	0xbfd2b0ad6a172bc4	-0.29203353271867294
97	0xbfd411f332fb0533	-0.313595580850307
98	0xbfc7eedb64d1db4e	-0.1869768373760174
99	0xbfd23efd8438e043	-0.2850946227295063
100	0xbfa70263ea420fa7	-0.04494011149020532
101	0xbfc3cc670d59acb0	-0.15467537071103754
102	0xbfd230acf64ed74d	-0.2842209248877808
103	0xbfa9ce35fb1ecc01	-0.05040138903077463
104	0xbfb1e2f8a5138d1f	-0.06986955671486726
105	0xbfd03da13d3e0b56	-0.2537615869588782
106	0x3fc6339cafafc8fb	0.1734500749440214
107	0xbfcae3454c2993db	-0.21006075114124098
108	0xbfd547477c8b2ee5	-0.33247553980321093
109	0xbfdcb957ad18ae26	-0.44881240753122353
110	0xbfcdc7efd84b1031	-0.23266408978645495
111	0xbfd012ece75f7e6f	-0.2511551150800874
112	0xbfd2993ed6fabb03	-0.29060336107333756
113	0xbfc18244e267efda	-0.13678799681645054
114	0xbfd48287d4a30179	-0.320466954854076
115	0xbf8cf41f6bcf68bb	-0.014137502172094299
116	0xbfb3c8eba35b3f7c	-0.07728455293840669
117	0xbfbb4370c892846c	-0.10649781128678776
118	0xbfd91d4d10009972	-0.3924133926651826
119	0xbfd37239c706a56b	-0.30384678302887974
120	0xbfcf5b73bce0d869	-0.24497839663098667
121	0xbfb018a907cdb84f	-0.06287628593938276
122	0xbfb130e6eb369f9c	-0.06715243570817936
123	0xbfd5e19ac12c79ce	-0.34189480652449056
124	0xbfd8f162d5c636d8	-0.3897330367698095
125	0xbfc418749fed2a71	-0.15699632462413463
126	0xbfb2bba2d8dceac3	-0.07317559999948302
127	0xbfc7a0cf073f128b	-0.1845949921972941
