experiments/Datasets/darts_logs/London_base_transformer_9_48/checkpoints/best-epoch=1-val_loss=0.01.ckpt (torch, 376027 bytes, 201 tensors)

encoder.weight f4 [16, 1]
-0.8213884 -1.9473779 -0.96186763 -1.4708043 1.1993401 1.4163579 0.74773115 2.1015267
-2.6917048 1.5197818 1.6103922 -1.2106849 -0.9791524 -1.1683167 0.99234587 1.0843605
00000000: 8346 52bf ae43 f9bf f53c 76bf 5143 bcbf
00000010: fa83 993f 374b b53f 4f6b 3f3f 6a7f 0640
00000020: e444 2cc0 3688 c23f 5521 ce3f b9f7 9abf
00000030: bba9 7abf 678b 95bf 610a 7e3f 53cc 8a3f

encoder.bias f4 [16]
0.48967043 0.18609734 0.15474169 0.4550473 -0.65395206 -1.2342715 -0.3606776 -1.0605903
0.002885865 -1.1277761 -0.1304163 -0.56134474 0.12357515 -0.4722537 -0.53590435 -1.1710235
00000000: 15b6 fa3e 4d90 3e3e 9b74 1e3e f6fb e83e
00000010: 6769 27bf 9cfc 9dbf bcaa b8be 6cc1 87bf
00000020: c820 3d3b f85a 90bf da8b 05be 4ab4 0fbf
00000030: f814 fd3d 3dcb f1be 0731 09bf 19e4 95bf

transformer.encoder.layers.0.self_attn.in_proj_weight f4 [48, 16]
0.10012286 0.19200858 -0.16331895 -0.022046585 0.2859567 0.17415829 0.54597545 0.1833908
0.44858167 -0.14486253 -0.16487762 -0.8631124 -0.0064473166 -0.5593727 0.20809779 -0.21052615
-0.2646061 0.4431281 -0.58638954 -0.004768009 -0.3816521 0.11960773 0.5752151 -0.52114123
0.4618825 0.6636394 0.7108151 -0.46970704 -0.13925433 -0.018827336 0.43175733 0.03477748
0.0045482507 0.31985718 -0.1481173 -0.30584055 0.23196903 0.72769964 0.61784464 -0.057801742
-0.069909655 0.04293248 0.081063375 -0.5133831 -0.32392403 -0.27831542 0.6291014 -0.11324453
-0.6344722 0.008550891 0.11756894 0.24124414 0.22991155 -0.29833537 -0.4796579 -0.24163629
-0.09112826 -0.33715135 0.23348175 0.56353664 0.08369765 0.0024399373 -0.19432996 0.17680436
0.12910499 -0.03319722 0.42805234 -0.018868387 -0.4377853 0.014874062 -0.20442693 -0.4261676
0.5883531 -0.4063016 -0.2328372 0.31993568 0.61519104 -0.048773214 -0.15913185 -0.18639602
-0.15091465 0.49217004 -0.16663599 0.043003093 -0.07376713 0.052764732 0.16597089 -0.017191665
0.15489845 0.1004717 0.11640379 -0.05293406 0.19409686 0.034844123 -0.34546962 0.3378603
0.31074834 -0.41725576 0.5042565 -0.0022658962 0.09825882 0.53494173 1.3842677 0.9337953
-0.25123134 2.057833 1.5249559 0.22794236 -1.2263833 -0.03054314 -0.14378928 0.57984215
-0.09507419 -0.18998338 -0.19228907 0.42380562 -0.5972577 0.28635603 -1.0008612 -1.3281136
0.30310085 -1.5522561 -1.87549 0.1295757 1.0095427 -0.039454803 -0.22086938 -0.9008832
0.05556432 0.42782727 0.057353448 0.15567034 0.4535377 0.45608118 1.0535527 0.40512046
0.0649817 0.77595 0.8067688 -0.016724078 -0.55884004 -0.16931348 0.14598975 0.34396467
0.29892 0.08519986 0.46658167 0.39128298 -0.2010456 0.58320844 0.22436179 0.2680242
-0.48900974 1.2445894 0.6774798 -0.12099281 -0.87159127 0.20932904 0.22632438 0.14259396
0.035166834 -0.27867502 -0.39652485 0.19390485 -0.12800169 0.62280226 0.87907803 -0.6008451
-0.051116843 0.06760026 0.5925054 -0.77131146 -0.48413682 -0.44614676 0.6172448 -0.6369326
-0.30170608 0.23400043 -0.28736165 -0.119621806 -0.6725123 0.20814915 1.0033857 -0.799647
0.39090678 0.080528826 0.04735168 -0.29336327 -0.26736173 -0.8857542 1.0074639 -0.33836696
-0.07796261 0.06206556 -0.13811275 0.3481161 -0.3497427 0.35145178 -0.028708763 0.8355368
-0.93618065 0.846229 0.7797518 -0.24484845 -1.152815 -0.12539023 0.123757064 0.7449877
0.3648331 -0.044796 0.39551604 0.27079988 -0.3194432 0.10446779 -0.09764931 -0.3078288
0.15210281 -0.38113695 -0.25579327 0.09477113 0.7077525 -0.08155101 -0.03171679 -0.3312275
0.04884195 -0.0262804 -0.01316943 0.10975155 -0.6059857 -0.06680592 0.3078206 -0.59381825
0.8428001 -0.50226223 -0.7472896 -0.44830173 0.4572583 -0.32813826 0.38906625 -0.29491568
-0.33164853 -0.11294372 0.047899984 -0.26833197 -0.3160015 0.006328679 0.3054776 -1.8101896
1.8315548 -1.4533823 -1.3722166 -0.37786105 1.417481 -0.42025033 0.28815708 -1.2717221
00000000: 370d cd3d e69d 443e 153d 27be 0a9b b4bc
00000010: eb68 923e 8d56 323e 0cc5 0b3f ccca 3b3e
00000020: 7fac e53e d856 14be aed5 28be eff4 5cbf
00000030: 0344 d3bb 0d33 0fbf 9617 553e 2b94 57be
00000040: 737a 87be b0e1 e23e a01d 16bf f53c 9cbb
00000050: e767 c3be e6f4 f43d 4c41 133f 8369 05bf
00000060: dd7b ec3e 46e4 293f faf7 353f 717d f0be
00000070: b098 0ebe c93b 9abc 4c0f dd3e d572 0e3d
00000080: 7e09 953b 52c4 a33e 10ac 17be 2297 9cbe
00000090: 4a89 6d3e 864a 3a3f 112b 1e3f 85c1 6cbd
000000a0: cb2c 8fbd f8d9 2f3d 8e04 a63d 136d 03bf
000000b0: 5fd9 a5be 5c7f 8ebe ca0c 213f c0ec e7bd
000000c0: c56c 22bf 0919 0c3c fcc7 f03d b408 773e
000000d0: ef6d 6b3e 6abf 98be b895 f5be 816f 77be
000000e0: 74a1 babd 1a9f acbe d715 6f3e f043 103f
000000f0: ac69 ab3d 5be7 1f3b 6ffe 46be 340c 353e
00000100: 1934 043e cff9 07bd ad29 db3e e091 9abc
00000110: 6525 e0be 56b2 733c 4b55 51be a432 dabe
00000120: 4f9e 163f c306 d0be e06c 6ebe 9cce a33e
00000130: 297d 1d3f 6cc6 47bd 76f3 22be 99de 3ebe
00000140: 5f89 1abe b6fd fb3e a0a2 2abe 0324 303d
00000150: 3913 97bd d51f 583d 46f4 293e 89d5 8cbc
00000160: b39d 1e3e 1bc4 cd3d 1c65 ee3d 63d1 58bd
00000170: 54c1 463e b6b8 0e3d 65e1 b0be 06fc ac3e
00000180: 681a 9f3e 8ca2 d5be f416 013f 6e7f 14bb
00000190: ec3b c93d f1f1 083f af2f b13f 350d 6f3f
000001a0: 65a1 80be 89b3 0340 c131 c33f b969 693e
000001b0: 21fa 9cbf 9b35 fabc 7f3d 13be 8970 143f
000001c0: 42b6 c2bd 018b 42be 6de7 44be 0dfd d83e
000001d0: e1e5 18bf 429d 923e 381c 80bf a0ff a9bf
000001e0: 0930 9b3e 54b0 c6bf 0e10 f0bf 7eaf 043e
000001f0: b238 813f 5c9b 21bd 952b 62be 48a0 66bf
00000200: 6a97 633d 2d0c db3e 73eb 6a3d 0c68 1f3e
00000210: 1836 e83e 7983 e93e d1da 863f f36b cf3e
00000220: 2015 853d a9a4 463f 6688 4e3f ef00 89bc
00000230: 2410 0fbf 8360 2dbe 567e 153e 231c b03e
00000240: 0b0c 993e 447d ae3d cbe3 ee3e 3e56 c83e
00000250: e6de 4dbe 264d 153f 19bf 653e 783a 893e
00000260: 7c5f fabe b54e 9f3f 516f 2d3f 14cb f7bd
00000270: 9b20 5fbf 5a5a 563e 94c1 673e 2704 123e
00000280: 190b 103d 7eae 8ebe 4e05 cbbe fe8e 463e
00000290: e012 03be f86f 1f3f 420b 613f fcd0 19bf
000002a0: e55f 51bd 0172 8a3d 6fae 173f ab74 45bf
000002b0: c8e0 f7be 596d e4be c103 1e3f 040e 23bf
000002c0: 3879 9abe cf9d 6f3e 1121 93be 47fc f4bd
000002d0: c429 2cbf 0d25 553e f16e 803f aab5 4cbf
000002e0: ef24 c83e 4cec a43d d6f3 413d b633 96be
000002f0: a3e3 88be cac0 62bf 94f4 803f 6f3e adbe
00000300: dcaa 9fbd 7538 7e3d 6e6d 0dbe 463c b23e
00000310: 7a11 b3be 7df1 b33e a42e ebbc bde5 553f
00000320: 89a9 6fbf 77a2 583f d09d 473f 8db9 7abe
00000330: 718f 93bf 4c66 00be 5874 fd3d 84b7 3e3f
00000340: 67cb ba3e 037c 37bd 1481 ca3e 48a6 8a3e
00000350: 0f8e a3be 35f3 d53d 5dfc c7bd bd9b 9dbe
00000360: d7c0 1b3e 6224 c3be 56f7 82be 5e17 c23d
00000370: 452f 353f 3704 a7bd 77e9 01bd a796 a9be
00000380: 7f0e 483d fe49 d7bc 98c4 57bc 6cc5 e03d
00000390: e121 1bbf 8bd1 88bd a99a 9d3e 7904 18bf
000003a0: bfc1 573f 4294 00bf 5f4e 3fbf ce87 e5be
000003b0: c31d ea3e bd01 a8be b133 c73e 30ff 96be
000003c0: d6cd a9be 094f e7bd c632 443d cf62 89be
000003d0: f3ca a1be cf60 cf3b 8f67 9c3e 4bb4 e7bf
000003e0: 6370 ea3f 6e08 babf cba4 afbf 0177 c1be
000003f0: 0470 b53f 0d2b d7be 5389 933e cac7 a2bf

transformer.encoder.layers.0.self_attn.in_proj_bias f4 [48]
-0.3341506 -0.45896044 -0.3922082 0.17896426 -0.04412914 0.14353703 0.21421184 -0.15511274
-0.112371475 -0.06845267 -0.94455624 -1.2018033 0.08435381 0.19621822 -0.42724994 -0.48865125
-6.944605e-05 -0.00015461456 -8.463649e-05 -2.5644218e-05 5.082695e-05 -3.302422e-05 0.00026058636 -0.00029911398
2.199994e-05 -8.693654e-06 0.0003399895 0.0001113857 9.996378e-05 -0.0001420714 -8.512204e-05 -0.00020867003
0.015928404 0.037636075 0.08037664 0.051322144 -0.19392306 0.07446983 0.016941512 0.04799468
-0.028776657 0.079677574 -0.08894211 -0.16773307 0.11477181 0.020442432 0.019161928 -0.05176848
00000000: ca15 abbe ddfc eabe 83cf c8be 6842 373e
00000010: c2c0 34bd 5ffb 123e 595a 5b3e e0d5 1ebe
00000020: 0423 e6bd ea30 8cbd 70ce 71bf b1d4 99bf
00000030: b1c1 ac3d 6eed 483e 81c0 dabe 7f30 fabe
00000040: 90a3 91b8 0820 22b9 df7e b1b8 8a1e d7b7
00000050: 062f 5538 7c83 0ab8 4f9f 8839 66d2 9cb9
00000060: 838c b837 f6da 11b7 9e40 b239 be97 e938
00000070: a5a3 d138 00f9 14b9 8c83 b2b8 6fce 5ab9
00000080: 497c 823c 4928 1a3d 829c a43d 2b37 523d
00000090: c493 46be a383 983d edc8 8a3c 1296 443d
000000a0: 06bd ebbc ff2d a33d 4827 b6bd 38c2 2bbe
000000b0: 7c0d eb3d e376 a73c 7af9 9c3c 300b 54bd

transformer.encoder.layers.0.self_attn.out_proj.weight f4 [16, 16]
-0.0020933808 0.5809853 -0.04626612 0.17278156 0.14696416 0.07025021 -0.17557925 0.12452434
0.049577385 -0.085648455 0.1541687 -0.32076782 -0.38855153 -0.09097311 -0.3304725 -0.13046034
-0.102610074 -0.088435896 -0.19668142 -0.23850934 0.0480817 -0.014465638 -0.025897836 -0.17682661
0.020734062 -0.08986701 -0.02407098 -0.06637381 0.027696867 -0.045008164 0.29738143 0.05802734
0.009881722 -0.063304015 -0.017608453 -0.15995315 -0.060863707 -0.063419245 -0.15238787 -0.108509906
0.03864144 0.11735667 -0.1604028 0.19080321 -0.037599 -0.06894174 0.026690964 -0.17226668
0.09409765 -0.10408583 -0.0060507287 -0.09889183 -0.5791471 -0.06309265 -0.10682031 -0.041187633
0.22599928 -0.48645905 -0.2705771 -0.027773716 0.054236926 0.032376554 -0.1553792 -0.37904218
-0.09506906 0.3131402 0.0782029 -0.17894183 -0.19602138 -0.0074163065 0.08488599 -0.15135549
-0.041547347 0.27245405 -0.4163883 -0.3914982 0.32130215 -0.32677257 0.05587668 -0.14497572
0.012863852 0.048194412 -0.003498768 -0.15919325 0.029104102 0.011646468 -0.10914339 -0.014193613
0.04924718 0.10283456 0.009882476 -0.001829241 -0.053056598 0.06745461 0.04166582 -0.06587262
-0.044622637 0.1343125 -0.1722516 -0.23115031 0.12755667 -0.012734921 0.31279066 -0.22403885
0.23318167 -0.1029949 -0.051250678 0.0508854 -0.2770898 -0.08071407 -0.084028915 -0.22411214
0.16991049 -0.07332628 0.03033361 -0.05916987 0.03414992 -0.011344197 -0.0040668515 0.1260015
-0.0020012395 0.06785743 -0.016910018 0.1309378 0.0025515927 0.0020414288 -0.010053278 0.098565064
0.022552757 0.014144444 0.009732576 -0.07987039 0.019867472 -0.0031241036 0.02175776 -0.014069424
0.009515573 0.003735912 -0.05339711 -0.029063316 -0.01046262 0.017006991 -0.029944006 0.029258784
-0.020069536 0.096320115 -0.19612123 -0.20592058 -0.017893909 0.05530159 0.05346162 -0.08389831
-0.061897933 -0.14693063 0.23483014 -0.2154672 0.010786409 -0.15301669 0.3714628 0.0112772845
-0.04487691 -0.04788887 0.04729443 0.0324905 -0.0001250495 -0.010605784 0.05934789 0.041003913
0.04239837 0.024479829 0.04500664 0.037841804 0.045687024 0.07171532 0.08954622 -0.061800614
0.054747302 0.009119837 -0.09425532 -0.23306659 0.034642097 -0.07319652 0.12568335 -0.034231678
-0.053083383 -0.037958063 0.07017493 0.2137967 -0.120521665 0.07430297 -0.04081963 -0.108397126
0.035244092 0.14446712 -0.044965204 -0.10141689 0.0050218278 0.07338785 -0.12518176 -0.239713
-0.021789351 -0.17272925 0.19979051 -0.12681662 0.04986484 0.08570633 0.16309403 0.053144183
-0.09203566 0.21930982 -0.09551391 0.1007104 -0.13148634 -0.15441002 0.03752461 0.13339424
-0.0043470534 -0.00013165576 -0.12339224 0.21729787 -0.052051563 0.295213 -0.0660833 0.21993804
0.106164865 0.26680288 -0.09855846 0.07317132 -0.041575655 -0.25474748 -0.48929203 0.18895066
-0.18176076 -0.15822624 0.029147945 -0.027617792 -0.12647718 0.02152676 -0.045956127 0.21106982
0.0035983473 0.2110022 -0.07093657 -0.3239599 0.12151524 0.34044695 0.0059955004 0.34181958
0.03870094 0.42818266 -0.5818934 0.5440671 0.13186386 0.31122157 -0.23916197 -0.006140568
00000000: 1a31 09bb 74bb 143f 8b81 3dbd a6ed 303e
00000010: c67d 163e 58df 8f3d 0ccb 33be 9e06 ff3d
00000020: a811 4b3d 7568 afbd 66de 1d3e ae3b a4be
00000030: 3af0 c6be 1c50 babd b133 a9be 6597 05be
00000040: 3b25 d2bd e11d b5bd db66 49be cb3b 74be
00000050: 51f1 443d 4901 6dbc b327 d4bc 0912 35be
00000060: 7bda a93c 320c b8bd 8130 c5bc feee 87bd
00000070: 8ae4 e23c 7b5a 38bd 6142 983e 13ae 6d3d
00000080: f2e6 213c 89a5 81bd 9a3f 90bc c2ca 23be
00000090: 394c 79bd f3e1 81bd 910b 1cbe 713a debd
000000a0: 7d46 1e3d b258 f03d a240 24be eb61 433e
000000b0: 6901 1abd 5431 8dbd 02a7 da3c ad66 30be
000000c0: 45b6 c03d f42a d5bd 3145 c6bb cd87 cabd
000000d0: fc42 14bf b836 81bd 9bc4 dabd 5db4 28bd
000000e0: 5b6c 673e 2911 f9be 1589 8abe b485 e3bc
000000f0: 8a27 5e3d 479d 043d ba1b 1fbe d111 c2be
00000100: 91b3 c2bd ea53 a03e d828 a03d 873c 37be
00000110: d4b9 48be 7d04 f3bb b5d8 ad3d effc 1abe
00000120: 8d2d 2abd 197f 8b3e d930 d5be 7472 c8be
00000130: b781 a43e bc4e a7be f2de 643d 8474 14be
00000140: e8c2 523c 8167 453d 964b 65bb 8e03 23be
00000150: ba6b ee3c d4d0 3e3c 9286 dfbd 548c 68bc
00000160: 69b7 493d ed9a d23d 1cea 213c 25c3 efba
00000170: e051 59bd a425 8a3d c7a9 2a3d 39e8 86bd
00000180: 3ac6 36bd 3789 093e b962 30be abb2 6cbe
00000190: 379e 023e 21a6 50bc 1926 a03e 716a 65be
000001a0: 2dc7 6e3e fdee d2bd 3bec 51bd 366d 503d
000001b0: b7de 8dbe 6b4d a5bd 5a17 acbd a77d 65be
000001c0: 04fd 2d3e 172c 96bd 317e f83c 1b5c 72bd
000001d0: c9e0 0b3d 03dd 39bc 3943 85bb 8a06 013e
000001e0: 3a27 03bb d6f8 8a3d e186 8abc 8f14 063e
000001f0: 9f38 273b 7ec9 053b 81b6 24bc 7bdc c93d
00000200: 8fc0 b83c 19be 673c 6275 1f3c 1693 a3bd
00000210: 1cc1 a23c c3bd 4cbb 543d b23c 7183 66bc
00000220: 35e7 1b3c 34d6 743b eeb6 5abd 3116 eebc
00000230: 696b 2bbc 3f52 8b3c 224d f5bc 1eb0 ef3c
00000240: de68 a4bc 7b43 c53d 01d4 48be d8dc 52be
00000250: 3f96 92bc ec83 623d 92fa 5a3d e1d2 abbd
00000260: b088 7dbd fc74 16be 5077 703e 6fa3 5cbe
00000270: 7ab9 303c 68b0 1cbe 5f30 be3e 5cc4 383c
00000280: dad0 37bd 1f27 44bd ceb7 413d c214 053d
00000290: b81f 03b9 e2c3 2dbc c616 733d b8f3 273d
000002a0: eaa9 2d3d ec89 c83c e258 383d 0200 1b3d
000002b0: 5122 3b3d 7bdf 923d 0264 b73d a422 7dbd
000002c0: b53e 603d 5e6b 153c ef08 c1bd 02a9 6ebe
000002d0: dfe4 0d3d 0fe8 95bd 23b3 003e 8436 0cbd
000002e0: f66d 59bd ea79 1bbd e0b7 8f3d 86ed 5a3e
000002f0: 10d4 f6bd 282c 983d 7c32 27bd 50ff ddbd
00000300: 1c5c 103d 30ef 133e 6f2d 38bd a9b3 cfbd
00000310: 258e a43b 5e4c 963d a62f 00be 5377 75be
00000320: 957f b2bc f0df 30be e295 4c3e 37dc 01be
00000330: 133f 4c3d cd86 af3d 1f02 273e b7ad 593d
00000340: 317d bcbd c192 603e cc9c c3bd 4141 ce3d
00000350: 5ba4 06be a91d 1ebe 68b3 193d 8098 083e
00000360: ba71 8ebb 130d 0ab9 12b5 fcbd 5583 5e3e
00000370: 0534 55bd 2926 973e ae56 87bd 7037 613e
00000380: f76c d93d 639a 883e 05d9 c9bd d8da 953d
00000390: 3c4b 2abd 436e 82be 7c84 fabe 487c 413e
000003a0: 7e1f 3abe 0f06 22be acc7 ee3c b53e e2bc
000003b0: 3c83 01be e358 b03c 7e3c 3cbd b022 583e
000003c0: 40d2 6b3b f610 583e 3147 91bd 12de a5be
000003d0: fbdc f83d 104f ae3e e775 c43b fa02 af3e
000003e0: e084 1e3d c23a db3e f7f6 14bf fb47 0b3f
000003f0: 5207 073e 6f58 9f3e e0e6 74be d136 c9bb

transformer.encoder.layers.0.self_attn.out_proj.bias f4 [16]
0.09108488 0.02704014 0.011043385 0.069426715 -0.01436457 -0.04356729 -0.050295174 0.00013370116
-0.019944636 0.02327073 0.023018962 0.09649435 0.016815035 0.19540028 -0.17760332 0.024662295
00000000: b68a ba3d 4983 dd3c 50ef 343c 982f 8e3d
00000010: 6059 6bbc 9d73 32bd 5002 4ebd 2232 0c39
00000020: ef62 a3bc 42a2 be3c 4392 bc3c d49e c53d
00000030: afbf 893c 0317 483e a5dd 35be 9508 ca3c

transformer.encoder.layers.0.linear1.weight f4 [128, 16]
-0.21440522 0.23080808 -0.070425935 0.13180369 -0.41149774 0.57977897 -0.29473156 -0.03618149
0.38624805 -0.20395114 -0.009760561 -0.41869852 -0.21607292 -0.55277854 0.07524502 0.06019359
0.039322633 -0.38129547 -0.21347094 -0.058545906 -0.09675308 0.45527786 0.15055224 -0.019701993
0.031635605 0.026707828 -0.018636983 -0.534943 -0.21975859 -0.48192218 0.6662405 0.04138938
0.21738434 0.73455364 -0.12423476 0.088939995 -0.13252586 0.08621343 -0.053928666 -0.18313088
0.39518437 -0.25914598 -0.35784933 0.12585007 -0.056266077 -0.2015995 -0.019625079 -0.19301158
0.18852532 0.35826242 -0.10628333 0.49031612 -0.69796956 0.061053906 -0.3223705 -0.070695326
0.13732968 -0.5501796 -0.005895998 -0.07081292 -0.3193662 0.2181552 0.12873022 0.3445858
-0.28321564 0.18035361 0.26261613 0.12495096 0.06576838 0.29083544 -0.21204732 -0.24739571
0.12460439 0.5165717 -0.43483067 -0.1303917 0.10592712 -0.37353224 0.19704318 -0.39076105
-0.22677523 0.040390432 0.2859177 -0.057304736 0.10035669 0.17544526 0.049395736 0.049752515
0.20842466 -0.09508858 -0.074712835 0.042361315 0.09005787 -0.4829478 0.012754383 -0.03686181
-0.26417425 0.32956934 -0.33188358 0.119754955 -0.39247945 0.47079828 -0.018118953 0.089788325
-0.20371884 0.21928488 -0.17633244 -0.17690286 0.0409882 -0.6638116 0.04937033 -0.24376556
0.07465522 0.007660436 0.09309441 0.064942285 0.07672312 0.06401865 0.18545668 -0.18283698
0.103590354 -0.022097962 -0.082449995 -0.025346428 0.12550525 -0.17483799 0.034078434 0.006103288
0.0016118234 0.021322448 0.3817613 0.19127339 -0.43180197 0.7318366 -0.015674908 0.17655495
0.027606389 0.10707124 0.18469767 -0.69333786 -0.7464958 -0.31161246 0.05303455 0.33592302
-0.5345821 0.2940835 0.10481744 0.19557081 -0.33250108 0.18285559 0.07222223 -0.20621243
-0.08155642 0.26776865 -0.13083489 -0.044895478 0.1443632 -0.48668176 0.11774088 -0.53002274
-0.036179952 -0.14778776 -0.12926441 0.36175254 -0.09004238 0.6642785 -0.11238824 -0.097067945
0.004705589 0.11941298 -0.07116031 -0.07572801 0.15255563 -0.25813678 0.61795187 -0.21726605
-0.07150052 -0.055318773 -0.051607765 -0.04942392 -0.12142567 -0.045818068 -0.057696648 -0.06969039
0.22101106 -0.15526322 -0.16291256 -0.20314108 0.046868697 -0.17549035 0.01840027 -0.20520462
-0.2348891 0.047711145 -0.12171442 0.009091371 0.06880225 -0.025657177 0.07969876 -0.87857026
0.59597105 0.19863291 0.42055777 -0.01718215 -0.36673328 0.078352325 0.17861596 0.20115267
0.10058138 -0.14518791 0.25603154 0.0781543 -0.2099569 -0.19668925 -0.2872597 -0.95608515
1.3243878 -0.41930893 -0.990953 -0.00030408145 0.15436262 -0.040711362 -0.023287972 -0.19833003
-0.55764586 -0.24543907 0.49437723 0.23585944 -0.43045148 0.4489604 -0.051875245 -0.07273403
-0.21524698 -0.31050065 0.1262703 -0.10207999 -0.025228046 -0.1509895 0.2270537 0.26066843
-0.14467011 0.15464911 -0.070591316 -0.066536844 -0.002688184 -0.078939416 -0.14072582 -0.7386721
1.5736487 -0.22145794 -0.94301665 0.11410459 -0.08508259 -0.05314528 0.028924217 -0.23388559
00000000: 0b8d 5bbe f458 6c3e 793b 90bd 8cf7 063e
00000010: d5af d2be 656c 143f 0ee7 96be 0b33 14bd
00000020: 4ec2 c53e 91d8 50be c3ea 1fbc a75f d6be
00000030: 3842 5dbe e582 0dbf 101a 9a3d 8e8d 763d
00000040: c510 213d 2939 c3be 2098 5abe d5cd 6fbd
00000050: 7b26 c6bd 2e1a e93e 5e2a 1a3e 1366 a1bc
00000060: 5694 013d 60ca da3c 96ac 98bc 06f2 08bf
00000070: 6508 61be 81be f6be bd8e 2a3f e987 293d
00000080: 009a 5e3e b50b 3c3f cb6e febd 2c26 b63d
00000090: dcb4 07be ab90 b03d 4ee4 5cbd a986 3bbe
000000a0: 9b55 ca3e c8ae 84be 0738 b7be d7de 003e
000000b0: 4277 66bd 1970 4ebe c6c4 a0bc d4a4 45be
000000c0: c80c 413e 2c6e b73e 13ab d9bd b70a fb3e
000000d0: 22ae 32bf a913 7a3d bf0d a5be b6c8 90bd
000000e0: 27a0 0c3e 92d8 0cbf 3733 c1bb 5d06 91bd
000000f0: f783 a3be 1464 5f3e dbd1 033e 8d6d b03e
00000100: a401 91be 9eae 383e 9f75 863e 4ae6 ff3d
00000110: 93b1 863d 62e8 943e ef22 59be 4d55 7dbe
00000120: 9630 ff3d 0b3e 043f 20a2 debe 6785 05be
00000130: 51f0 d83d 9e3f bfbe b0c5 493e d511 c8be
00000140: c437 68be 7070 253d ce63 923e 5fb8 6abd
00000150: cf87 cd3d eca7 333e 2f53 4a3d 4bc9 4b3d
00000160: 466d 553e cdbd c2bd 0b03 99bd 0f83 2d3d
00000170: 4370 b83d ef44 f7be c2f7 503c 69fc 16bd
00000180: d941 87be 50bd a83e a5ec a9be 1642 f53d
00000190: 11f3 c8be 790c f13e 336e 94bc f1e2 b73d
000001a0: ac9b 50be 378c 603e 7e90 34be 0626 35be
000001b0: 3ee3 273d 8fef 29bf 8b38 4a3d ae9d 79be
000001c0: d6e4 983d 6504 fb3b 48a8 be3d 7600 853d
000001d0: 0321 9d3d 361c 833d 5be8 3d3e 9e39 3bbe
000001e0: 2e27 d43d c906 b5bc 8bdb a8bd 50a3 cfbc
000001f0: 7384 003e bb08 33be d495 0b3d 17fe c73b
00000200: d243 d33a 6aac ae3c 3876 c33e 2cdd 433e
00000210: 2615 ddbe a559 3b3f aa68 80bc d2ca 343e
00000220: cb26 e23c 2b48 db3d 6321 3d3e 977e 31bf
00000230: 591a 3fbf ab8b 9fbe c23a 593d 1afe ab3e
00000240: 5fda 08bf 1d92 963e 87aa d63d b743 483e
00000250: 953d aabe 7f3e 3b3e 40e9 933d 5a29 53be
00000260: 0d07 a7bd f918 893e 95f9 05be 52e4 37bd
00000270: f2d3 133e 5a2e f9be 2122 f13d 92af 07bf
00000280: 6e31 14bd ad55 17be e45d 04be a137 b93e
00000290: 2468 b8bd 280e 2a3f ce2b e6bd 8fcb c6bd
000002a0: 5731 9a3b cb8e f43d 7fbc 91bd 4917 9bbd
000002b0: 8b37 1c3e 812a 84be 1832 1e3f fe7a 5ebe
000002c0: dd6e 92bd f095 62bd aa62 53bd bd70 4abd
000002d0: 06ae f8bd baab 3bbd 5253 6cbd d6b9 8ebd
000002e0: b950 623e 52fd 1ebe 8dd2 26be 3704 50be
000002f0: 64f9 3f3d beb3 33be 2abc 963c 2921 52be
00000300: c586 70be c36c 433d 6945 f9bd f9f3 143c
00000310: 32e8 8c3d 002f d2bc 1a39 a33d fbe9 60bf
00000320: 8f91 183f 6d66 4b3e 5953 d73e 95c1 8cbc
00000330: 77c4 bbbe 2f77 a03d 1ae7 363e f7fa 4d3e
00000340: 9cfd cd3d 24ac 14be 9116 833e 5d0f a03d
00000350: f1fe 56be e868 49be b413 93be ffc1 74bf
00000360: 8a85 a93f a9af d6be 19af 7dbf 1f6d 9fb9
00000370: 3c11 1e3e f5c0 26bd 6bc6 bebc 0717 4bbe
00000380: e1c1 0ebf 6154 7bbe 031f fd3e 2385 713e
00000390: 2364 dcbe 23de e53e 237b 54bd 94f5 94bd
000003a0: b469 5cbe f1f9 9ebe 004d 013e 500f d1bd
000003b0: 0cab cebc fe9c 1abe c480 683e 5576 853e
000003c0: 6724 14be 565c 1e3e 2e92 90bd 7844 88bd
000003d0: 3e2c 30bb fdaa a1bd 6e1a 10be 9d19 3dbf
000003e0: 526d c93f dfc5 62be 8a69 71bf abaf e93d
000003f0: c83f aebd ddae 59bd 7bf2 ec3c b47f 6fbe

transformer.encoder.layers.0.linear1.bias f4 [128]
-0.1645055 -0.26648635 -0.046205517 -0.19336511 -0.11621934 -0.24508226 -0.012834739 -0.48460373
-0.05084344 -0.09532036 -0.022949416 -0.30588827 -0.20322843 0.05085201 0.051987894 -0.12294648
-0.020199375 -0.0061168736 -0.30317768 -0.009894121 -0.44371408 0.01690272 -0.11334577 -0.05073618
-0.0035919563 -0.33256078 -0.37335888 -0.27778038 -0.5089522 -0.4944755 -0.29942992 -0.14129335
-0.24312502 -0.13691543 -0.22135016 -0.19967851 -0.06642601 -0.094935656 0.003008213 -0.55645746
0.006321422 -0.17013294 -0.41161412 -0.38497436 -0.13391796 -0.17083715 -0.06827821 -0.08789021
0.13784428 -0.24890532 -0.004433423 -0.11825545 -0.4578767 -0.093171895 -0.2952063 -0.15314262
-0.20033199 -0.024356859 0.023913868 -0.33801052 -0.049351048 0.04623231 -0.2909476 -0.4129667
-0.3409932 0.11443916 -0.44213822 0.15172274 -0.4290038 -0.17017378 0.11394449 -0.30658585
-0.22860324 -0.49963146 -0.28662416 -0.05170624 -0.27803776 -0.032663576 -0.26750568 -0.048023183
-0.34024283 -0.27141866 -0.26355308 -0.27810645 -0.050217915 0.09371904 -0.3732028 -0.131059
-0.39677787 0.039749406 -0.22995403 -0.26469812 -0.17105727 -0.5692886 -0.099719934 -0.3101448
-0.17508876 -0.14805844 -0.028590973 -0.3835294 -0.21597403 -0.101746894 -0.098270565 0.09960011
0.09725376 -0.28989926 0.25560623 -0.18834484 -0.30815884 -0.5028457 -0.19056314 -0.19759303
-0.20690542 -0.0025533426 0.13672447 0.02330351 -0.056793336 -0.115194336 -0.2919729 -0.21330202
-0.011881976 -0.083028615 -0.19429019 -0.3468513 -0.3155593 -0.116441205 -0.036857244 -0.4964752
00000000: 2174 28be e670 88be ff41 3dbd 8101 46be
00000010: 6804 eebd d8f6 7abe cc48 52bc fb1d f8be
00000020: 3641 50bd 5237 c3bd 6a00 bcbc 639d 9cbe
00000030: 1d1b 50be 324a 503d 42f1 543d 5dcb fbbd
00000040: 2979 a5bc 0e70 c8bb 1b3a 9bbe f41a 22bc
00000050: 7e2e e3be 9377 8a3c d421 e8bd bed0 4fbd
00000060: 0767 6bbb 6845 aabe e528 bfbe 3b39 8ebe
00000070: b14a 02bf e52b fdbe e14e 99be 34af 10be
00000080: c4f5 78be 8f33 0cbe 9ea9 62be 8678 4cbe
00000090: 5c0a 88bd a06d c2bd 7025 453b ff73 0ebf
000000a0: ee23 cf3b 5437 2ebe 16bf d2be 5c1b c5be
000000b0: ca21 09be efef 2ebe 72d5 8bbd c8ff b3bd
000000c0: 0d27 0d3e 09e1 7ebe 3f46 91bb ea2f f2bd
000000d0: d16e eabe e8d0 bebd 4825 97be 6bd1 1cbe
000000e0: d423 4dbe 0988 c7bc 04e7 c33c b70f adbe
000000f0: 5324 4abd 175e 3d3d 15f7 94be 5f70 d3be
00000100: a996 aebe 145f ea3d f15f e2be 355d 1b3e
00000110: 63a6 dbbe 0942 2ebe bb5b e93d d2f8 9cbe
00000120: f816 6abe b2cf ffbe 67c0 92be ecc9 53bd
00000130: f75a 8ebe 3eca 05bd 81f6 88be f5b3 44bd
00000140: 4f34 aebe 63f7 8abe 6ef0 86be f863 8ebe
00000150: 4db1 4dbd c5ef bf3d 7014 bfbe 5534 06be
00000160: 7826 cbbe 46d0 223d 1279 6bbe 8386 87be
00000170: a329 2fbe e6bc 11bf f739 ccbd 4dcb 9ebe
00000180: 784a 33be a29c 17be 9e37 eabc f75d c4be
00000190: 4c28 5dbe ad60 d0bd 1442 c9bd 24fb cb3d
000001a0: fb2c c73d ad6d 94be d2de 823e 78dd 40be
000001b0: ffc6 9dbe 7fba 00bf fc22 43be d455 4abe
000001c0: 04df 53be fb55 27bb 8001 0c3e 01e7 be3c
000001d0: 21a0 68bd 02eb ebbd 797d 95be d86b 5abe
000001e0: 9fac 42bc e80a aabd 02f4 46be 7e96 b1be
000001f0: fd90 a1be ba78 eebd 9ff7 16bd ff31 febe

transformer.encoder.layers.0.linear2.weight f4 [16, 128]
0.03469199 0.004871219 0.3604404 0.47281677 -0.10728806 0.04692514 -0.05856579 0.12929592
0.23726983 0.05111311 0.11899949 -0.015303194 0.085635796 0.2621237 0.062408455 0.014298069
0.4386701 0.14304188 -0.06234173 0.18902735 0.1976107 0.08391473 0.15278395 -0.28055483
0.009159795 -0.04847826 -0.032824304 -0.24218377 -0.043024145 0.028752442 -0.08343438 -0.014285746
0.099498674 0.052087966 -0.12451438 0.050436135 0.18454517 -0.111067176 0.08903064 -0.20295525
0.3123086 -0.026076965 0.36713645 -0.15674604 -0.13946727 0.08061204 0.010463597 0.02501284
0.024198463 -0.0057260673 0.38024625 0.16332723 0.12836051 0.030440437 0.13654225 0.016082743
-0.2818084 0.12112968 -0.051786628 -0.01620336 0.5541087 0.32398397 0.06997822 0.13931888
-0.14276469 0.29075316 -0.0919752 0.45830935 -0.21717967 0.27989778 0.08980739 0.23646861
-0.24100536 -0.2529586 -0.24181199 0.4258522 0.049751047 0.05879741 -0.06189634 0.10309554
-0.3108636 -0.019977989 -0.1564303 0.1759614 0.29182217 0.021649096 0.10631644 0.5094163
0.13376425 0.24062018 0.13715333 0.21661133 0.1113827 0.011056673 -0.05651601 0.07096486
-0.13440548 -0.03612499 0.1305302 -0.022384288 0.37286988 0.16920593 0.29839227 0.15647218
0.27410176 0.0017717262 0.28223768 0.3494185 0.0022502863 0.17205516 -0.13723764 -0.0397095
-0.07108726 0.09240243 0.1495104 0.1823536 0.37399924 0.19030741 -0.1908172 0.38243216
0.29404807 0.22386101 -0.05068454 -0.11700113 -0.074153684 -0.10251199 0.25380874 -0.07550177
0.167576 -0.18928994 0.16336584 -0.43506417 0.057912216 -0.17558905 0.046259765 0.07845106
0.30223155 0.09638154 0.35784522 0.09038144 0.23788488 -0.2131455 -0.17664708 0.19048418
-0.46858627 -0.0400065 0.55015725 0.32818648 0.67240095 -0.018765122 0.2290861 0.11352302
0.24262092 0.28370774 -0.04602467 0.42773944 0.024082242 0.09456682 0.03668828 -0.033374302
0.24932748 0.14902219 0.14830455 0.10214801 -0.18430257 0.03752653 0.48240533 0.002609835
0.26282287 -0.0159747 0.15061402 0.032709666 0.014902597 0.40677828 -0.19048154 0.038297217
-0.17580314 0.5751416 -0.12314196 0.23131055 0.21375117 -0.16712824 0.08849751 0.04581816
0.2420389 0.011684461 0.17491357 0.028278643 0.55801064 -0.28840673 0.17169091 -0.1523168
-0.0068170642 0.1153024 -0.16733679 -0.25195226 0.54879326 -0.12969005 0.046560183 0.32107273
-0.20074187 0.25211468 -0.2931482 0.3161275 -0.13289554 -0.02436317 -0.3519145 0.103591494
-0.04033156 0.086177796 -0.024124186 -0.21495943 -0.09221399 0.1561855 0.104630925 0.27103776
-0.3971029 -0.06436533 0.033844415 -0.5999701 -0.24592185 0.20766647 -0.18829334 0.068708345
-0.15536425 0.081431985 0.63397956 0.3664503 0.093894124 0.014500548 -0.39821994 0.19964007
-0.03802671 -0.22407413 -0.15722139 -0.0010833377 -0.020559387 0.18948337 0.36379647 0.13037318
-0.053132053 0.3689954 -0.04980578 0.10690864 0.35739112 -0.45487612 0.39987627 -0.16462025
0.32876208 0.13795833 -0.22503138 -0.20138304 0.28134587 0.06970786 -0.14828996 -0.024324661
00000000: 3019 0e3d bf9e 9f3b a58b b83e 0a15 f23e
00000010: d8b9 dbbd 9334 403d afe2 6fbd 2666 043e
00000020: ddf6 723e fb5b 513d 01b6 f33d 3fba 7abc
00000030: d261 af3d 1435 863e 02a0 7f3d 7342 6a3c
00000040: 5e99 e03e 9279 123e 0b5a 7fbd 6390 413e
00000050: 765a 4a3e 7cdb ab3d 6573 1c3e e2a4 8fbe
00000060: f712 163c 2491 46bd c772 06bd 06ff 77be
00000070: 163a 30bd 3e8a eb3c a5df aabd c30e 6abc
00000080: f6c5 cb3d 315a 553d 6501 ffbd 1f96 4e3d
00000090: 69f9 3c3e 3077 e3bd b255 b63d 80d3 4fbe
000000a0: eae6 9f3e 5c9f d5bc 4ff9 bb3e 0982 20be
000000b0: 82d0 0ebe ed17 a53d 826f 2b3c bae7 cc3c
000000c0: db3b c63c bca1 bbbb a3af c23e 413f 273e
000000d0: f070 033e 395e f93c bbd1 0b3e f5bf 833c
000000e0: 3149 90be d612 f83d 371e 54bd e9bc 84bc
000000f0: 11da 0d3f 3ae1 a53e be50 8f3d 9ca9 0e3e
00000100: e830 12be 99dd 943e 7e5d bcbd 86a7 ea3e
00000110: 5964 5ebe c34e 8f3e f0ec b73d d424 723e
00000120: 1cca 76be ca83 81be 909d 77be 4d09 da3e
00000130: c1c7 4b3d 8ed5 703d 0487 7dbd c123 d33d
00000140: 8429 9fbe e1a8 a3bc 442f 20be 3a2f 343e
00000150: b769 953e 7259 b13c 6fbc d93d 1b69 023f
00000160: 7ff9 083e 2365 763e ec71 0c3e 5ccf 5d3e
00000170: 9d1c e43d 0c27 353c 557d 67bd 0656 913d
00000180: 97a1 09be ccf7 13bd b5a9 053e 415f b7bc
00000190: cde8 be3e 5244 2d3e dfc6 983e 3e3a 203e
000001a0: 1157 8c3e 4439 e83a 7581 903e fbe6 b23e
000001b0: 8a79 133b 3a2f 303e 0688 0cbe 6ea6 22bd
000001c0: 3396 91bd 7c3d bd3d 4119 193e e7ba 3a3e
000001d0: d47c bf3e f2df 423e 9665 43be 26ce c33e
000001e0: 788d 963e d23b 653e 989a 4fbd 4a9e efbd
000001f0: e3dd 97bd cef1 d1bd 38f3 813e aca0 9abd
00000200: 0b99 2b3e 39d5 41be 6049 273e bbc0 debe
00000210: 5c35 6d3d 9ecd 33be e17a 3d3d f3aa a03d
00000220: 18be 9a3e af63 c53d 7d37 b73e e819 b93d
00000230: 1898 733e d042 5abe f9e2 34be 490e 433e
00000240: 8aea efbe dbdd 23bd 1bd7 0c3f 0f08 a83e
00000250: 7822 2c3f 50b9 99bc 8c95 6a3e c27e e83d
00000260: 9e71 783e 2442 913e 5d84 3cbd aa00 db3e
00000270: 1f48 c53c 40ac c13d 7346 163d 7eb3 08bd
00000280: b44f 7f3e 4699 183e 26dd 173e fa32 d13d
00000290: d0b9 3cbe 6bb5 193d d5fd f63e c409 2b3b
000002a0: b890 863e 60dd 82bc 903a 1a3e 92fa 053d
000002b0: 062a 743c 3e45 d03e 980d 43be 8bdd 1c3d
000002c0: bd05 34be 7b3c 133f da31 fcbd acdc 6c3e
000002d0: 96e1 5a3e aa23 2bbe 2f3e b53d d3ab 3b3d
000002e0: 0cd9 773e 2e70 3f3c 8b1c 333e 9da8 e73c
000002f0: c9d9 0e3f 0caa 93be becf 2f3e eff8 1bbe
00000300: ae61 dfbb aa23 ec3d 565a 2bbe e3ff 80be
00000310: b77d 0c3f 78cd 04be e4b5 3e3d a563 a43e
00000320: 478f 4dbe 2d15 813e 8517 96be 77db a13e
00000330: c515 08be 4595 c7bc 232e b4be c727 d43d
00000340: b532 25bd fc7d b03d 16a0 c5bc 531e 5cbe
00000350: b0da bcbd 17ef 1f3e bd48 d63d 76c5 8a3e
00000360: 1251 cbbe f8d1 83bd 71a0 0a3d a497 19bf
00000370: f0d2 7bbe 85a6 543e f8cf 40be f6b6 8c3d
00000380: ce17 1fbe d0c5 a63d 7c4c 223f 609f bb3e
00000390: 904b c03d b593 6d3c 7ce3 cbbe 726e 4c3e
000003a0: e5c1 1bbd b073 65be a5fe 20be c8fe 8dba
000003b0: 296c a8bc ee07 423e 8843 ba3e 8c80 053e
000003c0: ffa0 59bd f7ec bc3e 2501 4cbd ebf2 da3d
000003d0: f8fb b63e 86e5 e8be 95bc cc3e 3692 28be
000003e0: 8153 a83e f344 0d3e a06e 66be 5b37 4ebe
000003f0: 910c 903e ffc2 8e3d 53d9 17be 8344 c7bc

transformer.encoder.layers.0.linear2.bias f4 [16]
-0.21367803 -0.10078859 -0.18781658 -0.15503044 0.0013630035 0.017441355 0.15078029 -0.012783216
-0.07086159 0.068576016 0.10995467 0.09296425 -0.13190842 -0.029321665 -0.02447114 0.13368641
00000000: 6ace 5abe 406a cebd fd52 40be 4dc0 1ebe
00000010: cfa6 b23a 2ce1 8e3c 2666 1a3e b270 51bc
00000020: e21f 91bd 9571 8c3d ea2f e13d 0a64 be3d
00000030: 0013 07be fd33 f0bc b377 c8bc 17e5 083e

transformer.encoder.layers.0.norm1.weight f4 [16]
0.5004944 0.96254236 0.8495589 0.6922566 0.6645825 1.3254937 0.7501154 1.2199678
1.8252987 1.1533825 1.4085667 1.0381958 1.3223113 0.99911535 0.8601554 0.70433444
00000000: 6720 003f 2d69 763f b17c 593f bb37 313f
00000010: 1422 2a3f c7a9 a93f 9007 403f e827 9c3f
00000020: 63a3 e93f 0aa2 933f ea4b b43f 9ae3 843f
00000030: 7f41 a93f 06c6 7f3f 2533 5c3f 434f 343f

transformer.encoder.layers.0.norm1.bias f4 [16]
0.30582324 0.06561641 -0.1519128 0.18721038 -0.13768646 -0.036817867 0.096397884 -0.096369065
-0.10796637 -0.076296516 0.052715562 -0.031873096 0.012653015 0.08618023 0.04420991 0.071433924
00000000: dd94 9c3e e561 863d 078f 1bbe 14b4 3f3e
00000010: aefd 0cbe 55ce 16bd 416c c53d 255d c5bd
00000020: 791d ddbd 5941 9cbd 46ec 573d 5d8d 02bd
00000030: 974e 4f3c 437f b03d 7315 353d f34b 923d

transformer.encoder.layers.0.norm2.weight f4 [16]
1.2244484 1.213831 1.092508 0.69839776 0.935051 1.3336986 0.9047937 0.8362703
1.276371 1.1796992 1.1024457 1.0234734 1.1251872 1.1346781 0.6016907 0.76823074
00000000: baba 9c3f d05e 9b3f 4dd7 8b3f 32ca 323f
00000010: 815f 6f3f a3b6 aa3f 8fa0 673f cf15 563f
00000020: 2060 a33f 6200 973f f11c 8d3f 2d01 833f
00000030: 2206 903f 223d 913f 6708 1a3f c5aa 443f

transformer.encoder.layers.0.norm2.bias f4 [16]
0.05646068 0.09608867 0.01082304 0.26269025 0.00014829575 0.15874818 -0.22899422 -0.2525031
0.00030118533 -0.19435571 -0.058675077 -0.15894252 0.15729204 -0.062085237 0.21590722 -0.08981041
00000000: 5043 673d 23ca c43d 1f53 313c 567f 863e
00000010: d67f 1b39 e28e 223e 767d 6abe 1648 81be
00000020: 69e8 9d39 2f05 47be 4755 70bd d4c1 22be
00000030: 2a11 213e 174d 7ebd c816 5d3e 85ee b7bd

transformer.encoder.layers.1.self_attn.in_proj_weight f4 [48, 16]
-0.5673417 -0.20932667 0.228962 -0.10567801 0.22638501 0.6581813 0.62832004 0.16466667
0.12662123 0.07783158 0.2266158 0.028608335 -0.0051341476 -0.6469602 0.09795232 0.51410675
-0.19129418 -0.35275653 -0.04320315 -0.10036237 -0.15620218 -0.0728672 0.3496748 0.26758617
-0.23101759 0.13716017 -0.19746144 0.08725984 0.041925773 0.3944499 -0.36539906 -0.42665982
-0.58471113 0.5282582 -0.5247082 -0.025132133 0.030074168 0.19998124 0.10645023 0.36514983
-0.071960345 0.4230779 -0.11663791 0.481584 -0.22345656 -0.34478655 0.00084708974 -0.38576066
0.22365758 -0.337257 0.043044608 -0.23163162 0.27132782 -0.32835305 0.35114893 0.16934295
-0.034317072 0.27712414 0.34156874 0.1564468 -0.036745127 -0.10016165 -0.21186951 -0.5094827
-0.37847367 0.09574767 -0.5754493 -0.18204975 0.19571272 -0.14096858 0.30611423 0.23577428
0.15764177 0.5580675 0.112213634 0.12917458 -0.19325705 -0.08599356 0.17617896 0.16607928
-0.47939068 0.13549592 -0.46536416 -0.05764461 0.6491554 -0.04385557 0.29839766 0.18324594
0.45321047 0.15899612 -0.075622596 0.16979513 0.6187441 -0.12511797 0.4083519 0.211587
0.20915921 0.42667943 -0.0161716 0.038769387 0.14356138 -0.19648305 -0.28778797 -0.29492706
0.24188025 -0.37436676 0.017348805 0.31140864 0.008469084 -0.09831411 -0.23293611 -0.25865966
0.26207414 0.22582412 0.44811553 0.40785334 -0.36446613 -0.09020789 -0.2530747 -0.29887527
0.31820834 -0.5118121 -0.27076522 -0.38558936 -0.1598237 0.03889094 -0.010593241 0.059788693
0.6799633 -0.42118275 0.47373778 0.20819272 -0.03924666 -0.10877787 -0.6121895 -0.54938996
-0.082904935 0.44758353 -0.17605624 0.029334467 0.3872475 -0.035565663 0.24774553 -0.10871188
-0.24256814 0.020908887 -0.08702328 -0.39682168 0.02038413 -0.2661198 -0.15685752 0.16593881
-0.4280684 0.07794666 0.32608598 0.002849763 0.30761018 0.20966065 -0.0011803878 0.46811023
-0.49884948 0.6188718 -0.5751968 -0.27803478 0.14092243 -0.5600871 0.2631437 0.029875524
0.5786668 0.0737931 -0.18958072 -0.22992337 -0.20165323 -0.28569356 -0.40963665 0.124835126
0.027546452 -0.06859032 -0.44804698 0.12346086 0.27780053 -0.1828024 -0.1841251 -0.111403406
0.22680168 0.015485929 0.12467695 0.018437112 0.20435892 0.031465303 -0.14762624 -0.49166462
-0.33500466 0.38741198 -0.011442424 0.096516944 0.34354237 0.09319305 0.25374436 0.11046064
0.44491285 -0.12786667 -0.33336893 -0.21265498 0.19391873 -0.25136393 -0.11074372 0.078897916
-0.04484024 0.47299948 0.23116395 0.34489277 -0.19546792 0.251853 -0.2114947 -0.26363447
-0.4982797 -0.3048014 0.22377029 0.07252341 -0.608434 0.1510364 0.047665853 0.37850425
-0.44581363 0.3886943 -0.3185316 0.12354726 0.6691902 0.67301846 0.48266298 0.106863074
0.11521122 -0.013409609 0.20567319 -0.022370739 -0.6732968 -0.8647396 0.62977207 0.22482693
0.18350455 0.4136035 0.5087686 0.18193138 -0.4937999 -0.4902726 -0.40332532 -0.48365307
-0.046413414 -0.33856604 -0.13881913 0.2219646 -0.026179934 0.23842181 -0.122765005 -0.35877696
00000000: 4e3d 11bf bb59 56be 0475 6a3e b66d d8bd
00000010: 79d1 673e 927e 283f 95d9 203f 619e 283e
00000020: ffa8 013e 2a66 9f3d f90d 683e 075c ea3c
00000030: 5a3c a8bb 2f9f 25bf 3a9b c83d 809c 033f
00000040: 9fe2 43be 819c b4be c9f5 30bd c98a cdbd
00000050: 77f3 1fbe 663b 95bd 9308 b33e 0e01 893e
00000060: e08f 6cbe b773 0c3e 5533 4abe 49b5 b23d
00000070: 5cba 2b3d 56f5 c93e 9615 bbbe 2873 dabe
00000080: a1af 15bf ee3b 073f 4753 06bf e7e1 cdbc
00000090: 1a5e f63c e2c7 4c3e 9402 da3d ebf4 ba3e
000000a0: f25f 93bd ab9d d83e dbdf eebd 2e92 f63e
000000b0: ccd1 64be dd87 b0be 3b0f 5e3a 6c82 c5be
000000c0: 7e06 653e f3ac acbe 8b4f 303d d730 6dbe
000000d0: 7beb 8a3e e41d a8be cbc9 b33e 3d68 2d3e
000000e0: 0f90 0cbd 37e3 8d3e 19e2 ae3e 9733 203e
000000f0: 0f82 16bd 8d21 cdbd 52f4 58be 756d 02bf
00000100: 4dc7 c1be 5b17 c43d a550 13bf 406b 3abe
00000110: ea68 483e 115a 10be 01bb 9c3e d06e 713e
00000120: d86c 213e 83dd 0e3f 43d0 e53d 5746 043e
00000130: 2de5 45be 641d b0bd 4268 343e b010 2a3e
00000140: b272 f5be 71bf 0a3e 3644 eebe c11c 6cbd
00000150: 0c2f 263f e6a1 33bd 94c7 983e d3a4 3b3e
00000160: 340b e83e e1cf 223e 05e0 9abd c6de 2d3e
00000170: 0366 1e3f ed1e 00be 8013 d13e 43aa 583e
00000180: d52d 563e ba75 da3e 4e7a 84bc a6cc 1e3d
00000190: c101 133e da32 49be f258 93be ae00 97be
000001a0: 75af 773e 00ad bfbe 151f 8e3c f470 9f3e
000001b0: eac1 0a3c e858 c9bd ce86 6ebe 0a6f 84be
000001c0: 952e 863e 703e 673e 666f e53e 27d2 d03e
000001d0: 4e9b babe eabe b8bd 0293 81be 2e06 99be
000001e0: 34ec a23e 1e06 03bf bda1 8abe f86b c5be
000001f0: d3a8 23be 1b4c 1f3d 468f 2dbc fde4 743d
00000200: 1312 2e3f 44a5 d7be c28d f23e 7930 553e
00000210: 1bc1 20bd efc6 debd 73b8 1cbf d2a4 0cbf
00000220: 10ca a9bd ab29 e53e 1648 34be d64e f03c
00000230: 4e45 c63e 4dad 11bd 01b1 7d3e 56a4 debd
00000240: c863 78be 1d49 ab3c 4339 b2bd 362c cbbe
00000250: 9efc a63c db40 88be 429f 20be ddeb 293e
00000260: c82b dbbe 80a2 9f3d bef4 a63e 17c3 3a3b
00000270: 157f 9d3e 48b1 563e 3eb7 9aba 25ac ef3e
00000280: 3369 ffbe 626e 1e3f 1940 13bf 935a 8ebe
00000290: f84d 103e de61 0fbf c5ba 863e 84bd f43c
000002a0: 8223 143f d620 973d 7321 42be 0871 6bbe
000002b0: 2f7e 4ebe 6d46 92be e5bb d1be 8fa9 ff3d
000002c0: 19a9 e13c 1579 8cbd 6a66 e5be 0cd9 fc3d
000002d0: df3b 8e3e 8d30 3bbe 4a8b 3cbe 7827 e4bd
000002e0: b33e 683e b2b8 7d3c a156 ff3d 6d09 973c
000002f0: 7743 513e c3e1 003d 552b 17be 77bb fbbe
00000300: bb85 abbe dd5a c63e 0179 3bbc adaa c53d
00000310: c9e4 af3e ffdb be3d c8ea 813e 3039 e23d
00000320: 9ecb e33e 7bef 02be 55af aabe 3ac2 59be
00000330: a292 463e c6b2 80be 9acd e2bd 3b95 a13d
00000340: 66aa 37bd fd2c f23e 3eb6 6c3e c995 b03e
00000350: be28 48be e0f2 803e 1192 58be 19fb 86be
00000360: 841e ffbe ee0e 9cbe 0a24 653e 2787 943d
00000370: 55c2 1bbf 49a9 1a3e 453d 433d 4fcb c13e
00000380: af41 e4be f002 c73e 9316 a3be 5906 fd3d
00000390: 0d50 2b3f f04a 2c3f 9a1f f73e 07db da3d
000003a0: dcf3 eb3d fab3 5bbc fe9b 523e d742 b7bc
000003b0: 2e5d 2cbf 935f 5dbf be38 213f 0839 663e
000003c0: 9ee8 3b3e d7c3 d33e a93e 023f 384c 3a3e
000003d0: 57d3 fcbe 0305 fbbe a880 cebe 60a1 f7be
000003e0: fe1b 3ebd 8758 adbe 9a26 0ebe b04a 633e
000003f0: 4d77 d6bc d924 743e 386c fbbd 9db1 b7be

transformer.encoder.layers.1.self_attn.in_proj_bias f4 [48]
-0.35821322 0.097067736 -0.51545763 -0.25735867 -0.27128106 -0.04160178 0.0036279669 -0.21339199
0.55308986 0.80373853 -0.47609988 0.0040578474 -0.34433544 -0.03753793 -0.40184548 0.28780088
0.00021494839 7.557847e-06 7.205153e-05 -8.2209516e-07 -5.899694e-05 1.4270032e-05 2.7302163e-05 9.10261e-05
6.3744774e-05 4.4903914e-05 -0.00024586928 -1.9574945e-05 -2.6032945e-05 -1.6103211e-05 0.00031968192 -0.00021616234
0.045244236 0.16474411 -0.021785973 -0.24451692 0.09735295 -0.036628082 -0.15290459 -0.14226685
-0.24208304 0.040368833 0.13977073 -0.04308901 -0.06242593 -0.13230638 0.18553063 0.16563196
00000000: b967 b7be 73cb c63d 08f5 03bf 84c4 83be
00000010: 5ae5 8abe a166 2abd 2fc3 6d3b 6e83 5abe
00000020: 4c97 0d3f cfc1 4d3f 5dc3 f3be b1f7 843b
00000030: bc4c b0be 5fc1 19bd b1be cdbe a35a 933e
00000040: c563 6139 6999 fd36 5f1a 9738 f3ad 5cb5
00000050: 7b73 77b8 5269 6f37 f306 e537 44e5 be38
00000060: b7ae 8538 3657 3c38 04e8 80b9 e034 a4b7
00000070: 5361 dab7 6215 87b7 fb9a a739 a3a9 62b9
00000080: 0552 393d aeb2 283e 7f78 b2bc a562 7abe
00000090: fc60 c73d 5407 16bd 0593 1cbe 67ae 11be
000000a0: 9ee4 77be ca59 253d 0f20 0f3e 1a7e 30bd
000000b0: 55b2 7fbd 537b 07be befb 3d3e 6d9b 293e

transformer.encoder.layers.1.self_attn.out_proj.weight f4 [16, 16]
0.09755265 -0.2118223 0.2751137 0.037728854 0.44508252 0.0992306 -0.1956613 -0.29568854
0.19525442 0.23031941 0.07361025 0.22962232 0.059963793 -0.39237198 -0.18347268 -0.26441622
0.016207768 -0.54384935 0.17921896 0.2634279 0.09543434 -0.19540793 -0.032020815 0.25456983
0.23032138 0.07035865 0.27076882 0.012713272 -0.22524205 0.12844041 -0.29118317 -0.4277479
-0.1555433 0.20785236 0.19418885 0.4124809 0.37801528 -0.0667251 -0.17936294 -0.158378
0.22189662 0.07805169 -0.5346456 0.10681339 0.28301886 -0.23205341 -0.015558522 -0.3799584
0.008810537 -0.033800304 -0.36832938 0.22336966 -0.16068488 0.051457364 0.09292194 0.3003298
0.28346187 0.07822584 0.24889408 -0.07742624 -0.55227154 -0.015830781 0.06465841 0.47647798
0.13799648 0.43368503 0.3815708 -0.33574215 0.15987155 0.012378743 0.06733287 -0.35224584
-0.5118002 0.03860861 0.53895146 0.3409523 -0.39069015 0.29449117 0.37249595 -0.2058778
-0.07656475 -0.05916492 0.082903504 -0.06134897 0.35576814 -0.17960759 -0.32835397 -0.20274433
0.3538996 -0.2270857 -0.18792765 0.36061957 -0.22528991 -0.028979903 -0.11546784 -0.22244743
-0.34920457 0.004871595 -0.17634155 -0.3558142 0.3263888 -0.30553088 -0.5195725 -0.08088453
0.34930044 -0.23657125 -0.01349997 0.3002115 0.3953844 -0.09038723 -0.15386656 -0.15596192
-0.22152807 -0.35939428 0.2771218 -0.1445102 0.64419377 0.4255589 0.1633823 0.061246887
-0.03990003 -0.86869943 0.03775701 0.024924945 -0.28588617 0.4938939 -0.24724859 -0.21534966
0.25426975 -0.032718826 -0.00030588283 -0.22799669 0.28850102 -0.239083 -0.38009614 -0.0009841219
-0.00207323 0.1066665 0.124749444 -0.31863767 0.018309016 -0.185616 0.004559278 -0.23490196
-0.13775223 0.02945249 0.046471767 0.09652606 0.23303066 -0.20203027 -0.2619951 -0.35323024
0.08851514 -0.022557758 0.08508982 -0.54663974 -0.25939023 -0.017696591 -0.19648482 0.2702318
-0.15047501 0.2048315 -0.094020195 -0.3043661 -0.33701062 0.4006402 -0.05045553 -0.12642536
-0.0159373 0.0530716 0.007982 -0.2592537 -0.09232253 -0.1695369 0.14783965 0.08034893
-0.5305622 0.034544535 0.12985456 0.045236688 -0.019704545 -0.31313625 -0.2725346 -0.4172821
0.008335823 0.49744573 0.483212 0.28652912 0.12892653 0.09137276 -0.37663817 0.28305942
0.2070566 0.036063846 0.340255 0.33996296 -0.030411568 0.23700055 0.14445302 0.16503784
0.086942285 0.26725307 -0.6313914 0.37311774 0.43614084 0.3557333 0.067645274 0.09270747
-0.24209823 0.30562082 0.071971014 0.04186534 -0.123825885 -0.39181048 0.25593358 0.17831251
0.17811297 -0.20445761 -0.054158356 0.19630337 -0.14095259 -0.015289859 -0.16677302 0.05236494
-0.113636516 -0.36061606 -0.4196165 0.18937743 0.63350785 -0.2159437 0.24175085 -0.110611975
0.24657132 0.19525467 0.41865337 0.04393005 0.10811607 -0.42070714 -0.21031651 -0.10691346
0.6121855 -0.2433999 -0.11408534 -0.0011637168 0.42753336 -0.28776506 0.044206724 0.26448092
-0.37135237 -0.1526449 0.2217559 0.37319374 0.4563239 -0.19152479 0.52724886 0.04669669
00000000: afc9 c73d f2e7 58be b4db 8c3e 9289 1a3d
00000010: dbe1 e33e 6a39 cb3d 705b 48be 7d64 97be
00000020: c6f0 473e dad8 6b3e f9c0 963d 1d22 6b3e
00000030: 989c 753d fbe4 c8be 43e0 3bbe 9061 87be
00000040: 27c6 843c b639 0bbf 2d85 373e 06e0 863e
00000050: 1473 c33d 0419 48be 4228 03bd fa56 823e
00000060: 5ed9 6b3e 3218 903d 36a2 8a3e 544b 503c
00000070: daa5 66be e285 033e f615 95be c601 dbbe
00000080: be46 1fbe 40d7 543e 71d9 463e b230 d33e
00000090: 388b c13e 2ba7 88bd ebaa 37be d82d 22be
000000a0: de38 633e 90d9 9f3d 89de 08bf fbc0 da3d
000000b0: d9e7 903e 699f 6dbe 2ce9 7ebc e889 c2be
000000c0: 125a 103c 3072 0abd ab95 bcbe 04bb 643e
000000d0: 948a 24be f5c4 523d dc4d be3d d4c4 993e
000000e0: ea21 913e df34 a03d 17de 7e3e a691 9ebd
000000f0: ab61 0dbf 8eaf 81bc a16b 843d ecf4 f33e
00000100: f34e 0d3e f70b de3e 3f5d c33e 65e6 abbe
00000110: 5eb5 233e 36d0 4a3c d1e5 893d 9159 b4be
00000120: 5705 03bf 1024 1e3d b9f8 093f 4d91 ae3e
00000130: 8a08 c8be 8cc7 963e cab7 be3e a1d1 52be
00000140: fbcd 9cbd ea56 72bd 50c9 a93d 0f49 7bbd
00000150: 3e27 b63e 0deb 37be 031e a8be 369c 4fbe
00000160: 5432 b53e 2789 68be 1b70 40be 21a3 b83e
00000170: 66b2 66be 4367 edbc 677a ecbd 42c9 63be
00000180: f1ca b2be e7a1 9f3b e192 34be 472d b6be
00000190: 6f1c a73e 8b6e 9cbe b402 05bf caa6 a5bd
000001a0: 82d7 b23e bc3f 72be fa2e 5dbc 52b5 993e
000001b0: d36f ca3e f11c b9bd 328f 1dbe 7bb4 1fbe
000001c0: 41d8 62be 8702 b8be e9e2 8d3e 7bfa 13be
000001d0: e2e9 243f dbe2 d93e b14d 273e 04de 7a3d
000001e0: 376e 23bd 1663 5ebf 18a7 1a3d 662f cc3c
000001f0: ac5f 92be a9df fc3e bc2e 7dbe 9f84 5cbe
00000200: a52f 823e 2d04 06bd e65e a0b9 f777 69be
00000210: 68b6 933e 2dd2 74be f69b c2be a7fd 80ba
00000220: 07df 07bb f773 da3d a37c ff3d 7a24 a3be
00000230: cafc 953c 1f12 3ebe ff65 953b 248a 70be
00000240: ec0e 0dbe 5946 f13c 2e59 3e3d 74af c53d
00000250: 979f 6e3e 06e1 4ebe 3924 86be 98da b4be
00000260: 6d47 b53d 0ccb b8bc 9243 ae3d 95f0 0bbf
00000270: ccce 84be 71f8 90bc 5133 49be d35b 8a3e
00000280: 1f16 1abe 59bf 513e a98d c0bd e0d5 9bbe
00000290: a88c acbe b620 cd3e 75aa 4ebd a675 01be
000002a0: f18e 82bc 9b61 593d efc6 023c e7bc 84be
000002b0: 9813 bdbd 159b 2dbe 4763 173e fb8d a43d
000002c0: edd2 07bf 927e 0d3d 98f8 043e 1b4a 393d
000002d0: 6d6b a1bc 6553 a0be a889 8bbe 00a6 d5be
000002e0: fa92 083c 35b1 fe3e 9067 f73e f2b3 923e
000002f0: 5105 043e a421 bb3d b8d6 c0be 2aed 903e
00000300: a506 543e afb7 133d e735 ae3e a00f ae3e
00000310: ae21 f9bc 46b0 723e 7eeb 133e aeff 283e
00000320: cc0e b23d 65d5 883e dea2 21bf 4a09 bf3e
00000330: da4d df3e ad22 b63e 9b89 8a3d 6add bd3d
00000340: 99e8 77be 557a 9c3e 8a65 933d fe7a 2b3d
00000350: 6d98 fdbd 629b c8be ba09 833e 8e97 363e
00000360: 3f63 363e 565d 51be 27d5 5dbd c003 493e
00000370: e055 10be 5182 7abc 8cc6 2abe 9f7c 563d
00000380: 43ba e8bd aba2 b8be f9d7 d6be 28ec 413e
00000390: 922d 223f 5820 5dbe 898d 773e 8888 e2bd
000003a0: 317d 7c3e d7f0 473e bc59 d63e ffef 333d
000003b0: f56b dd3d ed66 d7be 365d 57be 72f5 dabd
000003c0: 30b8 1c3f d33d 79be 93a5 e9bd db87 98ba
000003d0: a7e5 da3e f155 93be 1c12 353d 0b6a 873e
000003e0: e621 bebe f24e 1cbe fb13 633e 4013 bf3e
000003f0: 49a3 e93e 131f 44be c8f9 063f 0745 3f3d

transformer.encoder.layers.1.self_attn.out_proj.bias f4 [16]
0.16393045 -0.35139328 -0.27883255 0.009785632 0.045560837 -0.29511154 -0.056175765 0.22723384
-0.24136303 0.10521714 0.07726273 0.10144315 0.050576482 0.2396439 0.11877869 0.077764265
00000000: 62dd 273e d2e9 b3be 24c3 8ebe ea53 203c
00000010: 009e 3a3d dc18 97be 8f18 66bd fdaf 683e
00000020: df27 77be 157c d73d ec3b 9e3d 6dc1 cf3d
00000030: 4929 4f3d 3665 753e 3e42 f33d df42 9f3d
