experiments/Datasets/darts_logs/modwt_pred_transformer_5_24_0/checkpoints/last-epoch=5.ckpt (torch, 668891 bytes, 206 tensors)

encoder.weight f8 [16, 1]
00000000: e4b5 288a 9cc5 0340 6612 57e1 51b2 f9bf
00000010: c0cb f6c7 55ea 1ec0 aa76 b377 7d5e 15c0
00000020: 9513 6a8f a084 06c0 4367 e993 e4ea 1140
00000030: 018f 58d7 7164 1c40 3b63 0f4f 6c20 1d40
00000040: f886 952d a12c 21c0 a705 4985 1669 1740
00000050: b7d9 a150 47be 1840 ae88 8583 1ee4 0040
00000060: 9b7b add8 c95e 1140 e37c f529 0020 1ac0
00000070: 6353 4c34 598f 1240 5b46 25c7 d4a2 1240
2.471489982001673 -1.6060351183270085 -7.728842853964068 -5.342275495842538 -2.8147593693015076 4.479387580033122 7.098090519695462 7.281663165392099
-8.587167191031298 5.852624971944727 6.185818920019691 2.1113863253713907 4.3425668578992385 -6.531250625236882 4.639988724859765 4.6590148083210705

encoder.bias f8 [16]
00000000: 457d 3efd 81a3 c1bf 8fd4 70ff c43e c2bf
00000010: bafe b817 1811 e4bf 3a75 1d8d 3bad ac3f
00000020: e5c3 6f03 67e3 dabf 2c72 3fc9 3e20 efbf
00000030: b6a2 fbfa 73d0 e5bf 8075 f7ff 1d33 e4bf
00000040: 54c8 79ff 42ab d3bf 990c 1294 4a49 eebf
00000050: f818 d8a9 1c2a 6b3f e7fa 100e 7d25 edbf
00000060: a5f3 61f8 2f1b 933f 2303 138a 9c04 f0bf
00000070: 98cc 6769 9044 36bf 5061 a350 d924 ecbf
-0.13780236115870018 -0.14254057381336735 -0.6270866835911513 0.05600916001888341 -0.42012954078296466 -0.9726861887571139 -0.6816959287653706 -0.631239890990102
-0.3073279852752695 -0.9464466945650144 0.003315978987987408 -0.9108262324078539 0.01865839913851954 -1.0011258500600853 -0.0003397800986981252 -0.8794981551136889

transformer.encoder.layers.0.self_attn.in_proj_weight f8 [48, 16]
00000000: 0027 2bda 2bba c73f ce7f fbe3 e918 d13f
00000010: 4efa 56df e8b2 d2bf 96ae 82ef c397 b8bf
00000020: a425 19c8 294d d53f 427a 27ee 1f86 cf3f
00000030: 3a26 4be3 09be dc3f 129d cef0 4783 d23f
00000040: 4fbb c9d7 3e08 e63f e393 d7aa 18f4 da3f
00000050: 9c15 9fb2 6e67 f43f fc39 0da4 af5a b03f
00000060: 13e0 e678 ee35 0140 a323 4542 41ae e1bf
00000070: 0075 8435 a634 e53f 8fc1 ed56 588e 96bf
00000080: 8a70 82ae 3e25 a93f 4be3 5f59 c327 97bf
00000090: eca9 c2a4 d88a ccbf b5ad 8b68 ed70 db3f
000000a0: 3c7e 96aa 30bd c3bf ed62 14ae 5a05 a23f
000000b0: 1bd3 e2e6 151c a83f 58ae e428 355c d2bf
000000c0: 1a4d f170 0b24 e43f 6379 7a91 0e1b ea3f
000000d0: d314 b329 4cee f43f 1990 2d3d 7881 da3f
000000e0: 17c6 9299 3247 0540 35f4 5370 0a11 c9bf
000000f0: caed 700f e836 e93f e986 221c 5670 e33f
00000100: 7446 18b5 fe31 dfbf 6327 78c9 0f32 b43f
00000110: a8c6 4fc3 701a ab3f 95f0 f915 6865 db3f
00000120: 4f09 6738 f31b d33f e02d 8daf 2e7b db3f
00000130: 4d62 2412 76fb e7bf 3dbe 9cef b8c9 d43f
00000140: e37b 0027 5833 d7bf b0d3 fde4 cfe6 d63f
00000150: 8483 ff15 778c e2bf 8a56 20ff 38d3 bc3f
00000160: 6c13 43f9 dd7c d7bf 88f1 b230 0bb4 e23f
00000170: 5f70 7012 9f36 e0bf c780 8030 baf3 973f
00000180: b9a1 04f1 dabc c8bf 0f2c f8f4 59e2 cc3f
00000190: 61f0 fd3e 2c56 ba3f f76b 8e2b 2241 b93f
000001a0: 2a24 4a65 6645 e03f 9938 4c1f 3625 c63f
000001b0: b609 c8c4 dd21 aebf 9c85 6b15 646c b8bf
000001c0: b6d8 3350 9f99 c33f 0e32 178a b720 e13f
000001d0: 4ab9 352e 487e f63f 8dab d737 7a86 d33f
000001e0: 64a4 025f 692f 0040 b30d 1ca3 9b8a ecbf
000001f0: 34da 4c15 1165 f73f fe2f 939a 9ce7 c43f
00000200: d04a 9af2 3c63 d7bf a088 f4f3 626c b03f
00000210: 0030 77ee 9075 d63f 7da1 5dc6 1e32 a8bf
00000220: d6cc d48e 7c4a d33f 2284 4f9a 43f9 d63f
00000230: 5433 52db be03 95bf c39c a46a eac2 c6bf
00000240: 3379 7581 a583 f03f 32ed 6d06 6a5e d23f
00000250: 988b f011 4d7f c0bf c6d1 384a f57f b53f
00000260: 9985 5b6f 853a e93f a689 6441 f130 d1bf
00000270: a953 90ee b769 e03f c8ec 1573 8d2c e6bf
00000280: 95a3 6355 d30f b63f eb4d e882 1271 a73f
00000290: f187 6778 2d63 c0bf 88c8 f2ba ea6d bcbf
000002a0: 2a90 e1ae 8bf8 e63f 0aba 57cf 0e7f d13f
000002b0: 5529 e58c 9756 e93f 71bb 037b 79f8 d03f
000002c0: ea58 94d1 6f2c c43f 40d4 7e0b c56a ed3f
000002d0: 5c88 92b4 a32f e03f f9bf dd07 75c6 bcbf
000002e0: 3b7e 48d9 0842 f03f 5aa2 1354 c6dc e0bf
000002f0: 4467 1a34 7d9c e43f ff5c 6a97 041f c6bf
00000300: 5b0f 3b1c ba81 b3bf 34fe 03b0 0864 893f
00000310: 6e60 1d5b ed6a d73f c11d dbb7 2643 d83f
00000320: 6a79 5890 2a2a c23f 3b2d 5ebf e639 c03f
00000330: 682e cabe 8df3 cb3f 078b edd8 7285 b4bf
00000340: 106e 83a0 b62d dc3f fe7d 875e 33ad f23f
00000350: b79e 7b42 7fc9 f83f 30a7 affc ceb9 d73f
00000360: 72d5 dd93 047f 0140 68cc 73a8 da8f d1bf
00000370: c9d0 98c7 1e36 e03f 11c2 e481 7ec3 bcbf
00000380: 01c4 3ff4 ee5a 9ebf 7c27 ba15 47d4 d8bf
00000390: 2710 3b81 19d2 b23f 8b68 9c9a f6e9 df3f
000003a0: 0a45 5f9a 9785 c8bf 28b4 05ea 74ec acbf
000003b0: b4db 5425 c844 d4bf f8f4 cce3 2a67 c43f
000003c0: 73f7 07ac 5d7f edbf 40ac 3bb4 20fa d53f
000003d0: 3e4f 99bb d807 fbbf 5f3d f45a 6259 c53f
000003e0: acd5 251a 6ffc f2bf d601 2a3d 972a 8abf
000003f0: 5c41 9227 dc5e dcbf a2c2 51fa 13c7 b53f
00000400: fa8d 9e81 09cf 8bbf 5755 0c98 bd70 703f
00000410: 0062 741a a998 b83f c092 e2d1 7543 d43f
00000420: 71e4 5b3e c37c ccbf 3ecd 00c5 222d c63f
00000430: 23df 554b f41e e63f 8bd9 941a a7fb c3bf
00000440: d0f0 907d 4c38 f33f e1ed 34ff 8ede b43f
00000450: 9274 0b52 9034 f33f 4e85 1e72 06e1 a13f
00000460: 2a40 cc8f 7249 fb3f b651 976d 3e20 b6bf
00000470: a3b8 69de 42a1 e43f d95c 10bd 9b1c d3bf
00000480: 57c7 6677 fdba cabf 26b2 fedd 221d e3bf
00000490: 4e0a 7756 f922 d73f bf18 cd42 4a32 e33f
000004a0: 5cf9 6bec 9f2b de3f ef39 d1ac ba18 b8bf
000004b0: 4afb 7f80 4453 dabf 34a7 1dab 28d5 da3f
000004c0: 4591 5f27 6b39 dbbf ce47 f594 76d2 e2bf
000004d0: 9166 fe9f 9c1c ddbf 58fc c250 1e30 e13f
000004e0: ba77 9407 8c08 fdbf 4878 c3da 6a1d ee3f
000004f0: eb36 de88 671d e7bf 76ea 94df 9e06 ba3f
00000500: e923 ef1c 6ffe de3f 5096 b81a 4b55 d7bf
00000510: 1b87 5cd3 a5ed cc3f 79c8 bfb8 cc3d de3f
00000520: 085f 6de1 e502 d0bf c19e e830 9c31 cebf
00000530: a9a2 455d a395 abbf 06b4 80d2 e3db e0bf
00000540: 4dbb fc47 4cfb c13f ece7 a76f c557 b9bf
00000550: b672 944b 6a67 df3f fe5c 65c0 4830 d83f
00000560: 26da 5060 c411 f73f 26df 38ec c6ae e93f
00000570: fbac 4b5d 9505 d2bf 7123 bf49 16d4 c23f
00000580: c6e0 128a 9fb4 91bf a65d 285a 8a14 c7bf
00000590: 7c6d d75c d299 cb3f 9128 0b06 1693 a2bf
000005a0: 37a3 3c1f 187d cbbf 2de5 d00a 693b a73f
000005b0: 66fb 3961 9d15 c63f 9a24 8bff 5710 b1bf
000005c0: f795 19df cf2f b3bf edc5 6b9d 374d edbf
000005d0: 0e00 9e7f 123f f6bf 900e ef52 2424 ccbf
000005e0: 2625 e6ce 56ed 04c0 cef8 8e38 afa8 e33f
000005f0: 4b84 c1bf 7a7b f0bf 07ef 0c6e 3cc4 babf
00000600: 8408 d6d7 81fc b1bf f412 5eb0 1009 d53f
00000610: 5f33 4845 e4c5 c73f bd32 8dc7 a4c6 ce3f
00000620: 47c1 6a74 d30b d1bf 3585 2579 00a7 d0bf
00000630: 2d06 ce3f 14ab dc3f e5ff 14aa c158 b3bf
00000640: 3e01 eadd 9c64 e43f 8002 2d6c 2007 e73f
00000650: f42f fbe3 71f4 e93f cfb7 8c9d 48e5 da3f
00000660: e28b f8a7 ee3e 0040 6dd5 9a20 8089 d4bf
00000670: e870 d9b9 abcc eb3f 4da7 d676 905b dd3f
00000680: cd9b 911e 8948 cfbf e5b0 70a5 cc39 ac3f
00000690: 3708 31aa 3f5c bcbf 5fd5 3f92 df5f d93f
000006a0: e273 9e94 7091 aa3f 75a9 8acd a2a3 c43f
000006b0: b555 5ee6 eda4 d13f edcf c819 a7e5 c8bf
000006c0: 6105 92b8 2553 acbf c8cf 8c54 ae00 ef3f
000006d0: df34 7464 c9ba e13f a59c af6f 41d1 8c3f
000006e0: ae14 079b f7e7 0140 92e8 6d7c 3c64 eebf
000006f0: 66eb 0dfe f100 f43f 2eb7 0ea8 5e76 ad3f
00000700: f4ef 4c0a e81f c3bf 7268 9eac ef6a d2bf
00000710: 2478 9226 ff39 ebbf 70a6 3167 545a d1bf
00000720: a59e c4cc f8a0 b5bf d3ac 1c40 d9c7 bdbf
00000730: f8d0 e760 c5b3 d6bf 57f1 9324 c0dd cc3f
00000740: 49c7 4e24 bc7b dfbf b0a7 d70f 8aa8 e33f
00000750: 31a7 1b1c 12c6 b13f 63c4 9605 5207 e13f
00000760: c918 2f73 a3d8 cbbf d96d 5c95 6b13 d3bf
00000770: 1bb3 792c 4806 cc3f f998 fa92 7628 e53f
00000780: 9f43 5f8a 2d9a c73f 8d3f 7c70 842e 9cbf
00000790: eede 6d5d 6229 dc3f 6e1a 86e9 d418 c33f
000007a0: 304f a81a 907f d93f 866e 7385 a051 cf3f
000007b0: 7ad2 7aac 34e5 d53f 0df0 a282 6bc0 adbf
000007c0: 8860 397a 3545 e43f 9c63 d9fe c45e e03f
000007d0: c365 6d63 0cd6 e73f aebb 78ee 47eb e2bf
000007e0: f9db 9be9 5fc7 e43f f51f 93f8 aa7f e5bf
000007f0: dc89 2bdf cc06 ee3f 8270 be4e 1bf1 e2bf
0.18536899712335497 0.267145607604104 -0.2921697789242089 -0.0960657558195471 0.33283466854899246 0.24628066185592173 0.449099037138328 0.28926275745693986
0.6885065283403068 0.42114845928000316 1.2752520539664607 0.06388376002471569 2.1513337560136363 -0.552521352227917 0.6626769109022064 -0.022027378373822123
0.04911228065722735 -0.022612621622076372 -0.2229872517103354 0.4287675400689424 -0.15421112374768764 0.035197099447207815 0.04708927577431706 -0.2868779086445321
0.6293999868306941 0.8158028451323783 1.3081781033409257 0.41415220236217604 2.6597644803921514 -0.195832543227796 0.787952451857046 0.6074629354008866
-0.4874264496330405 0.0788888804310353 0.0529360998551856 0.42806436678052623 0.29858093746237996 0.42939345496844616 -0.749445949014509 0.32481215858112816
-0.3625088101270519 0.35783765184833793 -0.5796466283464814 0.11259800175352033 -0.3669962820243231 0.5844779921676926 -0.506667648328868 0.023390683374714862
-0.19326340454541738 0.22565769635579655 0.10287739313020118 0.09865010798823436 0.5084716776192455 0.173010602266406 -0.05885212924114873 -0.09540391467046166
0.15312568107737484 0.5352437684137514 1.405830555445919 0.3050828500114953 2.0231501982384987 -0.891919916699797 1.4621744949378241 0.16331822917561561
-0.36543201152487104 0.06415384727418649 0.350925667645015 -0.04725738688904622 0.3014212984882766 0.35896387166400434 -0.020522100578591676 -0.17782335478952946
1.032140260409119 0.28701258304473065 -0.12888491989096162 0.08398373663005207 0.7883937048865618 -0.2686122072792848 0.5129050883721123 -0.6929385421530236
0.08617897829721095 0.04578454826346586 -0.1280266607200811 -0.11105219902199981 0.717840043606434 0.2733799958067783 0.7918203117235786 0.2651656819643256
0.1576061032616914 0.9192834114570658 0.5058153654865793 -0.11240321580930858 1.0161217200874393 -0.5269500391123743 0.644102670444433 -0.17282159226736124
-0.07619822682596349 0.012397830840654135 0.3659013166229731 0.3790985866039272 0.14191181228757027 0.12676700920233394 0.21837016883761184 -0.08016126438228009
0.44029012370239773 1.1672853176640952 1.5491936299312508 0.3707158534658559 2.1870204498360915 -0.274405159477459 0.5066064737680104 -0.11235800429563648
-0.029643758447438277 -0.38795640107911544 0.07351836590811499 0.4986549863693958 -0.19157691037847996 -0.05649152142255104 -0.31669810910846796 0.1593984234149628
-0.9217975959761432 0.34339158631218325 -1.689415676887577 0.16679028931728632 -1.1866293927572356 -0.01277654796035758 -0.44328979362855647 0.08506893979370969
-0.01357848574463726 0.004013767815896094 0.09607941528191333 0.31661744591319163 -0.22255745453711342 0.17325243586820166 0.6912785979647861 -0.15611733243867962
1.2012448220184986 0.08152097445138608 1.2003329472420643 0.03491993086869148 1.705431520185821 -0.08642950225414023 0.6446852058413878 -0.29862111533425445
-0.20883148508215285 -0.5973066650236134 0.3615096420655036 0.5998889260015615 0.4714126404577621 -0.09412733763858915 -0.4113322501070128 0.4192601843884518
-0.42537955136346667 -0.5881913098658005 -0.4548713266791334 0.5371238305450659 -1.814586667641818 0.9410909912801424 -0.7223394082263587 0.10166352232492123
0.4842794210967996 -0.3645808945605937 0.2260024339712395 0.4725219539824433 -0.2501768781125837 -0.23588898075217027 -0.053876023421996884 -0.5268420325643326
0.14048150553704844 -0.09899553276036926 0.49068696385237887 0.377947032820387 1.4418376695954378 0.8025850881303753 -0.2815907870378422 0.1470973835078229
-0.017290585329391893 -0.18031434442739885 0.21563176663662975 -0.03627842735075249 -0.2147550728343732 0.04537513978034222 0.17253463027369803 -0.06665563572745939
-0.07494830319190969 -0.9156759333256425 -1.390398500923769 -0.21985296296599133 -2.615888229750129 0.6143413643510713 -1.0301463594880882 -0.10455682455807046
-0.07025920409617653 0.3286782953585281 0.18572667487060365 0.24043712371567053 -0.2663468014607315 -0.26019298392027973 0.44794183951316563 -0.07557306673425009
0.637281831193867 0.7196199524697278 0.8110894634969541 0.42024436364851864 2.030728637955222 -0.3208923643499791 0.8687342290754971 0.4587136421711094
-0.24440111153236757 0.05512847442182237 -0.1107826033121747 0.3964766433922104 0.05189086736866223 0.16124377285207073 0.2756914853756272 -0.19450844534878745
-0.05532186391884398 0.9688331271522594 0.5540511095038275 0.014070998402486554 2.238265238908375 -0.9497358732471801 1.2502307819365455 0.057543714537457866
-0.14941120627361182 -0.287776869366673 -0.8508296731340619 -0.2711382873299959 -0.08448748587818018 -0.1163306981585948 -0.3547223516791429 0.22551728998213136
-0.49192718072582814 0.6143236455366061 0.06942856966238932 0.5321436032446737 -0.21754878162591343 -0.29806031786003256 0.21894170924806464 0.6611893530541969
0.1843926358838219 -0.02752119957500514 0.4400258934397091 0.14919530298739708 0.3984108219458333 0.24467855945737343 0.3421146091816706 -0.05810867280658281
0.6334483515920661 0.5115685441515896 0.7448789541187398 -0.591220823063727 0.6493377268478745 -0.6718344550108656 0.9383301123419261 -0.5919319665877227

transformer.encoder.layers.0.self_attn.in_proj_bias f8 [48]
00000000: d5cc 858a a6d7 963f e638 ba45 9c88 d43f
00000010: 4218 5434 0dd1 db3f 33b6 2628 e310 c9bf
00000020: dfc0 53bb cdaa ca3f bd1a 8697 48d3 bf3f
00000030: 02d9 ed07 0435 b23f 1ab0 c06d 3e46 c5bf
00000040: 353a d3d6 6152 b2bf 8885 eed2 2fb5 ca3f
00000050: 849b 2c51 0c38 d53f 2abb 7823 f366 c33f
00000060: 171f 5b1c 149c ad3f 2534 baa5 8cd0 c7bf
00000070: 29f0 3488 8c1e d43f 58a6 50d4 899b d6bf
00000080: d4e2 204a 826c 1d3d f4fc 922a 10c0 2c3d
00000090: 2959 711b 99ba 15bd 523b 290c aa42 0d3d
000000a0: dea2 ce90 f914 023d f9a2 b4bf 76d6 f8bc
000000b0: 0720 dec1 8d2c 29bd 63e6 efbc 8ef1 0ebd
000000c0: ea20 30f7 d6e4 ae3c fc5b 8e02 0d8c 00bd
000000d0: 8aa7 2643 987f ecbc ba65 b362 cc44 1dbd
000000e0: 84ff ec3c a395 083d 4363 0f9b 314d fa3c
000000f0: f488 80f4 db84 0ebd 9077 8fea a567 24bd
00000100: 20d2 07e7 fef3 bebf cc4a 19cb a25c b83f
00000110: 791d 77ac ec3c b83f d0c1 aa20 6cb3 98bf
00000120: ed4c b7bb d8fb a3bf 1f06 7ebf f8d8 7cbf
00000130: 85c0 ce98 6b4a b3bf a2e3 d49b 9cc8 943f
00000140: 53dc 517b cdfb a03f 9ab3 dfca c7f0 afbf
00000150: 468e ba42 3f7f 943f a549 99d4 76a4 bebf
00000160: 9ae5 c184 fc98 b0bf e436 7c80 d687 b5bf
00000170: d1bc 4f5a 8ce6 c4bf 2776 4e87 2246 903f
0.022307016567947386 0.3208380394870701 0.43463449583248714 -0.19582786045559572 0.2083375134166152 0.1243176813060058 0.07112145608502732 -0.1662061725522797
-0.07156955237153613 0.2086543826999725 0.33154590537235884 0.1515792773438645 0.057831409894389 -0.18605192272335205 0.31436456014103215 -0.3532433102978749
2.6133640194972967e-14 5.107069732134202e-14 -1.9299138936228854e-14 1.2994231121775166e-14 8.029991369465539e-15 -5.51508826688402e-15 -4.4718074655974835e-14 -1.3741711883764008e-14
2.1436952986628483e-16 -7.348376803323437e-15 -3.1639598816966697e-15 -2.5995866504751624e-14 1.0917720977977073e-14 5.84011465253703e-15 -1.3553150267970834e-14 -3.624634002911924e-14
-0.12091057911295211 0.09516351183382737 0.09467963419512228 -0.024121942037426625 -0.03903081218200009 -0.007042857810917207 -0.07535431366591368 0.02029652310486408
0.03317110185974372 -0.062383883967277856 0.020016659210013076 -0.11969702425384428 -0.06483438721797655 -0.08410397183271417 -0.16328577432384475 0.01589254332394865

transformer.encoder.layers.0.self_attn.out_proj.weight f8 [16, 16]
00000000: e7bc c8d5 5697 c3bf bf68 7d9e a90e c63f
00000010: 5b86 963b c974 dabf c3e2 648a 5cf1 cc3f
00000020: ea7d bfc6 2e85 c5bf 8b38 f490 8c61 c63f
00000030: 55fa 45a5 703d b93f 5c4f db7b f832 b53f
00000040: e35e 9b79 2d00 54bf 6389 2719 c53d d03f
00000050: dcfa 5d75 ee62 b4bf 6006 1e32 2dd6 cd3f
00000060: 37f9 2068 25ca b5bf 3055 8947 2b52 b1bf
00000070: 723a c38b aac1 8d3f 08bb 772c f360 d1bf
00000080: 4617 d343 6334 c03f 3fd9 6153 ea7b c3bf
00000090: e7fd 3971 1d71 b23f d0b2 147b b43a bcbf
000000a0: 9682 7b9f 56b7 9d3f afd6 6941 b8e2 c7bf
000000b0: 847b f874 29f5 ae3f 063c 3107 c6f0 d2bf
000000c0: a217 578d b5db be3f 964b bbed e215 cdbf
000000d0: 8b8f e08a 7d4a c3bf a2f0 9400 e2f4 c6bf
000000e0: b15c e960 1ecd c8bf b8d2 8eac a0a3 9abf
000000f0: 1845 29e4 92e8 c93f 5351 7042 4e6c bd3f
00000100: 9f81 06e7 d279 a93f 92db 66fe b4dc a23f
00000110: cc14 b4a0 5a8e 9bbf bee7 07fc 8ea5 b93f
00000120: e416 eff9 09cb 7abf bd3c 7e4b 8d6d bcbf
00000130: e398 5e07 431b 753f b3e4 f40e 2440 cf3f
00000140: ada5 78ab bc73 64bf 26a8 76a3 3f31 78bf
00000150: 231a da41 fe86 9d3f 8f9d 1fc1 1d74 9dbf
00000160: 27d1 5447 f247 c63f 39be 7857 f3ce c03f
00000170: 6013 d4ac c831 ba3f e7f1 3257 d92f 8fbf
00000180: aa9d 6e7d 1c8a c53f f2ff 8a62 0893 b0bf
00000190: b841 ddca eedc bbbf 737d b297 207d a93f
000001a0: 9341 c6b2 e97f 98bf 81f9 ab78 9634 b7bf
000001b0: b324 608a 471b c63f d613 ae27 5959 a03f
000001c0: ef4f b652 fd96 bd3f a219 dcd2 d630 cbbf
000001d0: e8ed 7a2b 3c6e b3bf 38ce c451 b962 adbf
000001e0: ddf9 7b9b f3f3 b53f d50d 6734 7138 b23f
000001f0: 6674 34c7 6105 babf 4644 83eb abd3 c7bf
00000200: 827b 63af b176 a0bf 32b3 a82a 9b41 943f
00000210: 60f5 513a aa1b b7bf f228 3a7a e980 babf
00000220: 979c 2f0c f6e5 b6bf e31c 8436 c9da b73f
00000230: e998 03d2 5b6c b0bf 254a ab47 6f02 b6bf
00000240: 5dcd 1e6e 5b77 babf a9fd 1171 7891 c43f
00000250: fb1c 1902 2c1b c4bf 0223 c713 d23a b23f
00000260: df31 ef97 ae82 b63f eaaa 2d66 58fe a73f
00000270: 3876 ace1 8274 b23f 57cd e40b 59ee a63f
00000280: 2c51 60e2 9669 b93f c983 80de 6a32 a23f
00000290: 3cc0 b408 7f87 8c3f a2bf 8abd 83ab c2bf
000002a0: ab5d 4772 b5c4 b8bf f686 6549 7e25 ccbf
000002b0: 9b7a 5b3f 16a1 81bf e6d6 3464 dc00 b5bf
000002c0: d575 61f3 4f5f c93f 8f0c 204b 762a 6f3f
000002d0: acb1 95b7 02ca a23f afc6 4612 3f8a ca3f
000002e0: b24f 704d fd50 7f3f 414a 1df0 6a2d cc3f
000002f0: 2a2d 6bc9 807c b83f a5cf 9980 4155 cdbf
00000300: 8012 ecb6 751f c2bf 75d8 bf9b ddd8 bf3f
00000310: 5c61 ffdc b4ac aebf 619d a6ad 279e d2bf
00000320: e87b 7d50 bceb a43f dbec a2e1 130a 96bf
00000330: c33d 5b86 f9ac d43f 2a4a 05fb 9a41 c5bf
00000340: 5d30 d63f d908 b13f 397f 3084 c9f2 993f
00000350: 08ff 6c1a 04be c8bf 6b1a 5301 9925 d1bf
00000360: 2036 7475 36ee 833f 3d46 4d8a 0de8 cbbf
00000370: 2a50 98ec 6828 aabf 34d7 2790 92e2 c3bf
00000380: 7374 ffd8 a855 5a3f 1471 18c0 aee3 92bf
00000390: 1c9c 0b69 5c4d b23f 70ae b851 1946 c3bf
000003a0: e09d b407 5f2a 823f 104d 7a00 1425 a23f
000003b0: 010e e7c0 2d82 c13f b512 719c 7896 a63f
000003c0: 0548 4ae4 f793 b83f 5b70 b3ff 77de 903f
000003d0: 634b 6f36 77ff b43f f568 7535 2dfd 723f
000003e0: 5ebe f2d3 eaab 953f e312 79d4 d308 a03f
000003f0: 008d 7012 f968 b4bf d364 dd67 45f5 c93f
00000400: 6402 59fd a74a bd3f e6fc 7b14 ffd3 bc3f
00000410: dd82 9111 71d8 78bf 0aa3 3996 3526 c1bf
00000420: 9406 5dd3 1d13 c13f 5302 9509 c9ac a43f
00000430: 3371 7b4f 20aa 7abf 044e e62f 9f90 a2bf
00000440: 6a4a be8c 0bb3 a7bf a0cc d635 cca3 a53f
00000450: e266 d22f 1147 b6bf 384d f251 02c9 adbf
00000460: e67a b64b 6d66 aabf c1b5 d421 5c26 b83f
00000470: 8ca3 8618 0b49 843f 73c6 447a e74b b83f
00000480: 7643 10ab f2b6 b03f 93a3 95aa e19f cc3f
00000490: 2552 75a4 6546 8a3f 18a6 b623 94d0 d8bf
000004a0: 6982 f672 307e ca3f 5540 e25b dc2d b63f
000004b0: 1b54 0a61 13f9 c0bf 6a5f 2392 f680 cd3f
000004c0: 01c9 ee40 abdb c0bf 9325 9e73 7295 cabf
000004d0: dded f40f 011b c53f cbe0 0904 3c9c ccbf
000004e0: 04ad 5382 a9e5 b0bf 2c8d 1b90 4821 9bbf
000004f0: 766c 2895 82a4 bb3f b501 a1d0 e67c 65bf
00000500: 0690 0977 70de cebf 70e9 9e76 1f1b bfbf
00000510: a750 a9da f914 abbf fef9 95fb 1dd1 b7bf
00000520: b092 687a 7e8e 533f 0ff1 8ea0 a403 a03f
00000530: 68bb 996e 261a c73f c904 5abe fff6 c13f
00000540: 547c 227f aeb5 b13f ea1b 5481 7983 c73f
00000550: 2c8f 11bd 52a1 be3f 3936 0f45 8d34 84bf
00000560: 7327 d84b bc60 b03f b5e1 0cbe 58cb 8c3f
00000570: 07dc b9f0 f1dd ae3f abda 5f3e e195 87bf
00000580: 6aa2 9a15 378d c0bf 10ae eda6 c6a6 d43f
00000590: b8fa 4403 3b91 733f 45fd 1527 ce1b c0bf
000005a0: 0285 4f86 6c2f d7bf 0cad 6305 65ac b73f
000005b0: ee36 60da 81a4 de3f 8c2f b3c8 9faf c3bf
000005c0: 0803 455e 5a93 b1bf 52aa d42a 48b0 e0bf
000005d0: 31bd 9f2e c7b5 c9bf fe49 87b6 7892 cf3f
000005e0: 4309 8a9e aa82 c7bf 6aa8 ffe5 7e94 d1bf
000005f0: 5eea 4c46 d139 a8bf 9ed9 0c2b 0c90 d3bf
00000600: 4afb 866a 284b d73f 8277 0b11 c16d cebf
00000610: 8a17 32f4 7fe1 c0bf 7ba0 dc0a 69ac d03f
00000620: 1b3d 5265 7803 c03f f254 0799 d5b7 d4bf
00000630: 551f ef41 7eb4 873f d995 19fa 01b1 e6bf
00000640: 7234 3c4c 4999 c9bf a7e6 219c be3a ca3f
00000650: f4b7 f188 e3bf c6bf 4ded 26dc 0d31 cf3f
00000660: c95f 2e05 3b01 d13f 2ea0 452a ccae d13f
00000670: ebb7 eb23 6756 e73f 43e4 1c48 9607 d9bf
00000680: a7a0 077d f414 7cbf 6473 3096 d95b 913f
00000690: f348 b444 8f90 b4bf 16e6 0fc2 00fa b73f
000006a0: 3afc 3bdd 9ac3 bbbf 9b55 5e2d a970 aebf
000006b0: 0183 6eee 9f90 aebf b15f 7a2f 104b 833f
000006c0: c1d3 2a4e ff18 a3bf 314d 2b42 a9fb 00bf
000006d0: 981c a99b 6192 b3bf 1caf f8d9 1b45 ae3f
000006e0: 7b6e 80e6 a9fc a2bf 6a60 97a2 0ef0 af3f
000006f0: 0ab0 c5fc cb38 893f eb28 c8f3 07a2 bb3f
00000700: 58a0 deb7 713b d1bf d787 f636 f289 c83f
00000710: b7d3 6a40 1597 c5bf 0486 18f9 918f c93f
00000720: d80a 5293 d037 afbf 9b9a 7be9 215c c5bf
00000730: 7b6e fff7 0b36 cebf ef3b 698a a80e c63f
00000740: d482 5344 4ee5 b9bf 58c9 766e 0db3 d2bf
00000750: 1106 e676 6302 bf3f 2779 d640 482a ba3f
00000760: 0950 2d73 766b b53f 9960 d55f e572 d1bf
00000770: 8d85 a8a9 148f 963f 3849 4323 33ae d63f
00000780: aa3e 3d5f 6252 d1bf 40de d8e2 c96d b63f
00000790: 25c7 7e91 bc04 b43f a8c7 0f6d dd69 d6bf
000007a0: ee5e c6f7 5fd1 e0bf b7cc 1ae6 77ea ce3f
000007b0: 43f4 9bc6 f508 b1bf 317c 6a4f 125f b63f
000007c0: 3d66 42d7 ac07 c53f 4dc1 81d6 0d66 c8bf
000007d0: 4a77 ce38 f774 8dbf 835e 56bf e95c bc3f
000007e0: 1ddb 1c02 e63e acbf 306d d91b 5543 b7bf
000007f0: efac 11e1 059e d93f 5e37 5c7f 0c0e d5bf
-0.15305600584677068 0.17232246626628542 -0.41337805575503744 0.2261157680275315 -0.16812691406720087 0.17485196187812266 0.09859375033372804 0.08280900024265975
-0.001220745476919243 0.25377013641823093 -0.07963457456024109 0.23309864947445913 -0.08511575500685785 -0.06766005035872946 0.014529545202461611 -0.2715423521284923
0.1265987473654439 -0.15221909591100233 0.07203849806136696 -0.1102707672586789 0.029019692882573077 -0.18660643762603032 0.06046418717254823 -0.2959456510770341
0.1205399961537226 -0.22723042114247666 -0.15071076661217506 -0.1793482306328587 -0.19375972492227825 -0.026014814884279786 0.20241008892711743 0.11493386385001729
0.049757567120880745 0.036840110831170794 -0.026910224970397675 0.10018247273538258 -0.006541289300860707 -0.11104662983983622 0.005152952033233601 0.24414492349914027
-0.0024965939480991657 -0.0059063421134997515 0.028835270661625622 -0.028763260757754202 0.17407062991117891 0.13131562968327318 0.10232214183277 -0.015227983449556738
0.16827732205022744 -0.06474354177316835 -0.10883991673222837 0.04978277065060412 -0.023925448929334413 -0.09064617582405356 0.1727075029050745 0.03193167313933258
0.11558516759242797 -0.212427952727194 -0.07590080319908277 -0.05739382861284209 0.08575365587237323 0.07117373971328018 -0.10164462197686105 -0.18614720344206342
-0.03215556398367082 0.019781517485330365 -0.09026588367301747 -0.10352954134046735 -0.08944642827519754 0.09318215924223554 -0.06415342213913146 -0.08597465038045778
-0.1033837455604973 0.16068940659532174 -0.15707922079511846 0.07121003134592388 0.08793154916128952 0.04686237571043768 0.07209032067881871 0.0447871996897457
0.09926741625560415 0.0355409046753788 0.01393031354254514 -0.14585921053867162 -0.09675153770455462 -0.21989420493905926 -0.008608030136597214 -0.08204438635297215
0.19822120078872155 0.0038044271868798506 0.036697468672034134 0.20734394447713586 0.007645596945639642 0.22013603901230464 0.09564976613471701 -0.22916430262887136
-0.14158507758851968 0.12440285732722763 -0.05991139600490911 -0.29090301473703134 0.0408610199217419 -0.021522818228487544 0.32305753823035505 -0.16606461769932085
0.0665412693835505 0.025340222066119387 -0.19329882898636463 -0.2679197800575028 0.009731698474321482 -0.21801919224758307 -0.05108955276605827 -0.15535194434021948
0.0016073368933498227 -0.0184466652627729 0.07149293484290847 -0.15057674875548654 0.008869879171995387 0.03543913369972007 0.136785239401533 0.04411675367058391
0.09600781749239225 0.01647365091490403 0.08202309683774227 0.004635979268039704 0.021163624941151198 0.03131734818138001 -0.079726759912365 0.20279758044742965
0.11442041335340886 0.11260980844598442 -0.006065789865801388 -0.13397855601513015 0.13339588947751635 0.04038074724167431 -0.006509901249696792 -0.036259626958010244
-0.04628788083131925 0.04226530225005232 -0.08702189843679833 -0.05817420244525312 -0.051562705509459225 0.09433532548856417 0.009904944120380475 0.09490820632051981
0.0652915637622423 0.22362919644663445 0.012829584199303199 -0.3877306317104696 0.2069759904234332 0.08663727992302601 -0.13260118711755883 0.23049814353612003
-0.13170376463455827 -0.20768576283834914 0.1648866012491074 -0.22351789662548635 -0.06600436622436595 -0.02649415378153923 0.10797897473860182 -0.002623034296476779
-0.24116330921526713 -0.12150761266722099 -0.052894409124435264 -0.0930346240256554 0.0011936411989463096 0.031277794455919154 0.1804855384866315 0.14035031122697308
0.06917849162935968 0.18369978728171016 0.11964909664089579 -0.0098658596706641 0.06397606708210705 0.01405972795474573 0.06028705657529803 -0.011516341892258216
-0.12930954508671572 0.32267919828038405 0.004777174490583284 -0.12584854992381103 -0.36226952663680845 0.0924742830426803 0.47879072500005193 -0.15379712390710798
-0.06865467835906369 -0.5215187870538307 -0.20085992600022842 0.2466574565174397 -0.18367512456104337 -0.2746884580689143 -0.047316112357709925 -0.3056669636165682
0.36396227267316716 -0.23772443134560822 -0.13188170837036878 0.2605230909416673 0.12510590503050242 -0.32372035927012555 0.01157473219599551 -0.7091073879971034
-0.19999042723103205 0.204917742001091 -0.1777309817002216 0.2436845135651801 0.2657001066777381 0.2762937939464817 0.7292972280099524 -0.3910880760409478
-0.006855921776583929 0.0169519422453165 -0.08033080508565486 0.09365849244922972 -0.10845344449261143 -0.05945328406157132 -0.05969714913886116 0.00942051548854281
-0.037300089160829504 -3.23925999247361e-05 -0.07645235109622417 0.059121008260573954 -0.037083920848286454 0.06237836584813368 0.012315362597938435 0.10794114782052915
-0.26925318676012955 0.1917097824453424 -0.16867318768859516 0.1996939150131284 -0.060972707732636244 -0.16687415981796935 -0.23602437600390033 0.17232233770707192
-0.1011551777660416 -0.2921784952879043 0.12113019612117905 0.10220767577127231 0.08367100059450662 -0.27263769491902107 0.02203018460762034 0.3543823093761094
-0.27065333653170376 0.08761274135837827 0.07819727470521494 -0.35021148348379905 -0.5255584563592188 0.24153040633755093 -0.06654296969277688 0.08738817633501196
0.16429672728263425 -0.19061444257705276 -0.01438325063810066 0.11079274102518792 -0.05516737724103946 -0.09087116174616905 0.40026995639227797 -0.32898247182389706

transformer.encoder.layers.0.self_attn.out_proj.bias f8 [16]
00000000: f139 9d34 bb8e ae3f 9a16 9b68 2d8b a2bf
00000010: 806f a261 91a6 4dbf 542e e2b5 8b3d 9abf
00000020: ec49 931f 970d 933f 3dd9 9bde dc2a 963f
00000030: 6067 31ca cd09 64bf 624a ebee 5989 6a3f
00000040: 36dd 3ff5 692c 75bf 064e ff86 f02e 70bf
00000050: 671c d169 7805 803f 069c 9831 3b96 c03f
00000060: bccf 6dea 4475 b1bf db83 f8dc 05d4 8c3f
00000070: 6e67 17ff 7e5e a4bf 857a e729 0f8e c03f
0.05968270318281899 -0.036218089122070654 -0.0009048662061732354 -0.025625403381623293 0.01860653047772047 0.021647883498155485 -0.0024460810978269992 0.0032393223294573817
-0.0051693095192526985 -0.0039510150526953555 0.007822933892511054 0.12958469316183158 -0.06819563601840078 0.014076276594154826 -0.03978344787510833 0.12933530374626315

transformer.encoder.layers.0.linear1.weight f8 [128, 16]
00000000: 0d4a 3ea5 d8e7 d4bf d3ae 1f14 9985 bc3f
00000010: dc36 2dc4 217b d0bf 5255 d725 900e c23f
00000020: 300c ae08 1073 c6bf 2564 14b9 ba37 c23f
00000030: 46e3 e8d9 c41a c9bf 39e3 3edf 2dd1 b4bf
00000040: ceef d78a 92ae aebf 3e96 5ba5 ad11 d33f
00000050: f7d7 4b5b 901f d03f 851e 3bd2 78ab d1bf
00000060: a6b3 72b4 f0f1 c23f bd04 4f5a 2fd9 e7bf
00000070: f3f8 08b0 c3db d23f 2039 b863 e8a2 c7bf
00000080: 75b9 42ac 6ad1 c2bf edd9 c2fe 4650 c9bf
00000090: f756 7672 a269 b03f b653 bc08 501e b13f
000000a0: 9532 3851 9ff3 d8bf 4a5c b8df 5746 d03f
000000b0: 6cf1 9fc6 0509 c7bf f750 146f 70e6 bdbf
000000c0: 60e8 f3f9 5154 b8bf b0e9 634b 7e48 d43f
000000d0: 8353 af53 632d 953f 63b6 75f4 d48a cdbf
000000e0: 4fa9 7dc7 30d6 b53f 1bf6 2a90 a0b9 dfbf
000000f0: bea2 f138 d76d d83f 11ed 5818 5462 a93f
00000100: 11f2 7b22 6f8d a73f 2578 2530 472f c73f
00000110: 60ea bbdc 6050 a33f 5ce7 240d 411f 713f
00000120: ad2c ad76 c44c de3f ab4f bb05 e17e cfbf
00000130: b43c 5bcc 7ca9 c03f 90d5 5791 3c75 b8bf
00000140: bc5f 8bc9 77ec cf3f b6ce 1e11 3c3a d93f
00000150: 0c6a ffcf 6275 d03f 30bd ef88 32ad b3bf
00000160: 7f9b f7a2 b63d ad3f 8c47 7f70 a72a b2bf
00000170: f971 9184 d6d2 cb3f 5afe f593 29bb b9bf
00000180: aaff 6e82 ac24 b63f 45d3 405a 917c d23f
00000190: 0090 85e7 c7ad b83f 2034 b50c aa2b d03f
000001a0: 5c6d b935 e608 a5bf 33d9 669c 755e b9bf
000001b0: 7430 d07c 2d02 c43f ea19 4c5f 3cf0 b0bf
000001c0: 6264 b0f6 2ab0 d13f a2ed cdee 1b3b d9bf
000001d0: 3e18 4065 d2eb c13f 20ad d37c 972b d9bf
000001e0: 2d9d 8afd e4fd cdbf c17a 1f87 ec17 bfbf
000001f0: 97ff cde5 7b8c c0bf 4592 5566 a50f d0bf
00000200: c9d9 a51a e688 d8bf 586b deab 387a d43f
00000210: 8e4c fff0 cc5c c43f bab7 9f78 692d c73f
00000220: b1a0 180e 7d16 c03f 557e 7c3f dfce 83bf
00000230: 044c e518 7c4a c8bf 316e 9fa2 2336 ddbf
00000240: 2ed4 f34e 54cd c73f 5b33 93a4 f5d0 c63f
00000250: b8ab 9fec 58d4 ccbf 800d 08d8 1189 bdbf
00000260: 8a3e f352 8da0 b83f 5af7 37f6 d9cc bebf
00000270: 7a7e e91c be01 993f 063b b42e 0332 c6bf
00000280: 80b9 7935 43c0 b4bf 678b 7704 9f01 c8bf
00000290: c3da e0e0 2616 d63f 3d6a e67e 9393 96bf
000002a0: 641b f40d 47ff e23f ad05 5108 b275 c33f
000002b0: 0144 452c 87ee b8bf 38e7 502c a4f5 bbbf
000002c0: 2e53 a9dc 6b0a c03f 6820 d7e2 52cf c1bf
000002d0: 4c94 6096 a76c d5bf 86a3 39c4 57b1 c8bf
000002e0: a233 d0e0 680c c4bf 73c5 c610 a316 c5bf
000002f0: 4fde 7094 fa97 983f 587b bf38 9195 c9bf
00000300: 91d9 4075 1e65 e0bf 4a58 edf8 fee4 b83f
00000310: 4989 69ce ad62 d23f 2197 5a87 568d c1bf
00000320: 5142 d4ad 6b0c 9a3f 77f3 35e8 3b69 cb3f
00000330: cdeb 4a98 14b5 babf 87f5 e2ec e66d d93f
00000340: c491 aaf5 749b d7bf 887f ac95 bda6 bf3f
00000350: 1ce4 e0c2 3e88 cdbf 851d 5574 2598 d0bf
00000360: 8b2d dd8b 66a8 c7bf 81a5 a39f d590 b8bf
00000370: 9c4e aabf 32a9 c2bf f63e f219 6505 d2bf
00000380: 692d 1387 a54d a53f fb50 1956 505c 933f
00000390: ee0d 2007 a2c9 92bf 3b71 8e26 94f6 acbf
000003a0: 3391 c527 9514 d43f 8747 757a f23d a5bf
000003b0: 4b49 d86c 5094 89bf ddfa fa5e d3e9 783f
000003c0: 1b10 db52 82d8 c13f 73dc 69bf c1ac b9bf
000003d0: d75a 5e8a 9945 d9bf 9fb6 39f0 107d b3bf
000003e0: c6a3 df0b f8e6 bf3f 3beb a0f2 0248 77bf
000003f0: da0e a534 e5eb b2bf 59e6 d618 a60d d8bf
00000400: 6c4f 1bfe 78b8 c8bf 3764 b0dc b876 6c3f
00000410: f7af 60bb b6d0 e53f b48b 53df ee13 85bf
00000420: b42b 9e0f e568 a2bf 5952 7503 720e adbf
00000430: f93e d2e5 d272 c23f 09c4 4343 8c5e bdbf
00000440: c3a3 b65c a40f d13f b743 dcb0 5258 d03f
00000450: c730 b809 7269 b83f 38d4 33e5 b679 c9bf
00000460: 3362 db66 eb5e e3bf b39c 3f1d 702e b9bf
00000470: d715 a4f4 3039 b53f 4a18 e5aa 45cf a9bf
00000480: 0e5e 1af5 bc19 bfbf f008 1be3 0624 a0bf
00000490: 1f99 ce6d bee0 bd3f fb66 b587 fb5d a5bf
000004a0: 1534 3cb8 8ae6 92bf f1c5 7f56 a5ef b9bf
000004b0: ae9e f0b8 baae d63f 6c26 c2ac f8ff 983f
000004c0: ff24 bb24 d365 cebf 37cf 9115 3b15 e43f
000004d0: 62d0 e3d2 ecfe d7bf f742 f975 9795 8fbf
000004e0: a232 6d8b 9b60 d4bf 675b e478 44b6 d9bf
000004f0: 9ef7 5495 9926 d03f 75ff 15b8 20aa abbf
00000500: 69e7 701d 8849 ab3f 0260 cb25 6c4c adbf
00000510: 4646 5e1b b4d1 bdbf 9eb2 0ced bad1 8abf
00000520: 0300 dc4a ee90 b9bf 356b 8767 d237 cb3f
00000530: 429b 7279 96fb a73f 177c d7e3 e04e c8bf
00000540: a248 bc07 5e6d b6bf 9f4e 0d8e 0bb3 d93f
00000550: 6381 0cfa 69c4 c5bf b513 2484 069f c73f
00000560: 3c79 4b04 a7ba afbf 9848 d7ed f143 e6bf
00000570: a659 2507 cba5 d23f 2074 abf7 ea67 663f
00000580: 9285 0f0b 8480 d5bf be3f 48d7 1a31 e23f
00000590: 494d e3e8 d6fe 9c3f 458c 292c f822 d13f
000005a0: a147 01cd 7bd6 c1bf e8f3 bcef 401a cfbf
000005b0: 2581 a2b8 3dd5 c7bf b3a5 9985 1291 bcbf
000005c0: 6d3e 1144 7b2e a8bf 427a 6c3c dd52 c6bf
000005d0: 9684 f000 60a6 a8bf 4d8b 780d bbb0 d0bf
000005e0: 21e4 dc84 c69e c6bf ad0c d60b 0001 d0bf
000005f0: 8f6d f075 4643 903f 078c 0e8a f9d1 d0bf
00000600: 34f1 b729 68fa c4bf c7d2 7414 63c2 e03f
00000610: 3ee8 e800 ea76 b8bf 64b5 ccb3 bbec d6bf
00000620: d5c6 4e60 3b4e a73f a83b 97d7 db1d bf3f
00000630: 2585 c657 d30a 9abf f321 1f68 5924 dabf
00000640: 602b 39fa a858 ca3f 1342 99bc 9169 c93f
00000650: 4ef7 ec3b 8236 a73f a32b f8d1 97e6 ccbf
00000660: e8ad 1ebb 581a bbbf 810e d464 b045 c3bf
00000670: fd90 e05b beb0 d53f d6ac bed3 bf82 c3bf
00000680: 48e3 d2e3 e6f2 d53f 35fe dfc4 4a43 d8bf
00000690: 86c4 8536 a86a bfbf 0a9e cd83 7ea5 ccbf
000006a0: c82b 8eef 0b75 a73f 1826 d2f7 9258 c3bf
000006b0: 0f30 33e2 f180 8ebf 7a33 1789 5e87 c8bf
000006c0: 417d 3437 9db9 d43f 56c4 70b2 c8b5 a0bf
000006d0: d720 5074 6f1f ccbf 0f0c 468a 03e2 d5bf
000006e0: 79cb 6e27 8e00 ccbf d1ff efdd 1d90 98bf
000006f0: c1c1 2226 ba85 c43f 51e5 6ef0 5848 d8bf
00000700: 86f3 4b5a 1243 c8bf 2495 33a9 3471 c6bf
00000710: 289a 7475 e464 d73f fc98 52bf 4e91 903f
00000720: 0105 3793 0616 aa3f 3c28 f7e8 8829 d13f
00000730: c916 6009 0ba7 c5bf 434c 2768 6934 c6bf
00000740: 87a3 ffba 95c4 dbbf 199b 3fda c46c e03f
00000750: 4f41 b298 3eda a63f e9d9 5cb4 8630 c5bf
00000760: 7d09 6204 392e c0bf 5a81 7830 f90a d9bf
00000770: 68ad 7e52 3a1a bb3f fae4 fd4b 78e2 cfbf
00000780: f341 37ca c500 babf 5a00 4af5 d859 76bf
00000790: 3dc1 1de5 6de0 bcbf a16a 4f68 84a2 c3bf
000007a0: b3e2 e959 8490 bfbf 6457 80ab 2bdb c2bf
000007b0: 2873 49e1 2972 9d3f 138e c611 a0b8 afbf
000007c0: 4506 e13b 413c 6c3f d0ff d312 3ab9 a1bf
000007d0: 9b30 b267 aad4 e1bf b486 89be 8f85 b0bf
000007e0: b190 d9a1 da0b d5bf f295 8b14 3ed1 d73f
000007f0: 8e8e 84c2 f452 d13f 4c89 7e66 3b3d d7bf
-0.32665077340166776 0.11141354314139144 -0.2575153747355736 0.1410694298526019 -0.17538643287488886 0.14232572590916096 -0.19612942352412172 -0.08131682110150686
-0.059925631951017175 0.2979539980718505 0.25192650714541237 -0.2760908177410573 0.14800843058529017 -0.7452618373719343 0.29466335478708955 -0.18465905064699317
-0.14701589022792985 -0.19776236953266793 0.06411185545433883 0.06686878407738459 -0.3898695271644013 0.2542934117095156 -0.17996284674144236 -0.11679747306726883
-0.09503662445413985 0.3169246422036407 0.020680953963011738 -0.23079931198610656 0.08529953832991065 -0.4957047851456495 0.3817041450588866 0.04957831189354967
0.04600093170117615 0.18113031245133118 0.03772261328227411 0.004180196863950627 0.4734355124425729 -0.24605953960292246 0.13017234781589127 -0.09553888843932712
0.24940392819439505 0.39417936012180677 0.2571646720149665 -0.07686153262306017 0.05711146106096176 -0.07096334930909459 0.21737176392606708 -0.10051212179495775
0.08649709877408776 0.2888530141238344 0.09640168573747587 0.25266505471228307 -0.04108352094473375 -0.09909758633043424 0.1563164576949735 -0.06616570784181133
0.2763774308273864 -0.3942327339243211 0.14000921195855826 -0.39328562917826737 -0.2343107450480856 -0.12145880030537183 -0.12928723069125844 -0.2509549617155112
-0.3833556423409417 0.3199598005682467 0.15908204810566356 0.18107336416090708 0.1256862944439994 -0.009671920895527078 -0.1897730943261139 -0.4564293945420302
0.18595365386104973 0.1782519391621474 -0.22523032716648372 -0.11537276767926663 0.0961998298182555 -0.12031328450390558 0.024420710100797362 -0.17340125828237535
-0.08105869346193195 -0.18754947393525898 0.3451020427777786 -0.02204733335529795 0.5936618111162315 0.1520292797668338 -0.09738964873146473 -0.10921693880018501
0.12531803392871538 -0.13913951946438208 -0.33475675282744954 -0.19291207391077253 -0.1566287133904583 -0.16475332564509024 0.024017253217804953 -0.19987693091294534
-0.5123436250785735 0.09724420144388649 0.28727288396307366 -0.13712579354358304 0.0254380059096227 0.2141489871827635 -0.10432556837160618 0.39733288892224333
-0.3688633345684844 0.12363800911088962 -0.23072037234831633 -0.2592862735804931 -0.18482667760177338 -0.09595999858324512 -0.14578852041869517 -0.2815792802220892
0.04160802148688953 0.018906836752948113 -0.018347293553245984 -0.05656874628695837 0.3137562645336118 -0.04148824448442583 -0.012489918061906599 0.006082368534122221
0.13941983266534028 -0.10029230998212472 -0.39487303268962876 -0.07612710823897338 0.12461805620081554 -0.005683909907072511 -0.07391197715065392 -0.37583305764892355
-0.1931296578173901 0.0034745798670994493 0.681727758380929 -0.010291925611857745 -0.03595653358123432 -0.05675083439078738 0.14412914487592568 -0.11472393648342928
0.26657971433683886 0.2553908087875771 0.095358970044063 -0.1990269297745344 -0.6053368576932087 -0.09836483682703338 0.08290391895942349 -0.0504094859229985
-0.12148648246726898 -0.031524863455631436 0.11671056919894739 -0.04173265487288621 -0.018457572455236788 -0.10131295549196985 0.3544146352819365 0.024413953346572745
-0.23748244565494045 0.6275916501312854 -0.3749343928786911 -0.015422042167445122 -0.31839645973085784 -0.40174972349034593 0.25235595305627523 -0.0540323471750516
0.05329537734401308 -0.057223682035044035 -0.11648107212229161 -0.013095341071300223 -0.09986771896001305 0.21264104895711858 0.04684133751407284 -0.18990718007168603
-0.08760631264547894 0.4015530478693367 -0.17005657872597188 0.18454057171052587 -0.06197091987063394 -0.6957940717059214 0.29136920640794484 0.0027350987632943774
-0.33596898155345756 0.568494244073001 0.028315885509824033 0.26775936424946095 -0.1393580199242566 -0.24298869806253198 -0.18619510188455837 -0.11158862840388543
-0.047229625758174666 -0.1744038147962375 -0.0481443406245116 -0.2607867843200225 -0.1767204426521696 -0.2500610461795059 0.01588163466304376 -0.2628158424578832
-0.16389181172406497 0.5237288856065668 -0.0955644848080803 -0.35819904860075824 0.04551873732215276 0.12154935849615234 -0.025431921226872895 -0.4084685818493476
0.20583069055495695 0.19853421887320674 0.045337743582861564 -0.22578714134610064 -0.10587076729159828 -0.15056424067744348 0.33891257259735125 -0.15242765273192188
0.3429505562631232 -0.3791071817977099 -0.12272120791546301 -0.2238004821367528 0.045814869873616326 -0.15114056683187083 -0.014894380298208913 -0.19163114255789165
0.3238289870368654 -0.03263690164784154 -0.21970933131547696 -0.3419197893455825 -0.218766946081441 -0.023987261458387203 0.1603310285768327 -0.3794157360058153
-0.18954686554925732 -0.17532976400176736 0.3655329844499726 0.0161793045305325 0.05094929263169413 0.26816008329899765 -0.16916025121479653 -0.17347447953815917
-0.43387358914929347 0.5132774603524438 0.044633823527990495 -0.1655434017827269 -0.12641060556422792 -0.3912947629305755 0.10586895479234715 -0.24909881315742394
-0.10157428919706728 -0.005456778996290346 -0.11279951900155978 -0.1533971318557024 -0.1232989043727553 -0.1473135554703574 0.02875581204931446 -0.06195545403468485
0.0034467004871039674 -0.034616293714861635 -0.5572101617158468 -0.06453798677241701 -0.32884851270342624 0.3721461487424157 0.2706882381046193 -0.36311230668265604

transformer.encoder.layers.0.linear1.bias f8 [128]
00000000: 2cce d659 3d66 c5bf 9a43 a990 4d40 d2bf
00000010: 97b7 04cd cdb8 aebf 7ec6 a983 835e d3bf
00000020: 2349 b912 137f c9bf 0131 ca55 98f7 d1bf
00000030: 98d1 7f15 454d c6bf f408 549c 51f5 dcbf
00000040: d4db 40ef 9d43 d3bf c956 2ad0 463e b23f
00000050: a8b4 90b3 e780 9c3f f420 76d6 4c5d cfbf
00000060: 0d4e 1e2c 2b22 dfbf a02a c618 79a6 bdbf
00000070: 8c7d d0ae 9f87 babf 7f85 3765 c880 b1bf
00000080: b908 ef33 25c8 a9bf de72 ea90 7518 babf
00000090: 84c1 4291 0e05 d9bf e110 9fa2 76c7 c4bf
000000a0: 2eaf fa98 fcf3 d3bf 62f7 9c1f ba4d d4bf
000000b0: bc7c 6650 e149 94bf 263b 85a9 0af8 7ebf
000000c0: 4c67 e3f8 4fbd a13f 464d ca57 e104 dcbf
000000d0: 3b6f 1632 22f4 c8bf 2ae7 952f 4488 ddbf
000000e0: afbd 34f0 d274 e0bf a38a 84e9 77b0 d9bf
000000f0: 0534 14a4 2aaa d7bf ff68 f128 ccc9 cebf
00000100: e308 e81e 3df8 debf bdb5 965b 05fc cdbf
00000110: 5cc6 93e5 e760 c3bf afd1 666c e356 ba3f
00000120: 9189 66ca 0b50 cebf bb57 7d27 a5aa 793f
00000130: 411a 1c14 c703 933f bafc a994 701a dbbf
00000140: 23af 4a58 1299 b0bf 507d 4bf6 da88 96bf
00000150: e9e7 ec7a 74b4 d8bf 9ab6 081c b953 a4bf
00000160: 7570 c866 0b2e d1bf 37a4 5045 6d61 c9bf
00000170: 95b3 8ec9 44b0 cfbf 6a55 33ee a2ec cfbf
00000180: 7392 7ca9 caaf ccbf 6ca9 8c41 60f4 d6bf
00000190: eba9 f2dc f659 abbf e47f 54d1 3a9e cfbf
000001a0: 5ea2 e646 660e d5bf 4a49 0633 eeac cabf
000001b0: 2c87 a622 eb39 d7bf 562e 2f77 10db c8bf
000001c0: ac9e 0a4c 5e6a d9bf 9eff 8123 5b6b e0bf
000001d0: 0407 c002 9272 703f 74ad 7884 493b 88bf
000001e0: 361f bc1c 9eb2 933f 5eba 7ec9 a4aa a6bf
000001f0: da48 8f61 2974 adbf aa7d 0c0e 6485 dcbf
00000200: a331 561e 40ab dbbf 11aa 9cf4 3073 a23f
00000210: 73cf cfc8 98d6 d1bf becb 3c63 a796 b73f
00000220: b7fd 7a1a d033 dabf 4711 34c4 0168 c1bf
00000230: 62e5 ffb4 c21e cabf 11e3 7459 ffe4 d8bf
00000240: 4df8 601f a363 c0bf b797 66ad b1a4 d8bf
00000250: eb51 80c6 e6ab c2bf 6b08 2cac deb5 863f
00000260: 6345 fe26 abcf 74bf d60a 869d d6e1 d7bf
00000270: 8ca2 d4c3 1579 ad3f 8977 a3bf f46a c9bf
00000280: a465 5045 891a dcbf 4efb c862 2310 e0bf
00000290: 64ff c6fd 315a d7bf 4158 6863 5888 cdbf
000002a0: a019 c9ff 63fb d1bf a549 5258 e76a b03f
000002b0: 6917 7176 a588 d7bf 1fe2 50e7 ad2d 923f
000002c0: 839c 5a22 bc94 e0bf 945d cad0 ddb3 cdbf
000002d0: 2ff8 c60b 0dc2 e0bf 682e 2c96 fc09 e0bf
000002e0: 6677 b4c4 746c aabf 8d09 fd94 791b d8bf
000002f0: a58c bf32 44be d9bf f27b efb8 f647 d7bf
00000300: fa90 d325 dda7 d1bf f2ca 2ff0 4542 a9bf
00000310: b678 0de2 952a a0bf 875e 73f3 e786 d5bf
00000320: 270a dd32 3827 bebf 86e3 8f01 c75e 833f
00000330: b152 fce1 25c4 ccbf 24c1 b71f 8288 cabf
00000340: ee6d eceb f3c8 a4bf 1219 e454 b9c5 ccbf
00000350: baab 7bec 2303 9a3f 2ef9 8fb5 2a03 783f
00000360: 7a33 b3df ef03 d6bf 248d 53f8 a64c d6bf
00000370: da59 7f40 fc2f d6bf 1e49 de5e 2bb6 c4bf
00000380: 6f8f e857 0751 c9bf 9e58 06c6 9725 c5bf
00000390: 2234 ce23 3184 c3bf b24e 0ab9 5463 a2bf
000003a0: fc55 e6b9 ef3a bebf bde4 29b4 ab0e c6bf
000003b0: 3fd4 2343 7666 d6bf b2b8 9662 bfaa cabf
000003c0: 2013 6777 5c7d babf 8a89 f2d9 3cc6 913f
000003d0: ed93 8045 d014 c7bf f545 fda9 d62f debf
000003e0: 1958 2606 6532 d8bf 7c0d 4a5b 33b4 c1bf
000003f0: a24f fde9 cdc2 ccbf c887 a8a0 b844 d7bf
-0.16718260656999584 -0.28517474295682066 -0.06000369193712556 -0.30264366014225874 -0.19919050611731234 -0.2807370031157604 -0.17423308896799194 -0.4524730707781963
-0.30100201000771887 0.07126276571429026 0.027835483870309347 -0.24503479453802124 -0.4864604883998432 -0.11582142691455966 -0.10363195436410971 -0.06837131949534657
-0.05035511263805987 -0.10193571842178126 -0.39093364892598736 -0.16233714046950978 -0.3117667669236991 -0.3172440823290029 -0.019813080341575015 -0.0075607697002187165
0.03464746392428583 -0.4377978665663317 -0.1949503655022172 -0.4614420380308838 -0.5142607394717994 -0.4013957767912563 -0.3697611429532233 -0.24053337096376734
-0.4839012910671398 -0.23425356838326464 -0.1513948317511219 0.10288831135296193 -0.23681781180227948 0.00626625550633791 0.01856909809341745 -0.4234887553975103
-0.06483568816718992 -0.02200643661751417 -0.3860140991633885 -0.03970125643932683 -0.2684353355159666 -0.19828573116800083 -0.2475667938391807 -0.24940907126316897
-0.22411473537171708 -0.35866552735628576 -0.05342074820631012 -0.24701628895945682 -0.3290038769141911 -0.20840241900857343 -0.3629100645431318 -0.19418531245752274
-0.39711720872808587 -0.5131049817573403 0.004015512804473213 -0.011831831317144582 0.019236059669338355 -0.04427065810829299 -0.057526868018287394 -0.44564153072311774
-0.4323272987610613 0.03603508935914957 -0.278722950082048 0.09214254544057973 -0.409412408695029 -0.13598653869861207 -0.20406373823042673 -0.3889768956756124
-0.12804068596045895 -0.3850521272055362 -0.14587101643031927 0.011089076642296377 -0.005080860675563545 -0.3731590784374651 0.05756443038473433 -0.1985765395865509
-0.43911964196157727 -0.5019699983020958 -0.3648800829214365 -0.2307234273327499 -0.2809686658769355 0.06413122087750496 -0.36771523062303985 0.01775237774220006
-0.5181561156249618 -0.23205158896301425 -0.5236878614448467 -0.5012190754946007 -0.05160870457824167 -0.3766769366231067 -0.40223793941386027 -0.363767319298801
-0.2758705968283405 -0.04933374936071812 -0.03157490143233714 -0.33635901236036897 -0.1177859424761115 0.009458117232485252 -0.2247359612889759 -0.20729090260238892
-0.04059564833570649 -0.22478405613964775 0.02540260439756612 0.005862395127222348 -0.34399029584601915 -0.34842848063108733 -0.34667879389362855 -0.16180936939469687
-0.19778529922870855 -0.16520974320582565 -0.1524716782409153 -0.03591408499519612 -0.11808679855888465 -0.17232271477749875 -0.35000378185879194 -0.2083358031645211
-0.10347536006072433 0.017357779314474388 -0.1803226794592371 -0.47166983223459563 -0.37807584381641984 -0.13831178624614526 -0.224694957020458 -0.36356940926827663
