experiments/Datasets/darts_logs/London_modwt_pred_transformer_5_48_5/checkpoints/best-epoch=6-val_loss=0.00.ckpt (torch, 664091 bytes, 206 tensors)

encoder.weight f8 [16, 1]
000000 12 0b 72 cd ce f9 f1 3f b7 b9 2f 6e e6 9d 12 c0
       1.1234882378782385 -4.654199334776812
000010 95 80 9d 59 74 6b 02 c0 f2 a1 d5 dc eb 53 b4 bf
       -2.302468013876999 -0.07940553800074904
000020 16 84 5f 09 13 ff e0 3f 12 7c 07 11 e1 ca 05 40
       0.5311370070522823 2.724062092820085
000030 e4 9f dc 17 af 75 ac bf ae 97 2d 52 3f 76 13 40
       -0.05558535734445494 4.865475925476785
000040 95 3d d0 d0 77 5e 0d c0 33 df bc 1e 5d 38 fa 3f
       -3.6711269677686666 1.6387606812185822
000050 f4 32 68 ba fb 79 f2 3f 45 31 ac 12 c9 bd 08 c0
       1.154781082298709 -3.092668672447106
000060 40 1c c3 c4 78 0e f0 bf 19 6a 08 7b c4 25 06 c0
       -1.0035331426640965 -2.7684411632483372
000070 e4 c5 f8 83 2b 96 eb 3f f9 e4 f4 12 6d 8c 08 40
       0.8620812966893792 3.068567417238793

encoder.bias f8 [16]
000000 5d 9d 2c 88 9d fb e9 3f 2a 22 6d c2 37 e5 b7 bf
       0.8119647655156929 -0.09334133621917631
000010 5d dd d5 71 21 5e 70 bf ad c8 55 64 33 28 ee 3f
       -0.003996019976845258 0.9424073180837432
000020 11 dc ab f1 8c 65 eb bf cb ff 2d 3f 97 15 ea bf
       -0.8561463089125728 -0.8151355966547212
000030 80 87 c9 98 2c b4 d3 bf 2d ab b7 61 4d 9e c1 bf
       -0.3078719608366711 -0.13764350196228162
000040 78 b2 8f 5b 17 b3 b6 bf a8 eb d8 ad a7 3e ef bf
       -0.0886702154672977 -0.9763983149963353
000050 0c 1e 2d 4c d7 0c 4c 3f da 82 2a c7 9f 8e ef bf
       0.0008560229547151534 -0.9861601724588482
000060 46 3c 92 c7 e9 53 77 bf a4 6a 49 d2 ae 22 83 bf
       -0.005695260240044913 -0.009343496124690383
000070 08 51 f7 e7 bb db a1 bf 90 45 bc 1f 0f bd ee bf
       -0.03487956244103613 -0.9605785007317298

transformer.encoder.layers.0.self_attn.in_proj_weight f8 [48, 16]
000000 44 62 aa fd f8 85 d4 3f 36 a1 67 4e 39 91 f0 bf
       0.3206770398333314 -1.0354550421416895
000010 f5 03 47 7b 09 0b be bf dc 7a 02 00 bd 88 d4 bf
       -0.11735591182424783 -0.3208458423704721
000020 87 15 fc e0 32 d7 eb 3f 83 3a 99 8c bd 71 e3 3f
       0.8700193781120767 0.6076343294206058
000030 90 8d bb 6b f5 bc e9 3f f8 81 ed 0e bc 70 f3 3f
       0.8043162445214183 1.2150230963817403
000040 9c 44 80 66 8c ee ed 3f 06 27 2c a5 a6 8c db 3f
       0.9353696825002262 0.4304596531879813
000050 ff 2e 96 ed 2d a7 df 3f 1e 8c 59 ba fd db cb 3f
       0.49457882119962443 0.21765109633551644
000060 92 8d ef ae 64 dd ea 3f 69 83 ab dc 75 38 d6 bf
       0.8395255486215538 -0.3471960692386831
000070 4c b2 ac 5a 77 26 cb 3f 0c 86 76 23 a0 cb 93 3f
       0.21211139609785545 0.019331457294930174
000080 77 57 d1 4c c1 1f 9f 3f 31 3a 22 25 36 46 ee bf
       0.0303945735107258 -0.94607074024845
000090 0a 96 ee 36 d7 ed e9 bf a5 1d 28 e2 7a 89 fa bf
       -0.810283286370294 -1.6585644563909707
0000a0 d2 16 c9 3c c3 76 d9 bf 57 04 6c 2c d8 e4 d2 bf
       -0.3978736966713373 -0.2952175554092426
0000b0 87 df 9b ec 8f d7 d2 bf 2c 7a c3 60 5c eb fd bf
       -0.29440687280975236 -1.8699611453845462
0000c0 25 cb 99 9b 05 6f da bf be bf 6b 3b 3c 4b c9 bf
       -0.4130262393511422 -0.19760849858675827
0000d0 76 54 57 ef 3b 4e d6 bf fb 3b 45 5b ab 0f e9 bf
       -0.34852503178746674 -0.7831627638460071
0000e0 87 e5 c6 44 55 3a e8 bf 9b 83 48 2d 94 87 ad bf
       -0.7571207373904806 -0.0576750092770972
0000f0 46 6e 36 8b 87 64 d8 bf 13 ec 31 d1 32 a5 ad bf
       -0.3811358317850345 -0.05790098956727987
000100 48 7a bd 12 57 24 dd 3f 1a 8a ff 3f 45 cb e9 3f
       0.4553430254945039 0.8060632944073547
000110 9c ff 6c 97 88 68 ae bf 4d 87 c3 b5 ed 2b ce 3f
       -0.05939127777537509 0.23571559310135584
000120 04 9f 4c c4 73 c1 d0 3f 22 89 3c 93 6c 08 ec 3f
       0.26180738611081744 0.8760283351623779
000130 1c 0a 66 33 25 a4 e4 3f f1 cc 8a 6b ac 9b f3 bf
       0.6450372699621911 -1.2255062294832977
000140 b1 60 3a e6 64 7f f2 3f 9d 2d 7b d4 0f 2d f1 bf
       1.1561020844729166 -1.0735014247937678
000150 3d 52 bf 69 29 6f dc bf 16 d8 af d4 e0 d9 de bf
       -0.4442847759903861 -0.4820482327480716
000160 41 be 90 6f b1 67 c8 bf d8 d3 f1 d6 46 86 e7 bf
       -0.1906644625428147 -0.7351412008416629
000170 aa 1b d6 7a d9 db e9 3f bc 7e 58 02 f6 49 e2 bf
       0.8080871009013795 -0.5715284391225945
000180 f0 d3 73 ac 8a a4 dd bf 57 7d d3 b8 64 54 e2 3f
       -0.4631678279977782 0.5728019342313172
000190 35 85 b4 ff 1c cf eb 3f 81 0f 13 04 de 5d ee 3f
       0.8690323824159011 0.9489584045008855
0001a0 a0 19 67 57 c0 31 ea bf f9 7a 10 68 b9 bd d2 bf
       -0.8185731608471549 -0.29282984888588676
0001b0 49 01 dc cf 19 9c f4 bf 1d 5d 09 c9 90 2a d2 3f
       -1.2881105536944963 0.28384799606779315
0001c0 80 08 ef 17 22 df e2 bf e1 38 b2 1d 06 31 b5 3f
       -0.5897379367309128 0.08277929520611195
0001d0 00 20 03 59 79 ba d3 3f 12 48 4a 6a a7 c7 df 3f
       0.3082564706096491 0.4965609109868875
0001e0 70 d6 f0 a5 46 2b c7 3f e1 8f cc 82 8a 8a d0 3f
       0.1810081777818371 0.25845587514254303
0001f0 8c f7 13 f7 4d 67 db bf 52 95 97 33 7b 28 dc 3f
       -0.4281802094336562 0.43997077978413757
000200 7b af d5 eb 68 68 c4 3f c0 cd 20 e8 e9 f6 cb 3f
       0.1594363357102074 0.2184727080763036
000210 b0 e2 fa 32 87 03 e1 3f 8c 63 63 33 b3 73 c5 3f
       0.5316806789115471 0.16759338387671752
000220 35 38 dd 19 be 23 d4 3f 79 ec a7 d7 bf 11 f2 3f
       0.31468155408663573 1.1293333458004595
000230 44 e1 cf b1 17 e3 e5 3f 76 04 1d 52 90 2c f6 bf
       0.6839712593928557 -1.385879822497626
000240 e1 c7 83 7c 06 0d f4 3f da 52 ff b8 2b 8f e6 bf
       1.2531800140245581 -0.7049769032697342
000250 d6 16 63 95 11 33 d0 3f c9 fe e1 c5 ea 18 c8 bf
       0.25311698521214276 -0.18826040899511146
000260 e9 54 41 7c 2e 73 d5 3f 4f dc 03 d7 f6 b3 ed bf
       0.3351551259450632 -0.9282182883752145
000270 6d c8 f1 78 d7 30 f1 3f c2 4b 2e 88 b9 ec e1 bf
       1.0744242405312676 -0.5601470622808551
000280 fa 54 87 7d 93 67 ef 3f b6 81 49 4a 4d 2b ca 3f
       0.981393571065069 0.20444646956731355
000290 fd f6 e8 5e 55 34 f1 3f 88 2e 0d 14 44 15 f8 3f
       1.0752767283842666 1.5051918776761415
0002a0 36 f2 45 4c 5e 59 fb bf d2 dd cb 14 ef 13 db bf
       -1.7093184451506551 -0.4230916693772687
0002b0 0a 07 61 5b c5 a9 f2 bf 0f 04 33 d2 9f 08 c9 3f
       -1.166447979878685 0.1955756927837062
0002c0 8e f6 8b 3e 4b 0c 83 3f 5f bc 78 2d 66 a3 be bf
       0.00930079254748797 -0.11968077287814215
0002d0 c4 84 da 1b 8e 32 d9 bf d9 2b 72 2d 5d 92 d4 3f
       -0.39371063919140803 0.321433348065225
0002e0 1b 59 e9 77 3a 3a dd 3f 46 eb 98 83 8a 32 cd 3f
       0.4566789790163896 0.22810489106799475
0002f0 83 9e 38 84 3d 75 ec bf 3a c2 23 28 e8 a9 de 3f
       -0.8893115599102689 0.47912029189959393
000300 e0 8e 4b 47 9a 8c c9 bf f5 05 df f0 b6 af c9 3f
       -0.1996033523674816 0.20067488442695916
000310 81 f9 35 0f 51 3d c0 bf 56 61 15 83 9a 3d d1 bf
       -0.1268712353011772 -0.2693849830734697
000320 ba 87 ec b8 55 f7 e8 3f 5e 4f 16 4f 88 b0 e0 3f
       0.7801922427936383 0.5215493721648092
000330 e1 97 22 87 11 25 ef 3f 46 44 24 59 b5 8b f3 bf
       0.9732749595029838 -1.221608494004856
000340 5a e9 13 19 2f 69 ee 3f bc 47 08 4d 5f 41 d0 bf
       0.9503398408699397 -0.25399000666322613
000350 68 1a 13 c5 60 4c d2 bf 4d 9e d7 29 67 8f d1 bf
       -0.2859117435986378 -0.27437762342603805
000360 b8 a8 71 52 0f 4e e9 bf 3a 84 e6 d2 57 50 ea bf
       -0.7907787904962538 -0.8223075026654734
000370 63 3c d5 b1 96 65 d3 3f c7 7f c8 6f fc a1 dd bf
       0.3030754791879586 -0.46301184574440096
000380 64 b8 b9 1e 22 cd f5 bf 05 fc c1 e9 1e 95 95 3f
       -1.3625813675130525 0.02107666303390589
000390 cf 64 03 80 0e ff fe bf 68 41 f9 6a cb 16 06 c0
       -1.937269687701974 -2.761130176288294
0003a0 27 76 ac 37 c5 11 03 40 e2 b4 b3 bb 07 95 d4 3f
       2.383676943731888 0.32159608202239387
0003b0 ea 1c 95 f7 5a c9 00 40 f8 a2 b9 0c d3 cd e8 bf
       2.0983180372601185 -0.7751250504053067
0003c0 46 5f ad ab 71 1e db 3f 1d c1 66 42 4f d1 a6 3f
       0.423733155873823 0.044565655570638386
0003d0 de 62 ac d1 b9 70 ce bf f1 bd 43 d4 a8 cf e4 bf
       -0.2378151201053446 -0.6503490587037374
0003e0 d7 f8 51 f6 3d d7 d0 bf 34 fa 9e 6f d2 29 e5 bf
       -0.26313733153064106 -0.6613552265260467
0003f0 42 5d d7 52 4e 7e e8 3f 6c ba 24 27 71 d4 b8 bf
       0.7654182069772235 -0.09699160771990883
000400 90 8b 9e f7 9c 18 f8 3f 3d 55 df 5e 06 bb de bf
       1.506009070647199 -0.4801650930870272
000410 55 37 3d ce 25 57 de 3f eb e9 57 b9 23 65 ed 3f
       0.47406907215633015 0.9185961360920464
000420 10 95 2b 55 9e 42 df bf a6 51 49 ab d8 16 ed bf
       -0.4884410697689683 -0.9090388627469579
000430 a9 82 d9 1a 0d a4 e3 bf 83 f2 06 12 22 ad ff 3f
       -0.6137757801444269 1.9797688202080799
000440 88 57 56 ce 26 76 e4 bf 78 e7 d0 1f 5c 31 dd 3f
       -0.6394228010201326 0.4561376867965161
000450 08 48 cc 24 ec c6 ee 3f 2e ff a2 32 47 4f e3 3f
       0.9617825239859039 0.6034275044439477
000460 4c fa a7 58 af 4c e9 bf 81 b7 a7 02 5c 75 f6 3f
       -0.7906109553876575 1.4036522010532908
000470 c4 de 05 76 73 1b f2 bf 9d 09 dc 0f 27 c7 f7 3f
       -1.1317019090910643 1.4861212367546621
000480 91 3f 78 83 78 b1 f8 3f aa 07 ca 4b 99 98 ad bf
       1.543327821305841 -0.05780486154709703
000490 86 f8 61 ad 21 0f 02 40 cb 78 bd 1c d3 07 09 40
       2.2573884530566515 3.1288206334421367
0004a0 1f e7 23 eb b2 e1 00 c0 f6 69 27 c7 dc d2 b1 bf
       -2.1102045412379904 -0.06962375509412042
0004b0 80 24 6c 65 a8 f5 02 c0 04 15 87 0d 37 b1 e3 3f
       -2.369950096476316 0.6153826965534397
0004c0 bf bf 31 af 35 f3 d7 bf 7c f1 a5 af 12 76 e5 3f
       -0.3742193423158788 0.6706632071141452
0004d0 b3 e4 8d 83 05 bc c1 3f 4a 92 fd 94 fd 67 e3 3f
       0.1385504619936789 0.6064441595049825
0004e0 df e1 f8 d9 b2 00 e7 bf 52 e4 39 53 cc b5 e4 3f
       -0.7188352830190147 0.6471921563635397
0004f0 e2 0d 2f 4e bf e5 e2 bf c0 cb e2 6f ec c2 d8 3f
       -0.590545323088403 0.3868971912990524
000500 82 90 8c a8 b7 61 e3 bf 2b f0 c5 11 12 c1 de 3f
       -0.6056783954595775 0.4805340932432524
000510 f1 63 87 ae 57 16 fd bf 4f 19 7e 00 f1 26 f1 bf
       -1.8179547135862288 -1.0720071810952339
000520 52 16 a1 90 a4 15 fb 3f 67 5e a1 72 f9 a3 d4 3f
       1.6927838944988207 0.3225082034527759
000530 67 0a 61 17 ce b5 f3 3f 11 a8 37 1d 39 c5 cc bf
       1.2318859971279836 -0.22476877142554533
000540 e4 12 32 8c 79 19 cb 3f b9 31 a5 18 1c dc a1 3f
       0.21171492906082456 0.03488242913099122
000550 19 0f e7 a5 8c e7 de 3f 86 2a cf 00 60 ef e7 bf
       0.4828826542036367 -0.7479705825620193
000560 3f 2b 9d a3 fe bb cf bf fd b9 bf 35 73 72 b8 bf
       -0.24792464245759935 -0.09549636900167253
000570 e5 41 f7 1b 64 cf e0 3f 83 f2 ba a0 dd 34 ba bf
       0.5253162904937737 -0.10236916708067594
000580 6a 1e 6e 1b 54 09 01 c0 0f 80 bc de 37 25 e1 3f
       -2.1295549529057114 0.535793242484944
000590 96 3a 45 61 45 e8 01 c0 81 29 9d d6 f9 01 02 c0
       -2.2384135817768067 -2.250964810057838
0005a0 29 73 3e 77 47 c3 00 40 2e f4 44 48 53 ea e8 bf
       2.0953511539395504 -0.7786041652212867
0005b0 74 2f 2d a2 dc ff ff 3f 97 36 fa 7f 8f 33 a7 bf
       1.9999662718791713 -0.04531525075172487
0005c0 eb aa 12 c8 8a bb cf 3f 9d 6a 26 e9 97 ca c9 3f
       0.24791083115754672 0.20149515995293124
0005d0 e3 e4 91 c6 26 41 c3 3f e9 3b aa d8 10 dc da bf
       0.15042576499744262 -0.4196817508572495
0005e0 63 36 23 f5 6a da ac bf 4e c6 99 45 50 84 c8 bf
       -0.05635389559175221 -0.1915378894660073
0005f0 ad ee ee 6a c0 16 e8 3f 62 fc a2 89 f3 36 c6 3f
       0.7527772987882223 0.17355198116817677
000600 9d 2a 76 6f 0f 86 e6 3f 3a 0d c4 24 11 cc c5 3f
       0.7038647820457588 0.1702901296158446
000610 3e 68 ca 0b 5a 14 e6 3f ce 44 84 96 aa d6 f5 3f
       0.6899843435560411 1.3649087791020977
000620 79 76 52 35 ad 47 e6 bf 25 d0 28 ee 83 9c e5 bf
       -0.6962495843360578 -0.6753558780242243
000630 a6 7a af c2 f8 bb ed bf 97 f6 d5 46 c9 d0 e9 3f
       -0.9291957666826718 0.8067366012107468
000640 1b 5b 29 b4 be 70 d0 3f f9 39 0d e8 03 7a ce bf
       0.25688140481854455 -0.2380986102165961
000650 63 35 1a 8f 87 4c ca bf 7a 70 fc 9b a2 9d ef 3f
       -0.2054604958288265 0.9879925772288651
000660 fd e8 cf ed c2 d3 d9 bf c4 d2 33 67 ed 4a f0 3f
       -0.40354989265291846 1.0182928115220173
000670 32 fb bf 54 ba 34 e5 bf d2 27 27 71 f5 be e8 3f
       -0.6626865058204656 0.7733103952425557
000680 43 aa 9d 1a 27 52 ba 3f e0 f4 58 1d 03 93 b3 bf
       0.10281605148126353 -0.076461977639116
000690 85 7a 97 98 8b 09 c3 3f 52 6a e4 10 9a 2a bc 3f
       0.14872879935042618 0.11002505218895323
0006a0 64 70 f4 7b 11 34 e6 bf ae d4 1e d0 ae b0 e6 3f
       -0.6938559933655708 0.7090677323200418
0006b0 e2 e1 55 ed a4 b2 b1 bf 0b 87 8b c1 1f 29 e5 bf
       -0.06913214487384026 -0.6612700252701144
0006c0 3d f7 9d c4 2b aa f0 bf 7e c9 ff 14 8c 72 e0 3f
       -1.0415456467012085 0.5139828119411474
0006d0 ba e1 57 bf 06 9e e7 3f b8 1f 8a aa 17 7c e5 bf
       0.7380403268025966 -0.6713980036592977
0006e0 d3 28 54 ea f8 be 8d bf ad b1 cb 14 11 be f1 bf
       -0.014524407054086563 -1.1089030086833234
0006f0 0f 4b d3 72 15 0c e2 3f cc 3e c8 ee ac b4 e2 bf
       0.5639750712092296 -0.5845551170077328
000700 c3 e3 fa c6 4d dc fa bf 02 50 aa 0c 6e 7b e1 3f
       -1.678785111680768 0.5463171241158309
000710 1e a5 3a f6 7d ed 03 c0 1a c4 55 4f 4f f8 02 c0
       -2.4909629093787222 -2.371245021633979
000720 ae 87 f5 a4 92 4f 02 40 a0 a4 a3 fa 47 3a e4 bf
       2.288853920691472 -0.6321144004151797
000730 cb d9 03 61 7f c6 00 40 15 98 dd d0 08 67 f7 bf
       2.0969226435947568 -1.4626548918545315
000740 da ac fa 58 05 d4 da 3f bc b8 9d e5 1a 6a e3 bf
       0.41919072808623314 -0.6067022785844283
000750 d2 99 87 e8 6f 5c d8 bf e3 ae c9 51 4d 13 82 bf
       -0.38064191539743064 -0.008825878199068387
000760 77 3d 9c 7b a1 52 d7 3f 60 57 dc 5b 93 9c e8 bf
       0.3644183833248102 -0.7691132349161585
000770 a8 9f 57 af 2c 09 c4 3f e0 9e d4 b7 d1 57 cb bf
       0.15652998506197702 -0.21361752964116132
000780 37 b8 74 8b 3d e1 ed bf 14 6b 06 8b 5c b5 e7 3f
       -0.9337451671360729 0.7408888545354295
000790 5a ce e5 c0 ec 3f f2 bf ea 4a 06 2d 26 e9 e8 bf
       -1.1406066451135275 -0.7784605864893284
0007a0 36 9a 8e 8d ef 66 f5 3f 06 1f 2e ee 96 b3 d9 3f
       1.337630799252691 0.4015862775781759
0007b0 9f a8 4d c8 74 c9 f8 3f 1d 8b 68 c5 76 90 01 c0
       1.5491836380338453 -2.195539037945663
0007c0 c5 d8 fc fe 67 79 dc 3f 91 10 3d 04 1b 27 e7 bf
       0.44491004849568255 -0.7235236246856563
0007d0 f7 a3 db df d8 f0 d1 bf 95 b0 87 dc 37 79 db bf
       -0.2803251443970675 -0.4292735723127035
0007e0 c7 32 43 db fc 21 e6 3f 10 25 39 7b 28 ea f6 bf
       0.6916488916845872 -1.4321675122649289
0007f0 1e d1 91 c5 50 1e e2 3f a1 c9 3b ec ff 3e de bf
       0.566200624349708 -0.4725951964348046

transformer.encoder.layers.0.self_attn.in_proj_bias f8 [48]
000000 9f 25 a3 f2 f9 ef de bf ba e1 1d cc 3e 5a da 3f
       -0.4833969945435345 0.41175813611291867
000010 79 2c bd 25 c4 2b f2 bf d6 87 dd 9e 92 81 e4 3f
       -1.1356851076295966 0.6408169844473786
000020 c8 da e9 37 a9 cb de bf 39 ee 08 73 b6 ae cb 3f
       -0.4811804815321179 0.21626930825174087
000030 78 1a f1 1f 31 15 f2 bf 43 32 95 93 cd e6 f1 bf
       -1.1301738021590193 -1.1188483967736296
000040 66 c1 a6 22 23 b0 f5 3f a0 96 86 36 e6 d5 dd 3f
       1.3555022576875557 0.46618037533549206
000050 b3 75 45 28 de b2 dc bf 68 81 4d 42 59 11 ce bf
       -0.4484172242426567 -0.23490443932952165
000060 0b 25 5e 04 f5 57 e9 3f 85 00 83 c6 1f 90 e8 bf
       0.7919869504268332 -0.7675932767088091
000070 e3 20 4f bc d4 b6 eb bf 1b fa e3 99 0d 2f f7 bf
       -0.8660682371055625 -1.4489875804280306
000080 31 a1 57 fa de af 0b bd 9c 21 d7 2c 11 17 0b 3d
       -1.229549623126755e-14 1.203042368929434e-14
000090 75 fe 9f 96 67 fa 22 3d 3f 68 49 8b 29 f9 12 3d
       3.371195435381518e-14 1.6851666873031088e-14
0000a0 18 b5 f6 f8 b6 6d 1c 3d 4e 92 5b b2 41 c8 ea bc
       2.524964520933743e-14 -2.9734273323796506e-15
0000b0 fa a2 dc ae c7 b0 14 bd 06 94 1c 3c f1 57 04 bd
       -1.8376897267560285e-14 -9.034339810075235e-15
0000c0 66 31 02 f3 a4 04 06 bd df 47 a8 9c bd 8a 18 3d
       -9.778019250215273e-15 2.179763547317598e-14
0000d0 30 ff e8 a2 3f 12 fe 3c f0 13 9f b9 7a ef f8 3c
       6.67716626743524e-15 5.536785782336987e-15
0000e0 fb 6a bf 87 cd 49 34 3d a0 4b de 16 b3 54 2e bd
       7.207849390394759e-14 -5.3878426495937425e-14
0000f0 ef 98 99 d3 70 cd c7 bc 6b c9 af 2f dd cb da 3c
       -6.606521676032825e-16 1.4874958922789043e-15
000100 74 48 fb 7b b5 43 9c bf d4 b0 63 52 6b c5 ae bf
       -0.027602039043650398 -0.06009993916254222
000110 16 21 2d 8c 0a cb c9 3f 3f 29 00 0f 23 f2 d5 bf
       0.20150882572694034 -0.3429038664331933
000120 ea ca 2a 4f 85 a5 b8 3f 8b 54 b3 fd 05 07 cb 3f
       0.09627564604560815 0.21115183723182826
000130 67 91 43 7f 47 1b c4 3f 15 4b 5b 55 3e 0c c8 3f
       0.15708249773082203 0.1878736416607231
000140 a5 88 29 a2 d8 16 c2 bf ff 97 cb 66 ef 21 b6 3f
       -0.141322211437971 0.0864553094830569
000150 08 04 46 07 53 b7 d0 bf b1 18 58 af 24 22 bd 3f
       -0.26118922910978926 0.11380223542082281
000160 50 91 14 f9 9d c1 cb 3f bb d5 0a 74 49 1d a9 3f
       0.2168462244236573 0.04905156652004502
000170 1f d1 3d 35 bb a9 98 bf cd fa 8f 50 f7 e4 a2 bf
       -0.024084973454095434 -0.03690312250545489

transformer.encoder.layers.0.self_attn.out_proj.weight f8 [16, 16]
000000 fb d8 34 f5 96 c1 dd bf 93 c6 a9 56 1d b1 ba 3f
       -0.4649407763094044 0.10426505437660642
000010 fe 8f 86 70 7b 35 d1 bf 6e 68 6c 69 f5 cd ea 3f
       -0.26888929356414326 0.8376414355327719
000020 25 9e ce 16 be 2a b5 3f f4 51 2f d3 6d a2 c8 bf
       0.08268344933332424 -0.19245693980941747
000030 1f 54 79 0b d5 c1 c4 3f ac 60 04 e2 72 2c b9 3f
       0.1621652894997689 0.09833448427196129
000040 cb 91 60 40 95 d3 ad bf 96 8e 25 63 9b 49 a5 3f
       -0.05825487528662484 0.04157720170294714
000050 45 0c 8f b7 c8 b4 a4 3f fd e3 89 e9 86 d7 9a 3f
       0.0404417728491571 0.02621279526144703
000060 a4 01 8a 3f 19 09 e3 bf 65 0f fd e3 ee 50 ce bf
       -0.5948606720922283 -0.236844884226339
000070 c0 6a b5 96 a5 76 c4 bf c2 38 14 43 70 f3 85 3f
       -0.15987081393071456 0.010718228385055876
000080 e6 14 6b 7c 34 4d c9 3f 78 b2 8f 2e ad 12 a0 3f
       0.19766861033546163 0.03139249032378627
000090 6a e0 01 d5 4b c8 cb 3f 7e 31 3c ac 4e e6 4b bf
       0.21705005551098405 -0.0008514293808459664
0000a0 aa 66 79 4f 8c 83 bc bf 5c 75 04 cc e8 8c c0 3f
       -0.1113822645214905 0.12930021249568824
0000b0 f6 88 7d 31 4e 92 99 3f c7 2d 9f de 8f a1 d5 3f
       0.02497217347207311 0.33798596134576225
0000c0 4b 7b 60 fd 38 2c bd bf 11 23 3f 70 e3 5c b9 bf
       -0.11395603357275978 -0.09907361498256885
0000d0 f1 3c 5f 5b 78 0f cc bf 36 29 b6 6b 04 66 de bf
       -0.21922211133503525 -0.4749766399260297
0000e0 5d 3e 71 05 6e 6f be bf f4 d2 b0 6b b5 11 c3 bf
       -0.11888778336401047 -0.14897792585693248
0000f0 f0 d1 c9 0c 11 53 b3 bf 5c 91 ea 0e ea af c1 bf
       -0.07548624574867069 -0.13818097809156427
000100 f3 40 5d 31 93 03 bf 3f 8a bf 70 b6 33 fb b6 3f
       0.12114829974348477 0.08977053836929208
000110 6a 8b eb 63 da 17 d2 bf 24 ba cd b0 fc 8c ad 3f
       -0.28270587690183524 0.0577162710022672
000120 63 09 57 f1 0b 3e b8 bf 9b 15 7a d7 4e 73 a0 3f
       -0.09469675676431204 0.03212973003705174
000130 bf ec 64 c3 11 08 b0 3f c1 5b 49 99 9e ee a5 bf
       0.06262312908522726 -0.04283614751027854
000140 e2 6c 2b 52 28 d9 b7 bf e1 06 9b 74 bc fb a5 3f
       -0.0931573105439614 0.04293621943862803
000150 55 ce b8 98 7b 68 af 3f cc 21 d4 16 74 bf ba 3f
       0.061344015496072636 0.10448384816493855
000160 8f c2 6b 18 f5 0e c0 bf a8 0a 07 30 ba 4a 8b bf
       -0.12545646374157512 -0.013326124754603555
000170 2c 7f 52 54 18 eb 94 3f 46 98 4e e0 0b 80 ce bf
       0.020428066393491637 -0.23828266575327656
000180 82 04 09 ae 41 83 8f bf 6d f2 12 fc f2 5d 91 3f
       -0.01538707077372892 0.01695995009935063
000190 0f 70 d6 42 c8 52 91 3f 2d bc 1b 65 cb eb 81 bf
       0.016917351798483134 -0.0087505235892121
0001a0 68 ec 7e 7e 7b 9f 8c bf 1b 41 1b 60 4a 23 a4 3f
       -0.013976063535542774 0.039331745368715164
0001b0 57 0f d2 29 f8 68 83 bf 25 51 2b be a1 c1 95 bf
       -0.009477556968938634 -0.021246459228522547
0001c0 13 4a 4c 32 1c e1 a3 3f 3f 20 18 fe 2c c2 87 bf
       0.03882682909001658 -0.01160082960542763
0001d0 28 3d b6 bd 68 eb 70 bf 64 0f 33 2a 48 73 97 3f
       -0.004130753655217569 0.022900703025484317
0001e0 2d 61 8e 80 99 55 a5 3f f5 6f c1 71 36 49 9d 3f
       0.041668698256389504 0.028599596684543333
0001f0 4d c7 a5 7e 2f 93 93 bf 65 62 b1 92 28 2e 8b 3f
       -0.019116155724481932 0.013271634079658765
000200 4a 41 1a b6 29 ac a3 bf f6 d6 e4 d9 68 36 99 3f
       -0.038422873954120876 0.02462161855620245
000210 5a bd ea 3c df cd 8d 3f f6 7d 71 e9 5e 94 97 bf
       0.014552825972116313 -0.023026926992654816
000220 0b 79 63 ba 22 3e a1 bf 34 37 5c 80 74 47 67 3f
       -0.033677182438383545 0.0028416896265132333
000230 62 b5 18 50 b4 cc aa 3f df fe 94 25 89 a0 a7 3f
       0.05234302022686667 0.04614666541828937
000240 b5 8c 4e 4a fe 53 a4 bf 7f 52 4b 46 18 d5 a4 3f
       -0.03970331818643428 0.040688284474218676
000250 89 e2 34 94 f8 df af 3f 5f b5 58 85 cd 4e 63 3f
       0.0622556382099378 0.0023569120483190454
000260 03 5e ee e2 bc b2 98 3f 44 68 df ce 74 7b b3 3f
       0.024119330740715494 0.07610254335978178
000270 44 84 b3 5e fd fa 9c 3f 17 49 25 79 c4 e5 aa 3f
       0.028301199822525783 0.052534236706053665
000280 e0 79 a8 82 68 bc bf bf d3 b5 ab fb 76 65 92 bf
       -0.12396863164801841 -0.01796518241001428
000290 0c 3f 6b ec 8d 6e 80 3f a4 7b a3 c2 a5 c1 cd bf
       0.008023365762170019 -0.2324721527465644
0002a0 8f 9a be 71 d6 64 b8 bf ba 8e ef 67 99 1a c1 3f
       -0.09528866078344776 0.13362424445141646
0002b0 cf 31 e5 09 94 e9 c1 bf 9b dc d5 1e 78 8d c3 bf
       -0.1399407432858326 -0.15275479798922195
0002c0 02 d8 48 8b 34 b4 b1 bf 26 3a cd 18 99 2f aa bf
       -0.06915596390248882 -0.05114439418558829
0002d0 ef 2d 0c e5 68 f5 80 bf f7 bb 19 50 fe a4 b4 3f
       -0.008280581941582958 0.0806425996358796
0002e0 8b a9 72 8e fe 79 c6 bf e3 90 d8 cf f1 86 b7 bf
       -0.17559797244514316 -0.0919028408466747
0002f0 ec a6 aa f9 cb 1f be 3f 63 0a c1 16 a1 7c b2 bf
       0.1176726803338643 -0.07221419148940238
000300 f7 01 6a 60 2a 2b b4 3f 30 da 42 d9 b3 34 57 bf
       0.07878365377292328 -0.0014163738569955668
000310 15 a8 1c 2f aa f1 89 3f 95 3e 11 cc 01 68 b1 bf
       0.012667970240347196 -0.06799327118027983
000320 09 69 02 71 fa b1 4c bf 74 9c bc de 5f 8c b3 3f
       -0.000875708852635244 0.07636069476994739
000330 85 38 d9 82 57 da 93 bf 89 53 36 1c b2 5a 97 bf
       -0.01938759552131632 -0.022806914302765633
000340 11 8f b9 b9 66 d5 b1 bf 8a 24 2a c7 22 25 ae 3f
       -0.06966249498651346 0.05887707406243077
000350 74 8d 30 d6 d2 0d 95 3f 1d 14 8b c5 64 5f 9d bf
       0.02056054527578284 -0.028684210354885765
000360 15 be 64 95 c8 fc 9d bf 75 c1 f7 24 a9 c5 71 bf
       -0.02928460513902394 -0.0043388945773447
000370 b7 d8 fc 89 a8 19 a2 3f 9f fa 23 43 da b1 a2 3f
       0.03535200771732277 0.03651315755449968
000380 74 d6 0b f3 cf 98 86 3f 3d 3a f4 75 3f bd 84 bf
       0.011033653835947656 -0.010126586711092784
000390 43 41 d8 da 0d df 60 bf 7e ec 80 3a ba 8f 73 3f
       -0.0020594854929713315 0.00477574105758116
0003a0 f8 85 91 68 5d cc 68 3f c3 5a 5a 2a 0a c9 62 bf
       0.0030271362671079292 -0.0022931288284085707
0003b0 cf 8b a2 af 1d 88 72 bf 2b 1e 35 f0 52 4a 6a bf
       -0.004524341546274748 -0.0032092685593487955
0003c0 55 97 9e e5 37 04 80 3f e5 71 cf f5 fb 94 72 bf
       0.00782054585927098 -0.004536613673704147
0003d0 7b ae 57 a4 b2 7f 83 3f 6d 4a d2 77 49 ea 4f bf
       0.009520908012709875 -0.0009739741068578008
0003e0 c0 74 98 d6 5d 97 89 bf da 32 ea 32 fd 02 7a 3f
       -0.012495740043102166 0.006350506837986736
0003f0 44 3c 4b 4d 27 a0 7b 3f 2d 05 32 d2 f4 63 7b 3f
       0.006744531176720751 0.006687122661902562
000400 6c 78 6b e7 33 8b 89 3f c6 03 08 92 2b 54 b1 3f
       0.012472539424774186 0.06769058528153868
000410 44 99 ac 08 0a fe c5 3f 3c 9c 73 77 a7 a5 b9 bf
       0.171815160975891 -0.10018393198298353
000420 9f e2 35 56 88 e7 cc bf a3 21 28 cf 45 e7 a7 3f
       -0.2258158131551413 0.046686345613184764
000430 b2 fb 98 f7 f8 14 c1 3f 0f 9e dc c8 f9 be cb bf
       0.13345253076292135 -0.21676561649040635
000440 ce 0b 4f ca 3e cd 9f 3f 5c 4e 41 1a 70 71 c8 3f
       0.031056386087367653 0.19096184999453925
000450 0d ff a5 c2 c1 86 ca bf 35 68 15 5e 06 6c d1 3f
       -0.20723745350186853 0.27221831500867505
000460 8a c3 e0 7e ad da c0 bf b6 30 c6 62 0e 3d d0 3f
       -0.1316735143205075 0.25372657438198176
000470 3f 0e ec 7c ae dd cc bf 4c 42 0c 87 a4 5f 85 3f
       -0.22551518535338919 0.010436330195745878
000480 8e 8f 90 5b c0 fe c6 bf 14 0d 96 c1 20 90 85 3f
       -0.1796493956654754 0.010528808505802213
000490 48 8f 0b 26 7a 7f dd bf fd 72 6e 7f 3b c9 b1 3f
       -0.46090558734271214 0.06947681294554893
0004a0 c8 2e 7e 01 08 1e d6 3f e9 eb 0f 33 1a e4 7c bf
       0.3455829634265055 -0.0070534728447410955
0004b0 60 01 81 e4 b5 53 d3 bf 82 3c 46 ab a3 5e cc 3f
       -0.3019842845424332 0.2216381632137861
0004c0 cf d5 d9 91 b9 86 d5 bf bd 25 6f 11 f2 a1 cf bf
       -0.3363479542088869 -0.24712968684461414
0004d0 eb d7 3b b2 1f 75 8d bf 66 d2 aa c7 15 67 d4 bf
       -0.014383552195322799 -0.3187918138385498
0004e0 44 7b 50 7a aa 62 b9 bf b6 b6 ce 28 d5 e2 e8 bf
       -0.09916177259627285 -0.7776895329495435
0004f0 2a 67 50 66 8e 4a e2 3f 6e 13 75 35 6b b8 a7 bf
       0.5716011045762788 -0.046328878665497494
000500 b3 18 a5 f0 80 8c d7 bf f7 80 f4 fb 6b 3d ba bf
       -0.3679506635711604 -0.1024997224926699
000510 a3 23 e1 1a 4a 48 db 3f d5 de a6 da e8 73 66 3f
       0.4262871992582921 0.002740816872769484
000520 67 0f d3 3d 0d 34 c3 3f b9 49 61 6a a9 b9 cc 3f
       0.1500259925725189 0.22441594786012134
000530 d2 b6 69 12 52 5b bf 3f 9a 64 7b d0 59 77 b1 3f
       0.12248719167265712 0.06822739925282165
000540 fd cf 68 d1 cd 81 c5 3f f8 98 03 32 59 60 c4 3f
       0.1680238029963447 0.15919032041637826
000550 38 b1 8e 19 76 43 bf 3f a8 8f d0 a1 75 70 cf bf
       0.12212312816581494 -0.24561949158771523
000560 16 25 69 fb 8c df b6 3f 9b 57 39 21 2f a9 c5 bf
       0.08934861314732631 -0.16922558901086124
000570 cd 0e a5 d4 54 33 cb 3f f6 7e a4 fe 64 76 b6 3f
       0.2125040090851286 0.08774405686244421
000580 cf 3a 79 c5 5d ee b3 3f fe 79 ad 95 c9 bb 81 3f
       0.0778559310067337 0.008658957367228656
000590 bf 34 fe 9c f0 fb d4 bf 73 60 89 f6 27 a6 d1 3f
       -0.3278771908888522 0.27576636386721204
0005a0 a7 0d 54 c3 38 ea b1 bf c9 a0 3c 17 e5 60 90 3f
       -0.06998018997915399 0.01599462465597482
0005b0 0e 0d ec 2e 5c f8 80 bf 48 0f fe d2 0c 1c cc bf
       -0.00828620927996451 -0.21960602094997683
0005c0 a8 7e 3b f5 15 f5 52 bf e5 16 69 c4 23 d0 8d 3f
       -0.0011570658143042287 0.014557151252243947
0005d0 23 42 b7 53 48 2a d7 3f 92 e0 c4 11 b0 62 85 bf
       0.361955720666659 -0.01044213823534815
0005e0 61 29 11 14 f5 c4 c4 bf b0 4c 88 7d e0 c7 91 3f
       -0.16226066093288252 0.017364032422915343
0005f0 f4 4d 1a 91 ce 06 a8 3f aa ed 68 5c 4c e1 b8 3f
       0.046926932537782934 0.09718777900791645
000600 59 99 a4 de 72 8b c5 bf c5 f9 0e 04 be 2e c0 bf
       -0.16831813689459343 -0.12642646024865037
000610 da 1e bc c7 6b ab b2 bf 5d f4 40 b0 63 5f e1 bf
       -0.07292817713107116 -0.5428942148643149
000620 d0 d3 5e 39 0d eb b3 3f e5 17 64 a2 8b 38 c4 3f
       0.07780535364766128 0.15797563008544482
000630 8d d6 be af 61 08 da bf 48 56 81 b8 96 23 aa 3f
       -0.40676157152788833 0.051052770636186795
000640 d1 11 00 df ed d1 b6 3f c8 79 69 76 7d 95 e2 bf
       0.0891407651361711 -0.5807483017668398
000650 6d a9 33 94 dd d6 c2 bf 4a 73 60 bf a2 0f c9 3f
       -0.14718217598358355 0.19578966469353026
000660 47 6b 65 00 2f e5 d7 3f 87 b2 95 19 79 ee d1 bf
       0.37336325682342814 -0.2801802396632315
000670 10 3e a0 15 ee 2b ba 3f 63 40 e2 5d 55 36 5e 3f
       0.1022328188703272 0.001844008794737583
000680 18 31 1b 71 40 f1 8f bf 2e 29 4c ca 5e ee 50 bf
       -0.015596869899490204 -0.0010333944021022157
000690 11 1d b5 08 1e eb 61 3f dc 3b b2 cc b9 ea 58 3f
       0.0021873079873874286 0.0015208067368666011
0006a0 4a 7d 5e 4e 54 a1 6f bf 11 37 ea b8 64 19 92 bf
       -0.003861107502373483 -0.017674993311223967
0006b0 71 ae 3e 9a a7 4f 46 bf 77 5f 58 8a e9 0c 7c 3f
       -0.0006808822986292385 0.0068482515976241365
0006c0 2f f2 31 f5 b0 9c 79 bf ba 8a a8 83 d3 02 51 3f
       -0.006252948037510238 0.0010382714814417952
0006d0 b0 36 1d 70 36 fd 93 bf 98 ca e4 cc 0c 7b 62 3f
       -0.019520617096808024 0.0022559404379987706
0006e0 27 ed 3e fa ab 13 70 bf 28 9c 21 2c 63 dc 6d bf
       -0.003925010478208513 -0.0036451279602718496
0006f0 f6 47 8c be 96 93 73 3f 62 2d 90 a3 f2 8b 5e 3f
       0.004779423565894439 0.001864420845097602
000700 72 8a 18 a8 b8 f3 ad 3f ca 5a 6a e9 d2 a5 43 bf
       0.05850007106734702 -0.0005996017306014398
000710 fb de 73 b9 b3 1d d9 bf 25 05 c9 dc 39 ed ca 3f
       -0.3924378691731218 0.21036456375626603
000720 dd 78 a4 12 3a 57 d8 bf be 2f 15 39 9a 80 d0 bf
       -0.38032390423349033 -0.2578492696236444
000730 ce 0c 57 89 5c 86 be bf 52 79 c4 3e be ad bf 3f
       -0.11923769333866405 0.12374486000451171
000740 1b 0e ae 19 01 94 88 bf b7 aa 92 2a 31 07 e1 bf
       -0.012001045795620382 -0.53212793650649
000750 a6 c0 e7 68 df 5a 99 3f c5 8f 01 e6 ed 28 c5 3f
       0.024760714319143638 0.16531156283156015
000760 87 af 55 27 13 fc 7d bf 22 90 73 01 05 27 e0 3f
       -0.007320475405645405 0.5047631290767678
000770 9a a7 55 e0 8b 09 d4 bf 95 cf 12 67 52 28 9f 3f
       -0.3130826655166118 0.030427253285509066
000780 08 98 dc cf f3 00 a2 bf ba ed de 35 3b 66 c4 3f
       -0.03516351616262631 0.15936985140238652
000790 4f 37 79 63 21 24 d2 3f 95 9b 13 27 5e ce c4 3f
       0.28345522608002666 0.16254784496342425
0007a0 c0 53 9b 7f fc dd ad bf de e4 0b 8a d3 67 b8 3f
       -0.05833424623202843 0.09533426399493147
0007b0 97 34 d6 f7 64 1d d7 3f f9 1c 5f aa 84 6e c0 3f
       0.3611690922051109 0.1283727485553994
0007c0 d1 ee 7f 81 dc ef b0 bf ac 59 fc 64 c0 6e e5 3f
       -0.06615999375929539 0.6697694752099799
0007d0 dc 02 70 20 18 ef c8 bf b9 92 3a f4 2f 58 b7 3f
       -0.19479657729973254 0.09118938171975345
0007e0 d2 44 71 e9 44 29 9e 3f b1 04 61 b7 78 5c e3 3f
       0.02945430445499115 0.6050380307789479
0007f0 93 06 bf 07 41 8b d4 bf 53 ea 21 ba 3d 7e c9 bf
       -0.320999391140597 -0.19916507328510366

transformer.encoder.layers.0.self_attn.out_proj.bias f8 [16]
000000 7d 97 5f 80 48 9f 82 bf b9 75 ef ed 2f 7a 46 bf
       -0.009092871110577988 -0.000685952570957652
000010 93 04 8a 54 96 6b 5e 3f 05 ec c1 60 8a 75 62 bf
       0.0018567054814016312 -0.002253313321543884
000020 60 27 ce d1 7e ae 4c bf 98 88 0b 44 7c 3c 6b bf
       -0.000875293658837633 -0.0033247401300836137
000030 f0 6a ac 0a 97 b0 72 3f 55 95 cf b2 e0 93 04 3f
       0.004562940603842533 3.924874759046274e-05
000040 48 35 e5 9b 52 00 25 3f 9e 85 33 b2 d8 67 7c 3f
       0.00016022690210563463 0.0069349732104639055
000050 18 51 d4 0a 93 8b 69 bf 26 39 9f e1 65 a5 93 bf
       -0.003118312065121153 -0.01918563069903558
000060 90 37 8a 8a 82 5a a0 bf 2d e0 4e 5a 0d 78 d7 3e
       -0.031940535937891146 5.595434605369692e-06
000070 40 fe c0 50 c6 05 78 3f 59 44 47 15 e6 ae 9c bf
       0.005864882154184736 -0.02801093582985845

transformer.encoder.layers.0.linear1.weight f8 [128, 16]
000000 94 1d d4 47 7f 6f d6 bf a7 13 49 ba 89 53 c4 3f
       -0.35055524839887053 0.15879937740296876
000010 95 81 cf b9 29 c5 d5 bf de 9c 15 cb ee 13 ad bf
       -0.34015887399257255 -0.0567927000909607
000020 c0 5b 14 99 1c 9e d3 3f 12 29 9b 59 69 6b c2 bf
       0.3065253729741322 -0.14390293956086758
000030 a6 20 49 68 2f 33 e4 3f c7 d2 4b 98 d2 70 d1 3f
       0.6312481915311039 0.2725111472384864
000040 9d ec d7 cc 2f 01 c5 3f 3f 7a 8d b4 60 52 92 bf
       0.16409871580240046 -0.01789237119680309
000050 8b 01 e3 2f 3f 55 ce 3f 53 c2 7a e8 ec f9 cc 3f
       0.23697652662486876 0.2263771186021751
000060 c7 df bf 9f a9 16 c5 3f b7 d7 dc 77 a1 fb f5 bf
       0.16475410747784577 -1.3739332849631702
000070 a7 bf 42 81 5b 13 8a bf be 65 46 a3 26 0c af bf
       -0.012732233888840329 -0.060639579230336235
000080 99 4d 17 08 bd b2 ba bf 4a de 40 79 9b 75 a7 3f
       -0.10428983161482676 0.04581914763587898
000090 4b 98 95 38 55 9f d0 bf 6a 13 78 05 ac df ce bf
       -0.25972490812126087 -0.24120092646640084
0000a0 66 47 9f b0 1d e2 98 3f de 8a ec 52 ab f2 dd 3f
       0.02430006399647002 0.4679363546185139
0000b0 ab 6f b9 95 c3 28 bc 3f e4 dd 3f 17 02 71 d0 bf
       0.10999700932865035 -0.25689747114617334
0000c0 03 7b c8 f6 9e 88 90 3f 70 ad 0f 49 c4 29 a2 3f
       0.016146167576262204 0.03547490493641703
0000d0 e7 f7 dd 2a 4a 1b b3 3f d0 28 ff 07 6a 3d d6 bf
       0.07463515802916697 -0.34749842434815736
0000e0 01 bf f9 48 5c e7 b7 3f 86 d2 41 33 44 d5 ea bf
       0.09337403089170594 -0.8385334969630811
0000f0 c1 0a 19 b8 dd 1c d3 3f 7f 3f 69 f6 78 14 a2 bf
       0.29863684633543747 -0.035312442855341956
000100 83 25 26 f3 0b 88 c5 3f 5f 06 ca 61 eb 3e b2 bf
       0.168214315152266 -0.07127257478171022
000110 56 d6 34 1c d6 e9 ba 3f 1d b8 85 1d bd d2 99 bf
       0.10513055981285765 -0.025217966963673278
000120 58 1a fd 63 10 53 d1 3f 6b 31 69 75 d5 4d c5 bf
       0.2706948257877335 -0.16643779976801495
000130 39 d4 9a a1 0d 0b cd 3f 9f 56 7f f2 2e ac cc 3f
       0.22689981833323872 0.224004619986478
000140 8d a6 55 1b d8 24 bc 3f 68 d7 cb ec 35 9b ba 3f
       0.10993719737384762 0.1039308264842852
000150 df fa 08 7e f3 fd a3 3f 8b 33 7c f3 8e 65 d2 3f
       0.039046868453160626 0.2874486329827099
000160 31 84 f4 30 33 2e dd 3f ec 94 a7 af 05 79 fa bf
       0.45594482212806314 -1.6545464383610193
000170 32 6e ba cb 4e 82 ae bf a4 47 2b 03 23 64 d5 bf
       -0.059587919587297825 -0.33423686322668744
000180 50 09 30 72 c1 31 d9 bf 78 56 ea d4 86 9b dc 3f
       -0.39366184378754543 0.44699259560125126
000190 1d f5 7d 06 59 8a c3 3f 1d 29 76 db 8e 4b c0 3f
       0.15265953843110305 0.127305848273246
0001a0 4f f9 37 c3 0b 8f d4 bf f4 27 07 8e 4a 34 bd 3f
       -0.3212308317596539 0.11407915084342318
0001b0 fa 51 67 72 79 0b b3 bf 51 f0 df 51 c5 39 c6 bf
       -0.07439383547836789 -0.17363802430907296
0001c0 9a a9 b9 5f 4f 22 b6 bf f5 97 70 37 c8 79 c2 3f
       -0.08646102988283247 0.1443414946272125
0001d0 5c 17 c5 ce 29 c9 d4 3f c5 5e ee 68 f3 35 d0 bf
       0.3247780341374573 -0.25329289672070515
0001e0 0d 0a 07 ea 19 26 b1 bf 5e d4 89 77 f0 9a c7 3f
       -0.06698762858926717 0.18441587292514589
0001f0 b1 4f b3 04 89 6e e0 bf 9b dc ac f3 39 be d9 bf
       -0.5134930698209158 -0.40223549648676177
000200 49 35 9a 30 25 76 d1 bf 9c 8e 82 f7 bc c9 c5 bf
       -0.2728360151894163 -0.17021905980538043
000210 56 49 ff e9 87 1c c9 3f bb 21 0f 3f 5a bd c4 bf
       0.19618319440503268 -0.16202858046587018
000220 84 84 86 b5 2d 4d c8 3f bf c4 d0 60 bd ca bb 3f
       0.18985530246303395 0.10856231321010322
000230 4f 71 5b 38 79 55 cd bf 9b e1 ae e2 68 c2 c1 bf
       -0.22917094470802588 -0.1387454134799214
000240 6b e8 50 09 c6 bf c7 3f 77 34 48 1f 26 7e d0 3f
       0.18553996519932822 0.2576995187271857
000250 f0 99 f5 72 ad 8a a9 bf dc 95 fd d9 d7 f5 c5 bf
       -0.04988615063011881 -0.1715650381476469
000260 3b d4 76 f3 86 68 c2 bf c8 83 e0 a6 cb ef cc bf
       -0.14381491554164136 -0.2260679783658175
000270 57 36 55 4c ab 6c c4 3f 5d cd 72 af 8f f1 c5 bf
       0.15956631877127123 -0.17143436495608003
000280 55 78 70 50 b8 3b c9 bf c0 a5 a2 f7 eb f9 8c bf
       -0.19713500907613715 -0.014148562903147588
000290 d2 1c b8 db 47 0f af 3f 1e 07 dc 35 99 82 8b bf
       0.060663457461538464 -0.013432690578614234
0002a0 14 f5 f0 d0 0a 43 b6 bf 9c 38 b6 73 f6 79 d7 3f
       -0.08696048356155855 0.3668190126417217
0002b0 88 4b a0 3a d4 98 e5 bf 41 56 27 d7 b7 60 ba bf
       -0.6749058861772577 -0.10303830149435901
0002c0 6a 17 3a a6 a7 82 c1 bf 93 36 54 f2 c9 1c c4 3f
       -0.13679977051304643 0.15712856609791412
0002d0 d8 f5 fc e7 ee 75 dd bf 94 be e9 c0 b7 ed bb bf
       -0.4603230729588552 -0.10909603557387931
0002e0 72 41 f1 7e 5d f7 ec 3f 78 42 5c 1f 06 83 c3 bf
       0.9051959494918675 -0.15243603259343153
0002f0 47 a3 0f a8 1e 2b e1 3f e5 7b 8a 1f 28 e1 d8 bf
       0.5365136415904111 -0.3887424762742156
000300 23 fc ac 75 a4 b9 d9 bf 89 ce d5 de 48 27 cc 3f
       -0.4019557141472793 0.2199488723814407
000310 47 a5 3f e8 75 4d c8 3f 65 8c e5 f6 fc 8e d0 bf
       0.1898639091516918 -0.2587273036098792
000320 95 24 2f dd 0d 38 a4 bf 65 2f 78 1a a7 9b e3 3f
       -0.03949015927316527 0.6127505795461557
000330 f2 58 21 20 b3 1c d9 3f 2a d8 90 e2 df 38 cd bf
       0.39237669122429886 -0.22829817354949117
000340 14 27 52 f0 bf 0e c5 bf 9b a4 4d b1 f7 29 db bf
       -0.16451262697619795 -0.42443649592184735
000350 c6 68 94 ee df 69 d1 bf ee a8 c1 1d 31 cd cb bf
       -0.2720870809440722 -0.2171994586272556
000360 af a8 35 e3 d6 8b bf 3f 2b 16 d6 89 f5 b6 d1 bf
       0.12322752997502805 -0.2767919393594151
000370 9e b5 61 6c a1 20 d9 3f d5 1f da bd e4 91 d9 bf
       0.3926166113295383 -0.3995296339057835
000380 30 cd 2d 8f df aa d5 3f 71 0a 21 f3 78 d7 ad 3f
       0.33855427725139275 0.05828454940685369
000390 19 2a 2d f0 1d 90 c7 3f f0 12 0a 68 8e 1e aa bf
       0.18408560016025957 -0.051014375877491136
0003a0 a3 68 d0 dd 02 d8 a2 3f 8a fe 21 d1 d6 5b ca bf
       0.03680428464595422 -0.20592770778238317
0003b0 88 ec 21 ac ac 5e d8 bf e7 5f 9e 31 d6 3e 90 bf
       -0.3807784729940029 -0.015864702967149837
0003c0 c4 a0 fc 6c 2e 35 c2 bf a2 a7 7e 50 c2 92 b0 bf
       -0.142247966018891 -0.0647393652458548
0003d0 58 be dc e2 90 cc 84 3f 07 d2 cb 0e 4d f7 e3 bf
       0.010155803607261024 -0.6239381112087025
0003e0 90 e5 8e 88 47 78 a5 3f da c5 38 b9 67 42 d6 bf
       0.041933284206105204 -0.3478030499273622
0003f0 26 23 45 2a ab 36 de bf 42 6d c0 a2 44 e7 c0 3f
       -0.47208670738159453 0.13205774256571529
000400 32 82 ee f3 51 cf 98 3f 46 85 5e cc f6 0c 72 3f
       0.02422836352673325 0.004406894737173877
000410 d6 ee ac 37 4a 98 c2 bf 01 83 88 7a 85 3f ca bf
       -0.14527251928836077 -0.2050635193163757
000420 3c a4 8e d5 98 a5 cf 3f f4 86 07 6e bc 11 e1 3f
       0.24724111964795437 0.5334150456439759
000430 77 82 cf 0a 34 24 d6 3f 96 9f 38 13 ab 58 b2 bf
       0.34595967345925466 -0.07166547030703749
000440 50 bc c1 3a ce 19 d6 3f 52 84 92 80 c0 d5 be 3f
       0.34532504785506024 0.12044909609768809
000450 ee b5 3e 8c b3 cd 80 bf 2e 58 22 6e 9c 2c d8 bf
       -0.008204844205319053 -0.37772284274376744
000460 57 0e 1b 18 d0 b2 9c bf 2e dd c5 af 70 58 ee bf
       -0.028025866957945258 -0.9482959206642698
000470 7c 4e e5 b1 70 cb d5 3f b9 ff 55 d5 56 83 c6 bf
       0.34054200527791756 -0.17588315407556168
000480 6d 22 c5 f6 fd 69 b6 bf 83 43 7f 54 86 18 b3 bf
       -0.08755481028232177 -0.07459296763341965
000490 d8 83 54 96 70 a7 85 3f d3 4c f7 49 be 25 d0 bf
       0.010573272311889356 -0.25230366919749975
0004a0 57 25 5a 29 14 c6 c6 3f d5 6b 17 e0 fe 37 c1 3f
       0.17791988391062816 0.1345213503071522
0004b0 78 ab fa ea 82 22 d0 3f c4 80 5a 76 30 cf c7 bf
       0.2521064085691971 -0.18601041583042932
0004c0 7f 96 01 43 c7 e7 ba bf 90 ea 31 63 06 fc 79 3f
       -0.10509915719884509 0.006343865347953184
0004d0 2c e8 fe 27 72 ba b7 bf ee a9 f5 65 da 21 be bf
       -0.09268868900736099 -0.11770405759094846
0004e0 f3 83 6d 7f 6d 76 b5 3f 8f 57 39 88 04 64 d5 bf
       0.08383831368475096 -0.33422959616779563
0004f0 87 a0 81 36 53 b6 c4 3f 02 f7 9b aa d9 8a d2 bf
       0.16181411897128248 -0.28972474728639963
000500 90 7e 40 2e 19 3d a5 3f f5 60 26 78 83 5a b0 3f
       0.0414817685088994 0.06388112719867307
000510 e4 52 00 b3 1a e3 b1 3f 51 fe 76 5b 8b 80 cc 3f
       0.06987158651493136 0.22267286268287248
000520 cf bf 48 54 02 a8 ac bf 29 89 5d 70 e2 47 f1 3f
       -0.05596930769786434 1.080049933364146
000530 23 c4 85 58 fb fc 44 3f 53 4e 1a 31 82 01 c8 bf
       0.0006405093454714444 -0.18754603765101993
000540 64 77 5b d7 24 4c d8 bf 3a bf 05 9b 6b 67 c9 3f
       -0.3796474555109539 0.19846863812881016
000550 aa c2 7b 0c 6d 37 98 bf 64 01 9c 49 6e 11 82 3f
       -0.023648933302811294 0.008822309132938862
000560 6d 13 a5 80 86 92 ce 3f a3 a3 d3 bc c0 90 e1 bf
       0.23884660035596586 -0.548920029451541
000570 e8 38 a1 df 35 f6 d7 3f b0 c0 38 de 24 33 d5 bf
       0.3744024928936498 -0.3312465829976743
000580 e7 d9 9f f8 4a f6 e6 bf f2 40 00 41 00 5f c7 3f
       -0.7175650459237745 0.18258670019032014
000590 ea f8 dc 07 fe cf c3 3f 30 64 ed be 92 19 d6 bf
       0.15478492149299622 -0.34531086583371273
0005a0 3b 09 3a 4b df e3 dd bf 8f 59 70 81 85 4c 98 3f
       -0.4670332178722167 0.023729406380959935
0005b0 45 fc e6 9f ae 60 e2 bf d2 8e 0f 1e df ea a4 3f
       -0.5743020175067463 0.04085442773773952
0005c0 5c 38 f7 01 88 c3 b7 bf 91 b7 11 aa fd 0a b3 3f
       -0.09282732055655302 0.07438645746307616
0005d0 13 ab a1 02 53 44 b7 3f fe 8d 35 c6 c4 f0 96 bf
       0.09088629545446407 -0.022402834508637774
0005e0 cc 11 c6 e6 23 ff d4 3f 4e e9 81 41 f9 eb 9f bf
       0.32807252441878343 -0.031173605559595523
0005f0 61 7c de 87 09 b7 af 3f 0e 6a 4a 0a a2 6b c9 bf
       0.06194333823736354 -0.19859719755625388
000600 aa e2 c8 e0 f6 c1 d9 3f 2e 37 4a 93 f5 a1 c3 bf
       0.40246364547378255 -0.15338010494127147
000610 ee be 35 1a c3 b9 d4 bf a7 6f 5b cd cd 62 d8 bf
       -0.3238380199390879 -0.38103051237498636
000620 e4 b3 3d 92 72 2a bc 3f 32 cb e1 75 be 51 d1 3f
       0.11002269811952164 0.27061425697245334
000630 23 1e 1c 97 f6 f9 e1 bf 89 35 95 43 91 81 e8 bf
       -0.5617630912174189 -0.7658163375833037
000640 a2 ae 18 b8 19 51 e0 bf 3c 3c 74 ed e7 63 da 3f
       -0.5098999591477489 0.41234777630683417
000650 90 b1 8f d3 f8 0d d4 3f b3 78 53 a7 8c a5 c8 bf
       0.3133527818706847 -0.19255216760843083
000660 6e af 0f 7c 1a b1 7e 3f 50 75 65 eb 64 63 d0 3f
       0.007493117766880759 0.25606654155656816
000670 5c 1b 8f dc eb de b0 bf 07 1d aa 5b d7 de d1 3f
       -0.06590150961629376 0.27922615005123
000680 19 29 42 31 5c e1 be bf 04 8c bb 95 95 7b ce bf
       -0.12062622263525603 -0.23814649401819576
000690 55 68 f3 c8 86 e8 b6 bf 2e 2e 62 07 2e 73 b7 bf
       -0.08948557287240651 -0.09160125427495622
0006a0 23 bf c2 58 ef 48 c2 3f 9e 54 ab ef 76 da 9f 3f
       0.14285079797763797 0.031106813791514136
0006b0 ba 15 b1 0d cc 38 51 3f 7a 12 22 cd 39 83 ba bf
       0.001051139136295161 -0.10356484659321011
0006c0 72 e0 9c 32 2f c9 bc 3f f9 b9 22 54 5f 49 c1 bf
       0.11244482980407769 -0.1350516472643475
0006d0 2c 7e cb 6b fb 9d 89 bf 7e 16 38 06 05 91 ca bf
       -0.012508358218325709 -0.2075506477705637
0006e0 a6 29 77 77 43 0c b6 bf 70 8b 29 ab 5e 71 c7 bf
       -0.08612462679517438 -0.18314727170499223
0006f0 c1 7b f9 9e d5 9c d2 3f 88 b8 62 ec b5 b0 d2 bf
       0.2908224155889308 -0.29203556141408926
000700 d7 91 74 a3 f5 90 df bf 3b e4 67 de 26 40 9c bf
       -0.4932226272815376 -0.027588469814848287
000710 67 88 c8 db a2 64 be 3f ad d1 62 50 d1 b8 d9 bf
       0.11872308603099811 -0.4019053730983398
000720 9e 62 c7 95 c9 ab d3 3f 64 af ca 95 02 b3 d3 3f
       0.30736007334557225 0.307800909310336
000730 60 0c 62 3c dc c1 c2 3f 3e f1 d3 db 05 e0 d0 bf
       0.1465411467398523 -0.26367327182358113
000740 f1 8d ea e8 85 ec ce bf d6 0a 11 f0 db 10 c2 bf
       -0.24159311173308098 -0.1411394998741204
000750 83 a7 28 e0 0d 52 ca 3f 01 fc 75 c0 ba 8f cf bf
       0.20562909550909234 -0.24657377622131096
000760 b6 fd 09 77 28 37 aa bf 69 26 e7 e2 de 26 e1 bf
       -0.05120207265008096 -0.5359949523637627
000770 13 ed 66 03 12 80 da 3f 43 3f 47 26 df a9 c1 bf
       0.4140667947028344 -0.1379965721994215
000780 99 54 b2 3f 44 23 d0 bf 4a 00 4e 7f 74 ab cf bf
       -0.25215250225421354 -0.2474198934178296
000790 27 c5 b7 ee 33 cc c3 bf 82 58 83 ac 0a 19 a4 3f
       -0.15466927677292938 0.039253552969669606
0007a0 f8 94 0f ad d6 31 b2 3f da e1 2e fb 0b 91 c6 3f
       0.07107297635191745 0.17630147709657146
0007b0 60 27 34 e6 77 0b d2 3f 00 0b 45 db 72 70 c0 bf
       0.2819499729235897 -0.12843166071441914
0007c0 74 33 99 2f 3a 3e b4 3f de 1d 91 2a 71 c2 c1 bf
       0.07907451307364771 -0.138746400627709
0007d0 84 e0 d7 79 c5 63 b5 bf 82 e9 15 6f f5 de c6 bf
       -0.08355364060105513 -0.17867916034795078
0007e0 f9 1d f1 38 49 b1 9e bf 0d 58 87 35 d4 b7 d4 bf
       -0.029973167515235464 -0.3237200281849944
0007f0 3b 5d 1a 58 4c 36 d7 3f ec 6b 55 a7 08 f1 c1 bf
       0.3626891003018106 -0.14016826792325732
