experiments/Datasets/darts_logs/London_modwt_pred_transformer_5_48_5/checkpoints/last-epoch=8.ckpt (torch, 664091 bytes, 206 tensors)

encoder.weight f8 [16, 1]
1.1381239929511895 -4.9771195624602 -1.9801409460429018 -0.05784627832188361 0.39674853867022875 2.6333511247664827 -0.007043310021369697 4.942800349554696
-3.796248066478467 1.5176292882055067 0.9622781615670585 -3.0550633289167832 -0.9978987539512987 -2.7677016903726424 0.7083758507082344 2.9427597658902367
00000000: ee4a 0881 c135 f23f 8d31 d407 92e8 13c0
00000010: a298 cb45 a8ae ffbf a1f4 2c03 079e adbf
00000020: 5cc3 94fb 5364 d93f 0c0e fe64 1a11 0540
00000030: 736f 2823 72d9 7cbf aafa 6f74 6dc5 1340
00000040: db39 684e b75e 0ec0 e7b5 04a6 3548 f83f
00000050: 95bc 3292 fbca ee3f 7640 e70a c570 08c0
00000060: 4e14 1e5e c9ee efbf 16e0 a9c8 4024 06c0
00000070: 6d2d 02d5 03ab e63f 8fdd d3a1 c58a 0740

encoder.bias f8 [16]
0.8628488514062651 -0.13330607994463545 0.01076732173600564 0.9458025818545132 -0.8459411449715126 -0.7395346152551722 -0.3085407068319266 -0.07025565210733427
-0.09756247324690431 -0.9767490796955806 -0.007483107389021699 -1.0012937447129167 -0.0061495563756110766 0.05509683224005076 -0.01731622737154499 -0.9549758854805295
00000000: 58cb c531 759c eb3f 8e2e dc72 2c10 c1bf
00000010: 9ff2 c575 2d0d 863f 2d33 b1c6 0344 ee3f
00000020: 46ca ff29 f311 ebbf 31fd 587f 44aa e7bf
00000030: 78fb 5485 21bf d3bf ddff 2840 46fc b1bf
00000040: 648e e9af daf9 b8bf 8719 3649 8741 efbf
00000050: 8703 2258 9ba6 7ebf 9cb3 f396 4c05 f0bf
00000060: e75f 4af8 4630 79bf 6b1e 2be9 a635 ac3f
00000070: 33e8 0059 58bb 91bf c470 9396 298f eebf

transformer.encoder.layers.0.self_attn.in_proj_weight f8 [48, 16]
0.28026076243693704 -1.1086079317402626 -0.11902263090522157 -0.5778461000213145 1.4402235453255943 0.6376233154935375 1.3444631645534764 1.1443986722794286
1.1276378577982877 0.4645809571985287 0.5775952229503162 0.4193283933351542 0.8613726145230484 -0.3991899584501116 0.06986527127602227 0.08188681076017562
0.06847082648279751 -1.014348289478174 -0.961105015496331 -1.9757215634809109 -0.690942546839856 -0.3124809838958762 -0.8054229481477062 -1.7864731202743973
-0.533471227355669 -0.1581232629092548 -0.3403658479305439 -0.8623289738067301 -0.7182588718106312 -0.06650494889552425 -0.1418015150553018 -0.013562697289827818
0.3451211028200956 0.7969475022880955 0.06550021554956897 0.10990401509464606 0.30333741403576947 0.8535320148040462 0.7003568306834054 -1.3291977758632125
1.16510642707602 -1.1182340976445684 -0.44851391132851826 -0.49653468803093476 -0.2958414469593129 -0.7596101014254856 0.8425252510401702 -0.560495005985238
-0.37213928670936347 0.4917042556177396 0.7428144521819581 1.3145845353918661 -0.9307113879742482 -0.21883065889852904 -1.466576834362708 0.32509314440590775
-0.6742028421465468 0.20667028783585295 0.3998842929930409 0.40829623162138673 0.18777766751100056 0.1825764112086886 -0.38999078807284276 0.5519385662091568
0.1687720074272821 0.14905579894601387 0.4846738218566354 0.20045428740358454 0.4528170108980758 1.1573158106282733 0.7915314942688423 -1.3821827153184751
1.2053031818548579 -0.6492356862963754 0.30001528745418293 -0.1289248074576422 0.34953540862734084 -1.0180500271681474 1.252299831787334 -0.36165167948146054
1.0197416059119384 0.13491048556929935 1.1512997164250356 1.428257501740254 -1.8316185879106501 -0.2860938334893926 -1.316373254947169 0.032099604863801666
0.020020727194145358 -0.11297079756624274 -0.3217252579363186 0.21605805540876402 0.4250572536130643 0.18245673577557045 -0.946795738230726 0.40158616607432374
-0.25778187143167386 -0.009688707271484596 -0.13207277159944522 -0.326359672315085 0.8722462553643867 0.8868850735039882 1.0249450488954328 -1.1824770527015167
0.6565652762129828 -0.024157857434469496 -0.06558222456204216 -0.5357350521648779 -1.0569937597703334 -1.0334679943530858 0.4960294518990595 -0.06567690946323018
-1.625571949206172 -0.2304415221708206 -2.5780017753437083 -3.452300709104541 2.945249835583282 0.3386047842069455 2.4287088213747645 -0.7681898694348132
0.30325811165135097 0.17320039972102466 -0.15533240232994677 -0.7980664697725021 -0.3158049732565681 -0.8907603376979143 0.87218866984773 -0.00154030141808565
1.7651088079629365 -0.7897391963467867 0.4870663671198465 0.4986662984791453 -0.0905066202632658 -0.9910357947630847 -0.231019653756559 2.2863151897072846
-0.6732038490613117 0.5778375660501104 1.1498634688145848 0.33056652357352306 -1.054902736156798 1.57933687865222 -1.1305781489711342 1.6966904326483343
1.5236792969444666 -0.35328566785131316 2.186559173703778 3.349172224598475 -2.4682846211171485 0.06799868106364129 -2.8095885164650354 0.7354716305581852
-0.5877263258035075 0.8521196667492088 0.2852359983386686 0.41522261724418896 -0.9090236583579567 0.5096613247206997 -0.3518865583530581 0.5552420324042516
-0.5558173600781355 0.5167872613074767 -1.8632661698163946 -1.0135086078424975 1.970515739626929 0.2879341863918575 1.648514171451607 -0.5021382846314029
0.23738200530826561 -0.026736035300320038 0.3369443871717707 -0.7638091269221075 -0.1661900519937319 -0.14807918437036321 0.6246070388317712 -0.02928153007519974
-2.1957794242212 0.4010886487813159 -2.41457638722242 -2.512627074365914 2.266228784238495 -0.9099716230021562 2.2392596586440647 -0.018717318989428133
0.16264628854457175 0.09956800778434184 0.11843289449810875 -0.4467251447508198 -0.025146074808473064 -0.043895817580100784 0.7456170672476992 0.1961120257786689
0.7217403625479646 0.2215240921224135 0.8470013924299127 1.5990842133815548 -0.8683106752602314 -0.6162565054064706 -1.035581604488018 0.6906369094757557
0.2638391105730831 -0.36244275504913903 -0.19272877779544584 1.0032829121729645 -0.3883560717962095 1.1076067561483314 -0.6164922699882465 0.6609566629974434
0.05104885562721071 -0.13486560939848682 0.21460996086512898 0.1536267411387396 -0.8785968695996714 0.7253842693409338 -0.31023715882725883 -0.7106336975878893
-1.0611739403175615 0.6469912416824168 0.7294397577462096 -0.6768039683000426 -0.000603277199275697 -1.1181605416965692 0.5594959419631216 -0.5736752038281807
-1.72263448008657 0.14988012515368115 -3.022361097927336 -2.8372355270762393 2.8019540316154985 -0.6454723242801947 2.4810515955382315 -1.2027111407629993
0.23952775004780985 -0.47518940056393066 -0.25190369819472436 -0.13883628813490176 0.20481143401642787 -0.8350007515924186 0.21087034696691984 -0.04887974016711431
-1.1003024618404809 0.8916938901311923 -1.289083734657245 -0.5991438844006207 1.2770627552080114 0.559896548309377 1.4655753600742623 -2.327930857535825
0.27589598243770624 -0.6514593518003762 -0.1842894055203743 -0.5081708721014797 0.5553798875254248 -1.6091759059534272 0.7506812005290368 -0.1477142369552174
00000000: e331 41d6 caef d13f ef91 aeab dbbc f1bf
00000010: 3fc8 3863 4478 bebf 5dce b61a b77d e2bf
00000020: 41a4 21d8 270b f73f 57c7 e602 6967 e43f
00000030: 0af1 a6ce eb82 f53f 5d6a 70fb 744f f23f
00000040: 319a 8ffe cd0a f23f 89c5 60c4 b1bb dd3f
00000050: cdb7 1cfa a87b e23f 5528 eac1 46d6 da3f
00000060: fd7c 214d 5d90 eb3f 3ad4 1b0a 548c d9bf
00000070: 08b6 41bf b0e2 b13f 544e 30b6 88f6 b43f
00000080: cc44 79d8 4d87 b13f 2cff a045 c53a f0bf
00000090: 8e81 324e 5fc1 eebf a470 d236 8e9c ffbf
000000a0: baf2 428b 331c e6bf a819 9d3d b0ff d3bf
000000b0: f0c0 b758 06c6 e9bf 8f2f acd6 6495 fcbf
000000c0: c02f 5b40 3212 e1bf b74d 7711 623d c4bf
000000d0: 225e 62d6 8dc8 d5bf a894 9cee 3298 ebbf
000000e0: efa1 8f07 fafb e6bf 0e47 87e4 7706 b1bf
000000f0: 68c7 d752 8d26 c2bf b35f 716a c2c6 8bbf
00000100: 9564 71d2 7616 d63f a599 5e0c 9880 e93f
00000110: e095 aa43 9fc4 b03f 16d5 8766 ab22 bc3f
00000120: 35f5 3b54 e169 d33f 0684 355f 2250 eb3f
00000130: 0c18 6aba 5269 e63f 98f9 13e3 6444 f5bf
00000140: 266a 0aa3 46a4 f23f e57c ea6f 49e4 f1bf
00000150: fa3f 3db1 73b4 dcbf 0d09 9b6d 39c7 dfbf
00000160: d875 dff6 10ef d2bf b3ad ead7 b94e e8bf
00000170: f0b1 e883 f7f5 ea3f bce4 0839 93ef e1bf
00000180: 8e4d 7e4c 21d1 d7bf 6da9 4b20 1578 df3f
00000190: ebc3 63d0 22c5 e73f e15d 35cb 8908 f53f
000001a0: 3ba7 ab3f 63c8 edbf 7c68 aa9d a402 ccbf
000001b0: 6d8b 4a45 1977 f7bf b423 d879 53ce d43f
000001c0: 2b78 bcd6 1193 e5bf a4aa a707 2c74 ca3f
000001d0: 55b5 254a b497 d93f 9c35 7984 8621 da3f
000001e0: 1880 703e 1909 c83f 63c8 94f1 a95e c73f
000001f0: 73e7 20ec 9bf5 d8bf 699f 6811 7ba9 e13f
00000200: 72b2 3036 529a c53f bd4a e0aa 4214 c33f
00000210: 4580 8659 e504 df3f 8de5 5e70 7ca8 c93f
00000220: 304d 3833 f4fa dc3f b3ac 5c95 5d84 f23f
00000230: 2470 34db 3954 e93f b13a 769f 6b1d f6bf
00000240: 3b4d 3dfd eb48 f33f e13f 01eb 89c6 e4bf
00000250: ba9b fa51 7333 d33f d33a d6ab 9b80 c0bf
00000260: 994c 36c3 c95e d63f d010 46d3 ee49 f0bf
00000270: a401 658c 6b09 f43f 6fa5 fa15 4d25 d7bf
00000280: 5d32 fc92 dc50 f03f ea2c b42d bf44 c13f
00000290: 9c08 5f40 b96b f23f 5bdb c389 24da f63f
000002a0: ae26 dd4a 4f4e fdbf 4526 9b82 5c4f d2bf
000002b0: 0d3c f566 dd0f f5bf ab87 3502 5c6f a03f
000002c0: d9f9 2942 5080 943f 6936 f378 a7eb bcbf
000002d0: c58d 4889 2597 d4bf bd4d 0255 caa7 cb3f
000002e0: 2b86 cc56 2334 db3f 81a5 8b08 be5a c73f
000002f0: 3f2e 7693 264c eebf fa2c 7476 96b3 d93f
00000300: ee3e d388 7f7f d0bf eceb f846 acd7 83bf
00000310: d118 5bb5 c2e7 c0bf 78e6 d4ad 13e3 d4bf
00000320: f526 9bfa 70e9 eb3f 7053 40ce 5c61 ec3f
00000330: 823f 93c7 2c66 f03f c9f9 d90e 6deb f2bf
00000340: 58c4 a02e 9502 e53f 996a 7d5e d6bc 98bf
00000350: d461 b125 ffc9 b0bf e3ce 0bd6 bd24 e1bf
00000360: 75a2 e449 72e9 f0bf f358 53bc 1589 f0bf
00000370: cf97 7050 f2be df3f 9436 3fb2 33d0 b0bf
00000380: ef2a 72bb 5702 fabf ec9b ae98 1b7f cdbf
00000390: a10c 1165 bf9f 04c0 2f7e 8cd5 4f9e 0bc0
000003a0: 5e09 5325 df8f 0740 ac07 9c66 b3ab d53f
000003b0: 957d fae3 fe6d 0340 bde9 caeb 0295 e8bf
000003c0: 6283 f2b5 9468 d33f dd5b 3a42 6e2b c63f
000003d0: 0214 02a2 eee1 c3bf 4fa0 76b1 c289 e9bf
000003e0: 7645 0310 2636 d4bf 1091 dfd2 1b81 ecbf
000003f0: fb01 9e36 f8e8 eb3f 1fc3 dd0d 7e3c 59bf
00000400: 5551 c1bb e23d fc3f 7fb8 9522 8b45 e9bf
00000410: a8b8 7069 182c df3f 9d75 e50c 26ea df3f
00000420: ed2a 1a1e 712b b7bf b787 f5b2 90b6 efbf
00000430: a10f cf50 0d92 cdbf 6820 419e 5f4a 0240
00000440: 164f 68cc e28a e5bf 1fbc 1235 a57d e23f
00000450: b6c7 963c d765 f23f fba4 f97d 0028 d53f
00000460: e011 04b1 e1e0 f0bf 1cd9 32bf f644 f93f
00000470: a973 f61c d916 f2bf 2c92 fadd a425 fb3f
00000480: 0780 df8a fd60 f83f 3b48 647d 3b9c d6bf
00000490: b19c 6ebc 127e 0140 7e93 aace 1acb 0a40
000004a0: de57 e701 0cbf 03c0 c2e7 568f 5c68 b13f
000004b0: d379 4b8b 097a 06c0 2c43 0ccd fb88 e73f
000004c0: b660 8a70 a7ce e2bf b0eb 9e76 9044 eb3f
000004d0: 5d6a 207d 4e41 d23f 6ee4 67e2 0193 da3f
000004e0: a601 7ec8 b816 edbf 21c4 3644 254f e03f
000004f0: fbd0 0133 4f85 d6bf 814e 51f0 8ac4 e13f
00000500: 70b5 027d 41c9 e1bf b6c2 4970 8589 e03f
00000510: 6eac f12f f0cf fdbf 465e 4ecd 5437 f0bf
00000520: ef36 1f83 3b87 ff3f 7204 7d82 836d d23f
00000530: f708 5665 5060 fa3f 1cf7 d14e 8411 e0bf
00000540: 719c ba96 8862 ce3f 7053 f5f4 b060 9bbf
00000550: 1b4e de30 7f90 d53f 5689 90d6 1f71 e8bf
00000560: 33e7 1d33 b745 c5bf 7666 0b3b 42f4 c2bf
00000570: 9348 94e6 c7fc e33f e104 3338 fafb 9dbf
00000580: ff13 82cd f490 01c0 5801 54b9 6fab d93f
00000590: 5583 c66c 0d51 03c0 eb90 3b39 dc19 04c0
000005a0: 2577 8c8e 3c21 0240 38a2 22cf 7c1e edbf
000005b0: ed06 c9f7 00ea 0140 d0ac b603 a22a 93bf
000005c0: fcae 0ef5 97d1 c43f 0960 29f9 497d b93f
000005d0: bdd6 a340 9e51 be3f 5c5c c00f 2597 dcbf
000005e0: 7a5d b383 e4bf 99bf 251c e039 8379 a6bf
000005f0: b862 e552 18dc e73f 332d 89e8 321a c93f
00000600: 1818 ab3e 7f18 e73f c78e 78c5 e65a cc3f
00000610: dce4 04aa a21a eb3f ed60 0054 d995 f93f
00000620: f454 2078 33c9 ebbf 9260 1590 5fb8 e3bf
00000630: 0ad8 3904 be91 f0bf f97b 7393 b219 e63f
00000640: b14b d46f bde2 d03f 9aec e618 4332 d7bf
00000650: 2893 d02a 56ab c8bf 45b2 0662 720d f03f
00000660: fb55 e46c d3da d8bf 8dc5 a7dc c1b8 f13f
00000670: 24c3 3aff 4dba e3bf c9b6 7496 8e26 e53f
00000680: 8d8d d55a 1323 aa3f c15d dcba 4643 c1bf
00000690: 7de1 a7d5 5678 cb3f 5ab0 7d82 0aaa c33f
000006a0: d98d a92e 771d ecbf f244 3b12 5936 e73f
000006b0: b1b0 caf4 ecda d3bf d06a 52e1 82bd e6bf
000006c0: 8b80 9086 91fa f0bf 9661 faf9 26b4 e43f
000006d0: 1d82 fd0b 9257 e73f c2da b4cb 60a8 e5bf
000006e0: 2a19 b0eb a7c4 43bf 053b e44e fce3 f1bf
000006f0: 063e 9f08 64e7 e13f 40fb de19 8c5b e2bf
00000700: c5f0 2e2c e98f fbbf 4e7f ed9d 452f c33f
00000710: 8d67 c2a7 cb2d 08c0 f2bb 3e8a a8b2 06c0
00000720: a978 15e0 666a 0640 9a35 6893 b5a7 e4bf
00000730: dd33 3494 31d9 0340 7cca 8109 4e3e f3bf
00000740: 8e4b 7866 d8a8 ce3f befc b4cd 8069 debf
00000750: 0a38 5fb0 301f d0bf b3ca 8432 63c5 c1bf
00000760: 0c45 79d5 4237 ca3f 0932 077f 53b8 eabf
00000770: dba4 f5ad ccfd ca3f d6d2 e8ea c306 a9bf
00000780: ad02 15c1 d69a f1bf f301 05a0 c188 ec3f
00000790: d888 2244 16a0 f4bf 962b a3cb 2f2c e3bf
000007a0: d3ed 085b d96e f43f d239 842a acea e13f
000007b0: 647a 1526 ff72 f73f 8eb9 a336 9a9f 02c0
000007c0: 3bbc 6a9f 47a8 d13f befd 5448 c1d8 e4bf
000007d0: ffc9 da94 cb96 c7bf b894 8e8f ef42 e0bf
000007e0: 36e4 b80a acc5 e13f 5b4c 193c 2fbf f9bf
000007f0: bdd0 bf94 9405 e83f 1229 70d4 4ce8 c2bf

transformer.encoder.layers.0.self_attn.in_proj_bias f8 [48]
-0.6442745048128002 0.5135528556877184 -1.2473362453605616 0.6563455429849097 -0.4800317910862217 0.06718293810832247 -1.280771095561076 -1.3311061974624652
1.4967565356379917 0.48680458404356997 -0.4645139263530756 -0.06379140675680409 0.8118272760529318 -0.8316360712249512 -0.8839073939780506 -1.5409672851238292
-1.4146816750665704e-14 1.1166548726473214e-14 3.211760914601813e-14 1.4351677725876617e-14 2.193001376339918e-14 3.378331279914079e-15 -1.327796602321754e-14 -7.108948696464361e-15
1.4756378931832776e-15 1.4284076530063838e-14 -2.357684306732686e-15 -5.068501690618881e-15 9.555662225663805e-14 -7.472812635749235e-14 -1.7652732335854892e-14 -2.506644622447036e-15
0.028769584525001255 -0.06161521674562499 0.20897657606240813 -0.32225717444768315 0.09253973715290108 0.24289741809438745 0.1305411615482781 0.21445366742440686
-0.11637069225261372 0.09298993116812072 -0.19785227693030114 0.15815722223351386 0.17010248060934302 0.03234093961590028 0.02026658358076875 -0.06500222777063121
00000000: 8c29 fa90 e59d e4bf ed46 fe65 066f e03f
00000010: 5306 cfd9 16f5 f3bf 8adb 3f5e c800 e53f
00000020: 2f5c f042 d7b8 debf 8341 06aa e632 b13f
00000030: f48c 11d5 097e f4bf d4aa 1903 364c f5bf
00000040: 1e3b 2afb b6f2 f73f 1ca4 006a ce27 df3f
00000050: d545 8e9e 98ba ddbf 6a4b c935 a254 b0bf
00000060: 49bd 1432 7dfa e93f 13b9 0240 c39c eabf
00000070: 8e81 ba28 f848 ecbf 0a01 dd4f cda7 f8bf
00000080: 5be4 19aa 15db 0fbd ba58 7bbb 1325 093d
00000090: 16d3 e1a1 a214 223d d166 76e7 9628 103d
000000a0: 504f dc67 e5b0 183d e9fe efcc e66d ee3c
000000b0: bb77 abed 39e6 0dbd b0c5 6ba8 0702 00bd
000000c0: d724 5ebb 2d95 da3c 9b2e fad0 1a15 103d
000000d0: 7d19 1d2b 733c e5bc 04cb 08a8 95d3 f6bc
000000e0: 3036 298e 94e5 3a3d 3cff 3c9f ba08 35bd
000000f0: 823e 0ebe 0de0 13bd 9194 95d1 ed93 e6bc
00000100: e917 9e22 c675 9d3f a281 b799 078c afbf
00000110: 7bb7 e893 bebf ca3f dbdd 498e dc9f d4bf
00000120: 0ff3 a628 afb0 b73f 17c6 7f39 4317 cf3f
00000130: c8db d0a1 92b5 c03f d82b 0cc0 3773 cb3f
00000140: 5d17 703d 78ca bdbf 4970 3929 30ce b73f
00000150: 6369 6d31 3953 c9bf 2e40 8ff0 7e3e c43f
00000160: d2c1 9707 ebc5 c53f 87c4 f1db fd8e a03f
00000170: ca65 b966 c3c0 943f 2d27 716a fca3 b0bf

transformer.encoder.layers.0.self_attn.out_proj.weight f8 [16, 16]
-0.3217935098384797 0.04461706177967947 -0.14047482023452187 0.6889535484938201 -0.12536958372403795 -0.1953054413798166 0.18926597371294315 -0.015860497977299944
0.04977777778710669 -0.07917598740699312 0.014646437588193135 -0.07440924836415215 -0.2562669976786965 -0.0665567610024559 -0.12340554116168644 0.02867853812481
0.101718669030954 0.04207252262438616 0.34187081588448504 -0.08247537005797262 -0.10934852684959681 0.09078421453604464 0.1365377309515971 0.033048620455151966
-0.13188183824269575 -0.0412964016120879 -0.034364440221560065 -0.29062771216703354 -0.015217259018282789 -0.11013420773347075 -0.18847995228931333 0.10613335069400494
0.10152846594362712 0.09008584221005263 -0.13277550680507297 0.10551687119445427 -0.017460316772240005 0.0694418961792696 -0.012597803426757186 -0.07364233004544236
-0.047387937203178895 0.00990791377013385 -0.02393715637801308 0.09146616313569322 -0.028028439457050632 0.05983684603665381 -0.08588728778825404 -0.19092491800217784
-0.01270128153048435 0.02300241976542518 0.02818533668447064 -0.008110541378961013 0.004661396365257889 0.012743943252392994 0.00960460649170462 -0.04356013890871909
-0.006767217937411167 -0.0056940366058583 0.00398277428952815 -0.0005178218790142359 -0.011552966332024227 0.019156627777895577 -0.028114285467720195 0.0016932524166976656
-0.10165163302103161 -0.060402616569048044 0.05352799241286172 -0.0028891147457200186 -0.023690390923654225 0.09460637319335642 -0.030986140576339107 0.008585033210633954
0.07019382141459736 0.025764276043168628 -0.05453549459672392 -0.06944847943403354 -0.024310349036847097 0.0068662187733966994 0.05182179734319653 -0.011354914290524177
-0.09859939064654266 0.12048383437447147 0.0012784256447521403 -0.09945178336352617 -0.1349735180541143 0.14267451163387104 -0.1236719330298843 -0.12414168517258398
-0.050798794673145416 0.10381995418013512 -0.052864676195783895 0.09912562251100879 -0.15517459608705653 -0.11058711505183763 0.11777788953420293 -0.018059573441543995
0.029568970177077235 -0.003616945499147811 -0.019740037763045 -0.05626320587967293 0.021469852798064026 0.044349457940112455 0.0027082402504616477 0.04850719809301364
-0.014960824995582584 0.029694038184041645 -0.04181076812310033 -0.054030367977910464 -0.055297693647506 0.046747731042387754 0.08545420811255795 -0.05181640748344389
0.01005560590193469 -0.004009989978051013 0.001778425843367505 -0.0024058397682619518 0.0016133031130283447 -0.0061074785527164555 0.004371563030418648 0.005525739933633411
-0.01615798899269375 0.004181353691615268 0.0007641150650190359 0.000998000013858277 -0.008365669902570276 0.0010381754479955956 -0.0017976254344868109 -0.0037988246394139143
0.010172867037021967 0.18393326150228606 0.10012680700983004 -0.08471049352546939 -0.263542313015616 0.12366917070005737 0.24730617827872095 -0.08008626504339487
-0.11097081702915217 0.2560173451734293 -0.1545364523889437 0.30387600747069504 -0.0715885373557407 0.2529749270980048 -0.19306450474146533 0.06563757210785108
-0.24331082242755525 0.014966822296398433 -0.5459208226365793 -0.011923112936601034 0.39425786955318853 -0.007524249507778253 -0.27045138657195106 0.07286077710965973
-0.2366018895547903 -0.2663458729996259 -0.08645516697333101 -0.3555380771454499 -0.1005799048896606 -0.8268523798747337 0.5385234084991497 -0.14535184274240287
-0.394957870375181 -0.21293134067396158 0.43971167287746604 -0.015541271592984901 0.12130936716798046 0.33600906500957617 0.04000746994956815 0.07799932029853138
0.20480619373532952 0.1146981294506793 0.13605105159153055 -0.364523803295933 -0.06379430083620972 -0.24378050097408402 0.3074276580812206 0.07868486403614991
-0.03740125250807416 0.025447490555442303 -0.3902015179364247 0.3693690514631234 -0.05121515199203461 -0.08585951560168684 -0.09863328382956706 -0.1332193803797273
0.1071331792583923 0.11666480938275126 0.23870495329129948 -0.019589576998501657 -0.13992677568480447 0.11083349385197817 0.043130166206228664 -0.1636587681865446
-0.07576288055885742 -0.09592165311947343 -0.22693674438388675 -0.5150925121415928 0.10553136099593456 0.12165552436024611 -0.298128008425806 0.06873462765402774
0.08569937646947426 -0.6139035175886427 -0.21564165443976394 0.16031527036438126 0.1868766362859134 -0.19873093468540667 0.10536166813563627 -0.020622632562204046
-0.00626877849135134 0.005332579278300116 0.008910758703353039 -0.008859716561623897 0.005362756954417635 -0.009337922419969344 0.004585973713121348 -0.0014315020467310575
-0.01139934781543941 -0.002895362323340001 0.011386650605547919 0.014806817669340078 0.01195998937273247 -0.004993606603826295 -0.0034805470064979893 -0.0005363354744469928
0.07866598869990987 -0.05552764121148982 -0.3370067984355483 0.2405210918367918 -0.23697811537415747 -0.15832162249005452 0.03398308415725802 -0.1125865278738825
0.010971674464517616 -0.5920659979906374 -0.05227743569203821 0.13580536965495824 -0.022490384169085477 0.46270376987808487 -0.3141356625748342 0.07586510635351836
-0.1511060534333937 0.18182191556183827 0.3544363708835248 0.307615570084805 -0.1498221744233517 0.028805793084213573 0.32246083710158696 0.0977857019014448
-0.02615903903491118 0.6949296837566584 -0.18771721795362453 -0.040647298835849346 0.029815715425766876 0.5887219430392315 -0.3119333059256075 -0.28256132570003234
00000000: 9590 34ce 4398 d4bf 5cea 5f2a 0cd8 a63f
00000010: d1cc 6833 14fb c1bf bacf e74f e80b e63f
00000020: 1c02 014b 1c0c c0bf 2284 bac9 c4ff c8bf
00000030: 27dd ab0f de39 c83f a26f 7100 bc3d 90bf
00000040: 218c 530f 797c a93f 95a2 8aa4 e044 b4bf
00000050: eab5 8d93 f3fe 8d3f 2575 3e08 7c0c b3bf
00000060: 35be 84b1 ad66 d0bf f94e d527 dd09 b1bf
00000070: 9743 6f6b 8197 bfbf 3862 5f1d e85d 9d3f
00000080: b46e e114 3c0a ba3f 49c3 7699 878a a53f
00000090: 9990 6b21 36e1 d53f 94de 1f19 1b1d b5bf
000000a0: ce4e afda 43fe bbbf 5de4 6c60 a23d b73f
000000b0: 4eb7 8d80 117a c13f 6bca 10b0 bfeb a03f
000000c0: a528 180b 81e1 c0bf ad98 bb4c cd24 a5bf
000000d0: b33c cb45 3798 a1bf c065 c4f9 a499 d2bf
000000e0: 58d9 8bee 392a 8fbf 3bd9 6264 c131 bcbf
000000f0: 0362 846f 1c20 c8bf ede2 3e26 8e2b bb3f
00000100: 1347 d700 c5fd b93f 65f2 1fa2 dd0f b73f
00000110: bb03 b8ad c9fe c0bf 4ed8 f456 2703 bb3f
00000120: baeb 0e06 1ee1 91bf b4eb 0fb1 f1c6 b13f
00000130: 363f c18d e0cc 89bf 557b 2547 39da b2bf
00000140: 9e6d 0651 3b43 a8bf e81c eaac 994a 843f
00000150: 4012 365f fb82 98bf 50c0 5b93 536a b73f
00000160: 6fc5 4dbb 7cb3 9cbf 7b7c a561 efa2 ae3f
00000170: 3754 3194 b5fc b5bf 75c9 674b 3a70 c8bf
00000180: 8a64 5326 2103 8abf 2547 7c42 f28d 973f
00000190: 7d6d 25ed 9ddc 9c3f e7ce cd6f 429c 80bf
000001a0: 9d61 140f d417 733f ebc9 ed1b 7f19 8a3f
000001b0: 96bc 2e76 94ab 833f 4b59 0bb8 834d a6bf
000001c0: de0b 9e3b f1b7 7bbf 67f9 1150 a152 77bf
000001d0: c54b 22d5 3d50 703f 6ce6 8b04 cef7 40bf
000001e0: 19ec 8ae4 14a9 87bf 7417 3b87 cb9d 933f
000001f0: 1b7d 89c2 fdc9 9cbf 32cf 3af0 03be 5b3f
00000200: 060b 6967 d705 babf f786 837d 17ed aebf
00000210: d9e4 aa61 0568 ab3f 90be 1cab e9aa 67bf
00000220: a377 fc38 4b42 98bf a1cf db8e 1f38 b83f
00000230: a758 9eb1 d4ba 9fbf 347b ffa6 0795 813f
00000240: bd61 5be7 38f8 b13f 35c7 0a4c f361 9a3f
00000250: f139 878b 13ec abbf 1015 ed23 60c7 b1bf
00000260: d239 45e8 cfe4 98bf ae41 4391 c01f 7c3f
00000270: 2831 9ef9 6288 aa3f 4da6 36cc 3e41 87bf
00000280: 7880 3b46 cf3d b9bf e4c4 5550 07d8 be3f
00000290: 80ba 6915 1bf2 543f bc41 130d ac75 b9bf
000002a0: 912a efee cf46 c1bf 095a b88c 2843 c23f
000002b0: 7ee4 cbbb f6a8 bfbf aaf6 e2dd bfc7 bfbf
000002c0: 0142 98b3 4c02 aabf e83a e0cb f193 ba3f
000002d0: 49c1 bf2e 1411 abbf 7a63 e1fa 4b60 b93f
000002e0: d894 aedb c2dc c3bf a2b2 81ea 6f4f bcbf
000002f0: fcc5 bd17 b126 be3f e99b 3e75 357e 92bf
00000300: 963b 8cff 5347 9e3f f30a 2bd4 48a1 6dbf
00000310: 3fd2 7482 bb36 94bf 904f 71ea 87ce acbf
00000320: 2371 786e 31fc 953f be6e e5de f8b4 a63f
00000330: b631 c669 972f 663f 6234 dc7a efd5 a83f
00000340: 771e 9ef0 c7a3 8ebf cfe9 8b2b 1d68 9e3f
00000350: 9b30 6b93 3868 a5bf 0b75 e94e dea9 abbf
00000360: 7c41 85b3 fa4f acbf 3580 fa8f 51ef a73f
00000370: cd25 26b5 53e0 b53f 7640 131f ae87 aabf
00000380: d114 ec93 0898 843f f71d 027d c76c 70bf
00000390: d3df 7a35 4223 5d3f 4ba3 f863 69b5 63bf
000003a0: 75b8 f906 af6e 5a3f 20ab 51ca 2704 79bf
000003b0: 0f04 f883 eae7 713f b389 d184 28a2 763f
000003c0: 0ac6 2b49 b88b 90bf c566 bc95 7720 713f
000003d0: 4d3f 799b dc09 493f 8b7f f05a ea59 503f
000003e0: 0918 2035 0522 81bf a688 2f66 6c02 513f
000003f0: 1caa e69c c973 5dbf ba5c dd72 b61e 6fbf
00000400: de32 d819 83d5 843f 7c43 6607 208b c73f
00000410: 4264 8f11 e9a1 b93f ace5 513f 96af b5bf
00000420: bbe9 e093 e0dd d0bf ca20 ae63 c8a8 bf3f
00000430: 2926 e795 baa7 cf3f ff5c 3891 8880 b4bf
00000440: 135b f35d 9568 bcbf bfa1 2e93 9662 d03f
00000450: aa72 86b8 d9c7 c3bf 410b 885a b472 d33f
00000460: 0a1d b65a a053 b2bf b302 a6bf bd30 d03f
00000470: 2507 f172 56b6 c8bf 6391 97b9 9fcd b03f
00000480: 566b 8b1c cf24 cfbf 35fa 4de2 eca6 8e3f
00000490: aabe edf1 2e78 e1bf 61a2 0821 256b 88bf
000004a0: 26fb fa5b 853b d93f c770 0159 bfd1 7ebf
000004b0: 2300 1f55 134f d1bf c5dd d8fe 00a7 b23f
000004c0: e7a1 e780 f848 cebf 434f 7d8f cf0b d1bf
000004d0: 397e b802 ed21 b6bf bba2 74c7 22c1 d6bf
000004e0: 37c9 22ca 9abf b9bf e5d0 451f 9375 eabf
000004f0: 284c 7471 953b e13f 64f8 7ea1 e39a c2bf
00000500: 17ca 2360 fd46 d9bf 0c7a 3e8c 5541 cbbf
00000510: 1667 ab6d 3c24 dc3f 3d4b d729 1ad4 8fbf
00000520: b857 af74 210e bf3f f00a 582a 2c81 d53f
00000530: eee5 0eee db7b a43f 1edc ca71 c3f7 b33f
00000540: fd44 0ee0 1637 ca3f c32d e74a db5c bd3f
00000550: 2905 96f0 1e6a c13f 9f40 71a5 5b54 d7bf
00000560: b740 c3c3 d254 b0bf 2d08 8b0f 3334 cfbf
00000570: c50f 560e e5ac d33f 6eb8 b9f5 b024 b43f
00000580: 1407 b4c8 4126 a3bf 0bb7 cd2e e80e 9a3f
00000590: 71bc 98c9 0ff9 d8bf f012 0c17 bea3 d73f
000005a0: 4c1d bb55 df38 aabf 0245 8fa3 e3fa b5bf
000005b0: e956 58e8 0740 b9bf e24f f628 550d c1bf
000005c0: 8236 3b7d 146d bb3f 089b e4b4 bedd bd3f
000005d0: 60c1 e347 e28d ce3f 6d43 3442 4a0f 94bf
000005e0: c352 b3de 1ee9 c1bf 314a 6577 955f bc3f
000005f0: df51 a73a 2815 a63f 254d 8840 c5f2 c4bf
00000600: 9b44 4036 3265 b3bf 685b 204b 528e b8bf
00000610: 4fdb b163 430c cdbf 0401 c24a a37b e0bf
00000620: 830e 2e70 1a04 bb3f eb46 8102 d124 bf3f
00000630: 0078 8d7f 8714 d3bf 1275 e0b1 9798 b13f
00000640: 0257 39f3 64f0 b53f a029 5efd 18a5 e3bf
00000650: f1af bc4e 259a cbbf 5ed8 a1f5 3585 c43f
00000660: 9a03 9ed8 92eb c73f dfb2 96e8 0370 c9bf
00000670: 1602 e576 fbf8 ba3f 33fb a571 191e 95bf
00000680: 1316 b369 4aad 79bf 0874 a859 9dd7 753f
00000690: 9324 b5c9 cd3f 823f cc70 1207 0b25 82bf
000006a0: cc19 c51b 42f7 753f 4536 40bb c21f 83bf
000006b0: 3108 e4f1 bdc8 723f 5f38 649e 2774 57bf
000006c0: cd1b 8190 8a58 87bf 3461 a4cf 03b8 67bf
000006d0: d2c7 b15f e251 873f 6d63 2e6d 0953 8e3f
000006e0: 862c bb99 7a7e 883f f322 d710 2d74 74bf
000006f0: ae4b 1572 3c83 6cbf 7188 45a9 1b93 41bf
00000700: dc0b c648 7423 b43f 8503 0e76 1e6e acbf
00000710: addc 73f6 8491 d5bf 43f7 b727 65c9 ce3f
00000720: 102a b383 4c55 cebf af16 6c07 e243 c4bf
00000730: ee30 2516 3b66 a13f b342 307f 78d2 bcbf
00000740: f647 0f38 5178 863f 3f30 4e64 34f2 e2bf
00000750: 8b6a 3ba9 1bc4 aabf b305 a502 1262 c13f
00000760: 2a3c ec21 b807 97bf ab2f d745 f09c dd3f
00000770: 7d09 5177 cc1a d4bf 0528 b246 e56b b33f
00000780: d1ad dc72 7157 c3bf a55f 84c6 f045 c73f
00000790: 654a 5de3 15af d63f ea4b 5037 f9af d33f
000007a0: 6194 ae7d 5f2d c3bf f79b ed0c 447f 9d3f
000007b0: f5e4 65c7 32a3 d43f 53e0 aed7 7b08 b93f
000007c0: 1053 9964 6fc9 9abf 9f24 182d dd3c e63f
000007d0: cde2 0028 1e07 c8bf 8a67 5706 b9cf a4bf
000007e0: 1d5d a4ca 0288 9e3f 7b50 7966 cfd6 e23f
000007f0: 13f4 de1c b7f6 d3bf 2cbf 3f19 7c15 d2bf

transformer.encoder.layers.0.self_attn.out_proj.bias f8 [16]
-0.026562878894944096 0.0208469573751354 -0.0005540980236476711 -0.005089516336419345 0.0028227839018034047 -0.009233096161450615 -0.003561462713670192 0.0018560184602087356
0.008294034865450713 0.01624605529802575 -0.005358936837830618 -0.005285372774547237 -0.02629089045931424 0.0023978956561347222 -0.008517305874297568 -0.0031247758667172143
00000000: 76c9 90a0 4c33 9bbf 1ad9 96a0 e758 953f
00000010: 0ad3 f671 1c28 42bf 3762 7aa3 bed8 74bf
00000020: 7f6a 5791 ce1f 673f 791c 6f30 cde8 82bf
00000030: fc45 32bc ed2c 6dbf 4b73 97a5 b468 5e3f
00000040: def0 fd83 76fc 803f 4faf c650 cea2 903f
00000050: ff63 5ba7 40f3 75bf 1aed 6b73 1da6 75bf
00000060: 8967 d2ca ffeb 9abf 55a3 836d c0a4 633f
00000070: 88eb 7071 8571 81bf eec7 f444 2199 69bf

transformer.encoder.layers.0.linear1.weight f8 [128, 16]
-0.44819491387094024 0.2225080677677017 -0.4029143037854031 -0.038753994111984824 0.30826308221526794 -0.24495883934322737 0.7086876595895382 0.2616903031622672
0.20222092719155307 -0.06217751327787291 0.26005636282008443 0.21040260613316322 0.27148822464205147 -1.5337738183928462 -0.09310482152490611 -0.18886565727769455
-0.1275979761996896 0.050413008621676324 -0.2561638704834265 -0.23764487686120048 0.0290644989495174 0.44926750598193543 0.10840585678099528 -0.24729965235381435
0.04894303969215033 0.010825603356453446 0.06041791253532835 -0.3322824296784071 0.09333452623991952 -0.8408253668619778 0.29058315171614824 -0.04957439747994531
0.20903188544341716 -0.03921502018331716 0.05644514182708325 -0.21488782309041113 0.22915941731594994 -0.24366650482010335 0.28269758268954204 0.3010443827684603
0.14217572776813725 0.10903567134809593 0.07068408514061017 0.21446817283289404 0.5966537743434195 -1.5968052160546973 -0.17488740489698523 -0.48059143346994737
-0.45889689951335483 0.35136411313645716 0.11017502117142691 0.0970965472808992 -0.2775221946173254 0.08337721605243252 -0.14430894719917953 -0.09103138157803574
-0.33961897527185875 0.3481547201327172 0.43569867856810585 -0.16773787306737584 -0.06833230224179986 0.08785736696243067 -0.6159662493844903 -0.45556197490837114
-0.34800619840018726 -0.1422919650913393 0.15791088195414874 -0.16337686120785258 0.2530156171491724 0.09273751875363867 -0.1863022463374934 -0.1249506474163192
0.19002458083209003 0.2519897177516981 -0.045844319749017926 -0.16878421917252068 -0.13697150357697313 -0.2288794181136695 0.16830558936388426 -0.1803401684787498
-0.3761836537239526 0.09549683676974852 0.13330634863414453 -0.011742084352256186 -0.13610530396846246 0.3230154270384331 -0.6866118385887218 -0.20697670754552847
-0.12195773265117103 0.20716048792725228 -0.3889795272647326 0.12797197220887996 1.1870694716593344 -0.15127326004673658 0.7150887778165801 -0.5394559123465095
-0.40402707369611157 0.19118189709749867 0.18083330733850084 -0.28370678981321873 -0.08770254527780819 0.6860613745994362 0.362231251644798 -0.03586882247855793
-0.2538553002538102 -0.49602769278596 -0.24842014837290463 -0.3251308656811563 0.050767482025766 -0.317019918565634 0.46874026759745374 -0.32505325357904213
0.4194404232122072 -0.020405977212429025 0.34337508626939534 -0.01737399300334623 0.030094918173535774 -0.16691178286070413 -0.4319530003893672 -0.020296583268231052
-0.1568887160613828 -0.11216139204075938 -0.2197680183348848 -0.6531022487695606 0.11144931822799144 -0.3715200948511629 -0.44199606561234744 0.033758498362157136
0.012215521363916933 0.006922549703324607 -0.13799719924877074 -0.20545660048527173 0.20891304630966953 0.5145222133147463 0.32039968793231877 -0.05547784742120368
0.35543968955586075 0.08574174428265226 -0.013372730463463095 -0.3753460719812009 -0.026146765718484538 -0.9510812989091186 0.33858925698214565 -0.2000953568567501
-0.10617053472659276 -0.08112076752890743 -0.022413140281187936 -0.2654080534755073 0.16729625771627674 0.17022284448382569 0.2288395416923897 -0.14674760034673007
-0.13832413544904676 -0.027513381175688585 -0.0564378868956768 -0.14466964265564122 0.04012976470627242 -0.3497140197502163 0.17127805318994724 -0.25494271773749244
-0.08178417771075339 0.02419052091979949 0.13790123715543492 0.277982787135267 -0.06504340558088036 1.0469451792503652 -0.09420937021792396 -0.20295548370067834
-0.3828165051569566 0.29941850794068564 0.07041755520961965 -0.0622643637370436 0.40478620227175655 -0.511264729653133 0.19662861054517072 -0.5123293474002483
-1.0524458351692654 0.29598194825262397 0.23215310334297035 -0.23689732129067692 -0.4506673609519325 0.1831467698355074 -0.5908469513126925 0.07443637170153954
-0.1551908249730086 0.016918272697268373 0.07938651154585047 0.0335618997067969 0.40387715405681335 -0.03204685935832598 0.23359779568790853 -0.1582727242903946
0.3076032586016215 -0.23533777731496364 -0.44480918646516426 -0.2913074533514702 0.18069825401427725 0.4155278064056769 -0.48622730166264766 -0.8797516964209438
-0.5525473216942344 0.39153070827604236 0.348744698774471 -0.21323071517488185 -0.030872620459603692 0.24139480179749398 -0.05821888587690964 0.34937404998862315
-0.130730539499749 -0.2262481584504379 -0.10358482437089271 -0.08870744258238662 0.1397910844359602 0.02446987323739725 -0.009335916234370098 -0.10435650610093852
0.11049862047230649 -0.13187616666865432 -0.00757461805685939 -0.20312870934425176 -0.08228999574230969 -0.1925291777274136 0.27819194655568136 -0.3022682294031807
-0.529777332375975 -0.01768824699459103 0.13155454688451163 -0.41210751512960503 0.28830828778667394 0.2826239145880308 0.13949632442783166 -0.26402611704833967
-0.20649180877188292 -0.1424073870123079 0.1678375451093041 -0.2069681966712604 -0.025560639369487076 -0.5580778357519178 0.39987496977053527 -0.1591304444362883
-0.24669962589158223 -0.25738786651964124 -0.15830728857117202 0.041965180944559984 0.08771781684398085 0.18852925761241743 0.29078731607251757 -0.11661617563483519
0.059386814830520024 -0.13147688042051792 -0.05517299633275462 -0.19779937317413876 -0.03875467047784386 -0.320423615542322 0.36910102179296655 -0.13057816562248697
00000000: 58ca 53b8 39af dcbf 7447 14f5 247b cc3f
00000010: a154 7613 59c9 d9bf a8c7 9942 90d7 a3bf
00000020: 6570 2b14 95ba d33f 2032 ecad cf5a cfbf
00000030: d281 20be 91ad e63f ebc8 70af 88bf d03f
00000040: d560 6d16 60e2 c93f 906f 2624 bbd5 afbf
00000050: 4b74 5b71 c3a4 d03f b9e4 2afc 78ee ca3f
00000060: b28c 8525 1060 d13f 4555 576a 568a f8bf
00000070: bba4 8cb3 b7d5 b7bf e830 acf6 bf2c c8bf
00000080: 3c1f 6867 2155 c0bf e368 a5de bbcf a93f
00000090: 7e28 8925 fd64 d0bf 8f24 17b7 256b cebf
000000a0: 2fe9 d981 15c3 9d3f f243 567f ccc0 dc3f
000000b0: 5bb9 9179 7cc0 bb3f 9cfd 95d7 83a7 cfbf
000000c0: 7471 b0e5 0f0f a93f 44e4 00e3 bb2b 863f
000000d0: ff17 ddbc 18ef ae3f 7544 2086 1d44 d5bf
000000e0: 75c1 c981 c5e4 b73f 8038 8a99 0ae8 eabf
000000f0: f6ec 5813 ea98 d23f d260 cabf d061 a9bf
00000100: 2e7d e68b 8ec1 ca3f 350e 66ba fd13 a4bf
00000110: deaf 54ac 60e6 ac3f 85b0 3db6 7181 cbbf
00000120: 41a1 7885 1855 cd3f c59e aaca 7630 cfbf
00000130: 66d4 139a b717 d23f 8ba4 a8a8 4f44 d33f
00000140: 804a 8672 d032 c23f 0b98 8902 c3e9 bb3f
00000150: 46cf 062a 5a18 b23f e6d1 2c6e b173 cb3f
00000160: e0e0 faa7 c917 e33f 1f98 50a0 838c f9bf
00000170: fee6 41e2 b562 c6bf 8e6f 5f92 02c2 debf
00000180: 7352 e919 915e ddbf 252f bae7 bf7c d63f
00000190: 6c73 c420 6e34 bc3f 3640 20bf 51db b83f
000001a0: 74ea 7273 ecc2 d1bf c73d 2d90 3558 b53f
000001b0: 2cce 5e30 b778 c2bf 7390 c926 d54d b7bf
000001c0: d331 f939 51bc d5bf 62c1 3abc 2a48 d63f
000001d0: 4c11 d7b5 7ce2 db3f 4bff 8f43 6f78 c5bf
000001e0: 1f90 63cb 397e b1bf bbf9 d005 d27d b63f
000001f0: 317a 11da feb5 e3bf 8e16 e269 ed27 ddbf
00000200: 29c8 3bca bb45 d6bf 1a83 4684 9f36 c2bf
00000210: 9579 d67c 6c36 c43f 31ca e771 88e9 c4bf
00000220: e41b 426a 6831 d03f 78b8 2862 a5bd b73f
00000230: 6d6e 9883 c0d8 c7bf d661 4400 c4fc bfbf
00000240: 5b12 0eb8 b952 c83f 00ff 2a7b 9920 d03f
00000250: 600d 0f1c e878 a7bf c2a3 b6a6 b89a c5bf
00000260: 066c 2c40 4888 c1bf cf4a c3b7 eb4b cdbf
00000270: 47a4 069d 098b c53f f1bb e2fa 6215 c7bf
00000280: c32f 829a 6413 d8bf 482a cc0e 7b72 b83f
00000290: 36cd ddb3 2e10 c13f f20e 3de2 3b0c 88bf
000002a0: dda7 ad0a e66b c1bf 64f2 cee5 48ac d43f
000002b0: a51e f963 b9f8 e5bf f18c f876 367e cabf
000002c0: c728 3b39 9f38 bfbf bce1 5520 3c84 ca3f
000002d0: a698 1a63 0ae5 d8bf 9a8b b8b5 6261 c03f
000002e0: 9eb5 ed8e 3cfe f23f 187c 5414 ec5c c3bf
000002f0: abae 4edc 01e2 e63f ee2f a50b 3943 e1bf
00000300: e04b 0e5f 94db d9bf bc7c cffd a578 c83f
00000310: b6ef 85ba 8b25 c73f aea8 f985 4028 d2bf
00000320: 5080 be8b ac73 b6bf 1e82 defb 36f4 e53f
00000330: d3d3 d9fc cb2e d73f 7f9d fbf6 655d a2bf
00000340: 7468 204d 2a3f d0bf 2144 9bef eabe dfbf
00000350: 85ec 763e 3bcc cfbf b953 c1b0 f1ce d4bf
00000360: 447a 0006 32fe a93f f9e0 9ae9 0d4a d4bf
00000370: fd8e e92d d7ff dd3f f624 6529 accd d4bf
00000380: ee46 14a5 1cd8 da3f 8cca 14f3 4de5 94bf
00000390: 6372 727f dbf9 d53f ec4f 00ef 7cca 91bf
000003a0: 5214 53c5 33d1 9e3f 6215 5a84 5d5d c5bf
000003b0: c735 8532 1ea5 dbbf e72c 6ea5 a0c8 94bf
000003c0: 392b 4cf0 ed14 c4bf 815b b0e6 9bb6 bcbf
000003d0: 5c3f bac1 5b21 ccbf 2419 edaf 36e6 e4bf
000003e0: 6162 f348 f187 bc3f f252 4c38 fcc6 d7bf
000003f0: 4501 b1dd a949 dcbf cce5 da3c cb48 a13f
00000400: 51c8 1786 7304 893f 709a 4ac9 d15a 7c3f
00000410: c045 db68 e4a9 c1bf 3571 eae1 664c cabf
00000420: 37cb cda6 a9bd ca3f 6d13 e849 f776 e03f
00000430: b858 54b1 6d81 d43f 4431 a7a8 9767 acbf
00000440: adf0 951c 86bf d63f 9192 98c3 2bf3 b53f
00000450: 3d89 fd7f 2963 8bbf 2fd8 f587 ab05 d8bf
00000460: a8d5 a0be 37c6 9abf 14dc 540c 426f eebf
00000470: f1f9 6046 72ab d53f 11fe e382 b99c c9bf
00000480: 9715 73fe fd2d bbbf c225 90a3 54c4 b4bf
00000490: 2990 0862 78f3 96bf bd6d 710f 72fc d0bf
000004a0: 733a d1b9 f669 c53f 3a89 0bb7 dcc9 c53f
000004b0: 4bdb cc35 9d4a cd3f 40ba 2018 a0c8 c2bf
000004c0: 0825 00f3 9ab4 c1bf 6269 68c1 772c 9cbf
000004d0: 88ce f13c 6de5 acbf c509 f7eb 8884 c2bf
000004e0: 45ec 0476 e38b a43f 82e9 71e9 b661 d6bf
000004f0: 7397 7c72 70ec c53f 024c c242 fb50 d0bf
00000500: 7612 99d0 ceef b4bf cb1c e560 66c5 983f
00000510: 598c d46b bfa6 c13f a133 e650 78ca d13f
00000520: 0d54 ca43 afa6 b0bf e25c 9996 49c0 f03f
00000530: b70f 10f4 1a1e b8bf 2ee6 84fe 71fa c9bf
00000540: 4529 81cc 1080 d8bf f707 db3e ac29 d33f
00000550: 0689 b088 e206 b23f 53e8 e95b 1de1 afbf
00000560: 6445 2863 04e8 d93f eeab aed9 475c e0bf
00000570: 4aed df55 202b c93f cfae fb83 0065 e0bf
00000580: 7ed0 ad71 d1d6 f0bf 7be3 fc44 5ef1 d23f
00000590: 8cf0 4261 31b7 cd3f 0a0b bac3 a652 cebf
000005a0: 8071 2aea bbd7 dcbf a9e0 6775 5a71 c73f
000005b0: c789 9add 37e8 e2bf 934c 1716 430e b33f
000005c0: 8bfc f2fe 4add c3bf 9220 c20f 0653 913f
000005d0: 7c3c d5a6 ac52 b43f 0fc0 437b 062f a13f
000005e0: e4a2 1190 1fd9 d93f f25c c429 7268 a0bf
000005f0: 51d9 7256 88e6 cd3f 7389 56d7 4742 c4bf
00000600: 5491 f593 c5af d33f 7861 8a5c 8c1f cebf
00000610: fd01 35f3 c077 dcbf 6570 4e04 c8a4 d2bf
00000620: 72c2 b7d1 1e21 c73f f8d2 c5f0 0198 da3f
00000630: b70e c41d 591e dfbf a84f 9707 ed26 ecbf
00000640: 7f69 85b8 77ae e1bf 6b38 dbd0 d60e d93f
00000650: 3ef1 f848 d551 d63f 32e3 16e2 244b cbbf
00000660: 7cff dc7c 129d 9fbf 8583 925d 06e6 ce3f
00000670: f6a6 b3a5 ddce adbf d16b b1f9 245c d63f
00000680: acb3 de3f c7bb c0bf e894 a91c b3f5 ccbf
00000690: 6bee 08f9 8884 babf 219b cdec 87b5 b6bf
000006a0: 9f60 f69b ace4 c13f 62e4 2a65 a10e 993f
000006b0: ab0f 3d77 b51e 83bf 1a0f d4a4 1bb7 babf
000006c0: 1682 2e39 a349 bc3f 085b 7b77 51e1 c0bf
000006d0: c7a9 570d 9006 7fbf 7091 c11d 1f00 cabf
000006e0: 9a4e 8008 f510 b5bf bfb8 eecc cba4 c8bf
000006f0: 1ee7 1d98 e5cd d13f e103 fad7 5c58 d3bf
00000700: 21f1 9697 eff3 e0bf 5d1b 7629 de1c 92bf
00000710: 6829 4186 c7d6 c03f f9b7 fa32 f85f dabf
00000720: ca68 cd9a a473 d23f 1a47 8e9d 8216 d23f
00000730: 0435 aafb 03db c13f 96cc 80cc cde5 d0bf
00000740: 7d97 c8d6 526e cabf 5f9d f6be 673a c2bf
00000750: 8687 a45f b37b c53f bff0 0112 ef7d cabf
00000760: 688f a078 912c 9abf 8ca9 a50c c6db e1bf
00000770: ecd1 692f 8d97 d93f 4b6e 53eb 625e c4bf
00000780: 54e4 9174 da93 cfbf 5db3 45f5 0a79 d0bf
00000790: dfd8 90c9 6943 c4bf f988 74cf 757c a53f
000007a0: 1915 9fc2 ac74 b63f 3b6a e409 ba21 c83f
000007b0: 83e0 2767 429c d23f 0145 89c4 8eda bdbf
000007c0: 5479 05d7 f267 ae3f 7e09 cb02 3cd4 c0bf
000007d0: 6e36 be8d a23f acbf 88e2 7967 7d51 c9bf
000007e0: 7f08 8af4 a6d7 a3bf d2b3 670d d281 d4bf
000007f0: a657 61e4 599f d73f daca 750b c9b6 c0bf

transformer.encoder.layers.0.linear1.bias f8 [128]
0.12555717270408231 -0.3803032047592974 -0.017880119891556943 -0.6867555771330317 -0.2259576607162646 -0.32120739599399134 -0.23321308145780895 -0.5621732434610723
-0.2918748494435599 -0.1486133028801634 -0.036160276932954344 -0.47091624846469887 -0.24046857717072578 -0.11897563796754428 -0.054709204955369996 -0.15229581235438008
0.05113013526468307 -0.1672591017950484 -0.4413386681912843 -0.16128840129746935 -0.5573505735904433 -0.1258765231317216 0.2601172367817502 0.23819023636420075
-0.0792066569649253 -0.2077761841675092 -0.2213825668156263 -0.38465093921186777 -0.32283434132796357 -0.31700465135061345 -0.446719585190991 -0.1674069487403796
-0.3424740677345389 -0.5290889748122237 -0.14887310185237293 -0.3320250299885173 -0.3554094348855474 -0.3974442755211418 0.046202882378194254 -0.38351607294284445
-0.3644794630259554 -0.0747184503016161 -0.7345227779143481 -0.014377342473554908 -0.11327675131844456 -0.3083348273457673 -0.24112238283827878 -0.4112174968278959
-0.24350049921516487 -0.21287299681686678 -0.22525464902985923 -0.3012638700010788 -0.4769321533685277 -0.2163286544176821 -0.45371603135160027 -0.3903533962321013
-0.3056114416057583 -0.34112708738729997 -0.03282887303811844 -0.22842761932849115 -0.11875384204192427 -0.20849669414959823 -0.19758704372052835 -0.4410591678818535
-0.3665245750608245 -0.22270489225881557 -0.36386450320167013 -0.09917658149528948 -0.5825128436565057 -0.11266634956690556 -0.43446893856661556 -0.2696040629181265
-0.1322229692787161 -0.20583779057318577 -0.21709097092195687 -0.27381942790474706 -0.11122501859369222 -0.3256584216828926 -0.006416920377173562 -0.31527966141526165
-0.3362138156285749 -0.8560537522121159 -0.4155808361366739 -0.31571078197258073 -0.5222741371034462 0.047145276117300225 -0.018346271617124803 0.024581184596912595
-0.75791939795891 -0.1322660922589212 -0.6655186255879499 -0.40851376793986 -0.011091275017124178 -0.9266837521948511 -0.29811985423598175 -0.5950295754354138
-0.2066357020465467 -0.19599191822135226 -0.18988707525879872 -0.39020403175769747 -0.1473136636356001 0.12360002484843066 -0.08961751869748642 -0.041554469493112506
0.06818342551458967 -0.15505863993162605 -0.14130556145328668 -0.07237893437954518 -0.31806604574891184 -0.2772996155157373 -0.5018674827488689 0.08012798996241371
-0.08306111067492424 -0.049010769188776636 -0.1829272402323763 -0.2443864632703872 -0.2535476217606225 -0.3045339394959073 -0.45723334955663514 -0.3243146191023818
0.13480268894910002 -0.16039624049293452 -0.03600100977785276 -0.33394856509368837 -0.28474694032128806 -0.4039645480950136 -0.17091989590715664 -0.4880787630831832
00000000: b168 45e7 4112 c03f c554 c040 e356 d8bf
00000010: e92e bb88 2a4f 92bf 2739 04d5 e6f9 e5bf
00000020: 724c 873d 2eec ccbf cbc2 4177 a98e d4bf
00000030: 8c2a ee1e edd9 cdbf e93f ebbd 52fd e1bf
00000040: 10a4 38d9 13ae d2bf d477 cfbd c205 c3bf
00000050: 64c4 ae8d 9983 a2bf a7e5 93e7 7d23 debf
00000060: 50fb 54a1 acc7 cebf f761 17fa 2f75 bebf
00000070: 8d9e 254c d802 acbf c99d b0de 6d7e c3bf
00000080: b78e 9aa5 ba2d aa3f 3f83 150a bf68 c5bf
00000090: 6cdf 958a e43e dcbf 10fc 652c 19a5 c4bf
000000a0: 194a bfde d0d5 e1bf d8ab 17cf b81c c0bf
000000b0: d59f 46c4 c2a5 d03f 8793 b485 047d ce3f
000000c0: 4533 4a31 e346 b4bf 508d f1f5 6898 cabf
000000d0: d456 3092 4356 ccbf 1c9a 12f9 1e9e d8bf
000000e0: 21e0 815e 51a9 d4bf e3c4 8ee0 cd49 d4bf
000000f0: 0631 38be 0d97 dcbf 2a46 fb44 976d c5bf
00000100: be77 295a 18eb d5bf f1c3 6f00 4cee e0bf
00000110: e5e1 da17 460e c3bf 3143 50e9 e53f d5bf
00000120: 377d e136 07bf d6bf 3c20 561d ba6f d9bf
00000130: d02e 9779 e7a7 a73f 59e9 b1ff 868b d8bf
00000140: cda5 70ab a153 d7bf b307 7494 bf20 b3bf
00000150: efe4 a9e9 3581 e7bf f287 d13d de71 8dbf
00000160: f451 4f86 b4ff bcbf 7fbe eaff c1bb d3bf
00000170: 33df 4f26 19dd cebf 90cd 1a31 6351 dabf
00000180: d22a 583c 062b cfbf 90d5 c31f 6c3f cbbf
00000190: 4f77 6df3 24d5 ccbf f0be 4741 e847 d3bf
000001a0: 563c 4870 0e86 debf 4fb0 f447 a8b0 cbbf
000001b0: bddd 14f7 ae09 ddbf 0cc3 accf 8cfb d8bf
000001c0: b5ba be4a 238f d3bf 8bec 06b5 06d5 d5bf
000001d0: f162 2030 f2ce a0bf d26e 42c1 1d3d cdbf
000001e0: 8e2b d8db a666 bebf 772b 5909 05b0 cabf
000001f0: 8b4d 7241 884a c9bf 82d3 693b 503a dcbf
00000200: 2a42 c47d 2375 d7bf a295 740a 9881 ccbf
00000210: 214b 5b57 8e49 d7bf 1525 0dee a263 b9bf
00000220: 1e26 a0f9 f1a3 e2bf 5fe3 bfae b3d7 bcbf
00000230: 635f 91ce 56ce dbbf 7988 4666 3141 d1bf
00000240: 3382 6aa8 aeec c0bf 2d78 6589 e458 cabf
00000250: c1ef 2e0e a3c9 cbbf 750f f7eb 4186 d1bf
00000260: cc5d 5b29 3e79 bcbf 4ce1 b26b 96d7 d4bf
00000270: ff70 93f2 a048 7abf 12d7 b7be 8a2d d4bf
00000280: 7aa3 a5f3 8684 d5bf e0cf abd6 ca64 ebbf
00000290: 4f49 035d e098 dabf ca46 e4fe 9a34 d4bf
000002a0: 4ffd 4c40 78b6 e0bf 0e5d 2bf6 6c23 a83f
000002b0: 4b76 6572 5dc9 92bf 3c41 c35f cf2b 993f
000002c0: d399 672e e040 e8bf a996 4f66 18ee c0bf
000002d0: 80ee 78b7 ed4b e5bf 9b1d 51ee 1625 dabf
000002e0: 1284 c1bb 05b7 86bf a12a 2daf 64a7 edbf
000002f0: 48d6 0e4c 6514 d3bf 54bb d476 7b0a e3bf
00000300: e4ea 3ce7 0973 cabf f63f 855f 4316 c9bf
00000310: 7ab6 153d 384e c8bf 7eaa ca54 1af9 d8bf
00000320: facf c893 2cdb c2bf 8640 8250 40a4 bf3f
00000330: c551 f477 2cf1 b6bf 047b f39e a046 a5bf
00000340: e0e3 b60e 7874 b13f 38fa bb25 f6d8 c3bf
00000350: 05a7 97f6 4c16 c2bf 9458 1404 6d87 b2bf
00000360: 5a6a 1db0 315b d4bf 8157 f5e2 46bf d1bf
00000370: aea1 2a65 4c0f e0bf 14fe 6198 4483 b43f
00000380: 8511 eb31 7e43 b5bf 7b9c a285 f017 a9bf
00000390: 593c 2ce9 286a c7bf ea6b aa3d 0e48 cfbf
000003a0: 5c30 dccd 1f3a d0bf b50b aaeb 7b7d d3bf
000003b0: 471f bfaa 4f43 ddbf 0c34 aa1a 92c1 d4bf
000003c0: de80 39ea 3641 c13f c3c4 a82f dd87 c4bf
000003d0: 69da 3c6f b96e a2bf bbe7 67cd 695f d5bf
000003e0: 4739 143b 4b39 d2bf a8ef b31e 8eda d9bf
000003f0: 5517 9401 b4e0 c5bf 321f 54b5 ae3c dfbf
