experiments/Datasets/darts_logs/modwt_pred_transformer_5_24_5/checkpoints/best-epoch=8-val_loss=0.00.ckpt (torch, 668955 bytes, 206 tensors)

encoder.weight f8 [16, 1]
2.798523874727069 -4.582726724984346 -4.242937511026543 -2.9938367888801145 -1.1408307809215954 1.897303913428089 1.9406539851634277 4.7404321869379284
-2.614327643191998 2.382407692816922 3.128043641103739 -3.296193677136805 -0.5733256650490703 -1.4998500977354237 1.3374105057146441 3.502058679633928
00000000: 4439 387c 6063 0640 7740 8950 b654 12c0
00000010: 9452 639c c4f8 10c0 fb69 ceb3 60f3 07c0
00000020: 1941 e5c6 d740 f2bf 7df1 2b59 5b5b fe3f
00000030: 5910 7231 eb0c ff3f 7637 efda 33f6 1240
00000040: 9f4e 849c 24ea 04c0 9719 b3c3 2b0f 0340
00000050: b402 98be 3b06 0940 2ead 64ca 9a5e 0ac0
00000060: 8efb aa10 af58 e2bf 18d1 ead0 62ff f7bf
00000070: 82f0 f58e 0866 f53f f59a 4d57 3704 0c40

encoder.bias f8 [16]
-0.03700012147906472 -0.3092467717389519 -0.4109310593495148 -0.09551250200807634 0.008170130709462483 -1.0052241448831438 -0.852566790502754 -0.42998481388589876
-0.42419999043855966 -0.9477780609919464 -0.11539808286633009 -0.8123180007703155 -0.03179564875340394 -1.0169416532752238 -0.029475434491828753 -0.8120020412137384
00000000: 5fb6 660f aef1 a2bf c2ca c0f8 b2ca d3bf
00000010: 7846 34c9 b14c dabf c6db 7be0 8173 b8bf
00000020: be07 9c61 80bb 803f 40c3 b6e9 6515 f0bf
00000030: 2dae 5b26 3a48 ebbf 47a9 5a06 df84 dbbf
00000040: 856a 79b7 1726 dbbf 5a74 faa7 3254 eebf
00000050: 9d96 ee8f ba8a bdbf e656 e851 82fe e9bf
00000060: 2519 1aef 8447 a0bf ba1d 6c9c 6445 f0bf
00000070: dc0f b6ec ce2e 9ebf 458b 69b4 ebfb e9bf

transformer.encoder.layers.0.self_attn.in_proj_weight f8 [48, 16]
-1.2428305672166138 0.3899150165951578 0.13445794734918012 -0.35313875721508703 -0.9746480426408671 2.131095041661461 2.869398515654711 -1.5592582081389754
0.8541635185515033 0.6769842887491695 1.3152729557001681 -1.9750062576318697 -0.919959138518784 -1.2508559954774716 0.9419652744398455 -0.4868315928046542
1.0733321047984727 -0.40137160847145026 -1.2856718715970645 1.1083369512374366 -0.18545265306061823 -1.122142399329715 0.40780513307443883 0.2926274185452278
-0.24307139555703755 1.2832513605266587 1.5971259147251622 0.46498358682937485 0.18162695069223697 0.15707027273328436 -0.08464322399180885 1.066009684548697
-0.1547071880508514 0.14823447229485578 -0.017848331610748537 0.2834420096418428 0.1655057473926877 0.3217766874312414 0.6557005879016892 1.5966477364277998
0.7407582956736052 0.1673171718757769 0.5425295902530355 0.5759665259518039 1.5865155589524824 0.28564577185631074 -0.05006171994773721 0.07477565031950552
-0.19111176561040863 0.346088492504562 0.8883743790447798 -0.203778949535043 -0.16682088889953475 0.9439066298637582 1.313235034042675 -0.8067236009163481
0.18190982754726717 0.6112891831677811 0.6351755189614076 0.1826482523947772 -0.938989334547168 -0.2611377617437431 0.5349118052689452 0.18984517390347289
-0.6608751707705275 0.4298968171158336 0.2390174866402971 -0.3396209123713535 -0.517848076993677 0.736513451489147 0.44941499373459837 -1.135616911111547
1.5009450547374579 -0.40854414976975456 0.16350020573620094 -0.03293576784485197 1.3866975911689856 -0.16983681771725825 0.22732520121711985 -0.2043952746461148
0.240379992369104 0.2926465787623401 0.2435964193474611 0.012055436186419652 0.04469399657378063 0.01756933945066171 0.6653899148924142 1.523219368733015
-0.03384359829958605 0.8938381621154082 0.3427875382711114 0.9458758242405673 0.455823138632133 0.4636210932831621 0.02639027144798767 0.45630114977051467
-0.32705273675620483 0.13412182256095867 1.0010475556040457 0.23052675510461076 -0.01667986465783269 1.355624414726719 2.7002568618313014 -1.4563798730293551
1.7403424965431165 0.7934442411962535 2.0241776042477446 -0.08651622101422748 -0.7800853964052126 -0.3678440763936862 0.6026803152157395 -0.5281949149017495
-0.41416834270717456 -0.4993383498269274 -0.10686286727126275 -0.7565854885217322 -0.21216654762393675 0.5670681140520978 0.2529158246844149 -2.3445049932719373
-0.5328890865452308 -0.06209976835059573 -0.7931451936697852 -1.3999054891910978 -0.6637636151550935 -0.6197615192787799 0.24377624728979266 -0.34938067979977877
0.09511371363204191 0.3745743549164984 -0.27534093710374447 0.36750335970171005 0.5132032885429533 0.25113140360782704 0.6451596660312142 0.961250605721936
-0.32594995788435677 -0.6272286420428306 -0.12800747048076544 0.09101132542441234 0.7508624341838547 -0.6898694406218951 0.24107012197405633 0.13712494198414366
1.2007704412158389 -0.411570784317524 -1.3494614465889612 -0.0804620598109522 0.5722512972279112 -0.8249491745396893 -1.2791878064069777 0.40394791279055103
-0.7877724572468925 -0.3487498904465987 -0.7872151970680983 0.8308342879674684 0.14385282975441505 0.8669806723028306 -0.8032893453197572 0.021575231781321844
0.10537825066480619 -0.01852310121787489 -0.3362677193568687 0.7947444061162083 -0.09912619185552252 -0.42704095126135294 -1.5648155005117241 1.163250461841514
-1.117687776483854 -0.3181896403522054 -0.33256339550212 0.24059314124240505 0.388897246626654 0.274879001469521 -0.7529570669020799 0.334641891507175
-0.3285663080481926 -0.2090053343464954 0.09335589078208913 -0.07196902726071736 -0.4956012465295379 -0.41231098475658057 -0.71270820700965 -0.3339792772521168
0.3517097381046003 0.3159570787574242 -0.9752050816272932 0.18333665313878594 0.5521927077732912 0.198286397315381 -0.025584677205275234 0.015090616246141894
0.1824377523569334 0.29226346617748183 -0.6003252500225627 0.2501289515064693 0.19154499317711282 -0.7619681023649482 -1.0313365429357588 0.7320853206802579
-1.1710507912593695 0.43176824892556914 0.20687145808369783 0.6992378970814194 -1.2724989843499526 0.5646541642798265 -0.8387636973295882 0.3492031234779575
-0.013105088470670552 0.12554805036945682 -0.8977190565624845 -0.017634824204654606 -0.33606901892742475 -0.7052541095446365 -0.9777308252626637 -0.24799780601414556
-1.2343254846213516 0.2538011927339702 -0.0278647937525669 0.9102046135635382 -0.994947196992574 0.5220782042255525 -0.8895526915856952 0.2186591464007999
-0.09324638461757585 0.044100719783960796 0.21252297344332088 0.08982785015891075 -0.1797882773254356 0.47213521287232707 0.8236598321033545 1.1178826418450865
-0.05738582033055425 1.3112438063496983 1.4363294439726668 -0.09570145467957088 -0.026987513480103267 -0.32872800616190906 0.6788830957964774 0.3916892407658284
-0.3704685163823986 -0.12285234561401293 0.43178476414613276 -0.48248741414666124 -0.2653647578291427 1.2265543031332613 0.4241208293044744 -1.4447878158700123
0.36647256345049545 0.8921998198422533 -0.09796665907644561 -1.0384252971731138 -1.1756024468068338 -0.6186969241919397 1.067948388342994 -0.428345722141228
00000000: bca1 0a4e a2e2 f3bf 46b6 1f1d 5ef4 d83f
00000010: 8ba8 4603 eb35 c13f a816 4c4d d399 d6bf
00000020: 1118 8817 5130 efbf 72d4 a48e 7b0c 0140
00000030: 656c 7f35 87f4 0640 959f 1fbc b8f2 f8bf
00000040: 0cae 33bb 4e55 eb3f 10ac 82f4 daa9 e53f
00000050: 48ba a0a7 5b0b f53f a6c9 5e29 a099 ffbf
00000060: 3c06 b325 4e70 edbf dc4c 8993 8103 f4bf
00000070: 46fa f55b 9424 ee3f 675b 70b2 3f28 dfbf
00000080: 58b3 fd48 5e2c f13f 0061 fb8a 12b0 d9bf
00000090: 1458 1eab 1c92 f4bf cf35 e886 bfbb f13f
000000a0: 7107 ed9b e9bc c7bf b337 a996 4bf4 f1bf
000000b0: 6985 6cb3 7a19 da3f 5823 245a 68ba d23f
000000c0: e659 41a7 f61c cfbf ee26 2094 3288 f43f
000000d0: 236b 35e7 d38d f93f e5f8 a684 4ac2 dd3f
000000e0: 6fce a54a 8d3f c73f cd18 48f2 e01a c43f
000000f0: 3c71 dfa6 2dab b5bf e4b1 c52b 600e f13f
00000100: 3d38 91f4 71cd c3bf 75b7 52e1 58f9 c23f
00000110: 0aae 3942 d546 92bf cf59 6ef4 e923 d23f
00000120: 3e02 2dd6 4a2f c53f 2d79 483f fd97 d43f
00000130: ed2e a0cc 7ffb e43f 8909 337f de8b f93f
00000140: 2815 c5bd 4ab4 e73f 9101 a22a a66a c53f
00000150: 5df8 e703 675c e13f 2eb8 115a 516e e23f
00000160: b6bc 8423 5e62 f93f 1b44 1734 0548 d23f
00000170: 6e01 ea93 b0a1 a9bf f9ce a83c 7f24 b33f
00000180: 0fb9 96af 5976 c8bf e80e 3559 5026 d63f
00000190: 9c40 131b 906d ec3f 16e1 eeb9 6d15 cabf
000001a0: bd7b 0e0b 635a c5bf e4c1 37ad 7b34 ee3f
000001b0: b8cb 32bd 0203 f53f 341b 5b03 aed0 e9bf
000001c0: 3d79 113c d248 c73f 6455 4355 ae8f e33f
000001d0: 2117 259c 5b53 e43f f782 5a97 0461 c73f
000001e0: 5088 655c 330c eebf 3b29 9c28 7bb6 d0bf
000001f0: 6afb bb5c ff1d e13f 3c03 9cbe d84c c83f
00000200: a154 a6af e325 e5bf 1ab0 8af0 6d83 db3f
00000210: 9466 2500 2098 ce3f 9e0c eb59 59bc d5bf
00000220: a77f 5f21 3692 e0bf 11b8 66a8 8491 e73f
00000230: 6c04 1b1b 37c3 dc3f 5d23 60a3 7c2b f2bf
00000240: 840b 33f6 de03 f83f 1bed 8e5c 9625 dabf
00000250: 505c 4322 93ed c43f 904a 86fb f4dc a0bf
00000260: 5034 38d0 e92f f63f 994c e07c 36bd c5bf
00000270: 005f 6400 fe18 cd3f a6ef 07d6 9f29 cabf
00000280: 9c44 eb86 c5c4 ce3f b683 44b7 b8ba d23f
00000290: e790 42df 2a2e cf3f 2b0a 4741 85b0 883f
000002a0: 154e 39ab 21e2 a63f 7562 6969 b2fd 913f
000002b0: f5a2 71ca df4a e53f 1879 d545 1b5f f83f
000002c0: 9059 c0b7 f253 a1bf 437a 467d 529a ec3f
000002d0: 0c73 9624 3bf0 d53f c716 6660 9d44 ee3f
000002e0: 70d8 4bd0 342c dd3f bbc3 58ce f7ab dd3f
000002f0: e1e8 3423 0d06 9b3f 4b0f d9bc 0934 dd3f
00000300: 44da 1b9a 6eee d4bf 4a24 ca64 e72a c13f
00000310: 3ef6 1071 4a04 f03f b57e 0395 e681 cd3f
00000320: 6711 d4c4 8614 91bf fe90 ee39 a3b0 f53f
00000330: 95eb 0245 209a 0540 5e6b 53fb 544d f7bf
00000340: eadd a75f 71d8 fb3f f265 642d e563 e93f
00000350: 4b51 1c07 8431 0040 a661 d453 ed25 b6bf
00000360: 02b9 34a6 75f6 e8bf 66d8 88e1 c18a d7bf
00000370: 236d 793a 2849 e33f 1c54 ad05 f9e6 e0bf
00000380: 3dd0 bdef bb81 dabf f24b 89d6 28f5 dfbf
00000390: 9b3c 1668 5d5b bbbf 5c87 3ac5 f235 e8bf
000003a0: f1cd acff 4528 cbbf 3ba9 8e07 6c25 e23f
000003b0: 8344 eada c52f d03f 1a4b 7bd5 8bc1 02c0
000003c0: 336d e369 6d0d e1bf 225a 4f74 8acb afbf
000003d0: 7152 7907 7261 e9bf fc10 594c 0366 f6bf
000003e0: 19b5 6b31 8d3d e5bf 6be4 131c 16d5 e3bf
000003f0: c15c d360 0f34 cf3f f908 66c8 405c d6bf
00000400: 0063 7351 5f59 b83f 9858 12b7 06f9 d73f
00000410: ab13 0798 2f9f d1bf abb1 c5cf 2c85 d73f
00000420: 7bbb 8f4d 296c e03f dea0 5f73 8912 d03f
00000430: d4ac 49e2 25a5 e43f bdbf 5aa1 90c2 ee3f
00000440: a8bc 4f36 5ddc d4bf c407 16cd 4112 e4bf
00000450: b8e5 ad7d 8c62 c0bf 6672 43aa 844c b73f
00000460: dfaa d3a7 1007 e83f 2763 bf13 6913 e6bf
00000470: 41ed f5c0 62db ce3f 72d6 a462 4f8d c13f
00000480: 8668 f010 5b36 f33f 5f80 a8fc 2c57 dabf
00000490: c0ff c4e2 6497 f5bf 2ef3 745b 2999 b4bf
000004a0: a0ff d5f3 e14f e23f 3e53 b0cf fb65 eabf
000004b0: f35b 1fa2 8d77 f4bf 9d43 ae58 48da d93f
000004c0: 2a14 9295 6e35 e9bf 0de9 7c0f eb51 d6bf
000004d0: 2e4b caec dd30 e9bf 34e7 e6c9 3196 ea3f
000004e0: f8ba 9dff c469 c23f 84c0 3940 4ebe eb3f
000004f0: 98f4 6bdb 8bb4 e9bf 491a 9e4b d117 963f
00000500: fea5 50ac 11fa ba3f d519 ce47 b8f7 92bf
00000510: 02a6 550a 6985 d5bf 7c56 1ed2 8b6e e93f
00000520: 384d 3288 5560 b9bf 6d18 ee91 a354 dbbf
00000530: 318c 6ffa 7b09 f9bf c0a8 2a84 ac9c f23f
00000540: 9b31 f293 0ce2 f1bf 4247 cf14 385d d4bf
00000550: facf e1fa b748 d5bf c496 a38c c1cb ce3f
00000560: eb04 f146 b1e3 d83f 73cc 6a18 9e97 d13f
00000570: 595e 346b 3918 e8bf fd45 f9d2 c56a d53f
00000580: cf9a e8fa 3a07 d5bf 5597 dad1 afc0 cabf
00000590: 154b ccf1 2be6 b73f fce2 68ea 8f6c b2bf
000005a0: 71e0 6c4a eeb7 dfbf 8ae8 d39c 4d63 dabf
000005b0: d44f 1671 81ce e6bf 53bb 559e ea5f d5bf
000005c0: d303 b68f 6982 d63f 38fb 0c0a a438 d43f
000005d0: 786e 8f49 e134 efbf b2d0 b150 9377 c73f
000005e0: 273b 9f0a 90ab e13f 6009 dbdb 7261 c93f
000005f0: fe61 809f de32 9abf e581 073a d4e7 8e3f
00000600: 21e2 f6c9 1e5a c73f 9310 43d3 71b4 d23f
00000610: f2ea 794c dd35 e3bf 1032 a0dc 1c02 d03f
00000620: 4c41 b4dc 8b84 c83f 9115 08ee 0a62 e8bf
00000630: b342 31bf 5a80 f0bf 1782 c631 3e6d e73f
00000640: 659f 26c1 9fbc f2bf 5389 254b 17a2 db3f
00000650: 2600 7991 c37a ca3f 13d5 8227 2860 e63f
00000660: c59e 1fe5 275c f4bf e339 249c a511 e23f
00000670: b248 23f7 26d7 eabf 9bed bf0e 5859 d63f
00000680: a448 2433 d7d6 8abf 90e9 3461 f511 c03f
00000690: add1 9d50 1dba ecbf ac36 eb04 dd0e 92bf
000006a0: 797e 5fa1 2782 d5bf 60a4 fb10 7191 e6bf
000006b0: 586a d927 9249 efbf b4be 2761 64be cfbf
000006c0: c216 5114 ccbf f3bf bf9a 9e5b 473e d03f
000006d0: 011c 82a7 9688 9cbf 128f fd6c 6520 ed3f
000006e0: 278f 0a81 9bd6 efbf 104d a359 ddb4 e03f
000006f0: 1dbd cd34 3777 ecbf 89a0 61dd 05fd cb3f
00000700: 0919 67bc fede b7bf 1083 679a 5e94 a63f
00000710: 0e3b 4bea f333 cb3f b3d7 b33e f5fe b63f
00000720: f990 a861 4d03 c7bf b8e7 a49c 7637 de3f
00000730: 5135 3ddd 6b5b ea3f 05da b7e8 d8e2 f13f
00000740: 4bd1 259b ac61 adbf 14ac 15c9 dafa f43f
00000750: be4f 4295 34fb f63f 1d44 07fa e37f b8bf
00000760: 548a 305f 9da2 9bbf efa8 ef30 e109 d5bf
00000770: 7119 c80a 69b9 e53f 0532 d2bf 6f11 d93f
00000780: bbd7 8394 c1b5 d7bf c029 a656 4073 bfbf
00000790: 34cc 3a90 5ca2 db3f 0775 1fe4 12e1 debf
000007a0: b4c6 1877 bcfb d0bf 5a9b ab67 f79f f33f
000007b0: 4391 dab0 cb24 db3f b422 2dd4 d91d f7bf
000007c0: a7ac b956 4974 d73f b706 f7a2 e68c ec3f
000007d0: 4eeb d4cc 5714 b9bf 6429 2bd8 639d f0bf
000007e0: 7c20 e282 44cf f2bf 1749 f17d 5dcc e3bf
000007f0: 2efc 9b0c 5116 f13f d298 fe2c 046a dbbf

transformer.encoder.layers.0.self_attn.in_proj_bias f8 [48]
-1.3874310251221211 0.8314617981135657 0.7928386789010864 -1.4910423039760303 -0.36359343266292826 0.12154109119320923 -0.49285821677094255 -1.2497302883014585
0.3489831893584204 1.0698298868621818 1.0108797808998216 -0.20001270755062145 0.10433745499160858 0.10656215203246537 -0.0024362728295744636 -1.6547835114385465
-3.834168856244719e-14 -2.9058784499435686e-14 -2.871882646071908e-14 -3.7138676945082096e-14 9.003361944093655e-15 -1.6767694645411525e-14 5.038935814300522e-14 -2.2942079974939308e-14
1.224939971553555e-14 -2.281917876713646e-14 7.604635072300191e-15 -9.17324707664997e-15 1.8785101554348045e-16 3.5120558734561366e-16 2.1292605908327533e-16 1.2791995761251265e-13
0.012869823388184803 0.13785578941678567 0.09292455568038165 0.04760058873578135 -0.009164467784613835 -0.06508396647439978 0.015397210858386986 -0.03420864098575903
-0.04450014486734717 -0.0041196987381753375 0.020497865274846556 -0.17872091208977958 0.08615949836804734 0.09722412546994194 -0.08200070245683175 0.037437499233637324
00000000: 2aaf e5df ea32 f6bf 02ad d8c5 559b ea3f
00000010: d249 9c38 ef5e e93f 0079 c82c 4fdb f7bf
00000020: 4df8 9463 1d45 d7bf 4984 cb23 511d bf3f
00000030: 2026 a630 fd8a dfbf e734 d12f e5fe f3bf
00000040: f57b 4996 bd55 d63f 06b4 85f1 051e f13f
00000050: 2570 f246 902c f03f 366f db32 049a c9bf
00000060: 25d4 ef04 dcb5 ba3f 9387 f83d a847 bb3f
00000070: d6a8 1104 3cf5 63bf e76a 7946 fe79 fabf
00000080: d887 eda1 9e95 25bd 68f8 e7eb cf5b 20bd
00000090: 4cca 02af d12a 20bd fd78 7256 3fe8 24bd
000000a0: 9867 6cb5 1546 043d 0102 c17c f5e0 12bd
000000b0: 7dc6 f92f df5d 2c3d b478 15b6 9ad4 19bd
000000c0: cf20 3755 4c95 0b3d 06f9 e733 2eb1 19bd
000000d0: 8f34 3d0e c61f 013d 2155 4554 04a8 04bd
000000e0: eed8 dcad 7a12 ab3c f0f7 887e 994e b93c
000000f0: 2d37 fdc4 95af ae3c 43e3 285c cd00 423d
00000100: 96dc 7574 7e5b 8a3f 6cff 8d2d 42a5 c13f
00000110: 7b7f a457 e7c9 b73f 24f3 c7b7 1a5f a83f
00000120: e47d 5c0b d2c4 82bf cb62 80c3 57a9 b0bf
00000130: 4bec b0a8 9288 8f3f 6e83 8c84 cb83 a1bf
00000140: baba be15 b9c8 a6bf 27ed 9835 d1df 70bf
00000150: 651e f973 64fd 943f f4b8 44ac 53e0 c6bf
00000160: ee03 bb83 8c0e b63f ce8d 4627 aee3 b83f
00000170: 2616 4d7f fffd b4bf 897a b405 022b a33f

transformer.encoder.layers.0.self_attn.out_proj.weight f8 [16, 16]
0.2677566101207264 -0.1298288593630603 -0.24392703009369862 0.055735156496292695 -0.0512028441231058 0.3018300773572999 -0.03603167020822758 -0.5583081084969747
0.09001815634276387 0.32387515745675155 -0.4881755071908092 0.12700544305226197 -0.25696263457617713 0.1798181351583347 0.07902061097231441 -0.48069679369094126
0.2416376000366827 -0.4022351715153351 -0.13963243609542608 -0.4113151308525008 0.12762872955604862 0.20124376151168977 0.06779514013943709 -0.5613786185755276
0.21269737229660762 0.27078244953601693 -0.07220655267317527 0.035504196633079084 0.037459295079710984 -0.24229710354563502 -0.11486757746044496 -0.34051253881527377
-0.005992574514758058 0.02874127616882399 0.009509890432754894 0.09371205062714524 0.007874613819587765 0.0019396098449649768 -0.038009296250721074 0.015046022398422535
-0.06445712077400959 -0.01491045871378268 0.028059980493562058 0.009575724383948225 0.008632563034250902 0.030833484064637068 0.09469510554796243 -0.06219776798413037
0.006213197335484118 -0.0011222531131017104 0.008907141345798552 -0.03152681535499603 0.01040806975167789 -0.025257241369977312 0.03485002024018331 -0.011012617549595961
-0.01743514485157456 -0.0012888904605087368 -0.004385359864008935 0.02762950576371136 0.014742365296497731 0.015933062833152635 0.03718180169224333 -0.026934265765726467
0.02590674410043349 -0.05248916741021402 0.038856646661317766 -0.18083366644779997 0.11884416784262943 0.07783150083193241 0.01683141409830337 -0.11432621971341655
-0.021388491158692853 -0.10523601119641138 -0.06097342646516356 0.10583680456526706 0.03566962599159144 -0.020676490357433838 -0.1042607581835271 0.06138165076764062
0.062394626284082384 -0.0551982486400157 -0.06651692285416344 -0.0859955960656007 0.08722685169813964 -0.03317914089865186 -0.08558091317008541 -0.05173711762273194
-0.07945264328058294 -0.06461957733937226 0.03871924963183279 0.0338922373236102 -0.014797265088905047 0.00586387207687984 -0.08390413474954281 0.03942131936990196
0.18377074396997112 -0.32594367164146504 -0.1556502398379954 -0.35720453618340076 0.012961103587776017 0.32812885927686314 0.12010309861074225 -0.4929558719054216
0.14364744151325748 0.01643769234947376 -0.3593902844504811 -0.09807160837335042 -0.11796166361091459 -0.26049793074614974 -0.2583127730084722 -0.1367008468027247
0.003381438127759256 -0.003968185391115917 -0.0039032840967645724 0.01315321765493231 -0.013145290257943688 -0.006390936472863784 0.007630553082814533 0.007646728844914509
0.011536566651471118 -0.0006993531194314792 -0.006027147217016199 -0.0004290246489633527 0.0035366718282344896 0.002306497145009393 -0.0030342126648571577 -0.0003572084768215083
-0.014230082927501267 0.025722744438656013 0.032575243228728616 -0.005534535370862069 0.015956191041150463 0.022661792663176354 -0.005831761840254557 -0.0057553698785122245
-0.006065907335665788 0.05613549637106423 -0.0248856939409783 -0.03182628384421017 0.017218694505191538 -0.00885677780763018 0.01330480391578708 -0.009053777186709418
0.022712174091644822 0.2767081180695026 -0.2859767019797481 0.03537715505164103 0.1130262823132231 -0.04505195945426129 -0.4458218710623658 0.503040636677663
-0.2982229077801724 -0.06708592436462282 0.13943771280533637 -0.49759677397858393 -0.2928714758831659 -0.3641683482394673 0.1687818197664127 0.22089864647226456
-0.06496226449144521 0.08433325695130466 0.14554935043478143 -0.1907974030180548 0.06790644581072228 0.04873189383581144 -0.049096492058122894 0.026875747951539717
0.028366415006679923 0.17663348122754938 0.19415528050022876 0.029783991469290005 0.23953594201056608 0.18023261487888576 0.16201498888843444 -0.01917552790457453
-0.08697266952834057 0.05457315657183781 0.0063442954888187535 0.008470109224089875 0.027435597521365998 0.1052092744759089 -0.01818285115271179 0.07134143234706852
-0.07869510970348044 -0.04272813954145499 0.016206585138412485 -0.05925959456678157 -0.023527064519157512 -0.06976694292050338 0.040090133677037336 0.0018075355426689045
-0.024133010160335158 -0.01005575325302497 0.014111801006508535 -0.10150369344088932 -0.0028383455092658963 0.04112501826994588 -0.025522057919363926 -0.0363015278563539
0.030452013881020704 0.02667364129397946 0.05406779869348908 -0.007033447762114136 0.04289356909326158 -0.012802993135504436 0.02104934524017375 -0.024439886331810233
0.30106401310600145 0.22842011446228172 0.4689294525754226 0.6577539934659746 0.30756163016947863 0.31061444873404226 -0.19228335540284044 0.22407791591988485
0.24160239379801243 -0.06888536794865499 -0.4741804223186041 -0.2907095579815792 -0.26501842308275314 0.49554182319005435 -0.001870885732961149 -0.08020613703632545
-0.0041387294831744395 0.2757122984749696 0.29890018160952164 -0.13256478889420434 0.019023769730529376 -0.49761853393750466 -0.6779330311811479 0.06015105675162229
-0.4480949603787316 0.11632525413671928 -0.359914084049591 0.5976282668795743 0.44254848968054517 -0.2577643498255307 -0.08762150949195631 0.4255490000384511
-0.03883601190211473 -0.15382075622165203 0.047471305895819695 0.296276722381383 -0.0006450633044129077 0.08470567851712969 0.18792379198793716 -0.11998013753716082
-0.03410494872827545 -0.3406223153259395 0.17619726322803544 0.23640236708220722 -0.11496904005598489 0.659449286589451 0.010436314584280123 -0.20892145059704711
00000000: ea67 f09e ec22 d13f 374a 8568 3b9e c0bf
00000010: a771 6e3c 0039 cfbf 822d c784 5189 ac3f
00000020: 1c1d f159 4237 aabf 5fb8 cc19 2f51 d33f
00000030: cb45 543a be72 a2bf 8bc1 62f7 a8dd e1bf
00000040: a7d3 890d 6e0b b73f ccde 50de 5eba d43f
00000050: 6def 857b 443e dfbf fe66 29e0 b641 c03f
00000060: 911d f367 1372 d0bf edca ddd8 4704 c73f
00000070: 0206 d6db b13a b43f 2d75 0c7c bcc3 debf
00000080: 091c d21a fbed ce3f 6b65 bd96 38be d9bf
00000090: 1cce 3ec5 79df c1bf 0622 d7b2 fc52 dabf
000000a0: b393 bc61 2356 c03f d8bd 1b07 5bc2 c93f
000000b0: b703 bab5 055b b13f dc93 ee4a d0f6 e1bf
000000c0: aec2 fae0 aa39 cb3f 30a1 45e9 7f54 d13f
000000d0: c4c6 49ee 207c b2bf f9d4 d126 9b2d a23f
000000e0: 7bde 985e dd2d a33f 836f d26b 9703 cfbf
000000f0: 3838 9028 f667 bdbf e2ba 851a f5ca d5bf
00000100: 52a6 f478 ab8b 78bf 0ff9 c264 5a6e 9d3f
00000110: 9884 2de3 eb79 833f 8647 af50 83fd b73f
00000120: 020f 97c6 9020 803f a9d1 7836 50c7 5f3f
00000130: 4780 ae58 f475 a3bf efbf 16f1 72d0 8e3f
00000140: 4afc b709 4380 b0bf 6c39 5ae4 5f89 8ebf
00000150: 5e5b 2f6a c1bb 9c3f e63b 84f8 6f9c 833f
00000160: 5758 4dff f2ad 813f 68a8 b716 d092 9f3f
00000170: d675 6b3d f03d b83f c387 c0c6 62d8 afbf
00000180: a281 c075 0273 793f f870 ca1a 1263 52bf
00000190: 5999 3f46 e83d 823f 5221 cb61 4824 a0bf
000001a0: 5763 9579 d350 853f 2057 afc6 08dd 99bf
000001b0: fa9e 64a2 dcd7 a13f 143f c081 c88d 86bf
000001c0: 740f c1c3 84da 91bf 2392 1098 ff1d 55bf
000001d0: 2b5c 2713 62f6 71bf 5d9e a3be e84a 9c3f
000001e0: 755d 83c6 3e31 8e3f 3a8c 2cbf c150 903f
000001f0: d890 8c3c 7e09 a33f e819 6cfa a794 9bbf
00000200: c4f9 a02a 4c87 9a3f 6e9f d732 dcdf aabf
00000210: 3701 49b5 04e5 a33f 845c b4bd 8e25 c7bf
00000220: 6955 3446 926c be3f 94f7 abe6 c3ec b33f
00000230: 64fd 6314 413c 913f 4493 beae 7b44 bdbf
00000240: 9244 2658 dde6 95bf 3a38 734a bff0 babf
00000250: 9e95 2fb1 e837 afbf cc2a 52ee 1e18 bb3f
00000260: 055a 300a 4a43 a23f 2c63 86c7 372c 95bf
00000270: a187 a742 d5b0 babf 8736 3e6d 6a6d af3f
00000280: 592c ac3e 30f2 af3f d622 69e1 f142 acbf
00000290: 2808 4ac8 4007 b1bf f0a7 b3b0 ce03 b6bf
000002a0: b365 60bb 7f54 b63f 365f 233a dbfc a0bf
000002b0: 7732 3a77 a1e8 b5bf e39d 5b98 497d aabf
000002c0: 248a 7828 0257 b4bf 3e9c 5a9b e88a b0bf
000002d0: 6cec c96d 02d3 a33f 6a4e c9c5 525a a13f
000002e0: 9c47 044d 074e 8ebf 4e20 c52c b704 783f
000002f0: 4e9b bfca bd7a b5bf f9f4 eafa 072f a43f
00000300: c603 a8bb cc85 c73f c572 82d8 42dc d4bf
00000310: e3ff dbd8 58ec c3bf dafe 386a 70dc d6bf
00000320: 3c8d 3ce0 598b 8a3f 4bf2 dd2f 1000 d53f
00000330: 4c70 aea0 13bf be3f eb1d 0dc9 968c dfbf
00000340: bc0c ba13 0a63 c23f 3834 40dc 0ad5 903f
00000350: cdc1 8d1b 4000 d7bf 6331 a18e 381b b9bf
00000360: 6c00 644f bc32 bebf a5be 4e83 ffab d0bf
00000370: 2c78 0d4c 3288 d0bf f235 2dd1 697f c1bf
00000380: f271 82c5 63b3 6b3f b13e aba7 f140 70bf
00000390: 39fc 5cb1 c7f9 6fbf 1722 52fd 12f0 8a3f
000003a0: 1acc 08fe eaeb 8abf daa9 44f2 612d 7abf
000003b0: 52aa 0eff 3641 7f3f 35f0 f624 2d52 7f3f
000003c0: 1c3e cfc3 7ba0 873f 0840 5e63 99ea 46bf
000003d0: 47d5 f602 ecaf 78bf cf41 23d6 d61d 3cbf
000003e0: 28b1 d83a f0f8 6c3f d5d6 cb39 13e5 623f
000003f0: 12fb 4485 34db 68bf d62e ceb9 f668 37bf
00000400: fb08 5866 a924 8dbf 6e73 8228 1057 9a3f
00000410: af3c a7c8 b3ad a03f 3e9b a986 61ab 76bf
00000420: 6b0a c3da d156 903f 1ea5 6d29 a734 973f
00000430: e77b 1ca6 0be3 77bf 0837 7956 f192 77bf
00000440: 6738 099a 90d8 78bf d6ec 1db2 cabd ac3f
00000450: 8585 75a6 a27b 99bf 9237 87e0 884b a0bf
00000460: c152 1e07 c7a1 913f 47f1 4098 8023 82bf
00000470: 1b80 958d 8c3f 8b3f 04a4 6067 c98a 82bf
00000480: 5d58 c733 dc41 973f ac5b 69f7 95b5 d13f
00000490: f4f0 9a39 714d d2bf dad3 f157 f41c a23f
000004a0: 81ae 1f5a 4aef bc3f 3b1b f4e8 0c11 a7bf
000004b0: 207b 0375 5888 dcbf d8dd 62ad e818 e03f
000004c0: 095e f588 1516 d3bf 0a01 2b0b 8b2c b1bf
000004d0: 99fa 2950 18d9 c13f de51 b523 a0d8 dfbf
000004e0: 655d b600 68be d2bf 8851 7bc2 884e d7bf
000004f0: 942e 0786 a49a c53f 0d1e 2a27 6846 cc3f
00000500: 0401 77f1 5da1 b0bf 3f2e 9244 dd96 b53f
00000510: 9b24 0972 5ca1 c23f 50e8 0f9f 0c6c c8bf
00000520: 7ad4 f11b 5162 b13f 5f0a 9804 63f3 a83f
00000530: 19d6 79e7 2c23 a9bf 6994 07ea 5085 9b3f
00000540: 23a8 08e3 150c 9d3f 471f a008 ed9b c63f
00000550: 630e 0c8a 14da c83f 2043 38d5 b17f 9e3f
00000560: 9172 931e 1da9 ce3f 80e7 49c1 dc11 c73f
00000570: a36a 5e3b e8bc c43f 9a4a efe4 bfa2 93bf
00000580: 3e21 4543 d743 b6bf 105a 6e45 03f1 ab3f
00000590: 750c 40da 79fc 793f 485b e3d0 c658 813f
000005a0: b4e5 66c8 1318 9c3f 7923 1cb9 feee ba3f
000005b0: 811b 327c 869e 92bf f4cb c79e 6e43 b23f
000005c0: ad15 88da 5c25 b4bf 6821 e673 76e0 a5bf
000005d0: ace7 9884 7598 903f 85ef 4609 4657 aebf
000005e0: d9ff b892 7a17 98bf 5b7a 2f12 3fdc b1bf
000005f0: 57fe 11aa b186 a43f 6c1a b282 5a9d 5d3f
00000600: 7419 92e5 52b6 98bf 74fa dd5a 1c98 84bf
00000610: 3723 7cde a5e6 8c3f e377 c063 25fc b9bf
00000620: 39ad 6224 7140 67bf a39c 08a1 560e a53f
00000630: e673 5c50 7422 9abf e330 e025 1d96 a2bf
00000640: 8183 dd0e d02e 9f3f 0b6d 17c4 5550 9b3f
00000650: 8d7c 4f46 c6ae ab3f 12cb dcc1 1acf 7cbf
00000660: 6fb5 ed58 25f6 a53f 6696 76a6 7438 8abf
00000670: db91 a2a5 f58d 953f 7665 0d02 c506 99bf
00000680: 19bd 92fe a144 d33f 109a aecc de3c cd3f
00000690: f053 bcad f002 de3f 06fe 571a 520c e53f
000006a0: 5945 c5f9 16af d33f f393 be6c 1be1 d33f
000006b0: a79a 82b1 bd9c c8bf f6dc 50cc 95ae cc3f
000006c0: 25b7 ffc5 d3ec ce3f a22c 83b2 78a2 b1bf
000006d0: 87c2 90d7 f858 debf 8797 0a43 fc9a d2bf
000006e0: 2e96 fed4 0ff6 d0bf 24b2 190d f5b6 df3f
000006f0: 6f62 6842 10a7 5ebf 646f 82af 6388 b4bf
00000700: b183 6fbc c5f3 70bf e084 4332 45a5 d13f
00000710: bd01 323a 2e21 d33f 996c 730c e2f7 c0bf
00000720: 8e66 5b93 f77a 933f 7a48 4968 fbd8 dfbf
00000730: 41a3 b99c a0b1 e5bf 76d8 228b 1ecc ae3f
00000740: 730f 157c 96ad dcbf 3352 37ea 7dc7 bd3f
00000750: ee37 1715 d508 d7bf bc36 ad50 c51f e33f
00000760: dc9d 84e6 b652 dc3f a9d2 240b 367f d0bf
00000770: edb0 b1fd 5c6e b6bf 7eae 80df 313c db3f
00000780: 01a5 0d52 50e2 a3bf 8080 b506 66b0 c3bf
00000790: 8d54 a4b4 284e a83f 516c 4ca4 32f6 d23f
000007a0: d142 ede5 2e23 45bf 653d 0477 45af b53f
000007b0: 633f 5d06 e30d c83f a545 e4ae 04b7 bebf
000007c0: e6e2 d62e 3476 a1bf a336 278a c1cc d5bf
000007d0: 4dc4 9ac5 a18d c63f 1d54 a8c9 6e42 ce3f
000007e0: d3cc 176b 9c6e bdbf 0eb6 e863 351a e53f
000007f0: 9e5a a46e a25f 853f 27a4 df26 f0bd cabf

transformer.encoder.layers.0.self_attn.out_proj.bias f8 [16]
-0.025687306155683844 -0.010575201547015373 -0.0024916173861894955 -0.0029865991455303386 0.012384422878469624 0.004681938117058571 0.007360664923341917 0.001121424582828486
0.0022904558786075425 -0.018269548551977904 -0.005482552065511398 0.009563405806885653 0.0009502523001447922 -0.004303795181871584 -0.011328937559797124 0.06171359510573157
00000000: 67aa 71ef c54d 9abf 2a25 5886 73a8 85bf
00000010: b9b1 02e6 4c69 64bf f386 0035 5a77 68bf
00000020: 3961 f119 015d 893f b4bc 8331 5e2d 733f
00000030: bd09 f671 3726 7e3f ef99 1f7a 985f 523f
00000040: fbfa ed22 6fc3 623f b878 2ca6 40b5 92bf
00000050: 7aac 1e5d df74 76bf 887d 6e99 fa95 833f
00000060: 5840 aa46 4b23 4f3f cd8b e038 dba0 71bf
00000070: f9c2 8a42 a033 87bf 4c39 65a1 ec98 af3f

transformer.encoder.layers.0.linear1.weight f8 [128, 16]
0.11037431662298258 0.27647743081088777 -0.2634880982788511 0.20306411778465994 0.18472278841715611 0.3509804933244965 -0.36038068586113364 -0.4554753576897897
-0.20846028566028624 -0.06334897327544883 0.2159345806175699 -0.4902937014099455 -0.2302353610993944 -0.48480177221442544 -0.003783061680334601 -0.025976680906759662
-0.200524176278293 -0.12651167187947973 -0.2872192282363618 0.038897255305116944 0.022413836140565302 0.27921629246796564 -0.6126411441045728 0.18578603066120986
-0.2244224685104002 0.7699056157785704 -0.6401721217223407 -0.09941088382055575 -0.10560197574780038 0.11221240108975877 0.15768250261684952 -0.16589211267013737
0.061320472406636704 0.26088047561077854 0.03860781943600425 0.004563894311564304 0.4229077883244913 -0.034143104773463294 0.2870530107855889 0.31582251954194673
0.16092543380975213 -0.18790190956002223 -0.2332948669122538 0.09435791395874121 0.20321370046767492 -0.35399292767711865 -0.3341575800824513 -0.3015172508045508
-0.06029180186760165 0.2766406916245952 0.274116875060217 0.24351911192316192 0.1419122642356596 -0.2059509559593272 0.10951148689061803 0.22569808797761626
-0.1353302543477122 -0.15297855917833808 0.06014320808384973 -0.36091194966091 0.3760933491807944 -0.3211992795891559 0.17610407917221663 -0.03825647792646487
-1.0413727492509244 0.24745610996015538 0.629201489579503 0.02061216639128001 -0.031009219295898498 0.025011172784047152 0.10495096931155906 0.2527735197597717
-0.04537860278054783 -0.0240529502216025 -0.034488189841263714 -0.09187187892055645 -0.1609149274453919 -0.04991016538902919 0.02257058564176907 0.058259320237639
-0.2639164127685641 0.032689794607541824 0.20632333222029353 0.1442845397208264 0.1795622081507849 0.0660248216636045 -0.2612395771512085 0.02646155374620006
0.14730221743668848 0.07896628479959916 -0.48215303345439137 -0.06842003578496975 0.3498642846498713 0.031252985314758744 -0.021270477189761057 -0.7901468393626134
0.041501611099531724 -0.2737378653602347 -0.2347660618208593 0.1670276222729603 -0.17946197519033982 0.03811322658839225 0.10433053813964016 0.15856508602110456
-0.32281240544440987 0.371245510477706 -0.2392045029738883 -0.11804493748315428 0.05422208346078987 -0.05705256518444556 0.31269437375827397 -0.38820492093565057
-0.22344291730752383 -0.0765685710469705 0.012096311146706637 -0.05947491821703419 -0.08109212025246904 -0.05913649712826238 0.002986557346538457 -0.10789205090754059
-0.6400148033350627 -0.023991378310537482 -0.014824264420589824 0.4761916927285225 0.18447919208952918 0.09839797865120518 0.007196187046265367 -0.032349152438913786
-0.10739760954166848 0.033222993675815674 -0.008756893696743035 0.05267527524477738 -0.039003356292874825 0.010835075533948555 0.006084945297213852 -0.1258900752612576
0.31816951385475484 0.7654986841053046 -0.13845263481506098 0.028471839278450446 -0.2498992058579069 -0.33740029263213434 -0.1818025304259852 -0.1310474814276876
-0.17399917798422798 0.18104318922140808 0.6416337577377149 -0.4030679944814986 -0.03528253258485156 -0.01493832246236862 -0.04790911402476512 0.15524671145633975
0.02372478676916303 -0.05943933592330469 -0.15860118813146948 -0.031131579391077357 -0.22781867272658143 -0.13155201671983724 0.08714528308015546 -0.14491781073007765
0.038005213854343675 -0.07458222935183545 -0.17122818904673717 0.24735981854380526 0.40041326349484896 0.12815593358527771 -0.09653095464936293 0.12834870829626024
-0.43399482555123864 0.15349231718845718 -0.10273966596442098 0.36118315698723746 0.42924056942740035 -0.7780901627489732 0.11335308527347923 -0.18256169286663507
-0.4181423217202884 -0.317053915408972 -0.15292360224901216 0.20467326602416336 0.20459350243588698 -0.045188311739618944 -0.8663856101006683 -0.006774700138686262
0.5768731138625262 0.36267050734919365 0.36143324068265725 -0.13303262013468023 0.07510745165964663 -0.2778532915367525 -0.0647304248646406 -0.9031034414070852
0.2363431859332378 0.1319126780312569 0.026209611419661813 0.15678081286394666 0.2716145685805104 -0.28551609171997966 -0.3520765662050921 -0.06499164538330518
0.04275575634505042 0.050447893264923965 0.39274494582925495 -0.15707595828074433 0.3260229720363356 -0.047003962757816986 0.5482139810152287 0.015543761053266622
-0.014723089699639412 0.022340431369873077 0.044917199412583673 0.04428251297084419 -0.03692252988157648 -0.08582102718228106 -0.04073942921735009 0.2293155507319827
0.2573677146210802 -0.5618588368025025 -0.6070019014392722 -0.1760505826098597 -0.3890871514265466 0.2105077090434926 0.005106754028145009 -0.310180275006948
-0.5263828415872006 -0.1599849189602784 -0.041883012888891624 0.24042980594250804 0.245788027695069 0.043820551060594806 -0.8359439066179578 0.19353891312978608
-0.256001045008178 -0.18555308239320678 -0.15660931147642881 -0.18011218823336825 -0.30855954666772883 0.23746910926484363 0.45169635768155786 -0.2875414910386143
-0.2095788558092465 -0.06446586784048336 0.0019065805818114805 -0.07071991478786921 0.1870729111729563 -0.07912989740634484 -0.31515125323410387 0.25924767101358315
-0.026704590597243727 -0.8503201716482041 -0.13562857977902884 -0.07433972745974864 -0.048680787418004155 0.13954651319270364 -0.07451323812788453 -0.3293474933202373
00000000: 98cc 36c0 7d41 bc3f 298d da64 ceb1 d13f
00000010: aa8b 3f2f fddc d0bf 8827 7048 01fe c93f
00000020: 3aef 890f ffa4 c73f cd35 17e3 7676 d63f
00000030: 358d f826 7a10 d7bf d156 5a1d 8226 ddbf
00000040: e27e b69e d3ae cabf ee06 7468 a337 b0bf
00000050: e1f9 e98c bea3 cb3f 6f64 3fd5 f860 dfbf
00000060: c2fe 2631 5a78 cdbf 0a0b 2d03 fe06 dfbf
00000070: 06e5 43c6 a7fd 6ebf 4609 d08b a199 9abf
00000080: 0018 96b5 c6aa c9bf 5b6f a4d2 8831 c0bf
00000090: a2ae 03c2 cc61 d2bf 7718 e14e 57ea a33f
000000a0: 5078 ce14 a7f3 963f 1642 2a03 aede d13f
000000b0: 099f c399 c19a e3bf a22c df2e d6c7 c73f
000000c0: 6ab0 5e1d e0b9 ccbf 8cd2 181a 11a3 e83f
000000d0: e377 d33e 4a7c e4bf a930 e0de fd72 b9bf
000000e0: 5fd3 3a28 bb08 bbbf a4da e2b0 f3b9 bc3f
000000f0: d605 f2b3 f02e c43f 3892 4ae7 f33b c5bf
00000100: fba0 1f9f 6565 af3f 3072 ba05 44b2 d03f
00000110: 04ed b173 67c4 a33f 5317 f80c 97b1 723f
00000120: cef3 04d4 eb10 db3f 2398 c57c 347b a1bf
00000130: 55b7 6297 135f d23f 8a78 31a8 6f36 d43f
00000140: 195c a761 3499 c43f 8647 3576 2b0d c8bf
00000150: 1d3d db2f 9bdc cdbf c452 921a d727 b83f
00000160: 83cc cd12 e802 ca3f 7add d8f3 d1a7 d6bf
00000170: 4989 8a79 d662 d5bf fda9 d802 0f4c d3bf
00000180: 52fd 792a 91de aebf 2d4f d128 7bb4 d13f
00000190: 1895 6a81 218b d13f d199 d45e a22b cf3f
000001a0: 6090 e55a 2e2a c23f 7b6e 36d6 995c cabf
000001b0: 0546 bbde f108 bc3f 9019 51c9 ace3 cc3f
000001c0: b998 4a74 8052 c1bf 3680 542a cd94 c3bf
000001d0: 7be3 972f 17cb ae3f 86de 216f 2e19 d7bf
000001e0: 2e60 bed6 e911 d83f 4963 556c 878e d4bf
000001f0: 9951 5e16 948a c63f d9ce 1b63 5a96 a3bf
00000200: 3ca7 cf78 76a9 f0bf 22b4 bc4d a4ac cf3f
00000210: 95d4 8a29 6b22 e43f d476 3312 5b1b 953f
00000220: 9e62 007b e1c0 9fbf 767f 9164 879c 993f
00000230: dc6b e014 11de ba3f 126f 2afc 702d d03f
00000240: 9fe1 c23d dd3b a7bf 87e0 4b2a 56a1 98bf
00000250: c6d4 ee9e 6fa8 a1bf d6c7 625b ea84 b7bf
00000260: 4b78 683f dc98 c4bf f6eb 2a40 d38d a9bf
00000270: 435b bb5c be1c 973f 2d38 3766 2ad4 ad3f
00000280: ddfd 6daa 01e4 d0bf ed33 817d b7bc a03f
00000290: 08da 248e cd68 ca3f aaad b571 ea77 c23f
000002a0: 1376 cdf9 e4fb c63f 4bf8 c4b1 00e7 b03f
000002b0: 8242 1234 26b8 d0bf bcdd c3cf bc18 9b3f
000002c0: f069 428f ccda c23f 346e b36a 2237 b43f
000002d0: bda4 9665 98db debf 9c6c 16b8 f983 b1bf
000002e0: 3604 272b 2d64 d63f 6294 a82b 6400 a03f
000002f0: 22f2 998f edc7 95bf c234 4306 e248 e9bf
00000300: cabe cefc b23f a53f 308a d9d2 eb84 d1bf
00000310: 669b dd76 d00c cebf e072 983f 2961 c53f
00000320: 9db6 2829 9cf8 c6bf 54ff 7bab 9383 a33f
00000330: 6ca9 48f9 67b5 ba3f c9c0 5f59 dc4b c43f
00000340: 071e 085d f5a8 d4bf f977 9287 7cc2 d73f
00000350: a015 aace 409e cebf b2d1 f269 3138 bebf
00000360: 26c2 5e36 ffc2 ab3f ff7d 3d6b fe35 adbf
00000370: d5d6 3b43 2f03 d43f 1327 e473 59d8 d8bf
00000380: 27e8 2d0b c799 ccbf 3b56 8c74 ff99 b3bf
00000390: cb00 3866 f3c5 883f bd4f 5919 7f73 aebf
000003a0: 7099 7204 74c2 b4bf dcee 5492 2347 aebf
000003b0: 6d3e 31c4 4377 683f e670 253e d09e bbbf
000003c0: 7bf5 2853 007b e4bf 4d3c eb24 3291 98bf
000003d0: 0451 fd16 2f5c 8ebf 2f56 b9b8 ec79 de3f
000003e0: 6e94 68a0 039d c73f 9ba7 4c24 9c30 b93f
000003f0: 1951 50c0 bf79 7d3f 7091 8e6f 1190 a0bf
00000400: 4369 a6e4 687e bbbf fa2c a0ae 9a02 a13f
00000410: 7d23 5660 22ef 81bf 37de f7f0 40f8 aa3f
00000420: b89c 6c77 3ff8 a3bf f242 8b38 b330 863f
00000430: 28ae ca10 87ec 783f 9bac 117e 2a1d c0bf
00000440: f7c8 25aa e35c d43f 4ea0 ab18 f77e e83f
00000450: 20b1 49e1 d0b8 c1bf 854d 3bca b827 9d3f
00000460: e360 3a7a b2fc cfbf a203 a165 f797 d5bf
00000470: 423c 4129 4e45 c7bf 3f40 7af3 29c6 c0bf
00000480: ee8f 7ce5 9a45 c6bf 5d4b 6f58 6c2c c73f
00000490: 40c7 af84 4388 e43f a930 97b3 ddcb d9bf
000004a0: 1cdc 2457 8d10 a2bf d0bb 76b3 fb97 8ebf
000004b0: da59 d51b 8b87 a8bf 951d 42ce 1fdf c33f
000004c0: c6cd 1c7d 4f4b 983f 18ea c527 d56e aebf
000004d0: dfd1 1032 0b4d c4bf c015 6eed f4e0 9fbf
000004e0: 89af 638a 2929 cdbf 026c c44c b2d6 c0bf
000004f0: 4876 d43c 274f b63f eec7 d8b4 aa8c c2bf
00000500: c6ed 295d 6b75 a33f b0cc ed2b d217 b3bf
00000510: 13f5 0d28 ceea c5bf d7bc 7e8d 7ca9 cf3f
00000520: 9814 e6f3 5ea0 d93f 36c0 c4e3 6967 c03f
00000530: d24a 45ad 40b6 b8bf 51e2 4e00 bb6d c03f
00000540: 070d 983b 92c6 dbbf ce7e 41e1 a2a5 c33f
00000550: f9b3 5191 254d babf f813 c8f5 9f1d d73f
00000560: 8fa7 f36f ad78 db3f b913 4b57 1de6 e8bf
00000570: 9279 2632 b504 bd3f 05ab 2e7a 2e5e c7bf
00000580: 742d 3703 d8c2 dabf ac04 7081 9c4a d4bf
00000590: 2917 3927 0093 c3bf a43a f8cb bb32 ca3f
000005a0: 6ad6 f7b0 1e30 ca3f 368e 2a22 ec22 a7bf
000005b0: a36f a350 6eb9 ebbf 4ce6 92b8 c9bf 7bbf
000005c0: 4566 bf9a be75 e23f 0577 125c fe35 d73f
000005d0: f8d5 1ae3 b821 d73f 55cb 6380 3607 c1bf
000005e0: c267 90f0 3d3a b33f a11f 0f2c 59c8 d1bf
000005f0: 958d d951 2c92 b0bf 93f3 3730 39e6 ecbf
00000600: 2d9c 1b57 7e40 ce3f 2638 09bf 83e2 c03f
00000610: 9ca2 8d3f b1d6 9a3f 8d0a f2c7 6411 c43f
00000620: 83e8 4a12 2262 d13f b3d1 1a49 e545 d2bf
00000630: 827c 6226 6c88 d6bf 0a3d 6fdf 4aa3 b0bf
00000640: 197b 6f1e 15e4 a53f 442c 7367 4ed4 a93f
00000650: 5961 80b2 bb22 d93f 3ede e6a3 101b c4bf
00000660: 9b02 a974 8fdd d43f 288a a745 e710 a8bf
00000670: b073 f50b f88a e13f cb81 0b4b 68d5 8f3f
00000680: 3957 0ca6 2327 8ebf 22d4 72f8 68e0 963f
00000690: c389 021d 63ff a63f 622b fd91 32ac a63f
000006a0: 7b66 a784 82e7 a2bf 2399 0ee9 5df8 b5bf
000006b0: 12de 4a68 ccdb a4bf 0bd6 6d43 365a cd3f
000006c0: d400 566f b678 d03f 9521 2162 bffa e1bf
000006d0: e253 6940 8f6c e3bf d723 6053 d388 c6bf
000006e0: acee aacb cde6 d8bf 51e7 f2a6 eaf1 ca3f
000006f0: a432 a2d8 d1ea 743f 6439 415e fed9 d3bf
00000700: c75c 39d4 20d8 e0bf 46d0 64c5 627a c4bf
00000710: c041 3bb5 b071 a5bf 7fdb c064 67c6 ce3f
00000720: cf6d 596a fb75 cf3f 125a 65b3 a56f a63f
00000730: 0fde 866f 0dc0 eabf 1baa 3213 e2c5 c83f
00000740: 2053 0335 5262 d0bf 2881 4612 34c0 c7bf
00000750: d629 851f c60b c4bf 4f62 098b ea0d c7bf
00000760: 639d 738a 70bf d3bf 0b27 0d45 6365 ce3f
00000770: 29bc fdd6 97e8 dc3f 5140 106d 1467 d2bf
00000780: cc20 d1dd 7ad3 cabf 4848 15ca d580 b0bf
00000790: 0798 bf4f c73c 5f3f 1097 3049 b31a b2bf
000007a0: 3f49 ba51 01f2 c73f 83ff 7e61 db41 b4bf
000007b0: dcc4 7b29 702b d4bf 0852 248b 8397 d03f
000007c0: 20ab 12bd 7258 9bbf e875 0ba6 d235 ebbf
000007d0: bfe4 46fd 465c c1bf 43b1 3baa ed07 b3bf
000007e0: 3bc6 ce2b b0ec a8bf c17c 37ff a8dc c13f
000007f0: ddd9 e0b0 4c13 b3bf ae1e 3582 0714 d5bf

transformer.encoder.layers.0.linear1.bias f8 [128]
0.03259513701999634 -0.235533517049964 -0.12011968467970653 -0.3145266528923436 -0.06449880848027795 -0.245248573787716 -0.1728788684036173 -0.4135498070766544
-0.3454443271655342 -0.4100930604607775 0.04837367871041891 -0.42603497020646486 -0.2434493649325427 -0.08067488746267955 0.010752101043792546 -0.25086452239321033
-0.21377509614507098 -0.16104606111802297 -0.24097416189748788 -0.09108976564522162 -0.3315753276184271 -0.37917112739812353 -0.02635230693371722 0.2209200075865329
0.02298436313713344 -0.09500792245051143 -0.3527585754214548 -0.6135621421132931 -0.4879223319475455 -0.3240623373021832 -0.5127854171878097 -0.035377548858954964
-0.25586503010700495 -0.23157252825408423 -0.13099746592791023 -0.10585176267196923 -0.1690702565863624 -0.30304980515123253 -0.16008319129058432 -0.2442894901448574
-0.02162988515363457 0.1703671095201748 -0.34269331797369873 0.07025758120564211 0.14064066887377719 -0.2920909454710158 -0.3374291816456791 -0.12858508343068584
-0.13420111165242946 -0.3097184038198263 -0.2661476562800791 -0.3672405937018434 -0.5186479727881822 -0.2535168441255425 -0.2952345662171414 -0.4088254527316633
-0.5153327116622276 -0.18006825555519448 -0.0862657224522026 -0.2539727805517275 -0.2943566639858144 0.0031835209106214645 -0.12258590227136237 -0.37778771793985516
-0.45779979292561956 -0.17116135363724502 -0.31590344664960157 0.12402914803404899 -0.43355606625347753 -0.1963253258526875 -0.11875893885799466 -0.12374117665834011
-0.11378368743600481 -0.34973210594554976 -0.202829218505386 0.031001255560766282 -0.06591959816428604 -0.31223801297132914 0.10938694623544234 -0.03232676422902847
-0.5103894457705342 -0.3792370300012849 -0.5104643858798474 -0.2767024332395727 -0.1595928379084284 -0.008278241587755494 -0.47496958474658146 -0.0749949241844295
-0.4291586003073476 -0.22767297887843077 -0.10497000926287883 -0.47667961867856273 0.03308084338907744 -0.3765879740722999 -0.37027555681323404 -0.07288115150311929
-0.4567392766004415 -0.1858907615045493 -0.060637926926975595 -0.28362976503964504 -0.10886235170090042 -0.1705804694344856 -0.12068762299916318 -0.0945827902291613
-0.1520587479377695 -0.2509734783008358 -0.2277757169740188 -0.26738741018675677 -0.2029344392633759 -0.540519353036674 -0.4627409184466673 -0.1833797155926059
-0.23806926416834648 -0.042532290957846136 0.00873500382448817 -0.2500213299094747 -0.18194400208480996 -0.08146137034157268 -0.4819975114828332 -0.28439426736961787
-0.09315082433546558 0.044275310568436595 -0.051984452177834435 -0.20694972184158758 -0.38950989536858127 -0.3028282835377341 0.037895933133673135 -0.2169620686009063
00000000: 39e0 044f 4fb0 a03f c2b4 6b58 f625 cebf
00000010: bd1f 4ee5 29c0 bebf 4026 f965 3421 d4bf
00000020: 4cc3 0d71 fe82 b0bf 7b89 e725 4e64 cfbf
00000030: 5f44 fb0e e520 c6bf 6553 2a9c 9977 dabf
00000040: bef0 f085 c21b d6bf bfb7 bff6 f63e dabf
00000050: d6cf 1850 6fc4 a83f 6e4d ff2d 2844 dbbf
00000060: ba01 4f4a 5929 cfbf 85bc 4203 1ca7 b4bf
00000070: 0461 c592 3205 863f aef3 d911 2a0e d0bf
00000080: 0d38 527b fb5c cbbf 3365 d346 289d c4bf
00000090: a0ee 43c8 3dd8 cebf de4f 72ac a851 b7bf
000000a0: 3a06 12b9 8738 d5bf 00cb f0f9 5644 d8bf
000000b0: 7460 d161 19fc 9abf a6e0 ce57 1b47 cc3f
000000c0: 9537 f97f 3689 973f 842d c96f 7052 b8bf
000000d0: 8b65 34b4 9893 d6bf ec16 ce12 4da2 e3bf
000000e0: 15fa ac96 1e3a dfbf 3101 25f5 6fbd d4bf
000000f0: d8fe 95f6 bc68 e0bf e344 b98e 011d a2bf
00000100: 21fa 1fb8 1760 d0bf 0b6d c029 2ba4 cdbf
00000110: be76 0264 86c4 c0bf 6d6a e6e2 1919 bbbf
00000120: 7fe3 611b 18a4 c5bf 01c2 8b02 2b65 d3bf
00000130: 5bbe 9d23 9b7d c4bf e2de 76c5 e044 cfbf
00000140: d185 6705 2526 96bf 7e02 dae5 96ce c53f
00000150: 124e 50f4 afee d5bf 2305 939d 66fc b13f
00000160: c274 a670 8300 c23f ea5d 9038 9eb1 d2bf
00000170: 4f97 f890 7098 d5bf 074b 0bdc 7975 c0bf
00000180: dd27 d184 802d c1bf ca07 d823 6dd2 d3bf
00000190: bc51 e82d 9008 d1bf 77a2 edb0 de80 d7bf
000001a0: d161 28a2 c398 e0bf 0547 a0b6 9e39 d0bf
000001b0: a049 a385 1fe5 d2bf 1550 503b 322a dabf
000001c0: 97be e406 9b7d e0bf 6923 5402 7a0c c7bf
000001d0: a4b1 b2a8 8215 b6bf 83ce a20c 1741 d0bf
000001e0: 6070 4b55 bdd6 d2bf 05e2 4fc6 5314 6a3f
000001f0: 7ac6 3429 ca61 bfbf 2775 5889 ac2d d8bf
00000200: 7aca ae80 974c ddbf f303 1b80 9de8 c5bf
00000210: 2470 0317 c337 d4bf 7296 8ece 5fc0 bf3f
00000220: 4ea1 62f1 61bf dbbf 95f8 f432 3021 c9bf
00000230: 44b4 805e fc66 bebf 7487 ea72 80ad bfbf
00000240: 041e 5b80 ed20 bdbf 136e 59c5 0262 d6bf
00000250: 0ab2 13ce 4ef6 c9bf 23df 120b cbbe 9f3f
00000260: 37f4 4756 1be0 b0bf 98e9 9125 b5fb d3bf
00000270: eac6 b06c c800 bc3f 5061 4c36 228d a0bf
00000280: 38db 393f 1c55 e0bf 8169 5264 6b45 d8bf
00000290: ac0d 6468 b955 e0bf a534 5f1f 7eb5 d1bf
000002a0: 310b bfc1 896d c4bf 4b35 1ac7 2ef4 80bf
000002b0: 7e33 45d4 e665 debf b5f5 bc0a de32 b3bf
000002c0: 1980 47a2 5577 dbbf fd9d 3b5f 6324 cdbf
000002d0: 2a4a d884 50df babf 353a 393b eb81 debf
000002e0: ddda f5e8 f8ef a03f 6f46 2d72 041a d8bf
000002f0: 8f58 c13f 98b2 d7bf 4b62 33d2 56a8 b2bf
00000300: c90b f35f 373b ddbf 9031 a5ba 44cb c7bf
00000310: d5e1 1832 ef0b afbf bb1d 4175 fd26 d2bf
00000320: 302e 5230 67de bbbf 4d5a c7b0 94d5 c5bf
00000330: e339 d051 62e5 bebf 0a76 cce6 9336 b8bf
00000340: 9751 bb3a a976 c3bf 05ca 5d10 f30f d0bf
00000350: 75f9 9c33 c127 cdbf ff4f 8715 e01c d1bf
00000360: 6224 ef75 c1f9 c9bf 15b9 043e ef4b e1bf
00000370: d0f6 cf15 8c9d ddbf bc29 9c8c fc78 c7bf
00000380: 2b96 e4bb 0d79 cebf 2c35 60dd cac6 a5bf
00000390: 648a 0d5e a8e3 813f 28df d076 5900 d0bf
000003a0: b72c 54e9 f049 c7bf 4b20 8101 a7da b4bf
000003b0: 289e 2417 0cd9 debf d16e 6103 8433 d2bf
000003c0: 95c3 1d80 bbd8 b7bf 81c7 d2e5 40ab a63f
000003d0: 5130 02c4 b49d aabf cdea 9c17 547d cabf
000003e0: 5ee4 84e9 baed d8bf e94b 86e1 8961 d3bf
000003f0: 72ca eb82 1867 a33f ed83 8ebe 69c5 cbbf
