experiments/Datasets/Base_transformer_model.pt (torch, 145293 bytes, 67 tensors)

weight f4 [16, 1]
0	0xbf5996a3	-0.8499548
1	0xc001739a	-2.0226808
2	0xbf39251d	-0.72322255
3	0xbffee770	-1.9914379
4	0x3fac392c	1.3454947
5	0x3fae8df4	1.3637071
6	0x3f2cfc5c	0.6757257
7	0x401a7757	2.413534
8	0xc04b4949	-3.176348
9	0x3fcb9fc4	1.5908132
10	0x4018f5bd	2.3899987
11	0xbf939f50	-1.1532993
12	0xbf6b74ae	-0.91974914
13	0xbf7fd84c	-0.9993942
14	0x3f847e1c	1.0350986
15	0x3f3aee5a	0.73019946

bias f4 [16]
0	0x3ee519d6	0.44746274
1	0x3eac5b71	0.33663514
2	0x3ddce010	0.10784924
3	0x3f0aecb3	0.54267424
4	0xbf5a4d5f	-0.8527431
5	0xbfa7c41f	-1.3106726
6	0xbea647b2	-0.32476574
7	0xbf906961	-1.1282159
8	0x3cde8a26	0.027165484
9	0xbf9acc68	-1.209363
10	0xbe1f063a	-0.15529719
11	0xbefc9757	-0.49334213
12	0x3de7b502	0.113138214
13	0xbf15c9c0	-0.5851097
14	0xbf1641e8	-0.58694315
15	0xbf8f761f	-1.1207923

in_proj_weight f4 [48, 16]
0	0xbdd28000	-0.1027832
1	0x3e85b979	0.26118067
2	0xbfa479db	-1.2849687
3	0x3e14bf7e	0.14526173
4	0xbd2cd45f	-0.04219472
5	0x3da404f4	0.08008757
6	0x3f981be8	1.1883516
7	0xbe96195a	-0.29316217
8	0x3f210d05	0.6291049
9	0xbf2f4081	-0.684578
10	0xbf17a719	-0.59239346
11	0xbf970ed0	-1.1801395
12	0x3e8bedcb	0.2732986
13	0xbf6cec5c	-0.92548156
14	0x3f2816b7	0.6565966
15	0xbf8b5c0e	-1.0887468
16	0xbe89ac47	-0.2688925
17	0xbe092bd4	-0.13395625
18	0xbf2a1558	-0.6643882
19	0x3e29e7a5	0.16592272
20	0xbd3744fb	-0.04474352
21	0x3d959f58	0.07305783
22	0x3fd87cbd	1.6913067
23	0xbdc84662	-0.097790495
24	0xbdea4388	-0.11438662
25	0x3f0885a9	0.5332895
26	0x3f5e3771	0.86803347
27	0xbf413d92	-0.75484574
28	0xbed5095e	-0.4160871
29	0xbf1e12d3	-0.61747473
30	0x3f2548f8	0.64564466
31	0x3d8d6eab	0.06905874
32	0x3dc677bd	0.09690807
33	0x3ec0a13f	0.3762302
34	0x3deafd63	0.11474111
35	0x3e73147d	0.23738284
36	0x3e1b01e2	0.15137437
37	0x3f055b3b	0.5209233
38	0x3e97b8e5	0.2963325
39	0xbdcba0c3	-0.09942772
40	0x3eb42495	0.3518416
41	0x3db407a7	0.08790522
42	0x3e0fc3d8	0.14039552
43	0xbe44dab5	-0.19224055
44	0xbed130c1	-0.4085751
45	0x3d8aa2aa	0.06769307
46	0x3f3748c4	0.71595407
47	0xbe9b1a8e	-0.30293697
48	0xbed2ca0c	-0.41169775
49	0x3e084621	0.13308002
50	0xbe55f7a9	-0.20895256
51	0x3e6597c5	0.22421177
52	0x3e477d4c	0.1948139
53	0xbd1bf518	-0.038075536
54	0xbf6715b8	-0.90267515
55	0xbf0fe1ee	-0.56204116
56	0x3e859776	0.26092118
57	0xbf1006b4	-0.5626023
58	0xbe16147a	-0.14656249
59	0x3f1a9d74	0.60396504
60	0x3ea851b4	0.32874835
61	0x3e8a1481	0.26968768
62	0xbe6d2eaa	-0.23162332
63	0x3e31dd51	0.17369582
64	0xbf254d89	-0.64571434
65	0xbde66ce6	-0.112512395
66	0x3efd7912	0.49506432
67	0x3ca0f797	0.01964931
68	0xbe551c89	-0.20811667
69	0xbea7c307	-0.32765982
70	0xbdd05c80	-0.10173893
71	0xbf803e1f	-1.0018958
72	0x3f81209e	1.0088079
73	0xbfdd0587	-1.7267312
74	0xbf89f7a7	-1.0778702
75	0x3e87bfb8	0.26513457
76	0x3ff6fe7e	1.9296415
77	0xbdd95f1b	-0.10613843
78	0xbd1ba3b7	-0.037997928
79	0xbf6bb49b	-0.9207246
80	0xbe7fc6dc	-0.24978203
81	0xbdcf1c2e	-0.10112797
82	0x3ee5f3c8	0.44912553
83	0xbe92ceff	-0.2867355
84	0x3e9b1240	0.3028736
85	0xbe9738bf	-0.2953548
86	0x3e884fd4	0.26623404
87	0xbea377f4	-0.31927454
88	0x3ebab578	0.36466575
89	0xbf765853	-0.9622852
90	0xbf060ec0	-0.52366257
91	0xbe51d968	-0.2049309
92	0x3f99438b	1.1973737
93	0x3d753c49	0.059871946
94	0xbda00eea	-0.07815345
95	0xbeb29f9a	-0.3488739
96	0x3f15d8f9	0.585342
97	0xbb873229	-0.0041258526
98	0x3f04b7d5	0.51843005
99	0xbe4678fa	-0.19382086
100	0x3e1aaa10	0.15103936
101	0x3e65bbf2	0.22434977
102	0x3eb77527	0.35831568
103	0xbe0435b7	-0.12911116
104	0x3b930b49	0.0044874293
105	0x3f0520f5	0.52003413
106	0xbe0bde60	-0.13659048
107	0x3e6b6cb9	0.22990693
108	0xbf54916b	-0.8303439
109	0xbec23cca	-0.37937003
110	0xbdd30e37	-0.10305446
111	0xbf08116f	-0.531516
112	0xbdd87c6a	-0.10570605
113	0xbcb0647f	-0.021532295
114	0xbef9200f	-0.4865727
115	0x3ee15cf9	0.44016245
116	0xbef30893	-0.4746748
117	0x3eea6601	0.45780948
118	0xbe82e20c	-0.25563085
119	0xbe721ed5	-0.23644574
120	0x3e283fd2	0.16430596
121	0xbf179d7b	-0.5922467
122	0xbf355f2b	-0.7084834
123	0x3c0c069a	0.008546496
124	0x3f5797d0	0.8421602
125	0x3e9ce4b7	0.30643246
126	0xbed97ce0	-0.42478085
127	0x3d05baf3	0.03264899
128	0x3ec5a569	0.3860276
129	0x3ebc9b01	0.3683701
130	0x3e8a1588	0.26969552
131	0xbe50a6fd	-0.20376201
132	0x3e53b838	0.20675743
133	0x3e711dbb	0.23546498
134	0x3f2fcc84	0.6867144
135	0xbdbb5a0a	-0.09148033
136	0x3ef29c14	0.47384703
137	0xbe7da2bb	-0.24769108
138	0x3ddf7428	0.10910827
139	0x3ec94afe	0.39315027
140	0x3e24bb68	0.16087115
141	0xbe29516f	-0.1653497
142	0x3e0752ff	0.13215254
143	0xbecf644e	-0.40506214
144	0x3f1f1c74	0.6215279
145	0xbec6978a	-0.3878749
146	0x3f02798e	0.5096673
147	0xbd58cf7c	-0.052932248
148	0x3dcddf57	0.10052364
149	0x3eebd305	0.46059433
150	0x3f6dbf78	0.92870283
151	0x3b05aeac	0.0020398302
152	0xbcb93e02	-0.022612575
153	0x3ebe88bb	0.37213692
154	0x3d73f519	0.059559915
155	0xbd7b2ad2	-0.061320134
156	0xbf773901	-0.96571356
157	0xbe8e217a	-0.27759916
158	0x3eee8eeb	0.46593413
159	0xbd172059	-0.036896084
160	0x3dc323cb	0.09528311
161	0xbe3222cf	-0.17396091
162	0xbf389643	-0.7210428
163	0x3d9b429f	0.07581066
164	0x3e630bdd	0.22172494
165	0x3f450588	0.76961565
166	0x3f1b207d	0.6059645
167	0xbe46912e	-0.19391319
168	0xbe2013bb	-0.15632527
169	0xbd6937c5	-0.05693795
170	0x3f036026	0.51318586
171	0xbf10bb84	-0.56536126
172	0xbea40125	-0.32032123
173	0xbf2d657d	-0.67732984
174	0x3f8a3f64	1.0800595
175	0xbeb88606	-0.36039752
176	0xbeb995ec	-0.36247194
177	0x3e2b0d5c	0.16704315
178	0xbe49b659	-0.19698466
179	0xbe2a7f6f	-0.16650175
180	0xbe5f0086	-0.21777543
181	0x3ec2ad4a	0.38022834
182	0x3f5de1f5	0.8667291
183	0xbe99c3c0	-0.30032158
184	0x3e40c019	0.1882328
185	0x3c42ede2	0.011897536
186	0x3db65133	0.08902206
187	0xbdcd666b	-0.100293
188	0xbe5d846f	-0.2163255
189	0xbf57d588	-0.843102
190	0x3fbd8239	1.4805366
191	0xbd2c5edf	-0.042082664
192	0xbec319b3	-0.38105544
193	0x3e230706	0.15920648
194	0xbd407c50	-0.046993554
195	0x3e79c8b9	0.24392976
196	0xbecea100	-0.40357208
197	0x3eff9e15	0.49925295
198	0xbed047e4	-0.40679848
199	0x3ebaa864	0.36456597
200	0xbe909762	-0.28240496
201	0x3ddcd465	0.107826985
202	0x3e3f0bcf	0.18656848
203	0xbaf924a9	-0.0019008118
204	0xbeab2b07	-0.33431265
205	0xbe51f8de	-0.20505092
206	0x3e871f9c	0.26391304
207	0x3eb5d3ab	0.35513052
208	0xbe52565b	-0.20540754
209	0xbec52432	-0.38504177
210	0xbb658478	-0.0035021584
211	0x3eea9aa8	0.45821118
212	0xbed2cc16	-0.4117133
213	0x3f11c222	0.5693685
214	0xbd862a91	-0.06551088
215	0xbe18dbd2	-0.14927605
216	0xbdd847c8	-0.10560566
217	0xbe9fe50b	-0.31229433
218	0xbef693b8	-0.48159575
219	0xbf088f60	-0.5334377
220	0x3ece38f1	0.40277818
221	0xbefc6282	-0.49293905
222	0x3ebdb801	0.37054446
223	0x3df7fbae	0.12108551
224	0xbf21415b	-0.6299035
225	0xbef1cd3a	-0.47226888
226	0xbeb69862	-0.35663134
227	0x3ed17c85	0.40915313
228	0x3e2a49c8	0.16629708
229	0xbf0c0556	-0.5469564
230	0x3fb0dfab	1.3818258
231	0xbeb0f1f6	-0.34559602
232	0x3e0d1d4a	0.13780704
233	0xbe11f948	-0.1425525
234	0xbef8ecb7	-0.486181
235	0x3db32e7b	0.087491
236	0x3e234ed3	0.15948038
237	0xbe2d4095	-0.16919167
238	0x3e994976	0.2993886
239	0xbc93106e	-0.01795217
240	0xbe06d443	-0.13166909
241	0xbf0e7c7f	-0.55658716
242	0xbcfb0500	-0.030642033
243	0x3d1d67cd	0.03842907
244	0x3e94acc2	0.29038054
245	0x3e8dc03c	0.27685726
246	0x3fb0be18	1.3808012
247	0xbf177aaa	-0.59171546
248	0x3f10f8a4	0.56629395
249	0xbde7cceb	-0.11318382
250	0xbebaa0b1	-0.36450723
251	0xbef5d07a	-0.48010617
252	0x3ef6225e	0.48073095
253	0xbf130a27	-0.57437366
254	0x3f23bf4e	0.6396378
255	0xbe883c5c	-0.2660855

in_proj_bias f4 [48]
0	0xbf9fe208	-1.2490854
1	0xbf3b638d	-0.7319878
2	0xbea3377f	-0.31878278
3	0x3dc40020	0.09570336
4	0xbdd9219c	-0.106021136
5	0xbc6409f1	-0.013918386
6	0xbba92b65	-0.0051626437
7	0x3d76d03c	0.06025718
8	0xbe5cf83c	-0.21579069
9	0xbefc51b1	-0.49281076
10	0xbf4b5f30	-0.7944212
11	0xbf60dade	-0.87833965
12	0xbe1aa589	-0.15102209
13	0xbeb602a6	-0.35548896
14	0xbe8f4215	-0.27980104
15	0xbf2beb79	-0.6715618
16	0x3a43f8cb	0.0007475733
17	0x3a359429	0.00069266796
18	0xb8b146cf	-8.453207e-05
19	0xb8a49706	-7.84826e-05
20	0x38ea78e7	0.00011180509
21	0xb8042088	-3.150155e-05
22	0xb92d6274	-0.00016535242
23	0xb825b3ed	-3.9506634e-05
24	0x37e13341	2.6845957e-05
25	0xb810e1ba	-3.45425e-05
26	0x3a171dcb	0.00057646324
27	0x3940e4f8	0.00018395844
28	0x3a046087	0.0005049784
29	0xb9c4898a	-0.00037486508
30	0xb80fad80	-3.425544e-05
31	0xb9857913	-0.00025457944
32	0x3d844fc8	0.064605296
33	0xbddfcb48	-0.10927445
34	0x3d85c0a9	0.06530888
35	0x3dceb63f	0.100933544
36	0xbd472dc8	-0.048627645
37	0xbc4b91b4	-0.012424875
38	0x3db583bb	0.08863016
39	0x3de6f98a	0.112780645
40	0xbc9fde73	-0.019515252
41	0x3d7d3f4c	0.061827943
42	0xbd59da0b	-0.053186458
43	0xbbabad70	-0.005239181
44	0x3c03ef4c	0.008052658
45	0xbabe6bc7	-0.001452797
46	0x3d6f9eb8	0.058500975
47	0x3d39b6bf	0.045340296

weight f4 [16, 16]
0	0x3e028648	0.12746537
1	0xbdaac20e	-0.08337794
2	0x3c8fb128	0.01754053
3	0xbc311619	-0.010808491
4	0x3d8cfc7a	0.068840936
5	0x3e75289a	0.2394127
6	0xbccd3364	-0.025048919
7	0xbe0499ab	-0.12949245
8	0x3d8cac5b	0.06868812
9	0x3d709d9b	0.058744054
10	0xbea8c322	-0.32961375
11	0xbe4997b8	-0.19686782
12	0x3bc0132a	0.0058616595
13	0xbd096a21	-0.033548478
14	0xbec31950	-0.3810525
15	0xbc450f41	-0.012027563
16	0xbe1a1280	-0.1504612
17	0xbe6b7638	-0.22994316
18	0xbd5fdcab	-0.054653805
19	0xbd57ee9e	-0.052717797
20	0xbd472e85	-0.04862835
21	0x3cb42cf0	0.021994084
22	0x3db3c00f	0.08776867
23	0x3c7881d4	0.015167672
24	0xbd26929f	-0.040667173
25	0x3d2c1cfe	0.042019837
26	0xbd109b6f	-0.035304483
27	0x3e6a0553	0.22853594
28	0xbd5e21dd	-0.054231513
29	0x3ca58b28	0.020207956
30	0xbcf09d7d	-0.029371971
31	0xbe198c49	-0.14994921
32	0xbe8fd4a4	-0.2809192
33	0x3d68a866	0.056801222
34	0xbd38fd6c	-0.045163557
35	0x3d10cc02	0.035350807
36	0xbe130403	-0.14356999
37	0xbd2e1596	-0.042501055
38	0x3cf2b1c4	0.02962578
39	0xbd39a014	-0.045318678
40	0x3d8ffb4e	0.070303544
41	0x3c7501a2	0.014954003
42	0xbe25de50	-0.16198087
43	0xbe209020	-0.1567998
44	0xbc10bc09	-0.008833894
45	0xbcbda2db	-0.023148945
46	0x3ce6ebf7	0.028188689
47	0x3e1cd2c6	0.15314779
48	0x3e2c091e	0.16800353
49	0xbe6a7507	-0.22896205
50	0x3e39f556	0.18159994
51	0xbddbcabd	-0.10732029
52	0xbe4796db	-0.1949114
53	0xbe02ff63	-0.12792735
54	0x3e61a356	0.22034964
55	0x3e6a0cc4	0.22856432
56	0x3e146cad	0.14494582
57	0xbe2d5dd4	-0.16930324
58	0xbd1ca169	-0.03823987
59	0xbd81909c	-0.0632641
60	0x3e04f9c0	0.12985897
61	0xbdaa7e80	-0.08324909
62	0xbe880e59	-0.26573446
63	0xbdc216e4	-0.09477022
64	0xbec121db	-0.37721142
65	0xbe09ab28	-0.13444197
66	0x3de833d7	0.11338013
67	0xbe410b8f	-0.18852066
68	0xbea3feae	-0.32030243
69	0xbcec1879	-0.028820263
70	0x3c0d9941	0.008642496
71	0xbdefe4f6	-0.11713593
72	0xbce316e4	-0.027720876
73	0x3ca31b81	0.019910576
74	0xbd661844	-0.056175485
75	0xbea4da2e	-0.32197708
76	0x3d2a7ae2	0.041621096
77	0x3d05d155	0.032670338
78	0x3e830306	0.25588244
79	0xbe08c86a	-0.13357702
80	0xbcdd233a	-0.026994336
81	0x3cdace4c	0.026709698
82	0xbd14caad	-0.0363261
83	0xbc65659c	-0.014001276
84	0xbcd3c364	-0.025850005
85	0x3d9a8556	0.07544963
86	0x3d17cdf9	0.037061665
87	0x3c41fd28	0.011840142
88	0x3d9f3b7e	0.07775019
89	0x3d5edce9	0.054409895
90	0xbc75f774	-0.015012611
91	0xbd5c2c0b	-0.05375294
92	0xbd9fba61	-0.07799221
93	0xbacbe7b1	-0.001555672
94	0xbe0b949e	-0.13630912
95	0x3c4b746a	0.012417892
96	0x3c540e98	0.012942933
97	0x3ec891e2	0.391738
98	0xbc75bd94	-0.014998812
99	0xbd73493c	-0.059396014
100	0x3d1bbab0	0.038019836
101	0xbc88869d	-0.016665751
102	0x3d5d1d19	0.053982828
103	0xbe79d6ef	-0.24398397
104	0xbd048be1	-0.03235996
105	0xbbf5eb87	-0.0075048837
106	0xbcbd3c3b	-0.02310001
107	0xbdb45b0d	-0.08806429
108	0x3d7e0a10	0.062021315
109	0xbd0f2dd4	-0.034955814
110	0x3b91cbb8	0.004449334
111	0xbd4c9368	-0.049945265
112	0x3dfe4a01	0.12416459
113	0x3d9b10e2	0.075715795
114	0x3cd29b16	0.025708716
115	0xbd806dee	-0.062709674
116	0x3e170d09	0.14751066
117	0xbd94e3ec	-0.07270035
118	0x3d5c6d8b	0.053815406
119	0xbbcb7a42	-0.0062096426
120	0xbd533b38	-0.051570147
121	0x3db1b37e	0.086768135
122	0x3cf8684d	0.030323172
123	0x3dc19b5c	0.094534606
124	0xbd70396c	-0.05864851
125	0xbb7f2b43	-0.0038935698
126	0xbda5f85b	-0.08104011
127	0x3d1eaaef	0.038737234
128	0x3d2a677b	0.041602593
129	0x3c90f154	0.0176932
130	0xbd349469	-0.044086847
131	0xbc9cb82a	-0.019130785
132	0x3d1e50c7	0.038651254
133	0xbb13e8c8	-0.0022569168
134	0x3c263180	0.010143638
135	0x3c300cfe	0.010745285
136	0xbadad30c	-0.0016694977
137	0xbb6582a9	-0.0035020506
138	0x3906b813	0.00012847809
139	0x3b04fec3	0.0020293451
140	0xbb20d904	-0.0024543414
141	0xbca3661d	-0.019946152
142	0xbc70d423	-0.014699015
143	0x3cd94749	0.02652325
144	0xbe6e7a7d	-0.23288913
145	0x3de1dac2	0.11028053
146	0xbd8967e7	-0.06709271
147	0x3d13aa59	0.036051128
148	0x3d8dcedd	0.06924222
149	0x3e51ff81	0.20507623
150	0xbbd3e6d0	-0.006466724
151	0x3e5bc031	0.21460034
152	0x3d53b3bc	0.05168508
153	0x3c70b3e9	0.014691331
154	0x3e624253	0.22095613
155	0x3d17287d	0.036903847
156	0xbd2f3272	-0.042772718
157	0xbd1f017c	-0.038819775
158	0x3de47327	0.11154776
159	0xbcc1e03a	-0.02366649
160	0xbce8b76a	-0.028407771
161	0x3ca9d362	0.020730678
162	0xbd73ca24	-0.05951895
163	0xbd2cb205	-0.04216196
164	0xbb9bec9a	-0.0047584297
165	0x3bb808a1	0.005616263
166	0x3b4e0481	0.003143579
167	0x3b5b64fe	0.0033476944
168	0x3be512f5	0.0069907852
169	0xbd26da62	-0.04073561
170	0x3a468c9d	0.00075740536
171	0xbd4afaed	-0.049555708
172	0xbc41033f	-0.011780559
173	0xbc833228	-0.016015127
174	0x3d372104	0.04470922
175	0xbb13e59a	-0.0022567273
176	0x3e477bad	0.19480772
177	0x3d92d766	0.0716999
178	0xbd74b684	-0.059744373
179	0xbda1f261	-0.07907558
180	0x3db20d00	0.08693886
181	0xbe20b860	-0.15695333
182	0x3bfcb631	0.0077121486
183	0xbdc04a27	-0.093891434
184	0x3b6446e2	0.0034832289
185	0xbb8b9389	-0.004259531
186	0xbbb2260c	-0.0054366644
187	0x3e9582e9	0.2920144
188	0xbba65108	-0.0050755776
189	0xba0431ec	-0.00050428393
190	0x3dea5a37	0.11442988
191	0xba397848	-0.0007075113
192	0xbc0ec0eb	-0.008712987
193	0x3ca48cfa	0.020086754
194	0xbc2f7331	-0.010708616
195	0xbca81880	-0.020519495
196	0x3de822f2	0.1133479
197	0xbc96d6f9	-0.018413054
198	0x3c718f98	0.014743708
199	0xbc37ea8c	-0.011225354
200	0x3d581bef	0.052761015
201	0x3da303d5	0.07959715
202	0xbc0f4309	-0.00874401
203	0x3d539efe	0.0516653
204	0xbcb56256	-0.022141617
205	0xbd86a3a1	-0.065741785
206	0x3b89be1c	0.004203571
207	0xbd24ae01	-0.040205006
208	0x3c8c8d7b	0.017157307
209	0x3e8368c6	0.25665873
210	0xbced47b1	-0.02896485
211	0x3e006652	0.12539032
212	0xbe1ecb9a	-0.15507355
213	0xbe4b9745	-0.19881923
214	0xbd7492c2	-0.05971027
215	0x3daaf00d	0.08346567
216	0xbd42bb5e	-0.04754197
217	0x3b8d0afb	0.0043042875
218	0x3cf83c10	0.030302078
219	0x3e0c346a	0.1369187
220	0x3d7420f8	0.059601754
221	0x3ccb00cf	0.024780659
222	0xbd8ac8d2	-0.06776585
223	0x3e1cd99f	0.15317391
224	0xbdd85077	-0.105622225
225	0x3dfc0e69	0.12307436
226	0xbe2270e6	-0.1586338
227	0xbd3652ff	-0.044512745
228	0xbe0e2a18	-0.13883245
229	0xbe511f8c	-0.2042219
230	0x3aa316fa	0.0012442761
231	0xbccb8d33	-0.024847602
232	0xbdc03cbc	-0.09386584
233	0xbd81b9b0	-0.06334245
234	0xbe09b7e3	-0.13449053
235	0xbdbad9d3	-0.09123578
236	0x3be2b69d	0.006918742
237	0x3d7cf5c3	0.061757814
238	0x3e316a82	0.17325786
239	0x3d346b03	0.044047367
240	0x3e7ffa01	0.24997713
241	0xbe15a89e	-0.14615104
242	0x3d5c8172	0.053834386
243	0xbda707f9	-0.081558175
244	0xbec0544b	-0.3756431
245	0x3f029da9	0.5102182
246	0xbe17504e	-0.14776728
247	0xbceeab32	-0.029134367
248	0xbdc5230b	-0.096258245
249	0x3d7a9e0a	0.061185874
250	0xbd91a118	-0.07110804
251	0x3e8891f7	0.26673862
252	0xbd7d3459	-0.0618175
253	0xbd913644	-0.070904285
254	0xbeedf8e7	-0.4647896
255	0xbc6e1bcc	-0.0145329945

bias f4 [16]
0	0xbceca360	-0.028886497
1	0x3c8b9c62	0.017042343
2	0x3b836c6f	0.004010729
3	0xbcfa8609	-0.030581491
4	0x3ddfc075	0.1092538
5	0xbc97d1a4	-0.018532582
6	0xbc2e8d2d	-0.010653776
7	0x3cdf6f01	0.02727461
8	0xbc84e989	-0.01622464
9	0x3d0d5986	0.034509204
10	0x3c864020	0.016387999
11	0x3e0eb38d	0.1393568
12	0x3ccfe493	0.025377547
13	0x3e8ae25f	0.27125832
14	0xbe89c4eb	-0.2690805
15	0x3da155cf	0.07877695

weight f4 [128, 16]
0	0x3ce562cf	0.028001217
1	0x3e3b97ea	0.1831967
2	0xbf40e395	-0.7534726
3	0x3f3339d7	0.7001013
4	0xbf39a7a5	-0.7252143
5	0x3fa460d8	1.2842054
6	0xbf160a06	-0.58609045
7	0x3e4438e6	0.1916233
8	0xbd9bd61b	-0.07609197
9	0x3e6fc38c	0.23414439
10	0x3e0cb9f5	0.13742812
11	0xbf1f21f9	-0.62161213
12	0xbd9929a7	-0.07478648
13	0xbf87579e	-1.0573614
14	0x3d530122	0.051514752
15	0x3e4a5adf	0.19761227
16	0xbe8cf9af	-0.27534243
17	0xbdb8a8b0	-0.090165496
18	0xbef13956	-0.47114056
19	0xbe116ec6	-0.14202413
20	0xbe15856d	-0.14601679
21	0x3f93f0d9	1.1557876
22	0x3e97777a	0.2958334
23	0xbcfe0af9	-0.031011092
24	0xbd74501c	-0.05964671
25	0xbe224cfc	-0.1584968
26	0xbce73048	-0.028221264
27	0xbf4cfb25	-0.80070716
28	0x3db62b5a	0.088949874
29	0xbfca93d8	-1.5826368
30	0x4002dd6c	2.0447645
31	0x3dc583ba	0.096442655
32	0x3e988192	0.29786354
33	0x3f165adf	0.5873241
34	0x3dc912cb	0.098180376
35	0x3d23f651	0.040029828
36	0xbdbf108f	-0.0932933
37	0xbe5327b6	-0.20620617
38	0x3d6ea162	0.058259375
39	0xbe58be6b	-0.21166389
40	0x3f2f29d0	0.68423176
41	0xbed2751c	-0.41104972
42	0xbf653e44	-0.89548135
43	0x3d817d92	0.06322779
44	0x3dc992ec	0.09842476
45	0xbe457ea8	-0.19286597
46	0x3de71192	0.11282648
47	0x3d92ee27	0.0717433
48	0x3e48fe9a	0.19628373
49	0x3e63e88d	0.2225668
50	0xbd8c24e0	-0.06842971
51	0x3f42c3bd	0.7607992
52	0xbf9eaef7	-1.2397145
53	0x3e37d264	0.17951351
54	0xbe3f744f	-0.18696712
55	0x3e5d42f6	0.21607575
56	0x3ec8159e	0.39078993
57	0xbe20b035	-0.15692218
58	0xbecf3e7c	-0.4047736
59	0x3cfe60b9	0.03105198
60	0x3ef9f5e2	0.48820406
61	0x3d4a8737	0.049445357
62	0x3ddbf661	0.107403524
63	0xbf500c30	-0.81268597
64	0xbeb23ba8	-0.3481114
65	0xbd957140	-0.07296991
66	0x3edc38a8	0.43011975
67	0x3f819d04	1.0126042
68	0xbf57a32a	-0.84233344
69	0x3ea16763	0.3152419
70	0xbf8a4382	-1.0801852
71	0xbed8e03b	-0.42358574
72	0x3db4d2e6	0.08829288
73	0x3ce4c4c6	0.02792586
74	0xbeee6c33	-0.46566924
75	0x3e64534a	0.22297397
76	0x3f6792c8	0.90458345
77	0x3e9bcdc5	0.30430427
78	0xbd0b9c5c	-0.034084663
79	0xbf8d167a	-1.1022484
80	0xbf17ae7e	-0.5925063
81	0x3e3f9c7e	0.18712041
82	0xbebbc72c	-0.36675394
83	0xbc21a9fb	-0.009867187
84	0x3e166e7f	0.14690588
85	0x3e56e6f6	0.20986542
86	0xbd7fbe59	-0.06243739
87	0x3d722a63	0.059122454
88	0x3d936518	0.071970165
89	0xbeca8137	-0.39551708
90	0xbd7362ae	-0.05942028
91	0x3ee7e5f3	0.45292625
92	0x3e421098	0.18951643
93	0xbdca749e	-0.09885524
94	0x3f02d687	0.5110859
95	0xbd920765	-0.07130317
96	0xbe011dd2	-0.12609032
97	0xbd6fab16	-0.05851277
98	0xbbab5474	-0.0052285735
99	0x3db5a0f2	0.088685885
100	0xbe46e29a	-0.19422379
101	0xb9d155d9	-0.00039927548
102	0x3eb41970	0.35175657
103	0xbe531b93	-0.20615987
104	0x3e6bbf04	0.23022085
105	0xbe375d6b	-0.1790673
106	0xbea0d7ce	-0.31414646
107	0xbe8b14e9	-0.2716439
108	0x3dedeb96	0.116172
109	0xbed1abc3	-0.40951356
110	0x3e4986dd	0.19680353
111	0xbe699fbd	-0.22814842
112	0x3ef25ec8	0.47337937
113	0x3eae8312	0.34084374
114	0xbf15cba6	-0.5851387
115	0x3f4e73a9	0.80645233
116	0xbf8e7f10	-1.1132526
117	0x3f2df0fd	0.67945844
118	0xbf7c91f5	-0.9866021
119	0xbc60e9eb	-0.013727645
120	0xbe7165b5	-0.23573954
121	0x3dd0606c	0.10174641
122	0x3e3d9443	0.18513589
123	0xbd4c4bb6	-0.04987689
124	0xbef32707	-0.47490713
125	0xbf20addf	-0.62765306
126	0x3e0c8390	0.13722062
127	0x3ee98f54	0.45617163
128	0xbf16a10d	-0.58839494
129	0xbeaf1281	-0.34193805
130	0x3d849673	0.064740084
131	0x3d1a0aa8	0.03760782
132	0xbbabef26	-0.0052470146
133	0x3f92a289	1.1455852
134	0x3d8e71f5	0.06955329
135	0x3eaff248	0.34364533
136	0xbc625b46	-0.013815707
137	0x3e8fd913	0.28095302
138	0x3e8900cd	0.26758423
139	0xbf12a15f	-0.5727748
140	0x3d96f45c	0.073708266
141	0xbf91d6b5	-1.1393648
142	0x3fd34bfd	1.6507565
143	0xbe582e04	-0.21111304
144	0xbe527fe3	-0.20556597
145	0x3f824fd1	1.0180608
146	0x3e6ef741	0.23336507
147	0xbdf037bc	-0.117293805
148	0xbd6a9714	-0.057272986
149	0x3ee67d2d	0.45017377
150	0xbe230226	-0.15918788
151	0xbe002c9c	-0.12517017
152	0xbe6bdb69	-0.23032917
153	0x3e0f793a	0.14011088
154	0xbcffb06a	-0.03121205
155	0xbf0ba4c7	-0.54548305
156	0xbf29b992	-0.6629878
157	0xbef57dbf	-0.479475
158	0xbd98cf18	-0.07461375
159	0xbdfc4531	-0.12317885
160	0x3e85eedb	0.26158795
161	0xbd518219	-0.05114946
162	0xbf3aca4b	-0.72964925
163	0x3f01c605	0.5069278
164	0xbef4a3d5	-0.47781244
165	0x3fa4b268	1.2866945
166	0xbdf6c1e9	-0.12048704
167	0xbdad6f59	-0.084685035
168	0xbd7b76d7	-0.06139263
169	0x3d95ee07	0.07320791
170	0xbc25e491	-0.010125295
171	0xbf212125	-0.629412
172	0xbe1753df	-0.14778088
173	0xbfb9c7bc	-1.4514079
174	0x3f0828d2	0.53187287
175	0x3eff3b36	0.49849862
176	0xbe181dd4	-0.14855129
177	0x3f167da8	0.58785486
178	0xbe931690	-0.2872815
179	0xbea6f5ec	-0.32609499
180	0xbe8b023e	-0.27150148
181	0x3f020db7	0.5080218
182	0xbe735ee3	-0.23766665
183	0xbe6eddf0	-0.2332685
184	0x3e8527d6	0.26006955
185	0x3e896bc0	0.2684002
186	0x3e7e7ecb	0.24853055
187	0xbedb8dc3	-0.42881593
188	0xbecd5c85	-0.4010965
189	0xbf32f5da	-0.6990639
190	0xbc896b3f	-0.016774772
191	0xbeb78f74	-0.35851634
192	0xb90ac599	-0.00013234316
193	0x3ec44bcd	0.3833908
194	0xbdf952d4	-0.12174001
195	0x3e823d65	0.25437465
196	0xbf06b5ee	-0.5262135
197	0x3e6349e0	0.2219615
198	0xbf482e02	-0.781952
199	0xbecde11d	-0.4021081
200	0x3e957554	0.29191077
201	0x3ecd796f	0.4013171
202	0x3ccfb227	0.025353504
203	0x3e352365	0.17689283
204	0xbe34f5be	-0.17671868
205	0x3e8c1849	0.27362278
206	0xbe01bf2a	-0.1267058
207	0xbedd6859	-0.43243673
208	0x3c7099c2	0.014685096
209	0x3e069f2b	0.13146655
210	0x3dc86f9b	0.09786912
211	0x3e217b27	0.15769635
212	0xbf0cef39	-0.55052525
213	0xbe58fcaf	-0.21190141
214	0xbefb01c2	-0.4902478
215	0xbf8069de	-1.0032308
216	0x3fb7ecdd	1.436916
217	0xbd121cdd	-0.035672057
218	0xbfb4ebed	-1.4134499
219	0xbe084d51	-0.13310744
220	0x3d1a728e	0.037706904
221	0xbda72dc6	-0.081630275
222	0x3dfe7b8a	0.12425907
223	0xbe944939	-0.28962114
224	0xbe1be7d7	-0.15225159
225	0x3d597586	0.053090595
226	0x3f1e60a8	0.61866236
227	0x3ea3d845	0.32000938
228	0xbee1ce71	-0.44102815
229	0x3f5b7496	0.8572477
230	0xbf1f2af8	-0.6217494
231	0x3e60bf45	0.21947964
232	0xbe98c91d	-0.29840937
233	0xbe442bb7	-0.19157301
234	0xbe8d619b	-0.2761353
235	0xbf5930ba	-0.84839976
236	0xbef08f7a	-0.46984464
237	0xbec258f5	-0.37958494
238	0xbda48973	-0.08034029
239	0x3e7d7048	0.24749863
240	0xbe58bb92	-0.21165302
241	0x3ebae782	0.3650475
242	0xbe2ba58e	-0.16762373
243	0x3ec68525	0.38773456
244	0xbedd153d	-0.43180266
245	0xbde7fe97	-0.11327856
246	0xbe883552	-0.2660318
247	0xbf0dbf77	-0.5537028
248	0x3fc0390d	1.501741
249	0xbecc7cad	-0.3993887
250	0xbfacdb0a	-1.3504345
251	0x3d9eadab	0.07747968
252	0xbb734b81	-0.0037123861
253	0xbbf5cb6e	-0.0075010573
254	0x3de3d7ff	0.11125182
255	0xbe3920ca	-0.18078914

bias f4 [128]
0	0xbd7557b3	-0.05989809
1	0xbec3dbea	-0.3825372
2	0xbd534fbb	-0.05158971
3	0xbe630940	-0.22171497
4	0x3dcbef61	0.09957767
5	0xbe7ca0be	-0.24670693
6	0xbe90bdcd	-0.28269807
7	0xbedb78ac	-0.42865503
8	0xbd7c1722	-0.0615455
9	0xbe42dcc8	-0.19029534
10	0xbe05c4c1	-0.13063337
11	0xbe9a5e88	-0.30150247
12	0xbded6e00	-0.115932465
13	0xbd4284d0	-0.04748994
14	0xbde20b8e	-0.1103736
15	0xbdd7fcf4	-0.10546294
16	0xbe1b2d9d	-0.15154119
17	0x3d1c1fff	0.03811645
18	0xbe947f51	-0.29003385
19	0xbdca8618	-0.098888576
20	0xbebd43c6	-0.3696577
21	0xbde2f2b7	-0.110814504
22	0x3d08b2c4	0.03337361
23	0xbe088bc4	-0.13334566
24	0xbe3e35bf	-0.1857519
25	0xbea77f99	-0.32714537
26	0xbec6d4de	-0.3883428
27	0xbf145047	-0.57934994
28	0xba73ac87	-0.0009295423
29	0xbf0aacc5	-0.54169875
30	0xbefe68c4	-0.49689305
31	0xbe0a0e73	-0.13482074
32	0xbeea8aa4	-0.458089
33	0xbd8f932c	-0.07010493
34	0xbdad043f	-0.084480755
35	0x3e05f8c4	0.13083178
36	0xbec1d398	-0.37856746
37	0xbef7397d	-0.48286048
38	0xbe2a1909	-0.16611113
39	0xbf13f3f9	-0.5779415
40	0xbe2a5a99	-0.16636123
41	0xbf0b4f44	-0.54417825
42	0xbeafbb86	-0.34322757
43	0xbea37cf2	-0.31931263
44	0xbdef3eb7	-0.11681884
45	0xbe3fbb6a	-0.18723837
46	0xbecea029	-0.40356568
47	0xbdfa913d	-0.12234733
48	0x3dd50f8a	0.104033545
49	0xbd844c66	-0.06459884
50	0xbbf6b81b	-0.0075292713
51	0xbe7420c1	-0.2384062
52	0xbefef1c1	-0.4979382
53	0x3bdffa64	0.006835269
54	0xbef2157b	-0.47282013
55	0xbe62e61b	-0.22158091
56	0xbe7e285b	-0.24820082
57	0xbe075b72	-0.13218477
58	0xbd9a810d	-0.07544146
59	0xbeded684	-0.43523037
60	0xbd854a48	-0.06508309
61	0x3e4034f4	0.187702
62	0xbdb044e4	-0.0860689
63	0xbe9d7ae8	-0.30757833
64	0xbf2a84db	-0.6660897
65	0xbdd57a9b	-0.10423776
66	0xbf0d81d6	-0.5527624
67	0x3e5980d0	0.21240544
68	0xbee50b70	-0.4473529
69	0xbed22c8f	-0.4104962
70	0x3d91c622	0.07117869
71	0xbeaa2f58	-0.33239245
72	0xbe93b8da	-0.28851968
73	0xbee09bee	-0.43868965
74	0xbe203be2	-0.15647843
75	0x3e28b36f	0.16474698
76	0xbee0ffda	-0.439452
77	0xbda207a6	-0.07911615
78	0xbe10d273	-0.1414278
79	0x3d863ec3	0.065549396
80	0xbf4c17ed	-0.7972401
81	0xbe1a75c5	-0.15083988
82	0xbe47f730	-0.19527888
83	0xbef78469	-0.48343208
84	0x3db9543b	0.09049269
85	0x3e014eaf	0.12627672
86	0xbece7f92	-0.40331703
87	0xbe63c51c	-0.2224316
88	0xbee49318	-0.44643474
89	0xbcf3193f	-0.029675124
90	0xbecbf30d	-0.3983387
91	0xbea4351c	-0.3207177
92	0xbe709f61	-0.23498298
93	0xbf1e2458	-0.61774206
94	0xbe3aea22	-0.18253377
95	0xbe7e70bf	-0.24847697
96	0xbe6e1c48	-0.23252976
97	0xbd00d8b4	-0.031456664
98	0xbed8133d	-0.42202178
99	0xbf666ca4	-0.9000952
100	0xbde934b5	-0.11387006
101	0xbdb19fb8	-0.08673042
102	0x3d587d95	0.05285414
103	0x3da4fa33	0.08055534
104	0x3d025a53	0.03182442
105	0xbe67665b	-0.2259764
106	0x3e74842b	0.23878543
107	0xbe83edd6	-0.25767392
108	0xbee38d99	-0.44443968
109	0xbf1fb493	-0.6238491
110	0xbe178b47	-0.14799224
111	0xbd7405ba	-0.059575774
112	0xbea870d6	-0.32898587
113	0x3b9f3c67	0.0048594954
114	0x3d3279c7	0.043573167
115	0xbdde434c	-0.108526796
116	0xbd89405f	-0.06701731
117	0xbe212f90	-0.157408
118	0xbedfe506	-0.4372942
119	0xbe581f69	-0.21105732
120	0x3cce12c3	0.02515543
121	0xbf0ac3a1	-0.54204756
122	0xbe93fa9e	-0.28902143
123	0xbe9c825a	-0.305682
124	0xbf04aaf7	-0.5182337
125	0xbddca309	-0.10773284
126	0xbd979f4f	-0.074034326
127	0xbf1ded03	-0.61689776

weight f4 [16, 128]
0	0x3f2d4b1a	0.6769272
1	0x3c660845	0.014040058
2	0xbd6022ac	-0.054720566
3	0x3ddf6916	0.109087154
4	0xbdc788e6	-0.09742908
5	0x3d9d85df	0.076915495
6	0xbe8dcc6f	-0.27695033
7	0x3ee23c59	0.44186667
8	0x3de23074	0.11044398
9	0xbdd766c0	-0.10517645
10	0x3eb3b332	0.35097653
11	0x3da10dbc	0.07863948
12	0x3ea749e7	0.3267357
13	0x3c94a079	0.018142926
14	0xbd43e028	-0.047821194
15	0x3d45efa0	0.048324227
16	0x3f0017d0	0.50036335
17	0xbe82c546	-0.25541133
18	0xbde1f695	-0.1103336
19	0xbc95d9d0	-0.018292338
20	0x3d8a65b8	0.067576826
21	0xbe6622c7	-0.22474204
22	0x3e1e31eb	0.1544873
23	0xbde2afff	-0.11068725
24	0x3eb6f554	0.35734046
25	0xbe03cb81	-0.128706
26	0x3d973c3f	0.07384538
27	0xbe00d47a	-0.12581053
28	0x3da0f8d6	0.07859962
29	0xbcfa5dd3	-0.030562317
30	0x3db70641	0.0893674
31	0xbe4567e1	-0.19277908
32	0xbe611e09	-0.21984114
33	0xbe6e58bf	-0.23276041
34	0xbc8687a3	-0.016422099
35	0x3ecc05f3	0.3984829
36	0x3e2c485a	0.16824475
37	0xbe3bcc91	-0.18339755
38	0x3cea40a8	0.028595284
39	0xbe485334	-0.1956299
40	0x3e70ff2f	0.23534845
41	0xbe367313	-0.17817335
42	0xbdb69e8c	-0.08916959
43	0x3e816fa9	0.25280502
44	0x3d53749e	0.051624887
45	0xbf4a65ed	-0.79061776
46	0x3c1c934d	0.009556604
47	0xbde0651f	-0.10956787
48	0xbdbf65df	-0.09345602
49	0xbb8ca61e	-0.0042922636
50	0xbdf0e5f4	-0.1176261
51	0xbdde1287	-0.108433776
52	0xbde966bd	-0.11396549
53	0xbe5c4d27	-0.21513806
54	0x3e03430b	0.12818544
55	0xbdab1120	-0.08352876
56	0xbd18524d	-0.037187863
57	0xbed6ec0a	-0.4197696
58	0x3d53be72	0.051695295
59	0xbd45745d	-0.048206676
60	0x3ec8a1f3	0.39186057
61	0xbce93e1c	-0.028471999
62	0x3e5793a6	0.21052417
63	0x3e48d983	0.19614224
64	0xbc2d2424	-0.010567699
65	0xbe6b7596	-0.22994074
66	0x3dfe91b7	0.12430137
67	0x3ddbe691	0.107373364
68	0x3e804591	0.25053075
69	0x3de2f9b8	0.11082786
70	0xbd105e38	-0.035246104
71	0x3e8f3beb	0.279754
72	0xbe339473	-0.17537098
73	0xbe9aac73	-0.30209693
74	0x3e8a66d6	0.27031583
75	0x3dc63314	0.09677711
76	0xbdfbe5a4	-0.1229966
77	0xbe08d4f4	-0.13362485
78	0x3ed4bf59	0.41552237
79	0x3b82841d	0.0039830343
80	0xbd6e7837	-0.058220115
81	0x3e3e75f7	0.18599688
82	0xbd5aa76a	-0.053382315
83	0xbd9a0ab2	-0.07521571
84	0xbdcef8e5	-0.101060666
85	0x3d8f0b7a	0.06984611
86	0x3de3a464	0.111153394
87	0xbed3a7c0	-0.4133892
88	0xbd90f1e8	-0.0707739
89	0x3d564cc9	0.05231932
90	0x3eda5607	0.4264376
91	0x3e9dc732	0.30816036
92	0x3f4703af	0.77739996
93	0xbe831926	-0.25605124
94	0x3d059116	0.032609068
95	0xbdac8b65	-0.08425025
96	0x3d3592ab	0.044329327
97	0xbd7a1f7f	-0.061065193
98	0xbc91dca7	-0.01780541
99	0x3e0f284f	0.1398022
100	0x3e9d5c77	0.30734608
101	0x3d564660	0.05231321
102	0xbd7b9cdd	-0.061428893
103	0x3ea2f62d	0.31828442
104	0x3ca2311a	0.019798804
105	0x3db1daa5	0.08684281
106	0x3da1586a	0.07878192
107	0x3ed79804	0.42108166
108	0x3dd9b4f4	0.10630217
109	0x3ddc1fbd	0.10748241
110	0xbe1098b3	-0.1412075
111	0xbdccdffe	-0.100036606
112	0x3ce821df	0.028336463
113	0x3e7454ab	0.23860423
114	0xbe66fde5	-0.2255779
115	0x3e8826e2	0.26592165
116	0x3ecb8fe7	0.39758226
117	0x3f015ea8	0.5053506
118	0x3e37e530	0.17958522
119	0xbe2f0a41	-0.17093755
120	0x3dc44094	0.0958263
121	0x3e3ef6bf	0.18648814
122	0x3edd03db	0.43167004
123	0x3ea4f523	0.32218274
124	0xbdcd17f2	-0.10014333
125	0xbeb27c78	-0.34860587
126	0x3dab64e3	0.08368852
127	0xbe33009d	-0.17480703
128	0xbebf00f0	-0.37305403
129	0xbe062b02	-0.13102344
130	0xbf1c8be0	-0.6115093
131	0xbececcd8	-0.40390658
132	0xbe61607e	-0.22009465
133	0xbe041200	-0.12897491
134	0xbe937028	-0.28796506
135	0xbe6da46d	-0.23207255
136	0x3e179680	0.14803505
137	0x3d8ca6f6	0.06867783
138	0xbf5ae56c	-0.8550632
139	0xbd78e5b9	-0.060765956
140	0x3d1ee9c8	0.03879717
141	0xbd507993	-0.050897192
142	0xbdf9a75e	-0.12190126
143	0x3d5b64ee	0.05356305
144	0xbe8bd216	-0.2730872
145	0xbe9b3d74	-0.30320323
146	0xbeeca088	-0.46216226
147	0x3e8fcf24	0.28087723
148	0xbc2e5be5	-0.010642027
149	0xbe8618c1	-0.2619076
150	0x3e07cd30	0.13261867
151	0x3db14741	0.08656169
152	0xbf065273	-0.5246956
153	0x3ecd10de	0.4005193
154	0xbd64c6b6	-0.055853568
155	0x3c180dc4	0.009280626
156	0x3b6dc098	0.0036278125
157	0xbdbed6e3	-0.0931833
158	0xbe5b6526	-0.21425304
159	0xbe4c5153	-0.19952898
160	0xbf1c254d	-0.60994416
161	0x3d4e6642	0.05039049
162	0xbdab7533	-0.08371963
163	0x3c146fba	0.009059841
164	0xbde178c0	-0.11009359
165	0x3e038062	0.12841943
166	0x3cde661c	0.027148299
167	0x3de1806a	0.11010821
168	0xbf314640	-0.6924782
169	0xbe438cfd	-0.19096752
170	0x3d6a7de2	0.057248957
171	0x3e18e49d	0.14930959
172	0xbef2a358	-0.47390246
173	0x3ee3d4b9	0.44498232
174	0xbdff2f73	-0.12460222
175	0x3ea699ba	0.3253916
176	0xbeb93352	-0.36171967
177	0x3ec1344d	0.37735215
178	0xbec92048	-0.3928244
179	0x3e958ce3	0.2920905
180	0x3e373242	0.17890266
181	0xbdbc8706	-0.09205441
182	0x3e1de9a2	0.15421155
183	0xbf163c94	-0.58686185
184	0x3d975778	0.0738973
185	0x3f0e73b4	0.556453
186	0x3d464df6	0.048414193
187	0x3d3ff5f1	0.046865407
188	0x3ec2f5ec	0.38078249
189	0x3dc80536	0.09766619
190	0xbf24c18a	-0.6435782
191	0xbe07b19c	-0.13251346
192	0xbe3f12a0	-0.18659449
193	0x3d4bfd74	0.04980226
194	0xbd68eefc	-0.05686854
195	0xbd97deb7	-0.07415526
196	0xbece148c	-0.4025005
197	0xbc34671c	-0.011010911
198	0x3ce6190e	0.028088119
199	0x3e996d6b	0.29966292
200	0xbcd8b340	-0.02645266
201	0xbecfe4cf	-0.40604255
202	0xbf048c79	-0.51776844
203	0x3e0c54fa	0.13704291
204	0x3c424360	0.011856884
205	0x3d98a29d	0.07452891
206	0xbe59d512	-0.21272686
207	0x3e4a774f	0.19772075
208	0xbd89ce41	-0.06728793
209	0xbd9cad4f	-0.076502435
210	0xbec61997	-0.38691399
211	0xbe0ed8e1	-0.1394992
212	0x3db2722c	0.08713183
213	0x3dd3cd93	0.103419445
214	0x3e9aabe0	0.30209255
215	0xbd7523d3	-0.059848618
216	0x3ed8c929	0.42340973
217	0xbf2eb008	-0.6823735
218	0x3e1da2af	0.1539409
219	0x3dc9a6aa	0.09846242
220	0xbd91ea9f	-0.071248285
221	0x3d3b256e	0.045689993
222	0xbbb96a83	-0.005658449
223	0x3e1d297c	0.15347856
224	0x3e1455b0	0.14485812
225	0xbd5a0863	-0.053230654
226	0x3dd6143b	0.104530774
227	0x3d995340	0.07486582
228	0x3f0e816b	0.55666226
229	0x3ee08c88	0.43857217
230	0xbec54e44	-0.38536274
231	0x3db4f690	0.088360906
232	0x3cc10bbd	0.023565168
233	0xbf977eda	-1.1835587
234	0xbe878e81	-0.2647591
235	0xbed82dd2	-0.42222458
236	0x3d9877d2	0.07444729
237	0x3d768ef7	0.060194936
238	0xbf12d2c0	-0.5735283
239	0x3d759fc5	0.05996682
240	0x3dfad523	0.12247684
241	0x3e13c126	0.14429149
242	0xbe3cfc62	-0.18455651
243	0x3e9ec517	0.31009743
244	0xbe84f24f	-0.25966117
245	0xbed07e38	-0.40721297
246	0x3e174d97	0.14775692
247	0x3ea3663c	0.31913936
248	0x3d2a406e	0.04156535
249	0xbd4e6be5	-0.050395865
250	0xbed2a678	-0.4114263
251	0xbf1669f6	-0.58755434
252	0x3c730b1d	0.014834193
253	0xbeccbd80	-0.39988327
254	0x3ccfa4fc	0.025347225
255	0x3e24c1c2	0.16089538

bias f4 [16]
0	0xbd282f62	-0.041060813
1	0xbbbb7271	-0.0057204296
2	0xbe05a73f	-0.1305208
3	0xbe65f3eb	-0.22456329
4	0xbdfeebb3	-0.124473
5	0x3deed9bc	0.11662623
6	0x3e38b752	0.18038681
7	0x3bcfaeeb	0.0063379905
8	0x3d150b54	0.036387756
9	0x3d8dd09f	0.06924557
10	0x3bed1500	0.0072351694
11	0x3d559359	0.052142475
12	0xbbbf0948	-0.005829964
13	0xbd4a5425	-0.049396653
14	0x3e7835d6	0.24239287
15	0x3d90d4e3	0.07071855

weight f4 [16]
0	0x3f25e3cb	0.6480071
1	0x3f485221	0.7825032
2	0x3f8b8426	1.0899704
3	0x3f31a45d	0.69391423
4	0x3f6e6ae5	0.9313186
5	0x3fd8b133	1.6929077
6	0x3f7a1cef	0.977004
7	0x3f9c8cbd	1.223045
8	0x400ee8a2	2.2329488
9	0x3f66d52c	0.90169024
10	0x3fd55822	1.6667521
11	0x3f47f290	0.78104496
12	0x3fb25099	1.3930846
13	0x3f6df3ac	0.9294994
14	0x3f582141	0.8442574
15	0x3eeda90c	0.46418035

bias f4 [16]
0	0x3e6cf108	0.23138821
1	0x3e255936	0.16147313
2	0xbe1c0628	-0.15236723
3	0x3baf0f40	0.005342394
4	0x3e21ae37	0.15789114
5	0xbeb16e8a	-0.34654647
6	0x3d45e571	0.048314516
7	0xbd5fd45b	-0.054645877
8	0xbe61362a	-0.21993318
9	0x3d78d03f	0.060745474
10	0x3df493f0	0.11942279
11	0xbbb8a8a8	-0.0056353398
12	0x3ceb7431	0.028741928
13	0x3e62b7d9	0.22140445
14	0xbda5b593	-0.08091273
15	0x3e4144cc	0.188739

weight f4 [16]
0	0x3fae4435	1.3614565
1	0x3f9ee377	1.2413167
2	0x3f98377a	1.189193
3	0x3f23be09	0.63961846
4	0x3f7562b4	0.95853734
5	0x3fbe7698	1.4879942
6	0x3ef55a71	0.47920564
7	0x3f3eae71	0.74484926
8	0x3fbba49c	1.465961
9	0x3f4b3246	0.79373586
10	0x3f74296f	0.9537572
11	0x3f4603dd	0.77349645
12	0x3f8877ac	1.0661521
13	0x3f831223	1.023991
14	0x3f081b00	0.531662
15	0x3f060abb	0.52360123

bias f4 [16]
0	0x3d9580f6	0.07299988
1	0x3cc070dd	0.023491317
2	0xbd93cd7d	-0.07216928
3	0x3e928660	0.28618145
4	0xbe1c903c	-0.15289396
5	0x3e7aa489	0.24476828
6	0xbdfc75fd	-0.12327192
7	0xbe234061	-0.15942527
8	0x3d471aca	0.048609532
9	0xbe0c760d	-0.13716908
10	0xbd994f13	-0.07485785
11	0xbe6fe5e0	-0.23427534
12	0x3e10ea7e	0.14151952
13	0xbdd3c4a5	-0.10340241
14	0x3e90f7a0	0.28313923
15	0x3d21d246	0.039507173

in_proj_weight f4 [48, 16]
0	0xbddb5c7b	-0.107109986
1	0x3ad59fed	0.0016298272
2	0xbd5880e3	-0.05285729
3	0x3efa1147	0.48841307
4	0x3e37bf4e	0.1794407
5	0x3f26aa38	0.65103483
6	0x3ec46119	0.3835533
7	0x3e655013	0.22393827
8	0x3ed3d4c8	0.41373277
9	0xbe73cbbd	-0.23808189
10	0xbe0b2128	-0.13586867
11	0xbeb99002	-0.36242682
12	0xbe283a8b	-0.16428582
13	0xbf52170f	-0.82066435
14	0x3eed2296	0.4631545
15	0xbc6b17ae	-0.014348907
16	0xbf0daa7f	-0.5533828
17	0x3de5de86	0.112240836
18	0x3efcc911	0.49372151
19	0xbe0b96c0	-0.13631725
20	0xbf510077	-0.81641334
21	0x3e552c45	0.20817669
22	0xbe3a5ff7	-0.1820067
23	0xbd999d8f	-0.07500755
24	0xbea32b7b	-0.3186911
25	0x3dc3ec62	0.09566571
26	0x3eac57e3	0.33660802
27	0x3c49501f	0.012287169
28	0x3c40ee0b	0.011775504
29	0x3ed8a4fe	0.4231338
30	0xbed31197	-0.41224357
31	0xbbd07012	-0.006361016
32	0xbf190846	-0.5977825
33	0x3f59357b	0.8484723
34	0xbf82b9cf	-1.0212954
35	0x3eda252b	0.42606482
36	0xbe761acc	-0.2403366
37	0x3e00e0bd	0.12585731
38	0x3e958c53	0.2920862
39	0x3f2dea33	0.67935485
40	0xbe866909	-0.2625201
41	0x3e55b599	0.20870055
42	0xbe6ad734	-0.22933656
43	0x3e61af40	0.22039509
44	0xbe7e2b2d	-0.24821158
45	0xbe04d4ab	-0.12971751
46	0xbe229a7d	-0.15879245
47	0x3b2135d5	0.0024598737
48	0xbe9621c2	-0.2932263
49	0x3f281632	0.6565887
50	0xbede63c7	-0.434355
51	0xbe5e423b	-0.21704952
52	0x3ee2d56d	0.44303456
53	0xbe7f2169	-0.24915089
54	0x3f44bbfc	0.7684934
55	0xbdb66c22	-0.089073434
56	0xbd46a1be	-0.048494093
57	0x3c4427cd	0.01197238
58	0xbe21caf9	-0.15800084
59	0x3d5d61b8	0.05404827
60	0x3df2c590	0.11854088
61	0xbe3d509e	-0.18487784
62	0xbe416a67	-0.18888246
63	0x3e3b07f3	0.18264751
64	0x3f4d8947	0.80287594
65	0xbec54374	-0.38528025
66	0x3f09d145	0.53834945
67	0x3e037678	0.12838161
68	0xbe96bb4b	-0.29439768
69	0xbeaa3ee6	-0.33251113
70	0xbf2cfa24	-0.67569184
71	0xbe1ccbb7	-0.15312086
72	0xbe166fd7	-0.14691101
73	0xbd35347f	-0.044239517
74	0xbdc98267	-0.098393254
75	0x3be5b6d5	0.0070103207
76	0x3e8973c9	0.2684615
77	0x3eb61552	0.3556314
78	0xbb0f594a	-0.0021873289
79	0xbda37265	-0.079808034
80	0xbddd43cd	-0.108039476
81	0x3e438358	0.19093072
82	0xbec2b102	-0.3802567
83	0x3d44d8c4	0.048058286
84	0x3e7a8414	0.24464446
85	0xbec955c7	-0.39323255
86	0x3e69fae0	0.22849607
87	0x3d9470da	0.07248087
88	0x3e1d4ad2	0.15360573
89	0x3e9cd120	0.306283
90	0xbe7e4ff4	-0.24835187
91	0x3f2f7f08	0.6855321
92	0x3f87cf27	1.0610093
93	0x3f0381ea	0.5137011
94	0xbf1124b0	-0.56696606
95	0x3e42e0db	0.19031088
96	0x3e274e3b	0.16338436
97	0xbde96044	-0.11395314
98	0x3d5da17d	0.054109085
99	0xbea92596	-0.33036488
100	0x3d57b097	0.052658644
101	0x3daccb38	0.084371984
102	0x3e88f644	0.26750386
103	0x3f601061	0.8752499
104	0xbf166612	-0.58749497
105	0x3f42d938	0.761127
106	0x3f4c192d	0.79725915
107	0xbdcbb3b1	-0.09946383
108	0xbf36a46c	-0.7134464
109	0xbe506785	-0.2035199
110	0x3dfb03c6	0.12256579
111	0xbecf5a40	-0.40498543
112	0x3cb9d117	0.02268271
113	0x3e289b01	0.1646538
114	0xbd04bf66	-0.032409094
115	0x3f02624a	0.5093123
116	0x3dc2cbfb	0.095115624
117	0xbd9bcedd	-0.076078154
118	0x3b8fd203	0.004389049
119	0xbea7db3c	-0.3278445
120	0x3f361a9f	0.7113437
121	0xbf477566	-0.7791351
122	0xbf058156	-0.52150476
123	0xbe8502ac	-0.259786
124	0x3cf22a7a	0.02956127
125	0xbedec0ad	-0.43506375
126	0x3e705fed	0.23474093
127	0x3e250266	0.16114196
128	0x3f168094	0.58789945
129	0xbeb09f69	-0.3449662
130	0x3f59ec55	0.8512624
131	0x3e783e4c	0.24242514
132	0xbf2e948b	-0.6819541
133	0x3eb27d3e	0.34861177
134	0xbea1d234	-0.31605685
135	0xbdc90f7d	-0.09817407
136	0xbdeb8195	-0.11499325
137	0x3e08f6ea	0.1337544
138	0xbdc669d9	-0.096881576
139	0xbe8cd8fd	-0.275093
140	0xbe14a3d5	-0.14515622
141	0xbe048645	-0.12941845
142	0x3e48d6d5	0.19613202
143	0x3f415b9e	0.7553042
144	0xbd22c69f	-0.0397402
145	0xbf0ac30e	-0.5420388
146	0xbe3304e4	-0.17482334
147	0xbebb7b3e	-0.36617464
148	0x3df73b8b	0.12071904
149	0xbf08382f	-0.5321073
150	0x3d2b55ad	0.041829754
151	0xbe6c4a62	-0.2307525
152	0xbe01fac2	-0.12693313
153	0xbd21f6e9	-0.039542112
154	0x3ec828d2	0.39093643
155	0x3ee20551	0.4414468
156	0x3e4d3f49	0.20043673
157	0x3e6cf7b9	0.23141374
158	0xbd4971c0	-0.049180746
159	0x3e86deca	0.2634185
160	0xbf0a329c	-0.53983474
161	0x3efee6d0	0.4978547
162	0xbf17c38c	-0.59282756
163	0xbec93b56	-0.39303082
164	0x3f05b884	0.52234674
165	0xbf44d4da	-0.76887286
166	0x3f04c9f1	0.5187064
167	0x3dda48f2	0.106584445
168	0x3f16a0f3	0.5883934
169	0x3ec0de14	0.37669432
170	0xbebc2006	-0.36743182
171	0xbd038406	-0.03210833
172	0x3df6f139	0.12057728
173	0xbe9eecc1	-0.31040004
174	0xbf04fb34	-0.51945806
175	0xbdf42d2c	-0.11922678
176	0x3ddb9e2e	0.1072353
177	0x3ec6bfd8	0.3881824
178	0xbe7f583f	-0.24936007
179	0x3f11d562	0.5696622
180	0xbebd5ad2	-0.36983353
181	0x3ee6a8c6	0.4505064
182	0x3c0ebf60	0.00871262
183	0x3e01fc4c	0.126939
184	0x3e9dac18	0.3079536
185	0xbe452ddc	-0.19255775
186	0x3bf05013	0.0073337643
187	0xbf0c210a	-0.54737914
188	0xbf00afae	-0.50268066
189	0xbe5e4f0e	-0.21709844
190	0x3ea03732	0.3129211
191	0xbebc71e7	-0.3680565
192	0xbf2d9cd8	-0.6781745
193	0x3efd094b	0.49421152
194	0xbeaca21b	-0.33717427
195	0x3e91b3fe	0.28457636
196	0xbddfed2d	-0.109339096
197	0xbdcb9d57	-0.099421196
198	0x3dee46eb	0.1163462
199	0x3e51bf90	0.20483232
200	0x3eebb445	0.46035972
201	0xbe11d065	-0.14239652
202	0xbe7823e1	-0.24232437
203	0x3eeda8a1	0.46417716
204	0x3e0d5dec	0.1380536
205	0x3ec7d593	0.39030132
206	0x3ee62846	0.449526
207	0xbeda13fb	-0.4259337
208	0x3ebbd156	0.36683148
209	0x3ea0d453	0.3141199
210	0x3ea639dc	0.32466018
211	0xbecc7549	-0.3993323
212	0x3c914829	0.017734604
213	0x3e85c195	0.26124254
214	0x3ef0be0a	0.47019988
215	0xbebb5af6	-0.36592835
216	0xbeee1a63	-0.46504506
217	0x3dc4046e	0.095711574
218	0x3eb61e38	0.3556993
219	0x3cc71f61	0.024306955
220	0xbf76aed3	-0.9636051
221	0x3d30004d	0.042969037
222	0xbecfca2d	-0.40583935
223	0x3f0dacff	0.55342096
224	0xbefe4f37	-0.4966981
225	0x3fb67d88	1.4257059
226	0xbf0822d0	-0.5317812
227	0xbe8b9bd5	-0.27267328
228	0x3ec22a8d	0.3792309
229	0x3e85cdbd	0.26133528
230	0x3eaff7f5	0.34368864
231	0xbe07304a	-0.13202015
232	0x3ecbf065	0.39831844
233	0xbf0c11c3	-0.547146
234	0x3dfce515	0.123483814
235	0x3e5023ac	0.20326108
236	0xbe1648c7	-0.146762
237	0xbeb60ed4	-0.35558188
238	0xbe2d98d7	-0.16952835
239	0x3f0a61ec	0.54055667
240	0x3e19382d	0.14962836
241	0x3f47f73e	0.78111637
242	0xbdf95a8a	-0.12175472
243	0x3c595813	0.013265627
244	0x3df91513	0.12162223
245	0xbf10bb4f	-0.5653581
246	0x3f070827	0.52746814
247	0xbf1a74cf	-0.60334486
248	0x3e04ad86	0.12956819
249	0xbed0a3e5	-0.40750042
250	0xbe6c8bd3	-0.23100214
251	0xbd34a907	-0.04410651
252	0xbf091905	-0.535538
253	0xbe1fdb3c	-0.15610975
254	0x3f0cc9f1	0.5499564
255	0xbe0ed2d4	-0.13947612

in_proj_bias f4 [48]
0	0xbeb3948d	-0.35074273
1	0x3ebeb025	0.37243763
2	0xbf5fcaa3	-0.87418574
3	0xbf468b19	-0.77555996
4	0x3e9aedde	0.30259603
5	0x3e763757	0.24044548
6	0xbd7bf1c5	-0.061509866
7	0xbea92d87	-0.33042547
8	0x3f49b05a	0.78784716
9	0x3f8fc4a6	1.1231887
10	0xbf26c6a1	-0.65146834
11	0xbf20845b	-0.6270196
12	0xbd3a1139	-0.04542658
13	0xbed46b78	-0.41488242
14	0xbebc16a2	-0.36736017
15	0xbea729e4	-0.32649148
16	0xb99e34d4	-0.00030175468
17	0xb829eebc	-4.051508e-05
18	0x397df797	0.00024220195
19	0x38e59226	0.00010946793
20	0x381ea45c	3.7823207e-05
21	0xb96f573a	-0.0002282531
22	0xb8963c63	-7.163805e-05
23	0xb91f0cb7	-0.00015168158
24	0xba4e0d18	-0.00078602275
25	0x38d2ffc7	0.000100612226
26	0x39cea048	0.000394108
27	0xb9bff40e	-0.00036612194
28	0x39c88139	0.0003824325
29	0xb8dfaaf1	-0.00010665309
30	0xb89596fe	-7.132998e-05
31	0x38c90803	9.585919e-05
32	0x3e218eac	0.15777081
33	0xbc24c3a4	-0.01005641
34	0xbe7e6c06	-0.24845895
35	0xbecb7a35	-0.39741674
36	0x3e84e6dd	0.25957385
37	0x3da27e4d	0.07934246
38	0xbeada86a	-0.33917552
39	0xbe30adf4	-0.17253858
40	0xbed32b8d	-0.41244164
41	0xbdec067e	-0.11524676
42	0x3e3970e7	0.18109475
43	0x3deeae07	0.11654287
44	0x3e2e04f1	0.16994072
45	0xbdf5cc0d	-0.1200181
46	0x3e36a668	0.17836916
47	0xbd188fce	-0.037246518

weight f4 [16, 16]
0	0x3ec1e752	0.37871796
1	0x3da0e8bb	0.0785689
2	0xbd0551d3	-0.032548737
3	0x3e9b115c	0.30286682
4	0x3e2f08d9	0.17093219
5	0x3e848ed2	0.25890213
6	0xbe049fb5	-0.12951548
7	0x3dad5859	0.084641166
8	0xbcb42da3	-0.021994418
9	0x3dd69412	0.10477461
10	0x3e4c8938	0.1997422
11	0x3eb96d92	0.36216408
12	0x3e8e8859	0.278384
13	0x3b6a4c0f	0.00357509
14	0x3cf50b64	0.029912658
15	0xbed3421a	-0.4126137
16	0x3e1421d8	0.14466035
17	0x3d886bb6	0.06661169
18	0x3e09d50e	0.1346018
19	0xbdb1688a	-0.08662517
20	0x3e1f1914	0.1553691
21	0xbe295909	-0.1653787
22	0xbdc865b7	-0.097850256
23	0x3dde3078	0.108490884
24	0x3ec76e37	0.38951275
25	0xbe4ccac9	-0.19999231
26	0x3eaa646f	0.3327975
27	0xbdb5aa4a	-0.08870371
28	0x3ef8c0b5	0.48584524
29	0xbf29689f	-0.66175264
30	0xbf3d5628	-0.7395959
31	0x3bf0c77e	0.007348
32	0x3dfa3710	0.122175336
33	0x3e9bde07	0.3044283
34	0x3ec5d0da	0.38635904
35	0x3eaeb1ba	0.3411997
36	0x3f1bad82	0.60811627
37	0x3f0ad6e0	0.54234123
38	0xbe260eae	-0.16216537
39	0xbe52d8bd	-0.20590492
40	0x3dde12b7	0.10843413
41	0xbdd40426	-0.10352354
42	0x3e556447	0.20839034
43	0x3e892642	0.26787
44	0xbd811105	-0.06302074
45	0xbee7965d	-0.45231906
46	0x3e75eb3a	0.24015513
47	0x3d4b8ecd	0.049696732
48	0xbe279616	-0.16365847
49	0x3eafcd73	0.34336433
50	0xbee26339	-0.44216326
51	0x3e8a7e13	0.27049312
52	0xbea62890	-0.32452822
53	0x3e6b0e0a	0.22954574
54	0xbe5ce74f	-0.21572612
55	0x3ebccbe9	0.3687432
56	0x3ea97992	0.33100563
57	0xbe7e123c	-0.24811643
58	0x3ea78466	0.327182
59	0xbda14dfe	-0.07876204
60	0xbf371b9b	-0.715265
61	0x3d52b581	0.051442627
62	0x3e25b80a	0.16183487
63	0x3ea24ed9	0.3170078
64	0xbe865600	-0.26237488
65	0x3e77b1a2	0.24188855
66	0x3eab8cea	0.33505946
67	0xbddc76fb	-0.10764881
68	0xbd1f330c	-0.03886704
69	0x3cade4fc	0.021227352
70	0xbe0ced18	-0.13762319
71	0xbea17eb0	-0.31541967
72	0xbe7e0aeb	-0.24808852
73	0xbe1d4e46	-0.1536189
74	0x3f1b01ff	0.6054992
75	0x3eebbfde	0.4604482
76	0xbe907fcb	-0.28222498
77	0x3e8a77a2	0.27044398
78	0x3e0bce75	0.13652976
79	0x3e044a36	0.12918934
80	0xbd88ca0f	-0.066791646
81	0xbe255862	-0.16146997
82	0x3e0cee23	0.13762717
83	0xbe2a8d3c	-0.16655439
84	0x3dff7120	0.12472749
85	0x3e02512a	0.12726274
86	0xbe40dfdb	-0.18835394
87	0xbd1d30fc	-0.038376793
88	0x3e492e2f	0.19646524
89	0xbb6d0ffd	-0.003617286
90	0xbe32e195	-0.17468865
91	0x3e4b1722	0.19833043
92	0xbca048ae	-0.019565906
93	0x3c6ce585	0.014459019
94	0x3d0a4048	0.03375271
95	0xbe83da0d	-0.25752297
96	0xbe902406	-0.28152484
97	0xbe0cd9f0	-0.13755012
98	0xbd619aa8	-0.055079132
99	0xbedf9289	-0.43666485
100	0x3f2b093b	0.6681096
101	0xbee4d801	-0.44696048
102	0xbeca41fd	-0.3950347
103	0xbd5ac348	-0.05340889
104	0xbde75582	-0.11295606
105	0xbee99acb	-0.4562591
106	0xbe79ce3c	-0.24395078
107	0x3e7e6b5a	0.24845639
108	0x3ebcb368	0.36855626
109	0xbe3db9cb	-0.18527906
110	0xbccb37d4	-0.024806894
111	0x3e0922b1	0.1339214
112	0x3db186ac	0.08668265
113	0xbe365c5f	-0.17808674
114	0x3dc5bb35	0.096548475
115	0xbe801ba9	-0.25021103
116	0x3e6d254e	0.23158762
117	0xbde0c28a	-0.109746054
118	0x3dfe79f5	0.12425605
119	0x3ec3538b	0.38149676
120	0x3e900100	0.28125763
121	0xbf274ab4	-0.6534836
122	0x3e1b8a3e	0.15189454
123	0xbf07ab8f	-0.5299615
124	0xbf0f2262	-0.5591184
125	0x3f639167	0.8889374
126	0xbe67a2fa	-0.22620764
127	0xbeed0e71	-0.4630008
128	0x3de9d4a8	0.11417514
129	0x3d34d465	0.044147868
130	0xbd054649	-0.032537732
131	0xbe5284ee	-0.20558521
132	0x3e3b66a3	0.18300872
133	0xbe2dfb6f	-0.16990446
134	0xbe274e28	-0.16338408
135	0x3c0c1dae	0.008551998
136	0xbe09d26e	-0.13459179
137	0x3dab08b8	0.08351272
138	0x3a7202c1	0.0009231978
139	0xbda5081b	-0.080581866
140	0xbd2f8d06	-0.0428591
141	0x3b94cfd7	0.004541378
142	0xbe0a8518	-0.13527334
143	0xbd26715c	-0.04063545
144	0x3cdee903	0.027210718
145	0xbe3538b8	-0.17697418
146	0x3d42247c	0.047398075
147	0x3eb0665c	0.34453094
148	0x3e75e613	0.24013548
149	0xbc85e6f3	-0.016345477
150	0x3eadcaf9	0.33943918
151	0xbe42e23e	-0.19031617
152	0x3f205dbc	0.6264303
153	0xbe70e4b3	-0.23524742
154	0x3e0ee1f4	0.13953382
155	0xbeae6fd6	-0.340697
156	0xbd80216d	-0.062563755
157	0xbe9041d3	-0.2817522
158	0x3e6ed8d2	0.23324898
159	0x3efcd09e	0.49377912
160	0xbe389c89	-0.18028463
161	0x3dd5a2fc	0.104314774
162	0xbea082db	-0.31349835
163	0xbe9aede2	-0.30259615
164	0xbe38a5bf	-0.18031977
165	0x3e8e4631	0.27787927
166	0xbd4ccaee	-0.049998216
167	0xbe82e3e4	-0.25564492
168	0x3dce9568	0.10087091
169	0xbb66f2d6	-0.0035239956
170	0x3e680cb7	0.226611
171	0xbe63b0b2	-0.22235373
172	0xbcdd97f2	-0.027049992
173	0xbc7286fe	-0.014802692
174	0xbd16efd4	-0.03684981
175	0x3e30ae5a	0.1725401
176	0xbf18ec62	-0.5973569
177	0xbe1c0581	-0.15236475
178	0x3dbcc729	0.09217674
179	0x3e55986a	0.20858923
180	0xbec2cabe	-0.38045305
181	0xbf196bd0	-0.59930134
182	0x3dc68b1b	0.09694501
183	0xbee60e15	-0.4493262
184	0x3e2f821f	0.17139481
185	0x3ef5d786	0.48015994
186	0x3ddeb2d6	0.10873954
187	0x3f0b2ff2	0.54370034
188	0x3ea1f661	0.31633285
189	0xbe4d0961	-0.20023109
190	0xbdb6ee23	-0.0893214
191	0x3f14e590	0.58162785
192	0x3e369265	0.17829283
193	0x3d88c55d	0.06678269
194	0x3efa3a37	0.4887254
195	0x3e93288a	0.28741866
196	0xbe55aefb	-0.20867531
197	0x3e488b63	0.19584422
198	0x3ec0bf50	0.3764596
199	0xbda3eafd	-0.08003805
200	0x3dd8a52d	0.1057838
201	0x3f0cc0cf	0.549817
202	0xbf5240b0	-0.82129955
203	0x3d250fb0	0.040298164
204	0x3e226334	0.15858155
205	0x3ea3f1d7	0.32020447
206	0x3df8cd7a	0.121485665
207	0xbc89f1ee	-0.016838994
208	0xbe5ea82b	-0.21743838
209	0xbda9989f	-0.08281063
210	0x3db55019	0.08853168
211	0xbe5b1dac	-0.21398038
212	0x3dadcf10	0.0848676
213	0xbe2c05b2	-0.16799048
214	0x3eb427b7	0.3518655
215	0x3e0dd6a5	0.13851412
216	0x3e955796	0.29168385
217	0xbc15a8f4	-0.00913452
218	0xbdf9ec9f	-0.12203335
219	0xbe7b84bb	-0.24562351
220	0xbdd167cb	-0.10224875
221	0xbe87b64f	-0.26506278
222	0xbd2e4eaf	-0.042555507
223	0xbe16ba07	-0.14719401
224	0xbdf77614	-0.120830685
225	0xbf54da08	-0.8314519
226	0xbe404b21	-0.1877866
227	0x3de3b452	0.11118378
228	0x3dc039e7	0.09386044
229	0xbeb7ca39	-0.3589647
230	0xbee78652	-0.45219666
231	0xbc892ac1	-0.01674402
232	0x3f1fa17b	0.62355775
233	0xbe1163e3	-0.1419826
234	0x3ea0c26d	0.31398335
235	0x3f0fe28c	0.5620506
236	0xbedcfd03	-0.43161783
237	0xbefe15ee	-0.49626106
238	0x3e494b6c	0.19657677
239	0xbf1352af	-0.5754804
240	0x3f2d6f52	0.67747986
241	0xbe576c9b	-0.21037523
242	0xbef63151	-0.480845
243	0xbe33cbe7	-0.17558251
244	0x3ee1fd2d	0.4413847
245	0xbe764a07	-0.24051677
246	0x3f0944b7	0.53620476
247	0x3ecba54a	0.39774543
248	0xbf61f59c	-0.88265395
249	0xbd2c293c	-0.04203151
250	0x3dab6a45	0.08369879
251	0x3dc6a213	0.09698882
252	0x3dda4a79	0.10658736
253	0x3e157e9b	0.14599077
254	0xbe1a7562	-0.1508384
255	0xbeaca222	-0.33717448

bias f4 [16]
0	0x3b62ee31	0.0034626836
1	0xbe39f52a	-0.18159929
2	0xbe414fd8	-0.18878114
3	0x3ebc28ed	0.36749974
4	0x3ba6ad17	0.005086552
5	0xbe7a37b6	-0.24435315
6	0xbe2f9f12	-0.17150524
7	0x3eec630f	0.46169326
8	0xbeb32b8f	-0.3499417
9	0x3d85532d	0.06510005
10	0x3dbe4493	0.09290423
11	0x3d8b6c50	0.06807768
12	0x3d4fc6fe	0.050726883
13	0x3d1af9e5	0.037835974
14	0x3eb2b193	0.34901103
15	0x3e2ee516	0.17079577
