experiments/Datasets/Base_transformer_model.pt (torch, 145805 bytes, 67 tensors)

weight f4 [16, 1]
00000000: 96d1 f8be 5c69 8fbf f6a9 51bf fedf 3dbf
00000010: 928a 153f 6a55 923f dddf 6a3e e67e 953f
00000020: b5d7 abbf 5f0e 8a3f fbf8 9e3f 3376 55bf
00000030: e38c 23bf e639 68bf f845 2d3f b29b d83e
-0.485974 -1.1204028 -0.81899965 -0.7416991 0.58414567 1.1432316 0.2293696 1.1679351
-1.3425204 1.0785636 1.2419733 -0.8338348 -0.6388685 -0.90713346 0.6768489 0.42306286

bias f4 [16]
00000000: cce9 ec3e 5f4a 07bd ab8f cebe fada 5f3e
00000010: bd9a 06bf 53fe 95bf f10f 3bbf e8a1 f8be
00000020: 3f61 ba3b bcb7 8dbf c371 22be e0e8 03bf
00000030: 0c58 9c3d 09cc abbe df0c 0ebf 8be6 84be
0.46272123 -0.03302991 -0.40343985 0.21860877 -0.5257986 -1.1718239 -0.730712 -0.48561025
0.005687862 -1.1071696 -0.15863709 -0.51527214 0.07633981 -0.33554104 -0.5548839 -0.2595714

in_proj_weight f4 [48, 16]
00000000: 76a2 313e e615 d03e ddfd 04bd 1878 863e
00000010: 9c2e 423d 8f7f ad3e 6a29 c43e ac17 16bd
00000020: e8ee fe3e 2a68 9bbe 3f36 cabe 998b 25bf
00000030: 9b43 7e3e 0d0b fcbe cd54 833d 7b9b e2be
00000040: f64c 5ebe 7846 683e 2e08 1bbe 27fa fb3d
00000050: 4900 b4be d4c0 a43e 7897 c13e 1f06 13bf
00000060: cc7c 6d3e 8464 923e e580 013f 539e e2be
00000070: 116b 2a3e 7559 05be ac0a 413e 96ce 14bd
00000080: 83f7 2dbe 36f2 2c3e 3bcb 4dbe c263 8dbd
00000090: b1f2 1d3e c324 093f f671 f13d 100d 95bd
000000a0: cceb 13be 10ed 133e 0dff 1e3e abc0 53be
000000b0: 6969 d5be 85de 30be 3ccb e23e 39a0 c9bd
000000c0: 35f3 55be adb5 fc3d ecec e43d ca7c 433e
000000d0: 88f9 a43e 7f23 033e fb79 6fbe bf29 e8bd
000000e0: 5220 b6be ec0c 24be 86ad c53e 754c 623e
000000f0: 9a88 68be 509b 00be faab 06bd 0f42 873e
00000100: ef95 84be 261e 0e3e 3d23 b43e 6472 103e
00000110: 5cbd 9fbe ea07 fa3b 4bc5 9f3c 4030 d9be
00000120: 308d 113f 311c 07bf 6337 b3be 440b 883e
00000130: 15b3 183f 3f0c 7dbe b8f2 033e a5e4 bbbe
00000140: bc68 603e 6157 6b3e 8428 f33e e206 903d
00000150: f8d4 11be f6da 503e f8b9 a43e 008b 1bbe
00000160: 0600 993e 1a5f 08be a377 37be c1e5 7dbe
00000170: b36f b03e 7fde 7bbe 9198 e63d e490 2fbc
00000180: 63b6 f13d a025 89be 6076 143e 4301 6b3e
00000190: 2636 2ebd 73c3 793e 3eb8 073d 2e76 f4bd
000001a0: d4c6 0bbd 8b6d dd3e 175f e3bc 0fac aa3e
000001b0: 3cb5 e5be 7d52 00be 6aff 8ebe 066a 64be
000001c0: 74ec 343d dff6 fbbd 84db 5d3d 70ca cb3e
000001d0: d756 e8be fea4 e73e 0cd6 f03d 7c4e 54be
000001e0: 6968 723e 6363 a93d 0d26 10bf 76dd 80bc
000001f0: dba4 a33e 26fa c93d 6cb1 02be 97b4 433d
00000200: af4f 34be ef76 7e3d f8f1 77be 87cf b33c
00000210: 8342 e53e 26ec 433e 4e97 273e 514a aa3e
00000220: f1c1 08be 276f d73d 9fdf 123f fd12 4d3e
00000230: 7ed3 40be e58a ba3d 3cf5 f6bd 9634 86bd
00000240: d2fc 6e3c b8b6 1ebe 9ea3 d23c d1d3 f43d
00000250: 2765 073e 5073 b43c e5ae 09bd cb93 02be
00000260: 3760 47be ca4f bc3e 114e 3e3e 7dd9 af3d
00000270: 7fc8 b2be abc2 b23e 48be 12bd e3aa 74be
00000280: 9703 15be 911d 02be 3e93 afbd efe3 a03e
00000290: 52e3 48bd 407c 013f b16c 663d c584 eabe
000002a0: a6f0 e0bd 3345 4ebd e67b 073f cf5c a8be
000002b0: 9fe0 92be 28d2 ac3d 8383 cd3d 42b9 f9be
000002c0: bdca 67be 4da4 233d 3e4c b23e af76 41bd
000002d0: 102b bebe 7293 a43d cde4 0a3f 9f89 d5be
000002e0: c89a e83d ee16 3e3e aea6 393e 51e0 61bc
000002f0: ffa5 94be 0713 94be b671 023f 305d 10bd
00000300: 150f 1a3e 05bc 933c 9c2a 50be e6ed 1ebc
00000310: f28a 323b 30ee 34be 8afb adbd dedf e73e
00000320: 9323 a3be f4c2 273e 4e17 683e 70e8 7d3e
00000330: 96aa c0be 9011 643e 852d 4ebe 3566 973e
00000340: 603a 233d be33 89be b40e 81bd 9202 b03e
00000350: dca4 d0be 4360 383e 712c b13e d43b b9be
00000360: dfa8 33bd ef50 90be fabb abbe 37d7 9fbe
00000370: d706 013f 0a43 d4be b89f a13e e1e5 02be
00000380: 98bb 62bd a62f 803d 0e54 8abd b360 313e
00000390: 00e1 4dbe 162b 17be 438e 123e e366 86be
000003a0: 0fa8 6d3e ae93 f53c 0ab3 c5bd 5131 ccbe
000003b0: 886c e5bd d523 d6be 510b d03e 581e a8bd
000003c0: ff5a a5be 676f e1bd a542 c6bc 68ae 813d
000003d0: 2893 c8bd 24de 633e 6926 893e 6ce5 22bf
000003e0: a5f2 d13e 26c8 9cbd 9dea 153e 34e9 f9be
000003f0: 3053 983e 18a1 f0be 83b8 e53e b6f0 19bf
0.1734713 0.40641707 -0.032468665 0.262635 0.04740773 0.33886382 0.38312846 -0.03664367
0.49791646 -0.30352908 -0.3949451 -0.64666134 0.24830477 -0.4922718 0.06412659 -0.44259247
-0.21709046 0.22683132 -0.15139839 0.12303572 -0.35156468 0.32178366 0.37810874 -0.57431215
0.23192137 0.28592312 0.505873 -0.44261417 0.16642405 -0.13022406 0.18851727 -0.03632983
-0.1698895 0.16889271 -0.20097058 -0.06903793 0.1542461 0.5357172 0.117893144 -0.07277882
-0.14445418 0.14445901 0.15526982 -0.20678966 -0.41681984 -0.17272384 0.4429568 -0.09845013
-0.20893557 0.123393394 0.11178002 0.19090572 0.32221627 0.1280651 -0.23386376 -0.113360874
-0.35571533 -0.16020554 0.3860895 0.22099479 -0.2270836 -0.12559247 -0.032878853 0.26417586
-0.2589564 0.13878688 0.35183135 0.14106137 -0.31199157 0.007630338 0.019503256 -0.42419624
0.5685606 -0.5277739 -0.35003194 0.26571095 0.5964826 -0.24711703 0.12885559 -0.3669788
0.21914953 0.22982551 0.47491848 0.07032563 -0.14241397 0.20396027 0.32173133 -0.15189743
0.2988283 -0.13317528 -0.17916732 -0.24794675 0.3446022 -0.24596594 0.112595685 -0.010715697
0.11802366 -0.26786518 0.14498281 0.229497 -0.04253211 0.24390964 0.03313469 -0.119366035
-0.034125164 0.43247637 -0.027755303 0.33334395 -0.44864833 -0.12531467 -0.2792924 -0.2230607
0.04417081 -0.12302946 0.054164425 0.39802885 -0.45378754 0.45243067 0.11759576 -0.20733064
0.23672642 0.0827091 -0.5630806 -0.0157306 0.31961712 0.09862165 -0.12762994 0.047779646
-0.17608522 0.062125143 -0.24213398 0.021949543 0.44777307 0.19133052 0.16366312 0.33259824
-0.13355233 0.105192475 0.5737247 0.20026775 -0.18830678 0.09108523 -0.120584935 -0.06552999
0.014586644 -0.15499389 0.025712784 0.11954463 0.1322218 0.022027642 -0.033614058 -0.12751691
-0.19470297 0.36779624 0.18584467 0.085864045 -0.3491859 0.34914145 -0.035825998 -0.23893313
-0.1455215 -0.12706591 -0.08573006 0.314239 -0.049044915 0.50580215 0.056256 -0.4580442
-0.109834 -0.050358962 0.5292343 -0.32883307 -0.28686997 0.084385216 0.100348495 -0.48774153
-0.22635932 0.03995161 0.34823793 -0.047232326 -0.3714223 0.080359355 0.5425537 -0.4170656
0.11357647 0.18563434 0.1812999 -0.013786391 -0.29032895 -0.28920767 0.5095476 -0.03524512
0.15044816 0.01803399 -0.20328754 -0.009700274 0.0027243462 -0.17668986 -0.08495243 0.45287985
-0.31863078 0.16382962 0.2266514 0.24795699 -0.37630147 0.22272325 -0.20134552 0.29570165
0.039850593 -0.2679729 -0.063016325 0.3437696 -0.40750778 0.18005471 0.3460422 -0.36178458
-0.04386222 -0.28186747 -0.33541852 -0.31218883 0.5040106 -0.41457397 0.31567168 -0.12783004
-0.055354685 0.06259088 -0.067543134 0.17322044 -0.20105362 -0.1476253 0.14312081 -0.2625037
0.2320864 0.029977646 -0.096532896 -0.39881375 -0.11202341 -0.41824213 0.40633634 -0.082089126
-0.32295987 -0.110075764 -0.0242017 0.063320935 -0.09793693 0.22252709 0.26787117 -0.6363132
0.41005436 -0.07655363 0.14640279 -0.48810732 0.29750967 -0.46997905 0.44867334 -0.6013292

in_proj_bias f4 [48]
00000000: 5728 9fbe a90d a0be 1136 52be 5b05 b33c
00000010: a466 1ebe ef70 82be c8b6 063d 68cd f2bc
00000020: c92d 543d d89d bd3b 3efb 7bbe 33a2 87be
00000030: 6427 463e d84e fcbd 77f3 88be a85f aebe
00000040: 666c 92b8 4d6c 09b9 d27f 31b8 6098 85b7
00000050: 1c36 4bb9 0bc7 2bb9 6996 5fb8 c6fd 8738
00000060: 548a 7338 df25 95b7 4a55 e638 0e4d 6739
00000070: 2f40 183a f626 a3b9 2f79 29b9 0b1e 4eb9
00000080: ffb0 81bb f64b 49bb 344f 8e3d eae2 283d
00000090: e1cf 54bd be0d ed3c bdd0 1b3d a936 d03c
000000a0: b8ec 2bbd c7b4 573d 66ad 08bd 2280 10bd
000000b0: 2528 b1b9 2172 9f3d 2d6f 483a cab3 1a3c
-0.31085464 -0.31260422 -0.20528437 0.02185314 -0.15468842 -0.25476786 0.032889158 -0.029638961
0.051801477 0.0057866387 -0.2460756 -0.26490936 0.19350964 -0.12319726 -0.2674825 -0.34057355
-6.982013e-05 -0.00013105683 -4.231913e-05 -1.592579e-05 -0.00019379746 -0.0001638198 -5.3307424e-05 6.4845706e-05
5.8064543e-05 -1.777982e-05 0.00010983141 0.00022058582 0.0005807904 -0.0003111881 -0.0001616224 -0.00019656883
-0.003957867 -0.0030715442 0.069487005 0.041232027 -0.05195606 0.028937217 0.038040865 0.025416689
-0.0419738 0.052662637 -0.03336849 -0.035278447 -0.0003378998 0.0778544 0.0007645961 0.009442279

weight f4 [16, 16]
00000000: 41ae 76bd 7430 903e f386 a4be da60 153e
00000010: 5e32 8b3e c900 573e 88d7 8fbe ba65 163e
00000020: e480 10be ee7a bf3e c5af 813c cdc7 25b9
00000030: c6e7 cbbe caea 9e3e 867d 83be b7a5 c5bd
00000040: 6419 bebe 35fe c4bd e90b 2d3e 20a2 b43d
00000050: 81eb 75be ab5b 64bd 17c5 8ebd 3a14 96be
00000060: 709b e23d c9d5 bbbe c3d5 0cbe 3d5a acbe
00000070: 2105 abbe 5caf 7e3e 78b9 803e 357d 62be
00000080: 4450 21bd 39c5 4fbe d53f 95be d42f 2ebe
00000090: a09c 47bc e6f6 88be 77dd 6abe 1280 46be
000000a0: da8b c8bb f1fe 9c3e 94f9 94bd 0c32 0d3e
000000b0: 8eaa e13e b090 8d3d b5b2 7d3e f4a7 10be
000000c0: 6ad8 ad3e 91af 8dbe aaf1 4f3d 8008 083d
000000d0: 345e 87be c5c5 90be 470c 503e b386 dd3d
000000e0: 6801 a53e e7d6 7cbe 0e00 36be 2ed5 0d3e
000000f0: 3b52 313d 8080 3b3e 3aa9 c0be 2c46 47be
00000100: b3c6 b7be cdb7 073e 4512 ac3e e603 7dbe
00000110: 4c3d dabe 5bcf 12be b415 22be a6b9 86be
00000120: 74ca 93bd 5e77 953e a617 dcbe 6122 bfbe
00000130: a0c0 433e 60fd 47be 0416 0e3e 2bf6 6b3e
00000140: 3c59 3e3e fee3 e03d 0f03 1cbe 81c1 a3be
00000150: 7da0 7fbe 0523 923e d096 46bd b1ee 89be
00000160: ebf0 873d 7b16 06be 839a 443e a60e e7bb
00000170: 98f2 433e 45fc a43e 3c47 f63d 481c 7dbd
00000180: 21e6 87be 3136 f53d 8f87 67be 10f1 9abe
00000190: da5a 01bd d72d f5bd 7911 c03e 1c3d afbe
000001a0: 0c5e 853d f99c 7ebd fd60 fa3c 5c33 91be
000001b0: 6fa2 54be 62f0 7bbe 4e5a 503d b923 a4be
000001c0: 4690 d83e f088 7b3e 5574 c73e 8cfa 1f3e
000001d0: 34e3 4a3e b1b8 64be 9ebb 1b3e 23c2 913e
000001e0: e229 9fbe 63c8 503e e47f a73d a4e9 53be
000001f0: ae5b b7bd 8919 8cbd e036 eabd 1c4a af3e
00000200: 65ae 863e 5540 9cbc 6d14 24bd 3300 b0be
00000210: 8225 bc3e 9b8e 773e 2cd8 bb3e 2193 a9bd
00000220: 52d2 1a3b bb0d 2c3e ab69 9abe a470 9dbd
00000230: bd32 fdbd b018 7d3e 394e 713d 6a33 763d
00000240: c589 cd3d 421e 8d3e 63d7 a1be c013 6bbe
00000250: 73d3 c03e 166e 3a3e 4496 55be 85c4 643e
00000260: e784 96be e50f 91be 6d8e ff3d fda2 babe
00000270: 0aad 08be 4c8b 2ebe 2ac6 ec3e 4488 473e
00000280: 38cf 6dbe 3891 5c3d 62d2 4e3e dcc0 76be
00000290: 37c7 d23d c774 a5bd 3cab bc3e f0d3 573e
000002a0: 6920 223e 552b 7d3e 4a53 b73d b1b3 ed3d
000002b0: abb5 8f3e 92bd 8d3e 0bff 273e 0f83 bdbd
000002c0: 7b84 723e 54a7 4e3c d8cc a6bc fbab b3be
000002d0: 2182 7d3d f5e2 90be be8c 613e d2bb c3bd
000002e0: bd91 03be b62e 53be f2df 9abd a37f 463e
000002f0: 0b76 84be 0e35 ecbd 8cc8 a03c ffb3 76be
00000300: 738c 3d3e 59aa b83e 160a 553e 27d5 a5be
00000310: a086 a33e 6eb3 093e 5448 6dbe a08a 63be
00000320: c629 07bd e1c7 6bbe b845 913e 1fc9 0f3e
00000330: 0952 b23e 6c93 9cbd 8a12 83bd 2cd2 1c3e
00000340: 7f4a dabd 99e3 be3e d815 b0bd cc57 353e
00000350: 7957 58bd f858 b1be 7637 ecbd 912a 323e
00000360: 7378 45be 2539 95bd 7e1c 5fbe 98b1 213e
00000370: 85f2 27be b044 d23e baf4 91bd 1f55 d33e
00000380: b6a0 0d3e c93f 663e 9aa4 debd 3dda 373e
00000390: 8529 aabe 0d7c abbe 0330 76be 30bd 983e
000003a0: c4f1 debe a0b6 2ebd 3a9e 1e3e 91f3 5d3d
000003b0: 0bcc 4b3b c193 b9bc 83a3 cc3d 0d50 9a3e
000003c0: 8139 b9bd d738 d83e 1896 ce3d 9d12 8cbe
000003d0: 9e40 b1be 43d0 9b3e 907c 77be db91 a13e
000003e0: 1396 6d3e 3f94 bf3e 609a c2be 6e61 a83e
000003f0: 3686 473e 0b3c 013f 204a cf3d 7b52 2ebe
-0.060224775 0.28161967 -0.32134208 0.14587727 0.27186865 0.20996393 -0.28094125 0.14687243
-0.14111668 0.37398475 0.015830884 -0.00015810058 -0.39825267 0.31038505 -0.25681704 -0.09650748
-0.37128747 -0.09618799 0.16899075 0.088199854 -0.24015619 -0.055751484 -0.06971186 -0.29312307
0.110648036 -0.36686543 -0.13753419 -0.33662596 -0.3340235 0.24871582 0.251415 -0.22118075
-0.039383188 -0.20290078 -0.29150262 -0.17010432 -0.012183338 -0.2675087 -0.22936045 -0.19384792
-0.006120187 0.30663255 -0.07274166 0.13788623 0.44075435 0.069123626 0.24775203 -0.14126569
0.33954173 -0.2767301 0.05076758 0.03321123 -0.2643906 -0.28275886 0.20317183 0.108167075
0.32227635 -0.24691354 -0.17773458 0.13850853 0.04329131 0.18310738 -0.3762911 -0.19460362
-0.35893783 0.13253708 0.3360769 -0.24708518 -0.4262489 -0.14336912 -0.15828592 -0.26313514
-0.07216349 0.29192632 -0.42986792 -0.37330917 0.1911645 -0.19530249 0.13875586 0.23043124
0.18588728 0.10980986 -0.15235542 -0.3198357 -0.24963565 0.28542343 -0.04848367 -0.2693992
0.06637748 -0.13094513 0.19199567 -0.007051307 0.19135511 0.32223716 0.12025306 -0.06179455
-0.26542762 0.11973227 -0.22610305 -0.3026204 -0.031580783 -0.11971634 0.3751333 -0.3422631
0.06512079 -0.06216142 0.030563826 -0.28359497 -0.20765088 -0.24603418 0.05086737 -0.32058504
0.42297572 0.24563956 0.38955942 0.1562292 0.19813234 -0.22336079 0.15208289 0.28468427
-0.31086642 0.20388941 0.0817869 -0.20694596 -0.089530334 -0.06840808 -0.11436248 0.34236228
0.26304927 -0.019073645 -0.040058542 -0.34375152 0.36747366 0.24175493 0.36688364 -0.08280016
0.0023623896 0.16802113 -0.30158743 -0.076875 -0.12363193 0.24716449 0.05891249 0.060107626
0.10036043 0.27562147 -0.3160964 -0.22956753 0.37661323 0.18206057 -0.20858103 0.22340591
-0.2939827 -0.2833244 0.124783374 -0.36452475 -0.13347259 -0.17045325 0.46244937 0.19485575
-0.23223579 0.05384943 0.20197442 -0.24097008 0.102919035 -0.08078914 0.3684939 0.21076941
0.15832676 0.24723561 0.08951433 0.11606539 0.2806829 0.27683693 0.16405885 -0.09253513
0.2368335 0.012613136 -0.020361349 -0.35092148 0.06189168 -0.28298154 0.22026345 -0.09557308
-0.12848563 -0.20623288 -0.075622454 0.19384627 -0.2587131 -0.11533557 0.019626878 -0.240921
0.18510608 0.36067465 0.20804629 -0.32389185 0.31938648 0.13447353 -0.23172122 -0.2222085
-0.032998823 -0.23025467 0.28373504 0.14041565 0.34828213 -0.07645306 -0.064000204 0.15314549
-0.1065874 0.37283018 -0.08597916 0.17709273 -0.052817795 -0.3463819 -0.11534016 0.1739905
-0.19284229 -0.0728629 -0.21788213 0.15790403 -0.16401108 0.4106803 -0.07126756 0.4127588
0.13830838 0.2248527 -0.10871239 0.17954345 -0.33234802 -0.3349308 -0.24041753 0.2983184
-0.43543828 -0.042654634 0.15490046 0.05418736 0.003109696 -0.022653462 0.09992125 0.301392
-0.09044171 0.42230865 0.10087222 -0.2735795 -0.34619612 0.3043233 -0.2416861 0.3155659
0.2320178 0.3741779 -0.38008404 0.32886833 0.19484791 0.50482243 0.1012156 -0.17023651

bias f4 [16]
00000000: 7b55 e83c 069c 573c ed7e 0f3a 271a f33c
00000010: 86b5 c4bc 89f4 1bbd 2ace aa3b 1267 c2bd
00000020: 9c93 5c3b 1bb1 2fbd 9e8f 9c3c e803 b53b
00000030: a022 893b 830b 5c3d 181b a7bc da8d 89bd
0.028361073 0.0131597575 0.00054739305 0.029675556 -0.024012338 -0.038075004 0.005212565 -0.09492315
0.0033657318 -0.04289351 0.01911145 0.0055241473 0.004185036 0.053721916 -0.020398661 -0.06716509

weight f4 [128, 16]
00000000: 0fe1 79ba be40 8e3d 79c5 71be a244 eebd
00000010: 124d 13be f84f ad3e 0435 afbd 6fc6 a5bd
00000020: 1e8b 013e 3426 a0b9 916d 5d3d f7f3 0bbe
00000030: 3230 573d e226 7fbe a24e 15bc 408c 25bb
00000040: 13a9 ccbc f6da 46be 5ec5 0dbe 31c3 eabd
00000050: 0c23 fabd fc79 8e3e edb9 dabc eecd e33c
00000060: 7963 b4bd 46ae ef3d 9108 443d be08 a6be
00000070: 9af5 07be 2542 98be dd74 653e 1e9c 36bc
00000080: 1a46 023e d14b 6c3e f822 c63b dac7 853d
00000090: 3658 f63d 6f6b 0fbe d5d9 af3d ba05 7d3d
000000a0: cbc6 243e d64f 433d 6407 4d3c adf8 533d
000000b0: da4c 2f3c 2b1e 52be a4f4 0e3d 41a0 23bd
000000c0: 66d1 253e bcfc 143e a308 683d 0b02 5b3e
000000d0: 9df8 58be d02d cbbb 2b98 373d a511 623d
000000e0: def6 e4bd e5be 16be dd53 fd3d a964 21be
000000f0: b408 6ebe a3d5 633d e9be 86bc 8048 1f3e
00000100: 1515 34be 1505 143e de4c ba3e 731c 873e
00000110: 5ebd 6cbd e4a0 89bd 289c 8dbe c00d 9cbe
00000120: 1426 833d 2b8b 2a3e 51c7 79be 0c50 183d
00000130: ea86 633e bb15 76bd 08b9 43bd 4625 8bbd
00000140: c7bb 16bd ebde 7a3d 0275 523e 9cd6 4c3c
00000150: fba5 283d fe29 dd3b 3879 c0bd 9465 6f3d
00000160: 5caf 633c 8217 64bd 5a6c 45be ab74 323d
00000170: fd3b de3c bc98 52be 4bdc 8dbc 331a 23bd
00000180: 1e58 55be 99cc 293b 16fb dfbd 29c0 eebc
00000190: 21ee 8abd bc30 723d f8e8 623e 21d0 a13d
000001a0: 8306 42be f93b 6c3c a890 14bd 03bb 40be
000001b0: f393 d33d c752 03be 383f 773d 6f39 7cbe
000001c0: 16a1 4c3e 3208 123c c1f6 ec3d 99bd c03d
000001d0: 925c c4bd 841f 9dbd 8fae 10bb 6261 243d
000001e0: ff93 ddbd 6b9f 38bb 5991 52be 59f1 b73d
000001f0: bae7 bf3c f8a8 f4bc b0c4 dcbd 72a9 87bb
00000200: 6b0c 84bd 475b ffbd 75d8 6c3d 5a06 203d
00000210: c3d4 1cbe 24f0 063f 9752 07bc be61 143e
00000220: 0e0a 263e 8e22 783e 2be2 b43d cdb0 74be
00000230: 5313 34be 3eba 05be 37e9 3b3e 4bf9 66bc
00000240: d757 09be 5137 60bd 4bef 683e 1406 cabd
00000250: f858 ae3c 4575 d9bd fd61 643e 392d 2ebe
00000260: 77fe 1abe e420 ca3d 91d2 963d 78ff dbbc
00000270: 1980 25bc 6365 53be 9a24 d1bc 0750 23be
00000280: f5b5 e13d 44c7 fdbd 14c9 7cbe 03a5 ad3d
00000290: a2c9 9c3c aab8 213e 2892 ef3d aa6e 5ebd
000002a0: 9a42 57be 7afb 173e 68c1 e03d 2097 d83d
000002b0: 4d03 7abd 5f0f b9bd 6a31 a53d 6981 35bc
000002c0: ff0b dcbd d9da 493d b323 35ba 617f 7fbd
000002d0: 55a8 0fbe 01c2 f2bd 6eaf c6bd 9d8a 01be
000002e0: a0d3 503e 987a 23be ee32 a9bd 2dc6 03be
000002f0: 3438 863d 38a8 9abe bc2b bcbd 5fc2 27be
00000300: 83b4 1bbd 7597 ca3d 70bc 8c3d 44d6 4b3b
00000310: d377 4f3c 6458 d03b 99c4 37be f75f 3ebf
00000320: 9cce 043e b1f8 7c3e f03b 373e ef5a c23c
00000330: 72cc 0b3e 5075 a33d eabe 1d3d 2d67 d23d
00000340: 7d90 133e e2cc bfbb 1c10 18bd 3560 c93d
00000350: 1d10 26be fb35 6fbe 55ea 29be 657e 72bd
00000360: 40e5 b73e f95a fabe 0658 f1be 7970 8bbd
00000370: 43ed 263e a612 acbd 09ea 763c b0fc 81bd
00000380: ef10 36be 2518 4fbe a54b c83e 2313 fb3d
00000390: e60b 22be db77 1b3e b762 92bd 1d69 6dbd
000003a0: 9ed6 1abe a26c 3fbe f878 a13a c9a0 2cbe
000003b0: ba7e 293e 7973 dfbd 04a0 5e3d 4ff6 1abe
000003c0: 582f 19be 2468 02bc 1bdf 92bd 94fc a03b
000003d0: 2f82 f6bd ebc2 e7bd 332f 89bc 3204 23bd
000003e0: 34a8 c53e f91e b1be daad e9be 9981 993d
000003f0: 5e0b 0e3e c02a a73c 625b 8a3d 3e53 47be
-0.00095321325 0.06945942 -0.23610486 -0.116341844 -0.14384869 0.33850074 -0.08555034 -0.08094489
0.12650725 -0.00030546042 0.05405957 -0.13667284 0.052536197 -0.24917176 -0.009112986 -0.0025260597
-0.024982965 -0.19419464 -0.13844821 -0.11463011 -0.12213716 0.27827442 -0.026699984 0.027808156
-0.088080354 0.11703162 0.047859732 -0.32428545 -0.13277283 -0.29737964 0.22407861 -0.01114562
0.12722054 0.23075797 0.006046649 0.06532259 0.12028544 -0.14005826 0.0858647 0.06177304
0.16091458 0.04768356 0.012513969 0.051750828 0.010699475 -0.2051932 0.034901276 -0.039947752
0.1619316 0.14549536 0.05664886 0.21387498 -0.21188588 -0.0062005296 0.044822853 0.05519261
-0.11179899 -0.14721258 0.12369511 -0.15761055 -0.23245507 0.05562366 -0.016448455 0.15555
-0.17586167 0.14455064 0.3638677 0.26388893 -0.057797782 -0.067201406 -0.276582 -0.3047924
0.06403747 0.16654651 -0.2439244 0.037185714 0.22219434 -0.060079318 -0.04778388 -0.06794219
-0.036800172 0.061247747 0.20552447 0.012502339 0.041173916 0.0067493906 -0.09398121 0.05844648
0.013896789 -0.05568648 -0.19279614 0.043568294 0.027128214 -0.20566076 -0.017316958 -0.039819907
-0.20834395 0.0025909303 -0.10936563 -0.029144363 -0.06783701 0.059128508 0.22159183 0.079010256
-0.18947797 0.0144185955 -0.036270767 -0.1882134 0.103309534 -0.12824546 0.060363024 -0.24631284
0.19983324 0.008913087 0.11570502 0.09411163 -0.09587969 -0.07672027 -0.0022076701 0.040131934
-0.10819244 -0.0028171192 -0.20563258 0.0898158 0.023425926 -0.029865727 -0.10779703 -0.0041400725
-0.06447681 -0.12468582 0.057823617 0.039068557 -0.15315537 0.52710176 -0.008259437 0.1449041
0.16214773 0.24231932 0.088322006 -0.23895569 -0.17585497 -0.13059327 0.18350683 -0.014097522
-0.13412414 -0.054740254 0.22747533 -0.098644406 0.021282658 -0.106180705 0.22303005 -0.17009439
-0.15136133 0.09869555 0.07364381 -0.026855215 -0.010101342 -0.20644145 -0.025530148 -0.15948497
0.11021034 -0.123915225 -0.2468608 0.08478739 0.019139115 0.157931 0.11697799 -0.054304756
-0.210215 0.14842024 0.10974389 0.105757 -0.061038304 -0.09036135 0.080660656 -0.011078217
-0.107444756 0.049280975 -0.00069099216 -0.062377337 -0.14029057 -0.118534096 -0.09701429 -0.12650533
0.20393229 -0.15964735 -0.08261667 -0.12868567 0.06553689 -0.30206466 -0.09188029 -0.1638274
-0.038013946 0.098921694 0.06871879 0.0031103054 0.012662846 0.0063581932 -0.1794609 -0.7436518
0.1296944 0.24704243 0.17893958 0.023725001 0.13652208 0.0798136 0.038512148 0.102735855
0.14410587 -0.0058532814 -0.037124738 0.09832803 -0.16217084 -0.23360436 -0.16593297 -0.05920257
0.3591709 -0.48897532 -0.4713747 -0.06808562 0.16301446 -0.084019944 0.015070447 -0.063470244
-0.17779897 -0.20224054 0.39120212 0.122595094 -0.15824851 0.1518244 -0.071477346 -0.057961572
-0.15120932 -0.18693784 0.0012319377 -0.1685821 0.16552249 -0.109106965 0.05435182 -0.15133022
-0.14959466 -0.007959399 -0.0717146 0.004912922 -0.12036549 -0.113164745 -0.01674614 -0.039798923
0.3860489 -0.34593943 -0.4564045 0.07495422 0.13871524 0.020406127 0.06755711 -0.19465348

bias f4 [128]
00000000: 91b9 463e 1eca 26be a646 693d 63a4 a8bd
00000010: b982 ac3d 75a7 fabc a262 833d 6f5e 92be
00000020: 6594 41bd a092 0c3e c5de 633e 50da 41be
00000030: 6109 d5bd cc0a bb3d e4da 093e cffc 70bb
00000040: 44f5 1f3e 5415 103e d129 61be 2d43 0dbd
00000050: f859 5bbe 422b 21bd dc9e 023e 01ad 473e
00000060: 4f36 623e 53be 35be f7f3 1dbe 76d3 91be
00000070: 3607 82be 9b9e 67be e026 81be 08fa 0a3e
00000080: 10bb 53be 2f90 04be 49da 593d 0454 003e
00000090: 781f 173d ad8b 89bc a636 013e 8d14 80be
000000a0: 3f0b 023e e83c 083e 8f71 8bbe ca28 cd3d
000000b0: cba1 0b3d 8a79 713d 69cc 05bc 8720 4c3d
000000c0: ba9f 1d3e 0656 74bd f782 d33d fb59 4bbc
000000d0: 01a2 95be 1a57 2bbd aed5 4dbe 85dc 87bd
000000e0: 3c46 49be ce88 d0bd dd48 cb3d da64 4bbd
000000f0: d714 203e 5f8a 713e 1a1f 073e caa1 8ebe
00000100: 9404 8cbe 10ec 193e 2f7a 6cbe 6798 663e
00000110: ed7e 83be e670 cbbd ae66 d73c 2c34 3cbe
00000120: 8fbb 17bc d71b 9bbe 50ab e73b 1b3f be3d
00000130: 0f95 213d e743 da3c d1cc 2a3e 025e 1d3d
00000140: a225 18be 684b 3cbe 9dab 2abe 5c08 76be
00000150: 1324 0cbb 82ca 2b3e b805 81be 655a 2c3e
00000160: 79cb 7bbe 89d9 cc3d ec9f 0fbe 6036 47be
00000170: 66b7 3a3d 8b43 babe 8782 03be f6bf 36be
00000180: 3c74 63be a5c9 213d f0fa c83d 8251 48be
00000190: 6b89 fc3d 46f0 d63d d2ef 3cbd ff2c b13d
000001a0: 153c 363e 88c7 dabd 9f32 823e 475c 2a3d
000001b0: d6fd 21be 2c19 a0be 3471 c6bd e51c 8ebc
000001c0: 542b babd 9b09 ad3d 8abd b63d d93e af39
000001d0: 8d2b 283e eefe 613d 1861 3abe 0e3f c7bd
000001e0: 9377 803d 3db0 eb3d ebb9 173e 6cae 14be
000001f0: d69d 66be 22d0 d637 fdb6 9d3d b07d 3ebe
0.19406725 -0.16288039 0.05695214 -0.08234479 0.08423371 -0.030597428 0.06415297 -0.28587672
-0.04726066 0.13727808 0.22252949 -0.18930936 -0.104021795 0.09132919 0.13462406 -0.003677178
0.15620905 0.14070636 -0.21988608 -0.034487892 -0.21421039 -0.039347894 0.12755913 0.1949959
0.2209103 -0.17748384 -0.15425096 -0.28481644 -0.25396127 -0.22619097 -0.25224972 0.13571942
-0.20676827 -0.12945627 0.05318669 0.1253205 0.036895245 -0.016790235 0.12618503 -0.2501568
0.12699603 0.13304484 -0.27235076 0.100175455 0.034089845 0.0589538 -0.008166411 0.049835708
0.15392962 -0.05965235 0.10327714 -0.01241159 -0.29225162 -0.041831113 -0.20101044 -0.06633858
-0.19655699 -0.101823434 0.09926007 -0.049656726 0.1563295 0.2358794 0.13195458 -0.2785781
-0.27347243 0.15031457 -0.23093484 0.22519074 -0.25682774 -0.09933643 0.026294079 -0.18379277
-0.009261026 -0.30294678 0.0070699826 0.0928938 0.039448794 0.026643706 0.16679694 0.03841973
-0.14858106 -0.1838814 -0.16667028 -0.24026626 -0.0021383807 0.1677647 -0.25199676 0.16831358
-0.24589337 0.10002429 -0.14025849 -0.19454336 0.04558506 -0.36379656 -0.12842761 -0.17846665
-0.22212309 0.039498944 0.098134875 -0.19562343 0.12330898 0.10495047 -0.046127148 0.086511604
0.17796357 -0.10682589 0.25429246 0.04159191 -0.15819487 -0.31269205 -0.096895605 -0.017347762
-0.090902954 0.08449098 0.089228705 0.00033425426 0.16422863 0.05517476 -0.18201101 -0.097288236
0.06272807 0.11508224 0.14817016 -0.14519662 -0.22521147 2.5607707e-05 0.07700918 -0.18602633

weight f4 [16, 128]
00000000: 2a17 903d c8f9 f03c c736 a73d 811c 373e
00000010: 19ff 423e 2965 0fbe d5f9 8f3d 0d40 833d
00000020: 6c0c d33d f8f2 18be 1076 f53d 7994 7dbd
00000030: 42ca 563e 7534 673e d071 f73d 221c d73d
00000040: 8ec2 c63d e014 203e 6b6a 013e 4c94 aebd
00000050: 6df1 253e 457a 703d a4d3 a8bd 91c8 a1bc
00000060: 2194 01be b09a bf3c 8a35 4a3c c0dd bb3d
00000070: 0fcb b53d 3f56 b83d ee05 f63d 1ad0 1fbe
00000080: eef0 f53d 33fd 733d 5acf 36be 3271 c73d
00000090: 78c5 993d 7f51 663b 9229 17bd b00d 31bd
000000a0: 5ac5 c43d 31d2 c3bd cef6 a53d 53ec e0bd
000000b0: 0375 01be 90ea ec3c 2ada b3be 1e31 bbbd
000000c0: 8350 1b3d 9d8a dbbd 96b4 ebbc 4827 583e
000000d0: 958f 8fbd a583 2cbd 6219 76bd c7d5 bd3b
000000e0: 8616 3bbe 17d8 623c c90c 5ebd a5f0 eebd
000000f0: fd14 633e 17af 26bc afb1 923d 0638 4b3e
00000100: 26d1 243e 4935 3c3e 04bb 52bc 28ea da3d
00000110: fc6e 10be ee11 6a3d 86ff 183e e28f 74bd
00000120: 43ed 3fbe af5c a4bd d030 f9bd d9a1 353e
00000130: 4f65 cdbd 71bb fbbc 6ba6 ab3d 9273 343d
00000140: 5dd3 bfbd 8046 643c ca1b efbd d8ef 653e
00000150: 86c2 ff3c 7e39 a3bd 6b76 10bd e587 693e
00000160: 6935 803d e03c 39bc d451 263e 74a2 13bd
00000170: 02fa 8dbc 2897 97bd b638 8e3c 272f d23c
00000180: 92af 833e dae3 9fbd 8977 623e bc56 273d
00000190: 525c 353e aa23 6b3e e00a 93bd 9326 8b3d
000001a0: 81fe 5e3e c92f 0d3d bd16 433d 07c0 b63e
000001b0: ee1e 653d 7323 393d 68fc c83c 026f c3bd
000001c0: 0205 e1bd 38e0 7cbd 4903 c8bd a8b8 853d
000001d0: 41db 7d3e 0bd7 cc3d 968b 6c3d 466e 523e
000001e0: 07f0 493e 5e48 0b3e 1efc bd3d b448 1ebe
000001f0: 55f6 1b3d 5264 883c 7428 bf3b c6f9 2cbc
00000200: 1245 9f3d f34e 5dbe 76cd 343e 6579 2fbe
00000210: 4d59 8dbe bae6 3abe 28bf 21be d91a 183e
00000220: 390c 443d e56a 8ebc ac58 49bb 8cf9 9dbd
00000230: 4407 453e 22b0 2abe 7a43 41be 72ec 213e
00000240: 95f2 05be e5c9 51be b4a4 3abd ad1f aabc
00000250: acdd 2d3e c4ef 7e3c 865a 323e b5b1 04be
00000260: d65a 243e 450e ef3d fd08 96bc 4b57 323e
00000270: e60d 903d 3259 bc3c 3541 293d 6d1f 093e
00000280: 1778 20be a214 b2bd 08bf 233e b155 d3bc
00000290: cd6e 07be 7af2 1cbc 6d6f 0a3e 96c9 02be
000002a0: 8df3 1bbd 21e8 12be b883 1f3d e073 f3bc
000002b0: 0cf2 0bbe b5a2 1f3e 6b1b d4bd c8f9 17bd
000002c0: 6138 63be 24ce 543e aea7 31be 0c05 e73c
000002d0: 1509 893d 2aa8 cfbd b23c 31bd fd9b 4fbe
000002e0: 7f92 813c 531f 133e b272 08be 9392 e43c
000002f0: f7e0 f0bc 3863 60be 8836 4d3d a6e5 8fbc
00000300: b444 61be 4b1b e83d f6c2 eabd 5f3e b6bd
00000310: 90cb e5bd 4c91 18bd 975e c1bd f35c db3d
00000320: 49a0 79bc 279e d1bd adf4 89be f6d9 3c3e
00000330: ab60 323b 7220 53be 8b41 9ebe 8ec9 2abd
00000340: 3ac0 5bbe f542 fabd 26f5 abbd a61d 87bd
00000350: 7f84 e23d b604 803d 5d20 033e 9630 0d3e
00000360: 0e7a 823d dc36 63be 7669 27be 6d4b 07be
00000370: 5fd6 f3bd 8203 193c 4d7d 3ebe 5f9e 44be
00000380: 5c75 3cbe f1a1 313e 735b 2a3e 63b5 1fbd
00000390: b6f5 243e f811 86bd ce59 42be b2d8 75bd
000003a0: 649e 1e3e d46c 25be af74 eabd 9c43 773d
000003b0: fb0d 9d3d 49cc 2c3e 1a0a 1bbe b4c3 f33d
000003c0: d509 383e 1f55 553e 58b3 47be b4bd 8f3e
000003d0: d595 833c 5098 f3bd 62c7 8f3e a929 85bd
000003e0: 96a5 d33d 7653 52be b511 1cbe 6d11 abbd
000003f0: fd45 14be 4c56 1abe e16f 893d f2cd 4dba
0.07035668 0.02941598 0.08164745 0.17881967 0.19042625 -0.14003433 0.070300736 0.06408701
0.10305104 -0.14936435 0.11985409 -0.061909173 0.20975593 0.22578605 0.12082255 0.10503413
0.09705077 0.15632963 0.12638251 -0.08524379 0.16205378 0.058710355 -0.08243492 -0.019748958
-0.12654163 0.02338919 0.012341866 0.09173155 0.08876621 0.09000825 0.1201285 -0.15606728
0.12008844 0.05956764 -0.17852536 0.09738387 0.07508367 0.003514379 -0.03690488 -0.043225944
0.09607954 -0.09561575 0.08103715 -0.10982575 -0.12642293 0.028920442 -0.35127383 -0.09140228
0.03791858 -0.10719798 -0.028772634 0.21108735 -0.07009808 -0.042117734 -0.0600828 0.0057933065
-0.18270311 0.013845465 -0.05421141 -0.11666993 0.22175975 -0.010173581 0.07162797 0.1984559
0.16095409 0.18379702 -0.012861971 0.10689193 -0.14104837 0.057146005 0.14941224 -0.05970753
-0.18742852 -0.080254905 -0.12167513 0.17737521 -0.10029089 -0.030729027 0.08381351 0.04405553
-0.09366486 0.013932824 -0.11675222 0.22454774 0.031220686 -0.0796995 -0.035269182 0.22805746
0.06260187 -0.011306018 0.16242152 -0.0360436 -0.017331127 -0.07401878 0.017361026 0.02565725
0.25719887 -0.07807131 0.22115912 0.0408542 0.17710999 0.22962824 -0.071798086 0.06794467
0.21776773 0.0344694 0.047629107 0.3569338 0.0559377 0.045199823 0.02453442 -0.095426574
-0.10987283 -0.06173727 -0.097662516 0.06529361 0.2479067 0.10001954 0.057750307 0.20549878
0.1972047 0.13601825 0.09276603 -0.15457422 0.038076717 0.016649399 0.00583368 -0.0105575975
0.07776846 -0.21612148 0.17656502 -0.17136152 -0.27607194 -0.18252078 -0.15795577 0.14853992
0.04786322 -0.017384956 -0.0030723019 -0.07713613 0.19241053 -0.16668752 -0.18873397 0.15812853
-0.13080819 -0.20487173 -0.04556723 -0.020767057 0.16979092 0.015560094 0.17417344 -0.12958415
0.16050276 0.116726436 -0.018314833 0.17416112 0.07033901 0.02299175 0.041321952 0.13390894
-0.1567081 -0.08695342 0.15990841 -0.025797697 -0.13225861 -0.009579295 0.13519068 -0.12772211
-0.038074065 -0.14346363 0.038943976 -0.02971834 -0.13666552 0.15589412 -0.10356792 -0.037103444
-0.22189476 0.20781761 -0.17349121 0.028200649 0.066911854 -0.101394966 -0.043270774 -0.20274349
0.015816925 0.14367418 -0.13325003 0.027901923 -0.029404147 -0.21912849 0.050100833 -0.01756556
-0.21998864 0.11333331 -0.11462967 -0.08898615 -0.11220467 -0.03724794 -0.0944187 0.10711088
-0.015235969 -0.10235243 -0.26944485 0.1844252 0.0027218263 -0.20617846 -0.3090938 -0.041696124
-0.21460047 -0.12219802 -0.08396368 -0.06597452 0.11060428 0.062508985 0.12805314 0.13788065
0.06370936 -0.22188896 -0.16348824 -0.13212366 -0.119061224 0.009339215 -0.18602486 -0.19201039
-0.18404144 0.17346932 0.16636448 -0.038991343 0.16109356 -0.06546396 -0.1897957 -0.06002111
0.15490109 -0.16154796 -0.11448037 0.06036721 0.07668682 0.16874804 -0.15140572 0.11902562
0.179725 0.20833252 -0.19502008 0.2807442 0.016062656 -0.11894286 0.28081805 -0.06502087
0.103343174 -0.2053965 -0.1524113 -0.08352933 -0.14479823 -0.15071982 0.06710792 -0.00078508176

bias f4 [16]
00000000: a4ee 0cbc 61ea 333d f909 c0bc 75dd 73bd
00000010: c6db 55bd 90bf 80bc 63bd da3c 37dc 84bd
00000020: fcc0 56bd bc6d ec3c c09f a93d e01b 233d
00000030: ccdc f1bc e9a5 56bc 396e b23d 1c8c d1bd
-0.008601818 0.043924693 -0.023442255 -0.05953737 -0.052211545 -0.015716344 0.026701635 -0.06487315
-0.052430138 0.02886092 0.08282423 0.039821506 -0.02952423 -0.0131010795 0.087124296 -0.10231802

weight f4 [16]
00000000: 4e3c 783f 99e9 743f cc9a 643f 2e21 5c3f
00000010: 2d25 753f a09d 923f b349 4d3f b12a 603f
00000020: c9f5 923f 28e5 873f fd06 923f 56b7 813f
00000030: 4c0d 923f f780 7e3f 1a61 6e3f f764 5a3f
0.9696702 0.9566894 0.892987 0.8598813 0.9575985 1.1454353 0.8019058 0.8756514
1.1481258 1.0616808 1.1408383 1.0134075 1.1410308 0.99415535 0.93116915 0.8531031

bias f4 [16]
00000000: e309 3a3d 6d6a b73d 75bb cc3d 4021 f13d
00000010: 0b24 8ebd 2385 f43c 15f6 cf3d ecc3 e5bd
00000020: af0b 3cbb fe5c f8bc 1564 56bc e149 2bbd
00000030: 5e24 043c 55ee 75bb c3dd 9d3d 6402 b8bd
0.045419585 0.08955846 0.09996692 0.1177392 -0.069404684 0.02984864 0.10154358 -0.1121901
-0.0028693487 -0.03031778 -0.013085385 -0.041818503 0.008065311 -0.003752609 0.07708313 -0.08984831

weight f4 [16]
00000000: 4a6d 843f a0e9 763f a460 8a3f d889 7f3f
00000010: 251a 7f3f 36ce 8d3f ce13 703f 4d92 743f
00000020: 11f0 893f d52c 843f 3976 863f 839c 803f
00000030: 6d1e 823f 252d 863f 9950 6b3f c89b 513f
1.0345852 0.96450233 1.0810742 0.9981971 0.9964927 1.1078556 0.9378022 0.9553574
1.0776387 1.0326182 1.0504829 1.0047764 1.0165535 1.0482527 0.9191986 0.8187833

bias f4 [16]
00000000: 58c5 cebc a6f1 6d3d 02d7 8cbc 806b 023d
00000010: cae7 fabb 95fe 8b3c 6df1 013d 8acf 79bd
00000020: 54ed 5a3c fa0e 3dbd 600b 8abc 3128 a3bb
00000030: 9e4b 413d fb38 c83c dde4 cb3c 63c2 1bbd
-0.025240585 0.058091782 -0.017192367 0.0318408 -0.007657026 0.017089168 0.031724382 -0.06098894
0.0133622475 -0.04615686 -0.016851127 -0.0049791564 0.047191255 0.024441233 0.024889404 -0.03802718

in_proj_weight f4 [48, 16]
00000000: 5e0b bcbe 20d2 493e 7c3c c13e 2400 933e
00000010: 7223 9fbd 94b9 943e 7779 9e3e 041a 0d3d
00000020: 7c5f 0a3e 0620 9dbc acb3 72bd e7b7 ce3d
00000030: ccb8 22be 399d b8be 8dac 613e 779d bf3d
00000040: e343 00be 243f 61be 0cfc 4dbd 2b2d d7bd
00000050: 312f 07be 4193 cbbd 9b66 1d3e eb74 803d
00000060: 0226 87bd 2e51 2fbe 84b6 11be 2384 a5bd
00000070: aac9 c03d 9335 923e 877b 81be fa7c b3bd
00000080: d282 55be 7934 b03e 2435 f5be cc1a 5e3e
00000090: c7d1 b13e 08d2 2d3d f9a1 c2bd 0c7d 833e
000000a0: 27d5 633c 6c9c b6bd 47d3 2bbe b015 923e
000000b0: ed0d febc 154a 4dbe 66ac 41be 6970 85be
000000c0: 6db3 97bd 2767 9d3d a6b7 703d 44be 1fbe
000000d0: f977 e63e 82be a4be 2a3c 573e f4a8 2f3d
000000e0: 2fad 603e 9665 a2be 07f0 953d e128 f5bc
000000f0: 4cc0 3e3e b84c 0fbd ed52 32be f57c adbe
00000100: 6905 973e 6e7b 88be b79b 44be 2dcc 1e3c
00000110: bd20 86be df6e adbe 3d9b 93be 6258 873c
00000120: fe7b bebd 52f3 923e 94cd 473e 51e9 3d3e
00000130: b42d 86bd 3956 8d3e 1f87 b1bd b323 803e
00000140: b33a 60bd e44b c2bd c1c2 6dbe 9a25 493e
00000150: cf32 8d3e 04c7 20bd 6589 cc3c 8237 55be
00000160: 8b9f b03e 9360 963d cf4a d3bb 25f4 a93e
00000170: ebb8 043f 47c2 7fbd e240 ae3d e446 d83e
00000180: 6794 933e 0d2e 233e e17b 8abd 20df 8bbd
00000190: 8c96 d03d 6fa8 9dbd 55ba 3d3e 08ae 17be
000001a0: f00d 8fbc 3d08 b33c 7cae 7f3e ea2d 8e3e
000001b0: 0533 8ebe 22a3 5abe a28c 36be 583f a4be
000001c0: 60f3 273e c747 0ebe 180e 5f3e 8c7f b9bd
000001d0: 0af5 fd3d 2407 4fbe 2352 06be 2ac7 3e3e
000001e0: 507b 853c 3e42 c3bd e36a b93d 6b0e 5abe
000001f0: 018e 753d 238d 1dbd c186 08bb 8954 4a3d
00000200: a81e 953e 2db3 44be a218 853e 9865 233e
00000210: 009d 44be f46a 74be f530 99be 4761 e7be
00000220: 6938 323e 3d21 763e 3318 bbbe bd23 853e
00000230: 034b 993e ae7b 603e d45e 973d 16f1 623e
00000240: f0dd a3bd f03e 7abe c33e 773e 63e4 7dbe
00000250: 32de debe b91e 12be 5606 a9bd ae9b 5cbe
00000260: eda9 ccbd d39b 6a3d 3bb6 29bd 3451 5c3e
00000270: d9fa 833e 702a 323e 1455 35be 537d a03e
00000280: 2764 70be e0cc 523e 23b0 a7be 4326 1cbe
00000290: 90a0 2b3e 1ef6 8ebe 60e2 4f3e f70b c2bd
000002a0: 7e99 e73e 141f 61bd a955 adbd 7e7b 7cbe
000002b0: 0a34 b8be 59fc a4be 9826 20be 6b5f b23d
000002c0: 4de4 0cbc bac9 22be 9051 45be e3e1 e13e
000002d0: e14a 1c3d 9ff3 7c3e c377 5dbd cc2a 57be
000002e0: 900a 553e b02b a5bd 2761 4d3e 79a6 05be
000002f0: a14f 5cbe 4330 96be f0e6 493e ac0d efbe
00000300: 7ff9 96be d5eb 973e 459d 283e fd8e ff3d
00000310: d8e5 6dbd f550 bebd 29a9 dc3d d88a 853e
00000320: 5734 4d3e 743a 49be c800 dbbe bf12 273e
00000330: 9b86 ce3e 55d2 a73d df8c a93c f345 d5bc
00000340: be9f e73d a377 063e f7d4 273e 0199 343d
00000350: 5a8c c53d 1188 8b3e a00a ca3b a8df 35bd
00000360: 5659 a5be 7ca2 12bd 16a4 413e 1b11 91bc
00000370: ccbb d7be d949 863c d156 cebd 86aa 4d3e
00000380: d112 38be 5ba4 da3e 89db 6a3c e2b0 00bd
00000390: d67f 313d ab07 873e d1c9 053e 2eb0 2fbe
000003a0: 741d 523e b2e7 a2be 3ec1 9e3d d19e 293e
000003b0: 799c c83c e16d b5be 94bb 8c3e 9b6b 583e
000003c0: 6466 14be 3d54 cb3d 5891 573e 7e3f 803e
000003d0: bb7e 3cbd 1ca0 3abe 7601 c03d 4fb6 2ebe
000003e0: cd26 72be c4b5 01be cc90 4ebe 1277 c83d
000003f0: 6e61 02be fc89 74bd 0a04 423e 27be 92be
-0.36727422 0.19709063 0.37741458 0.28711045 -0.077704325 0.29047835 0.30952045 0.03444864
0.13512987 -0.019180309 -0.05925338 0.1009367 -0.15890807 -0.3605745 0.22038479 0.09356206
-0.12525897 -0.21996742 -0.0502892 -0.10506662 -0.13201596 -0.09940196 0.15371172 0.062723
-0.06599046 -0.17120811 -0.1422978 -0.08081844 0.09413464 0.285565 -0.25289556 -0.08764072
-0.20850685 0.34415033 -0.47892106 0.2168991 0.3473036 0.04243663 -0.0950355 0.2568134
0.0139058 -0.08916554 -0.16779815 0.2853217 -0.0310125 -0.20047791 -0.18913421 -0.26062325
-0.074072696 0.076856904 0.05876889 -0.15599924 0.45013407 -0.32176596 0.21019045 0.042885736
0.21941064 -0.3171813 0.07321172 -0.02992672 0.18628043 -0.034985274 -0.17414446 -0.33884397
0.29496315 -0.2665667 -0.19200025 0.009692234 -0.26196852 -0.3387365 -0.28829375 0.016521636
-0.093009934 0.28701264 0.19512016 0.18546034 -0.06551686 0.27604845 -0.086683504 0.25027236
-0.05474348 -0.09487131 -0.23218824 0.1964325 0.27577826 -0.039252296 0.024967859 -0.20821956
0.34496722 0.07342639 -0.006448127 0.3319408 0.5184466 -0.062441137 0.08508469 0.42241585
0.2882416 0.15935536 -0.06761909 -0.06829667 0.101849645 -0.07698142 0.18528111 -0.14812481
-0.0174627 0.021854514 0.24968904 0.27769405 -0.277733 -0.21351293 -0.17827085 -0.32079577
0.16401434 -0.13894568 0.2178272 -0.09057531 0.12400253 -0.20217568 -0.1311727 0.18630663
0.016294152 -0.09534119 0.0905359 -0.21294563 0.05994988 -0.038464677 -0.0020832273 0.049397025
0.2912495 -0.19208975 0.25995356 0.15956724 -0.19200516 -0.23868924 -0.29920164 -0.45191404
0.17404331 0.24036117 -0.365419 0.2600383 0.29940042 0.2192218 0.07391134 0.2216228
-0.080013156 -0.24438071 0.24145035 -0.24794154 -0.43528897 -0.14269532 -0.082531616 -0.21543762
-0.09993348 0.05727751 -0.041433554 0.21515352 0.2577732 0.17399001 -0.17708236 0.31345615
-0.23475705 0.20585966 -0.3275157 -0.1524897 0.16760468 -0.27922148 0.20301199 -0.09474938
0.45234293 -0.05496128 -0.08463604 -0.24656484 -0.35977203 -0.32223776 -0.15639722 0.08709606
-0.008599353 -0.15897265 -0.19269395 0.4411765 0.038157348 0.24702309 -0.05406929 -0.2101242
0.2080481 -0.08064973 0.20056592 -0.13051786 -0.21514751 -0.29333696 0.19717002 -0.46690118
-0.29487225 0.29672113 0.16466244 0.12478445 -0.058080524 -0.09292785 0.10774452 0.26082492
0.20039497 -0.19651204 -0.42774034 0.16315745 0.4033707 0.081944145 0.020697055 -0.026034331
0.11309765 0.13131575 0.16389833 0.04409123 0.096459106 0.27252248 0.0061658174 -0.04440275
-0.3229472 -0.03579949 0.1891025 -0.017708352 -0.42135465 0.016392635 -0.10075153 0.20084581
-0.17975928 0.42703518 0.014334568 -0.03141869 0.043334804 0.26373038 0.13065268 -0.17157051
0.20519048 -0.31817394 0.07751702 0.1656449 0.024488674 -0.35435393 0.2748686 0.21134798
-0.14492184 0.099281766 0.21051538 0.2504844 -0.046019297 -0.1822514 0.09375279 -0.17061733
-0.23647614 -0.12666994 -0.20172423 0.09788336 -0.12732479 -0.059701905 0.18946853 -0.286607

in_proj_bias f4 [48]
00000000: c6a2 07bd ca76 9d3d 9cf5 28be c7c0 47be
00000010: c788 2a3e 0db5 2d3e 2597 8ebd 9d62 a83c
00000020: b7e7 473d 894a 853e d303 80be 2d5f a3be
00000030: a765 10bd a13d 78bc 8305 10be acb4 00bd
00000040: 37b4 0fb8 3ba8 8eb8 e7ac b538 4ea2 8e38
00000050: cbf8 5236 3a1c 2db8 f203 1c37 d875 49b8
00000060: b4a2 b137 4bc4 0f37 5ece c438 0f3a 6f38
00000070: 18e7 09b8 2b29 d435 d27d 17b8 24c9 af36
00000080: 17c9 183d 2855 413c f5e3 7d3c a362 03bd
00000090: 64e0 513c 9bd2 843c 2bfe 0bbd 3a56 d73a
000000a0: 0e0d b3bc 780d 9c3c 15e5 bbbc 6cc7 0b3d
000000b0: 7de2 763c 3f8a 0fbc f16e ef3c 79a8 7d3c
-0.033114217 0.07688673 -0.16499943 -0.19507132 0.16653739 0.16963597 -0.06962422 0.020554835
0.048804965 0.26033428 -0.25002918 -0.3190855 -0.035253193 -0.015151412 -0.14064603 -0.031422302
-3.4261695e-05 -6.802423e-05 8.662958e-05 6.801319e-05 3.1437255e-06 -4.1272702e-05 9.299243e-06 -4.8031885e-05
2.1175809e-05 8.569167e-06 9.384447e-05 5.703611e-05 -3.2878568e-05 1.5807212e-06 -3.6118385e-05 5.2388223e-06
0.03730115 0.011800088 0.015496244 -0.03207649 0.012809847 0.016213706 -0.03417794 0.0016428896
-0.02185681 0.019049391 -0.022936383 0.03412573 0.015068647 -0.008760988 0.029227706 0.015482062

weight f4 [16, 16]
00000000: 120a a83e ca09 8dbe ff21 a73d 20e4 54bd
00000010: 084e 603e 9a02 3e3e 7fd4 4abe 9772 b5be
00000020: 52be 923d ecde 653d df98 613e 6002 c13e
00000030: 58b9 5e3e 1324 6bbe 8d58 29be c001 a7be
00000040: d1a1 5d3e 32ff 58be 5278 723e 30c1 9e3e
00000050: 719a 4a3e 901e 9cbd 2b09 dc3d 35f1 b83e
00000060: f30d c13e 1ecc 363e 1000 323e 9527 943e
00000070: 9817 b3bc 6490 bcbd c851 ecbe 597e 40be
00000080: 1040 68be 81ae 623e 8bea 903e 5d13 843e
00000090: 5e48 973e b60b 683d 319d 12be 6672 85be
000000a0: 1730 ed3d 3506 e6bc 54cc 8ebe c200 753e
000000b0: cf4b ec3e 085e d4bd 9eff cebc 4593 d0be
000000c0: 5360 703d 3d31 78be 4f51 5fbd 6d34 953e
000000d0: 7bd5 5f3e 182b 363e 5f20 75be 3c66 3a3e
000000e0: 21a6 833e 3c48 a33e 8256 6e3e 2761 b33e
000000f0: 275a 88be 9f55 b0be 852a 453d 7260 ac3e
00000100: 1e56 80bb dc60 e43e f860 683e 1be4 9fbe
00000110: 8d09 ab3e 11e0 27be 16e0 363e a9df 1ebe
00000120: 42dc a7be 95fc 1e3e 8a7d c53e 7901 c23e
00000130: 3eab c7be 545d 883e 7de4 213e 4c09 91bc
00000140: 4a64 babe 77a6 27be 9f96 16bd 78e5 983d
00000150: d868 ac3e a22f c2be 0bbb 82be 18de 61be
00000160: 2439 d43e 239c 4cbe 84e4 4abc 4e80 703e
00000170: 025d 80be cc34 db3d 15ad 90be e102 d2bd
00000180: abb9 32be af82 bcbd f9a6 8bbe 7245 1ebe
00000190: e005 ab3e 5904 c6be ac68 0cbe d012 a63e
000001a0: cbc5 df3e 46d7 49be d185 d6bd ba22 e23d
000001b0: 3e47 853e f3f4 093e 7360 96be 3f9a 78bd
000001c0: a4ac 1dbe a810 86be c050 953e 8c57 6dbe
000001d0: 38af c73e b8ff 163d fd1e d23c 8643 273d
000001e0: f7b2 4a3c de88 9dbe a30d 463e 1313 3ebe
000001f0: db86 c6be 8a99 c23e b12b 0ebe 01ba a0be
00000200: d96f b13e 712f a83a 5eec c1bd 00a0 d8be
00000210: 8789 a53e b20e 97be 0b4f c7be 767d 413c
00000220: befe 2d3c 0c7f 4d3c 8413 6cbe d4c1 bebe
00000230: 6960 05be 6fc0 10be 48a6 96be 3960 70be
00000240: acbd 0abe 6d75 223d 2085 653d 07de b53e
00000250: c5a5 9e3e 0e80 efbd be34 b3be c2c3 bcbe
00000260: b6bf 1a3e 9de1 d0bd 4be2 31be 9e98 c1be
00000270: 0278 92be 858d 39be 864c ebbd eb13 853e
00000280: 3ed1 80be dc3b 893d 433c b6be 3c55 96be
00000290: dfc4 bbbe 639e b03e 2dbc b4bd a83c 05be
000002a0: 2aab 573c e7d8 093e b5de 903e 06e3 76be
000002b0: 18b6 643c fbea aebd f4f1 f43d 6539 dd3d
000002c0: 8549 a6be 025d 763e 9585 963e 8d3f d63d
000002d0: 063c 8b3e 2fb3 55be 2f6d 42be e065 b1be
000002e0: 0a71 693d 11d8 b23e c693 9e3e 714d 9a3e
000002f0: 727c 843c ee59 88bc 26df 06be 9bf6 593e
00000300: 8fe3 a93e 28e8 5c3b 5bee 993e 2e79 573d
00000310: c916 76be 63ae 693e 2325 0c3e 2d50 563d
00000320: 6e3c bcbd d70a 1f3e 2397 f7be dca8 2b3e
00000330: 91da b63e 28f5 ba3e fc02 703e f708 c93b
00000340: 7a0c 44be 2ff0 533e b293 aa3e 1b28 9a3b
00000350: e60e 7a3e 2fe1 bbbe 9706 203e 44df 363e
00000360: bfff 873e 4294 80bd 3048 493e cd4c 073e
00000370: 61d8 3cbe 6524 55be 8dd7 bdbd 38c4 b13c
00000380: 82b7 31be bb14 96be caa1 d3be 66d4 8b3d
00000390: 6e95 433e 4ea6 18be 224b ed3c 1dfb 84be
000003a0: a89f 473e 06aa 48be 02fe 8a3e 1364 ad3e
000003b0: 5e4f cfbd 6e93 e0be 1e50 b73d 7e9e 59be
000003c0: b031 c73e f59c 43bd 5097 6bbe 3a20 b5bc
000003d0: 683e b43e ed00 4bbe d4a3 6dbd 4579 903c
000003e0: 2cdb b3be 48ae 5dbe 15f6 8e3e 4785 7c3c
000003f0: f18f 2e3e 3e7f 0fbe 3eb7 7e3e 77be 903e
0.32820183 -0.2754653 0.08160781 -0.05197537 0.21904767 0.1855568 -0.19807623 -0.35438988
0.07165207 0.056120798 0.22030972 0.37697124 0.2175039 -0.2296298 -0.16537686 -0.32618523
0.2164376 -0.211911 0.23678711 0.31006765 0.19785477 -0.07623017 0.10743936 0.36121526
0.37705955 0.17851302 0.17382836 0.2893645 -0.021861836 -0.09207228 -0.46156144 -0.18798198
-0.22680688 0.2213688 0.28303942 0.25796023 0.295474 0.056651793 -0.14317776 -0.26063842
0.11581438 -0.028079132 -0.27890265 0.2392607 0.46151587 -0.103694975 -0.025268372 -0.40737358
0.058685612 -0.24237533 -0.0545209 0.2914156 0.2185878 0.17789876 -0.2393813 0.18203062
0.25712684 0.31891048 0.23275188 0.3503506 -0.2663128 -0.34440324 0.048136253 0.33667332
-0.003916516 0.44605148 0.2269324 -0.31228718 0.33405724 -0.16394068 0.1785892 -0.15515007
-0.3278523 0.1552604 0.3857234 0.3789175 -0.38997835 0.26633704 0.15809818 -0.017704628
-0.3640464 -0.16372095 -0.036764737 0.07465643 0.3367374 -0.37926966 -0.25533327 -0.22057378
0.41449845 -0.19981436 -0.012383584 0.23486444 -0.2507096 0.107034296 -0.2825705 -0.10254455
-0.17453639 -0.092046134 -0.27275828 -0.15456179 0.3340292 -0.38675192 -0.13711804 0.32436228
0.43705592 -0.19711027 -0.10474742 0.1104178 0.26030916 0.13472347 -0.2937046 -0.060693976
-0.15397888 -0.26184583 0.2916317 -0.23177928 0.3900087 0.036864966 0.025649542 0.04083588
0.01237177 -0.30768484 0.1934114 -0.18561964 -0.38774762 0.38007766 -0.13883854 -0.3139191
0.34655645 0.0012831521 -0.094689116 -0.4230957 0.32331488 -0.295034 -0.38927492 0.011809697
0.010619817 0.012542497 -0.2305432 -0.37257254 -0.13025059 -0.14135908 -0.29423738 -0.23474206
-0.13548917 0.039662767 0.05603516 0.35520956 0.30985847 -0.11694346 -0.35001177 -0.368681
0.15112194 -0.10199282 -0.1737148 -0.3781175 -0.28607184 -0.18120392 -0.11489205 0.2599176
-0.2515964 0.067008704 -0.3559285 -0.29361904 -0.36673638 0.3449584 -0.08824954 -0.1301142
0.013163367 0.13461648 0.28294912 -0.2411004 0.01395943 -0.08540913 0.119602114 0.10801963
-0.32477966 0.24058917 0.2939879 0.1046134 0.27194232 -0.20869134 -0.18986963 -0.34648037
0.056992568 0.3493047 0.30972117 0.30137208 0.016172621 -0.016644444 -0.13171062 0.21285479
0.33181426 0.0033707712 0.30064663 0.0526058 -0.2403213 0.2282043 0.13686042 0.052322555
-0.091912135 0.15531479 -0.48357496 0.16763633 0.35713628 0.36515164 0.23438638 0.006135102
-0.19145384 0.20697092 0.33315808 0.004704488 0.24419746 -0.3669524 0.15627514 0.17858607
0.26562306 -0.06278278 0.19656444 0.13212891 -0.18441917 -0.20814665 -0.09269629 0.02170001
-0.17355159 -0.2931269 -0.41334373 0.06827621 0.19099972 -0.1490719 0.02896649 -0.25972834
0.19494498 -0.19596109 0.27146918 0.33865413 -0.1012256 -0.4386248 0.08950828 -0.21251866
0.38905096 -0.047757108 -0.2300694 -0.022110093 0.35203862 -0.19824572 -0.058017567 0.01763595
-0.35128152 -0.21648514 0.2792212 0.015412635 0.17047097 -0.14013383 0.24874589 0.28270313

bias f4 [16]
00000000: 0cfe 533b 91ad 893c 6e08 96bd b566 803c
00000010: 351e 883c 2c56 37bd baf5 333d 332b f3bb
00000020: 0219 193b df2a 7a3c fc8d f3bb 18fe 8c3c
00000030: 2223 dc3c 57da bb3c 5d4e 303c f9eb 8abd
0.0032347469 0.016806396 -0.073258266 0.015673975 0.016615966 -0.044759914 0.043935515 -0.007420921
0.0023360853 0.01526901 -0.0074326973 0.017211005 0.026872221 0.022931261 0.010760871 -0.067832895
