experiments/Datasets/MODWT_transformer_model.pt (torch, 242061 bytes, 70 tensors)

current_score f8 []
2.4681821509808405e-07
00000000: 9bd0 62fd 4d90 903e

weight f8 [16, 1]
-0.4522216968995762 0.506070560979356 -0.7934939826092694 -0.2210779948397008 0.07543502781777577 0.5970084923391766 0.14408329821468935 2.5309830736184575
-1.793455166620308 0.3306712852502387 0.953718175687906 -0.8543998997758446 -0.0032435775818705497 -0.9231749845473796 0.8422183792428617 -0.48844912593543305
00000000: 636b ae45 33f1 dcbf 9bfd 9be3 ba31 e03f
00000010: b925 1c7e 4d64 e9bf a8d3 d9a2 484c ccbf
00000020: 1f40 73c1 b54f b33f 33fe c08d b11a e33f
00000030: 18af dd4e 5271 c23f df5d bf0d 743f 0440
00000040: 8e9f 770b feb1 fcbf 6811 f8e4 b729 d53f
00000050: 55c5 c5fa db84 ee3f 16c6 6775 3e57 ebbf
00000060: 0187 5b74 4692 6abf bcb8 e343 a68a edbf
00000070: de05 5ef5 73f3 ea3f 13c2 691f c042 dfbf

bias f8 [16]
0.8789073120405765 -0.08150185785606576 0.14998244220726475 0.8321350345851619 -0.8285261239835809 -1.097861671690622 -0.3213271736673754 -0.5432587217530611
-0.09156703690392132 -1.0238821399162572 -0.1531684150944739 -0.6939241807099071 -0.01185303667579783 0.3155953633321401 -0.27009118499750967 -0.90251693998985
00000000: d1be 2d3a 0220 ec3f 4e17 0e46 4edd b4bf
00000010: 9490 20ea 9f32 c33f 6cc5 eca6 d9a0 ea3f
00000020: 1184 cc37 4983 eabf fb16 7766 d790 f1bf
00000030: 5aeb 8dd9 9f90 d4bf f446 661d 6062 e1bf
00000040: 08db e4f4 ef70 b7bf 9261 1e3d d261 f0bf
00000050: 9132 ceca 059b c3bf 45af c17b a034 e6bf
00000060: f7f5 0ba7 6746 88bf 4af8 11e5 b632 d43f
00000070: e123 a089 2c49 d1bf f2f4 aa34 6be1 ecbf

in_proj_weight f8 [48, 16]
0.3206330013086576 -0.6532318993765315 -1.4690933919428477 -0.22688110704172412 0.7989589958802014 0.44282783564132094 0.7751087801146112 -0.06397748082052769
0.4659843740671389 -0.28193017116573554 -0.4143590964672379 -0.820609188550814 0.08827053277733292 -0.6035463993789209 0.31907844205652797 -0.39911091954210914
0.08318920385594657 0.4083796360098872 0.7188892295833049 0.20288817869301232 -0.2938912330567873 0.5880420505256382 0.8454026169605987 -0.5524349792111738
0.4686882806168471 0.17948396593959343 0.5050629298557293 -0.05012426397603264 0.5848620384372257 -0.4513117854704472 0.9883497615188679 -0.048511970748326465
0.03908130694072641 -0.2144004531640481 -0.71655295675768 -0.8890724014196966 -0.7836981176259742 0.8033652580211389 -0.21818469063940776 -0.211221731403019
-0.24412859346741977 -0.2448880175842947 -0.19474588259343117 -1.0433243345666705 -1.293265822507807 -2.5361869700519954 0.029660561765593313 -0.5486717796195251
-0.24195884005826662 -0.16399131398723882 -0.4193360964472429 -0.35627827270991064 -0.8717452815935666 0.46491618817920094 -0.6908109078605914 -0.08201392284634088
-0.6941865793647239 -0.1988067858855565 0.4692153490277543 -0.41363844021680535 -1.6754886738139838 -1.8794222374987628 -0.27586294205083184 -0.1127222637811648
0.025892532284991165 -0.36044999827869784 1.1690663403830408 -0.25013777571888696 0.24227736452247847 0.40841871234414834 -0.6552168972534916 0.17265507979754405
0.3491855957510023 -0.08789324006752817 0.15038646122975577 0.359444494269611 0.1844519188233567 0.34982927998425717 -0.2707457914880011 -0.15659599624912843
0.4075527093390827 0.06821093205063146 1.7992891009587413 1.0455971538680808 -1.0964255444698217 0.4754787705129933 -1.1080336565893303 0.311557405866849
-0.20825815980908 0.15970609290451296 0.03850018740449862 0.09963988392195557 -0.03408675423569982 0.6432118482501619 -0.579122607018796 0.5357526877732789
-0.36146762024227136 0.6208270623896355 0.37198995050257777 -0.38107316296211635 0.7770189557947242 1.5424873524957643 0.7740095378653165 -0.9509134788120405
0.2896784710719738 0.15372701392242177 -0.014566698313018813 -0.984513834171457 -0.2643146842510214 -1.6430505049118924 1.1231539925676766 -0.2701506363716317
-0.315916050425504 0.05165617175901978 -0.5573130694417399 -0.8342962082849984 0.6134553402420397 -0.7238652778150249 1.3759601017051768 -0.12209194920043002
0.28869485143712126 -0.33025493539352074 -0.5185921707073744 -0.31678344235666334 0.7791976146096681 0.4843823417111288 0.3514036810980183 -1.0772592631904152
-1.6215665189995419 0.30742526305095313 -1.1455504935034284 -0.9857996913903357 1.8822673445685023 -0.2549757893555991 1.7415809923034715 0.09991611141724102
-0.17308191252278216 -0.17521752158731524 0.29341845795876753 0.6163220645356532 0.3072460546542544 0.06885109699870057 -0.1324893724450553 0.3045548422603366
2.1708421446311275 -0.6387383668228473 0.8158645188011483 -0.22248773904073954 -0.9956720911313586 -0.0933007096397871 -1.917369300541835 0.1229973275505262
-0.2930669278573074 0.219522744968392 0.14720949402021694 -0.27962349343226817 -0.7099562474679671 0.4774795086582253 -0.21325200980604245 -0.4234186049535543
-0.4126620106295047 -0.5284770655713433 -0.36315813372023664 -0.3623382045828102 -0.13020136109593977 0.06184522769334113 -1.042775002254952 0.16746972078108338
-0.5970279295749674 -0.012809689770166149 0.571946529407305 -0.09644869915183625 -1.0567753183767927 0.8296504171036663 -0.4943898357814397 0.008642669632442257
0.7832792055708296 -0.5571309822476225 0.7526404579204266 -0.8150061963511745 0.5809369448113633 0.3642142714818353 1.037139459898847 -0.23006803169749968
-0.2431454773906734 0.3596255852461709 0.40364127776957814 -0.05036084067230849 -0.32214531347633174 -0.784869142420397 0.5532052562330755 -0.10628589189140362
0.5540701363542456 -0.2713862667009723 -1.742825397955817 -0.9600215473313337 0.42383757140814865 -2.492363117941557 -1.515414711882137 1.0884704094748479
-0.43371166927810806 0.033856392669476855 -0.15393980500658136 2.360645241550167 0.5324265635651599 2.3791833090440893 -2.038910653868654 2.257425206791515
-5.459729882225758 3.3692475895882077 -6.083975752685957 -4.06630222968332 5.780259296918088 3.6829416575809915 5.330815562936582 -3.134401737334366
1.3216256090753677 -0.9292797285469272 -0.41656974803347624 -5.816018686930039 0.28967192087322025 -6.853559115247322 5.881696334497246 -2.370572057497502
4.386168598174585 -1.6127702126579417 2.495122309614395 0.9208571280717874 -2.2090112435615787 -0.8826543842564235 -3.2450062520204583 2.547683406522352
-2.214153808557047 1.7588726539391586 1.297109018762618 2.9667366227778755 -0.9638118503194967 3.362467178286747 -2.8117305244249233 2.635543410912531
-0.35133191418321635 0.5373278782183 1.6052770799641896 -0.6714403331251335 0.050806438956810376 1.2134389346951326 1.0065364463006066 -1.269701178846703
0.5815735933212881 -0.08719551796000867 0.14217055269366036 -1.5220565599557927 0.5460883008994921 -1.496238870533327 1.8179564213171395 -1.1025088984039537
00000000: 88e5 a847 4085 d43f 59d6 9095 46e7 e4bf
00000010: bba0 9212 6881 f7bf 9388 69ab 700a cdbf
00000020: 99d0 c474 1291 e93f c1a0 f58f 4a57 dc3f
00000030: 25e9 aded b0cd e83f 79fc cd03 d460 b0bf
00000040: 622f c41f b0d2 dd3f ab66 3ad8 240b d2bf
00000050: 101f 0804 dc84 dabf 56ee 7333 6e42 eabf
00000060: fba8 7acb e598 b63f c16e de89 4050 e3bf
00000070: 6773 5ffc c76b d43f eb3a ba86 088b d9bf
00000080: 930a f13d e34b b53f 4bf3 4057 e422 da3f
00000090: c638 50fc 2301 e73f 87a1 1d66 3df8 c93f
000000a0: 4cd7 a32c 1dcf d2bf cdc5 f58f 3dd1 e23f
000000b0: 058e f9c9 890d eb3f 1c1c 1c1f 8cad e1bf
000000c0: 1c24 5121 fdfe dd3f 9ef7 eea1 54f9 c63f
000000d0: a3df c4bb 7929 e03f 1fb9 0635 e3a9 a9bf
000000e0: 1d50 f897 30b7 e23f ad46 b9d3 4ae2 dcbf
000000f0: 3874 d7ad 8fa0 ef3f 6f3a a89f 8fd6 a8bf
00000100: ee05 640e 7702 a43f 4428 4b5b 7971 cbbf
00000110: f60a 6477 00ee e6bf 03f6 fbf6 4773 ecbf
00000120: 817d 2413 0e14 e9bf 4730 be0e 2bb5 e93f
00000130: 7e5e 64d7 79ed cbbf 9b4c 4a4e 5009 cbbf
00000140: 9803 7b12 9b3f cfbf 0979 5a95 7d58 cfbf
00000150: 187d 62de 6eed c8bf 645b 81db 74b1 f0bf
00000160: 064a cb80 37b1 f4bf 3551 e764 1c4a 04c0
00000170: 688d 0e9b 565f 9e3f 0087 b61e b88e e1bf
00000180: f8a0 83dc 81f8 cebf f69d 33d9 aafd c4bf
00000190: 467c 1111 67d6 dabf b61f 6462 43cd d6bf
000001a0: ad5f 5c5c 56e5 ebbf e314 e7d3 2fc1 dd3f
000001b0: e366 1f7a 1f1b e6bf 5613 714c ddfe b4bf
000001c0: f431 f6c5 c636 e6bf b2f8 cc31 8072 c9bf
000001d0: 5ebf b6d0 9f07 de3f 5760 465d 0d79 dabf
000001e0: 7097 2d36 cdce fabf d4ea 560d 1d12 febf
000001f0: bc58 920a bda7 d1bf c99f 78c4 5ddb bcbf
00000200: 30a7 7f6d 9283 9a3f 1ed1 9cde 9c11 d7bf
00000210: 04cb 2ce8 7eb4 f23f 403c 8ddf 4102 d0bf
00000220: dfb1 97d6 f102 cf3f 51ec 253d 8823 da3f
00000230: dbb0 2f6d 89f7 e4bf 15ff 9bc8 8f19 c63f
00000240: 7a07 7f8a 0e59 d63f 9727 a1df 2b80 b6bf
00000250: bd19 5f12 dd3f c33f 1260 e77a 2301 d73f
00000260: 12f0 83d7 1e9c c73f 96cc 2d59 9a63 d63f
00000270: 4f1e fe27 e653 d1bf b38a 496d 560b c4bf
00000280: c47b 80f5 5715 da3f a11b 638a 4576 b13f
00000290: 2eac 4a5e e3c9 fc3f 2477 ca14 c4ba f03f
000002a0: 36f3 ff82 f58a f1bf 09eb 5282 3e6e de3f
000002b0: 0cb2 de7f 81ba f1bf ee94 4179 8ef0 d33f
000002c0: 6fa8 c010 34a8 cabf d397 ffce 3f71 c43f
000002d0: 489a 95eb 4bb6 a33f e970 d2da ff81 b93f
000002e0: ec96 56ad d173 a1bf 0a4b 9403 3195 e43f
000002f0: c0a3 3022 2c88 e2bf e15e 17d2 e224 e13f
00000300: 6539 e015 4922 d7bf 74ed 2db7 d0dd e33f
00000310: ca59 f6ef aece d73f 6e8e 13b1 8063 d8bf
00000320: 4855 70db 56dd e83f 2b68 d737 07ae f83f
00000330: 328e 7da6 afc4 e83f 7f58 9a1a e26d eebf
00000340: 9100 e791 178a d23f 2e7e a7a8 53ad c33f
00000350: fbc0 eb26 25d5 8dbf 303b 0728 2381 efbf
00000360: 297c 2d23 88ea d0bf a85d 8453 ef49 fabf
00000370: 3133 2752 70f8 f13f 7c6c 0de5 254a d1bf
00000380: 4bfa 36f4 f737 d4bf 7adf ae80 ad72 aa3f
00000390: 3e57 dc37 82d5 e1bf 1159 38f6 8db2 eabf
000003a0: f6ac fc17 6da1 e33f 959d dd83 e729 e7bf
000003b0: 08cb 56bd ee03 f63f a3b5 eb00 6b41 bfbf
000003c0: 808b 5cf8 f979 d23f 9de5 b698 e522 d5bf
000003d0: 58cb a49b 4e98 e0bf d083 350f 2e46 d4bf
000003e0: e1d4 fbd5 2fef e83f 4030 1acb 1e00 df3f
000003f0: dfa3 80dd 657d d63f 4974 8b35 743c f1bf
00000400: f943 f6bb eff1 f9bf 9527 b102 dbac d33f
00000410: e038 18c1 2c54 f2bf 54b5 5dcb ab8b efbf
00000420: f801 f45c c41d fe3f 1976 23f9 8551 d0bf
00000430: 4d75 d407 84dd fb3f 3a6b e12e 1a94 b93f
00000440: f440 e850 8c27 c6bf 36ac 731a 876d c6bf
00000450: 2c71 3e36 5ec7 d23f 8d7b df0c e9b8 e33f
00000460: cd29 245b eba9 d33f 5c34 e7b9 39a0 b13f
00000470: af0a dc68 69f5 c0bf 702e d697 d37d d33f
00000480: e9c0 7f7c e25d 0140 ed8b 8671 8b70 e4bf
00000490: 79f7 46e8 8f1b ea3f 5671 786d 7a7a ccbf
000004a0: 2a5f 9eb7 8bdc efbf c0b2 9828 8ee2 b7bf
000004b0: bde7 826e 8bad febf 4a2d 53bb c07c bf3f
000004c0: c7ec abc9 9bc1 d2bf b506 2f41 5219 cc3f
000004d0: 0220 3dbd c2d7 c23f fd07 dfef 59e5 d1bf
000004e0: d9e7 0e2a f6b7 e6bf 5c9f 8c36 068f de3f
000004f0: 312c f683 d74b cbbf 0ac8 3259 4a19 dbbf
00000500: 1424 fdeb 0d69 dabf 3614 2abc 48e9 e0bf
00000510: 3ab5 e69c fb3d d7bf da91 b194 8c30 d7bf
00000520: ae9f e62d 70aa c0bf d390 b67c 2daa af3f
00000530: 6e57 3cd7 34af f0bf c199 e9d6 a56f c53f
00000540: a456 0a51 da1a e3bf f601 1475 f73b 8abf
00000550: b6ae dbce 624d e23f 2d50 99a8 dcb0 b8bf
00000560: 7d5f 7a3c 8de8 f0bf 1056 1208 7f8c ea3f
00000570: 72fd 0944 15a4 dfbf a02c 5f7b 3fb3 813f
00000580: cd08 728d 9f10 e93f cef0 8a5a 04d4 e1bf
00000590: 3145 0d71 a115 e83f 66b3 ebdf 8714 eabf
000005a0: 4418 6013 0997 e23f 890f 3060 494f d73f
000005b0: a581 da8b 1f98 f03f 1878 ff87 de72 cdbf
000005c0: 9118 c818 641f cfbf 7ffa db07 1b04 d73f
000005d0: dc80 d539 42d5 d93f 2e8e 5f67 e5c8 a9bf
000005e0: 5d31 7c60 079e d4bf b9b9 4ae4 a51d e9bf
000005f0: 2de2 6f82 dbb3 e13f 2324 b35d 8d35 bbbf
00000600: a99d 6a4b f1ba e13f 041c 0481 645e d1bf
00000610: 16bc 6de2 9ce2 fbbf e3c9 a71b 7fb8 eebf
00000620: 69e6 009f 2720 db3f 4e86 0a13 5cf0 03c0
00000630: a093 367f 233f f8bf 30bb b5f2 5f6a f13f
00000640: cd5a dc96 eec1 dbbf a547 8d06 a055 a13f
00000650: 3527 07ae 4cb4 c3bf f153 eff8 99e2 0240
00000660: c016 c16e a309 e13f 7444 3c42 9108 0340
00000670: 9ea7 8e63 b04f 00c0 4caf 62f2 340f 0240
00000680: 3f9d 246e c3d6 15c0 f543 8b14 38f4 0a40
00000690: cec5 5dbd fd55 18c0 2491 50bb e443 10c0
000006a0: 0fa7 0a4b fc1e 1740 5317 a31d aa76 0d40
000006b0: 2448 9f50 c152 1540 7303 d337 4113 09c0
000006c0: 7b8e 08e5 6025 f53f e23b 5ed7 a8bc edbf
000006d0: a4a1 1329 14a9 dabf 5328 1567 9a43 17c0
000006e0: 2a14 ae18 fc89 d23f 80c2 9466 0b6a 1bc0
000006f0: ccac 6667 db86 1740 0a1b 9e7b eef6 02c0
00000700: a89b efc7 6f8b 1140 de42 7523 e8cd f9bf
00000710: b082 7aaf 02f6 0340 fe6a 2b5e a977 ed3f
00000720: 05bf 3c16 0eac 01c0 e7ac 4168 b43e ecbf
00000730: 7df2 7dd6 c5f5 09c0 5e9a 7cd6 a761 0440
00000740: e987 a045 96b6 01c0 66f5 e7a6 5724 fc3f
00000750: dce9 ee62 f5c0 f43f 6669 1569 e0bb 0740
00000760: d3d2 13f3 8bd7 eebf 7aeb 2431 55e6 0a40
00000770: 4f8f bc92 6c7e 06c0 fc75 a8c8 9715 0540
00000780: c14f 5dda 387c d6bf 46a7 053c ca31 e13f
00000790: e26e f704 37af f93f 029c ff6f 707c e5bf
000007a0: 22cf 7d33 4d03 aa3f bb56 c3f1 3e6a f33f
000007b0: 9b7d f1f5 c51a f03f 836d ed2e b250 f4bf
000007c0: 4307 7139 409c e23f 07fb fe09 7252 b6bf
000007d0: 9202 2309 a532 c23f 1fc2 bafa 575a f8bf
000007e0: c8ed 222c 8e79 e13f 271d 7f2b 98f0 f7bf
000007f0: d6c3 f178 5916 fd3f 7e1a e35e e0a3 f1bf

in_proj_bias f8 [48]
-0.2121981929384343 -0.9959367364044379 -0.5070556790592656 -0.23432027885664136 0.6073902207328418 0.3788865931200607 -1.1885474196118047 -0.20907764855206903
-0.2879069311967295 0.10990924310918626 0.775216864276296 -0.5894290637472577 1.8391527863207593 -5.369400614538237 3.364047366766194 -1.2835063714502013
2.6123465900950256e-14 1.9098124242676273e-14 1.8290712717241386e-14 -3.454284198436052e-15 -3.341446049901014e-16 2.737028634198965e-14 -2.0415301277718103e-14 -5.353809940708996e-15
2.8331317960313724e-14 7.981097371901354e-15 2.940898494719971e-14 -7.547053789441493e-15 9.844212730494621e-14 8.149076499179584e-14 -4.1645178125250666e-14 1.2907749558865517e-13
-0.29189149117842883 0.051388484553090176 0.13925776404088924 0.1772428680475568 -0.03774589417058678 0.0672977703701556 0.3582573487814445 0.01612317132145515
-0.1992394510020359 0.040254775492373523 -0.24999511736147864 -0.07932260695064464 0.08325736172776713 0.10884998856281922 -0.09995017341936215 0.01756691605694598
00000000: 8b6e 7875 4f29 cbbf bdbe f7b7 b6de efbf
00000010: 95f0 d9d4 cc39 e0bf c64b 3df7 34fe cdbf
00000020: 1ba6 be9d bd6f e33f 38fc 958d ad3f d83f
00000030: 70a5 8f4c 4a04 f3bf 2d88 6d6f 0ec3 cabf
00000040: f806 7231 116d d2bf 089c ae1c 0323 bc3f
00000050: c6fa eb98 93ce e83f 6467 0357 9adc e2bf
00000060: dd84 d978 2b6d fd3f 9141 9a27 447a 15c0
00000070: 51a5 73aa 91e9 0a40 4061 19fa 3d89 f4bf
00000080: a7ec 258f 9369 1d3d bdb7 3cd7 a880 153d
00000090: 681b bc62 f097 143d 5bd6 787d 091d efbc
000000a0: 6b1c 7548 e113 b8bc c64e 64ab f2d0 1e3d
000000b0: 3961 f759 4ffc 16bd 041f eac9 851c f8bc
000000c0: 5fbd 6749 f2e5 1f3d 0400 ce15 caf8 013d
000000d0: c8a7 9e09 488e 203d 299c e08e 94fe 00bd
000000e0: 61bd 7cba 80b5 3b3d dcba 4249 07f0 363d
000000f0: bc21 b4e2 b371 27bd c928 6ec3 812a 423d
00000100: bae3 25a6 59ae d2bf edd1 1769 974f aa3f
00000110: aa85 22cb 32d3 c13f f653 dbf0 e4af c63f
00000120: 9ab9 0a0a 6e53 a3bf 9f62 d53a 6d3a b13f
00000130: 9d59 243b b0ed d63f 0542 22b6 9782 903f
00000140: f938 10a7 ad80 c9bf 0cc1 7e20 469c a43f
00000150: f515 9d0a d7ff cfbf 38bd af82 7c4e b4bf
00000160: eaa1 c5bd 5a50 b53f b61a 0cc5 97dd bb3f
00000170: fdd0 10a6 5596 b9bf ad1b d3c7 0ffd 913f

weight f8 [16, 16]
-0.1509699673571626 -0.416351168670361 -0.024869112071461513 -0.0916041974399673 -0.27423366371794783 -0.06935942767651866 -0.353890931479471 0.2672295070281288
-0.16145473222043807 -0.003644450802537889 -0.3579773272139806 0.7480142241926323 0.06999582751959973 -0.5890544606779823 -0.811501368960163 0.12628127000867032
-0.05242822750712076 -0.0700984161460662 0.4348126367137405 0.3824093715301896 0.0642950595872356 0.09802848249199021 -0.14150123241628887 -0.3435667378899058
-0.0831350329556407 -0.7213227497480971 -0.5883853849378041 -0.1402080476201862 -0.9243670689094413 0.2569095892420986 0.0835309966296506 0.25206346469697355
-0.15337132348764318 0.03701731164390099 0.16152833247199735 -0.6962579750800661 -0.05951832855250684 0.20353636157321012 0.12256804469612312 0.3847569853472632
-0.14452685883838978 -0.4289867893262805 -0.7100813876257532 0.43292343600138583 0.3760244762090453 -1.045673472687149 -0.334816877604693 -0.18630250384203478
0.4912251768957784 0.23520013493936265 -0.03752838360407379 -0.32220588672822964 0.2923234913414916 -0.04589091936953282 -0.011811682019195916 0.43149369894975587
0.2653092611415265 0.02990568445502708 0.028121280380932267 -0.16993894743720708 0.08698305017401949 -0.26435019541745264 -0.11624907261235912 0.1689979377150454
-0.05328686810248899 -0.04950521936867048 0.1782070593928065 -0.32493558977863235 -0.18472202780013164 -0.02169103540623196 0.13652365297291286 0.05338543780164941
-0.13504819099517693 0.25606708525196176 -0.006018106150261554 -0.05832250201342361 -0.09045305713581664 0.02335122248148672 0.1329369394824208 -0.07638382914648824
0.6453273272206607 -0.008008862684039447 -0.2758330521801301 -0.251197399200836 0.43816396599975815 -0.30016564316457506 -0.4037758378494411 -0.31748678078390635
0.29964040376513396 -0.13322802569226783 0.07279657736985308 0.5577560515823101 -5.668670571108358e-06 0.20863203433881264 0.5721785174229591 0.3246196340707997
-0.0681369311551721 0.08639226056202731 -0.14697739110401806 0.13009844135086077 0.07647126288840225 -0.05920186226285114 0.06740406754666697 0.003229656720119694
-0.04215454027770233 0.04760685675408278 0.023152041605731075 0.000363005451064263 0.03397031438092189 0.027306370054985273 0.08797920185129679 -0.003944929243343189
0.0034029945028980703 -0.0028165907330957567 -0.0038834436959797832 0.006780963036141738 -0.0018536714714049093 -0.0018723503258695037 0.0012244888115778892 -0.006724288889761899
-0.0021270698431201953 0.003450918991101658 -0.0017652368132339137 -0.0009261476878813039 0.00920691431721794 0.018853157158683496 0.001404754783442837 0.0014030359681787264
0.005263933798970884 -0.007226393141233611 0.0050463634451494875 -0.011176487927060308 0.00303761044789734 -0.00029794421718418174 0.0003039980461157012 0.0030334808740491385
-0.002723046175927048 -0.021305639500490952 0.00561203843085007 -0.007110793683964698 -0.008695678058522376 -0.03613220917690436 -0.012464161228341502 0.0038591796418276066
0.14575516660205395 -0.06219036596509582 -0.20465945228518428 -0.1636032479849144 0.06568064525931258 0.049900702617166615 -0.2690604234487523 -0.33330792266053666
0.2763001393129045 -0.03507733183150288 -0.10533465929314446 0.1506213575119766 -0.39649939696371306 0.5700620985260597 -0.6977072759099718 0.1272547087631636
-0.03184523184211043 -0.0009348577816998558 0.016626294205889174 -0.03085244529831691 -0.017496970224377437 0.007558409670607817 0.02167578864537724 0.018817247254337935
-0.02712109477217866 0.05898457992496748 -0.030089639728952886 -0.011506030997513246 -0.0007054585563946524 0.01960818984403907 0.03729101795368933 0.010931358378165366
0.6736522662768358 0.4199284781496135 -0.22727370447785344 -0.2540401771398797 0.33112727667940206 0.06540855589309769 0.1180461896101829 -0.022649172576231415
0.34073209331473764 0.0013843810932551678 0.11791274644540556 0.0955279151772013 0.5198420150867896 -0.0626272198109739 0.22508743902558828 0.2212647632680627
0.0006381297525714895 0.005442365713957101 0.0015677390616847405 -0.022796568285155694 0.01363240584916203 0.0037748892943587813 -0.009052705997345915 -0.021677350016003273
-0.004083068713496778 -0.0260712696221581 0.004481620357119225 0.0030928383901020944 -0.0038128334792929615 0.0003585972029163543 0.0064466723297345345 0.0053402163069511425
0.0034979071688459834 -0.0015465802861692275 -0.0014881864941164696 0.008170581059574317 0.00020524919292686338 -0.006587940539354826 -0.004097744954229691 0.0011743596016986456
-0.000797981336961392 -0.0005870254360621101 -0.0007001051512262759 0.0026781909952302155 -0.005510422861547971 -0.014545554348115186 -0.012813088747593685 -0.005555398414954498
1.0223913347567235 0.03244530045570929 -0.3471689761393442 0.026205575141292167 0.5077036701587463 -0.040207064634750066 -0.3842244870304731 0.21304039997643515
-0.02853133592328781 0.16470008452148258 0.6556334455675321 -0.13777139145989706 0.6696785244439685 -0.3959149098728051 0.25715744519638434 0.21041767282828375
-0.044058869978060154 0.0001236902871029964 -0.46680695688116375 0.1320631194154684 -0.16325198162089996 -0.03936837741779256 -0.3677947457122287 -0.8278563112244728
0.24596352149474393 0.2399619580315496 0.1171393879046363 -0.024373554823602348 -0.1777919175346065 0.9571498708545473 0.28843327248292044 0.09114693145753991
00000000: eb14 3de0 fb52 c3bf 11cc 455f 7fa5 dabf
00000010: 4b25 1cdc 4977 99bf 2155 2e68 5f73 b7bf
00000020: cf5f 485a 0b8d d1bf 8538 8a19 8ac1 b1bf
00000030: 1d8a 4326 26a6 d6bf a991 4dca 491a d13f
00000040: 81ea 5575 8caa c4bf 7cef 47a0 f7da 6dbf
00000050: 85fc 45bc 19e9 d6bf 9334 bb86 bbef e73f
00000060: 6e9a 0d1e 3feb b13f 6398 85bd 88d9 e2bf
00000070: ebfa 0ab8 d1f7 e9bf 456d 6412 fc29 c03f
00000080: 9587 0f65 dfd7 aabf db47 d944 f8f1 b1bf
00000090: c2ac a461 f8d3 db3f 2efd 1928 6579 d83f
000000a0: 61b7 381a a475 b03f e52d 6106 6518 b93f
000000b0: 042c c95e b61c c2bf 53c1 ce57 fffc d5bf
000000c0: 9644 b267 5648 b5bf 7fec 8072 1315 e7bf
000000d0: 5912 3896 0dd4 e2bf 3b15 9559 56f2 c1bf
000000e0: cbe4 4e3f 6a94 edbf fab5 f4ea 3471 d03f
000000f0: ca04 ba92 4962 b53f f9f4 58cc ce21 d03f
00000100: 6d07 43e9 aba1 c3bf 41f4 cadd eef3 a23f
00000110: 471d acdc f5ac c43f c489 11ce be47 e6bf
00000120: 128c 4ab5 2f79 aebf 7d7b 40c0 7a0d ca3f
00000130: e627 818f 9e60 bf3f c856 3ec3 db9f d83f
00000140: 0460 0d2a db7f c2bf 79a2 a401 8574 dbbf
00000150: a63a 2b9a fcb8 e6bf d010 d37f 04b5 db3f
00000160: 690e f4f6 c810 d83f e1c6 771b 14bb f0bf
00000170: e180 ddc4 a36d d5bf d20c 95ac c2d8 c7bf
00000180: c64e 6fb9 3b70 df3f 2028 cabb 091b ce3f
00000190: 78a2 8098 eb36 a3bf 2de4 8470 059f d4bf
000001a0: 0083 ca96 6db5 d23f b043 c0bb 037f a7bf
000001b0: c296 dd1f b930 88bf 56d5 5abf 979d db3f
000001c0: 2171 fbb1 d3fa d03f e69b cb82 989f 9e3f
000001d0: f322 3b2e d3cb 9c3f a19c c736 8fc0 c5bf
000001e0: f5c1 cd6b 8544 b63f 3696 0015 1deb d0bf
000001f0: 2477 0fcd 7fc2 bdbf a6ed c973 b9a1 c53f
00000200: c6e7 9c97 6a48 abbf e1e8 5684 bf58 a9bf
00000210: 5a14 012a 7dcf c63f f4f6 d9a4 becb d4bf
00000220: 9a4d 20ae f8a4 c7bf 9f9c bebe 2c36 96bf
00000230: 2a16 5368 9b79 c13f e2a6 e10a 5655 ab3f
00000240: d3a7 da55 4249 c1bf 604f 2f33 6763 d03f
00000250: 0672 9611 71a6 78bf 327f 896d 72dc adbf
00000260: a0b7 387a ee27 b7bf 49b7 8403 62e9 973f
00000270: 24f0 c0df 1304 c13f 819e 2000 e48d b3bf
00000280: 2b17 b47e 85a6 e43f c3e6 725a f366 80bf
00000290: d23f 91ac 3fa7 d1bf 2b1a 9a41 9e13 d0bf
000002a0: a64b 10e0 e00a dc3f f693 31f5 e935 d3bf
000002b0: 439d 9e9c 76d7 d9bf cc44 1813 b451 d4bf
000002c0: a9d0 aef1 4e2d d33f e224 a1ae 9d0d c1bf
000002d0: dd72 10e7 cba2 b23f c625 1638 23d9 e13f
000002e0: 36eb 3e4d b0c6 d7be 090b 315a 74b4 ca3f
000002f0: a3c5 7952 494f e23f 014f fe6d 91c6 d43f
00000300: a315 f602 6c71 b1bf 90cd bd9d cd1d b63f
00000310: 3b86 05b8 27d0 c2bf 1767 6ed3 10a7 c03f
00000320: 7a83 30e5 9e93 b33f fafe 8fdc b44f aebf
00000330: 92f5 ba99 6441 b13f 58e3 afbf 1475 6a3f
00000340: 59c5 bda7 4795 a5bf f9f5 a509 ed5f a83f
00000350: 2c05 2136 2bb5 973f 9427 648a 38ca 373f
00000360: 4e0f 9a9a 8e64 a13f 233e 6f79 33f6 9b3f
00000370: def3 ad12 ce85 b63f 5cf3 5ce1 8e28 70bf
00000380: 3137 26c3 98e0 6b3f 7c32 b7a2 d112 67bf
00000390: b561 71f5 2bd0 6fbf 0a1d 9ce7 5ac6 7b3f
000003a0: e0b9 3896 dc5e 5ebf b213 a4da 34ad 5ebf
000003b0: 1856 9ad9 e00f 543f 4117 ed8d ed8a 7bbf
000003c0: 4346 33ed c96c 61bf 6456 a706 1a45 6c3f
000003d0: be73 7b98 f0eb 5cbf 4b82 ee03 1759 4ebf
000003e0: 66bf 1d1f 13db 823f 190b b1f5 3d4e 933f
000003f0: 5470 a4f6 f703 573f 76d4 4c66 c2fc 563f
00000400: 3cfc 3c78 a28f 753f 66ac 5a23 6c99 7dbf
00000410: 53cf 5edf 7eab 743f d301 0cd1 b2e3 86bf
00000420: 5fbe 03b1 54e2 683f 00fe 38ab ac86 33bf
00000430: 7e80 86aa 3dec 333f 74e6 b4a4 abd9 683f
00000440: 6ae3 ac48 a44e 66bf 4bf9 7f43 25d1 95bf
00000450: 47ed 6318 a6fc 763f e4c3 2325 3520 7dbf
00000460: 96ef 0527 0acf 81bf 697b 7ec1 eb7f a2bf
00000470: 494a c866 cf86 89bf 3ab5 3b4b 499d 6f3f
00000480: 76b1 e3f4 1aa8 c23f 0a89 e467 6ad7 afbf
00000490: eee9 30eb 4732 cabf bbaa ce83 f3f0 c4bf
000004a0: de71 5e5f 72d0 b03f b088 93bb 958c a93f
000004b0: 330f d735 4938 d1bf ecc7 d4c0 ea54 d5bf
000004c0: b3aa 8ec7 e6ae d13f 7330 18f2 a7f5 a1bf
000004d0: b9a2 cc54 36f7 babf 81e9 4b86 8f47 c33f
000004e0: 92f1 b501 3f60 d9bf 4b79 bbde f23d e23f
000004f0: d2dd 8635 9e53 e6bf 652c 33de e149 c03f
00000500: f33e 97aa 044e a0bf 08df a5cc 27a2 4ebf
00000510: aecc 78b7 7b06 913f 294a 3b8e c897 9fbf
00000520: b936 92cb b9ea 91bf eb3e 8525 91f5 7e3f
00000530: a43a 638d 2d32 963f b485 3b16 d444 933f
00000540: ee19 50dc a1c5 9bbf 19f8 7d13 3a33 ae3f
00000550: 2c4c 568a d1cf 9ebf 0489 ba56 7990 87bf
00000560: 47c2 d5b6 d01d 47bf 13a4 7458 2b14 943f
00000570: b85e 17ed ce17 a33f 726f e115 2e63 863f
00000580: 2021 9132 8f8e e53f ebf1 13b2 1be0 da3f
00000590: 2890 fc03 4e17 cdbf a4e4 2bbb 3142 d0bf
000005a0: 69b3 0976 3031 d53f 507f 7078 9dbe b03f
000005b0: ea0b cb6b 4638 be3f 7749 fc3d 5831 97bf
000005c0: b600 5ffb 8dce d53f efaa 53e1 83ae 563f
000005d0: 04ba c39d 872f be3f 4288 8a77 8474 b83f
000005e0: d34d bcb8 8ba2 e03f 0373 ed64 5608 b0bf
000005f0: 557a ad4a aacf cc3f 612b ff5c 6752 cc3f
00000600: e5b7 7d35 05e9 443f 2aaf 11ec bb4a 763f
00000610: 4606 e9ff 92af 593f 50ac fbcc fb57 97bf
00000620: bfb8 4d8a 4eeb 8b3f 2ade 1642 84ec 6e3f
00000630: dc5a 97a1 398a 82bf 0add 8755 9632 96bf
00000640: 38f8 7769 68b9 70bf bdc8 9149 6db2 9abf
00000650: 2ce2 decd 515b 723f eaf9 97f7 2656 693f
00000660: 1133 2863 173c 6fbf 2063 4b42 4380 373f
00000670: 2314 306d d367 7a3f 034f 4566 9fdf 753f
00000680: b7de a09c a4a7 6c3f 27a9 fbef d356 59bf
00000690: f322 a514 e861 58bf aa81 85d3 bcbb 803f
000006a0: 8bf0 6d24 05e7 2a3f 61e1 a1d2 f4fb 7abf
000006b0: 2b60 0d09 ccc8 70bf f083 5005 9f3d 533f
000006c0: 7b5f 5edf f325 4abf 9312 6086 533c 43bf
000006d0: 9136 385d e8f0 46bf a223 95d7 92f0 653f
000006e0: 4ec1 a3df 1892 76bf 6d9a d141 0fca 8dbf
000006f0: 02a4 0da9 bf3d 8abf b9bb 22e8 41c1 76bf
00000700: 14e7 2704 b75b f03f 057a bba0 ab9c a03f
00000710: 0d13 ad39 0438 d6bf 3ca2 d160 a2d5 9a3f
00000720: f682 6cc4 1b3f e03f 3b4c 5937 0596 a4bf
00000730: 8b91 874d 2297 d8bf f611 5067 e844 cb3f
00000740: 5b8d ce8a 5137 9dbf b187 5572 e414 c53f
00000750: 080b dcfd f2fa e43f 9984 5232 7ea2 c1bf
00000760: 9040 2aa8 016e e53f 52c2 797d ab56 d9bf
00000770: 05a6 4280 4475 d03f cd21 a65f f7ee ca3f
00000780: 9b18 4f5b e28e a6bf f04c d379 5b36 203f
00000790: 7164 5649 2ae0 ddbf c6d6 72bd 71e7 c03f
000007a0: a1d3 08e1 70e5 c4bf f412 038b 1728 a4bf
000007b0: ce60 1ef9 f289 d7bf c2e1 cf84 cc7d eabf
000007c0: fe19 6a90 bb7b cf3f ebca 03cd 12b7 ce3f
000007d0: 00b6 1fd0 d8fc bd3f 7925 6b93 61f5 98bf
000007e0: 1ef2 a6b3 e2c1 c6bf e31b 16c4 f8a0 ee3f
000007f0: 151d 19d4 b075 d23f ceaa bdc1 6755 b73f

bias f8 [16]
0.08589537431780918 -0.01415227384476292 0.024482610873663064 -0.01734595217087111 0.014401834724704979 0.043982567552873636 0.0167921200548548 -0.00019140863995678823
0.0015630397674987792 0.010326979038200198 0.0027947974387259175 -0.015457448814022655 0.0018438757085472977 0.000565736103006872 0.0394899289139597 0.016411303241302543
00000000: 6b9a 923f 3dfd b53f c04b 9e0a defb 8cbf
00000010: 75a1 1734 f811 993f 65e0 2a25 23c3 91bf
00000020: 68f8 2889 b57e 8d3f eca7 7712 e284 a63f
00000030: 2d4b dd19 f431 913f 511c 94b2 9b16 29bf
00000040: 13a3 c22b dd9b 593f ab66 e2a9 4f26 853f
00000050: 1e0c 2573 1de5 663f 7929 16a9 27a8 8fbf
00000060: 7a2c 6e77 c635 5e3f 481e c107 bd89 423f
00000070: 89e4 6922 0638 a43f 9614 d3ea 1fce 903f

weight f8 [128, 16]
-0.19142570791037505 -0.022234932500318053 -0.0019838787054415174 -0.06619393753090695 -0.03250706282784733 0.0033569087809563495 -0.031388674927940736 -0.1796548355734666
0.19098237648391247 -0.06626842269056339 -0.02039322380843094 -0.09949048278128066 0.22237613207105267 -0.26264314101414615 0.14848161517601385 -0.1485122386270885
-0.3108115787645173 -0.17469171361617444 -0.08425810217607024 0.001634313440888748 0.16549627758778554 0.15867114032887408 0.261056570272503 -0.09307790201670538
0.020723248184818497 0.098481869374951 -0.23766083350709225 -0.1817447045563572 -0.024494773982699742 -1.091420596005407 1.446602951736185 0.057764895663899224
-0.34984867302622186 0.7095068486077833 -0.011416068544174297 0.41514990034727317 0.991260426850113 -0.974526258848936 0.2910576347726773 0.08667839719692585
0.40690896176492475 0.16731900016966467 -0.004535133811262435 0.41264931691962636 0.8545072290414543 -0.5690805596947467 -0.5414307427483371 -0.6899993517760424
-0.37221179251518616 -0.0496442556993412 0.023033705527153815 -0.21415195268152573 0.19900269959166556 -0.13172662382985534 0.14426869249511162 -0.24515755830527783
0.31409308483930204 -0.06800967459525722 0.18907115842659628 -0.46365922248898944 0.008589718995046314 0.04766371294744256 0.496688655139903 0.08654250865837827
-0.2871754625915926 -0.2491621502796204 0.6772842538144128 -0.17958970814909897 -0.3031499077383334 -0.5485694938115321 -1.1945640895041787 0.19518949483381384
-0.09527464013291419 0.026039283023349326 0.0008418303866681548 -0.29684187478439095 0.4443405817499976 0.24388386313476743 -0.590142036025764 -0.2358917306919669
-0.02286801738947937 -0.018973928031373405 -0.07428828890445818 -0.019625309679268114 0.09261502932788854 -0.24816889627912928 0.08602074576671966 0.3530895962893052
0.01898411441731975 0.03771014091644778 -0.8898276032852849 -0.02014250578423539 0.56625729299701 -0.17474390780590418 0.03633657573960106 -0.0165071562100785
-0.5874138687630576 -0.6000596156441452 0.05631981385825193 -0.12127918301900621 -0.02610570257143678 0.248745322451299 0.139116135342341 -0.09864184865250125
-0.07766480553933673 -0.10617971317632591 -0.024286508735247132 -0.6297922310171924 0.2267902937734193 -0.517489517017411 0.5756335581790537 -0.19634345013516788
0.38352673846719704 -0.061895530153865036 0.5643058535696489 -0.17043027820052103 -0.27854414437229547 -0.46463384308846667 -0.10008411449624556 -0.06438056444383446
-0.06932133388400015 -0.2967922448641936 -0.2137761379102189 -0.4936378697054935 0.018945387842846585 -0.19737353173124103 -0.6223260508783703 0.4006827010796821
-0.07805646425567264 0.019802813259916115 0.23696252240082274 0.058394693150694246 0.08951312584176563 0.06440291930083039 0.04557597731551556 -0.02126598635966193
0.28905020209508614 0.10950885062706495 -0.12219019813676156 -0.08227382214860507 0.12007094205857034 -0.06263091603633497 0.2611459914314386 -0.055231074200007765
-0.006373731465174546 -0.2797544011638845 0.24070707497139643 -0.05491274164452084 -0.028899234374165854 -0.27222293056358915 0.21112228512631537 -1.6274526021073674
-0.20879136506772417 0.3709275095760058 0.5417704423589657 0.1074144953337578 0.6243510645606923 0.19144716807056658 -0.10368188004384894 -0.010430331885020506
-0.1399955417770614 0.026889542236516642 0.0279634128456118 0.09188614457179048 0.031611233297505446 -0.03705278078718388 0.3128200784106515 -0.2515976627587584
0.10398118262723105 -0.12842750686521504 -0.06705794457950963 -0.06260477630116242 0.14582365737986971 -0.20822310576223582 0.33168766042277764 -0.37793468419648846
-0.11824296775313957 -0.01288658273765485 -0.03389854566860139 -0.010051211396789012 0.014243154215333861 -0.0035226278657912416 -0.03352426072486494 0.44824854870883124
0.8809345060719446 0.0009607091289121019 -0.007306165271735709 -0.03230247127901237 -0.6114175970299973 -0.13091169458456234 -0.014547883390092966 0.032773918587791294
-0.17469466372382558 0.11239310890480049 -0.1865148981669038 0.12323809640684961 0.048426023484940225 0.21552383156136276 0.08616728912644851 -0.8865389689620686
0.02805018803042948 0.5644930144870783 0.5655866740631293 0.1278618602097634 0.20773887334306126 -0.10932188883886133 -0.10866539044218647 0.850428935888825
0.001613802783006337 -0.20665474356858307 0.8249024377723181 0.860553383905514 -0.2654189483494627 -0.8970836206022686 -0.3258784173830073 -0.12835947819061402
-0.1078455254086734 -0.7459396579130998 -0.16756994173660492 -0.39095383266995504 1.0665848337677468 -0.007872428752420084 0.14143126837244005 -3.3667120292947805
-0.20089865235605656 -0.2008033075016262 -0.11619193777228796 -0.0624650647806941 0.3888008964679311 -0.004048384905795426 0.2386445510034459 -0.19768883223483827
-0.028126920246972217 -0.21131712960023244 0.10194146119451246 -0.4022140888918126 0.3824941486705231 -1.5330497396857392 1.3573208785132451 -0.05857580577382625
-0.2049897491665929 -0.17647458540138766 0.5360534620288018 0.7324210875858161 -0.15483379901680588 -0.5201929518745483 -0.012420249616345632 0.02701227203948253
0.04624157783596662 -0.8629126040214382 -0.3228974055173108 -0.4725464493180673 0.75761441208693 -0.04122216959798743 -0.008344114190804422 -1.8399364331889587
00000000: d45a 8b39 a380 c8bf 21a8 ab0f c1c4 96bf
00000010: 5c5d 17c5 7e40 60bf a782 e3fc 15f2 b0bf
00000020: 5120 7807 c4a4 a0bf 866f c1ad f27f 6b3f
00000030: f180 8f28 2d12 a0bf 1f9b adfd edfe c6bf
00000040: 802d 8e4a 1c72 c83f 3da6 36a4 f7f6 b0bf
00000050: 2dd5 4415 f6e1 94bf e510 cf51 3578 b9bf
00000060: a8fc 5333 d276 cc3f 952a 4b2d 25cf d0bf
00000070: 8b7e 9e10 7201 c33f 90c3 faf3 7202 c3bf
00000080: 2fc0 803f 56e4 d3bf a58c 6e4e 4c5c c6bf
00000090: 72ed 4461 f091 b5bf a204 ecb1 cec6 5a3f
000000a0: 19b5 ec65 fb2e c53f 8809 44ff 554f c43f
000000b0: 217c ee9d 26b5 d03f de5c 2411 f4d3 b7bf
000000c0: b9fb e1a4 7938 953f 33e0 3698 1b36 b93f
000000d0: f1fd b991 ab6b cebf d936 2515 6943 c7bf
000000e0: c5e4 b674 2815 99bf 8462 6071 7576 f1bf
000000f0: 4e10 0023 4925 f73f 0473 7743 5c93 ad3f
00000100: 6d95 4cb0 eb63 d6bf d8de e1b4 47b4 e63f
00000110: b475 5ec8 4e61 87bf f877 3be3 d091 da3f
00000120: cf7c 64c9 67b8 ef3f 5f2e 5bb1 512f efbf
00000130: 7e62 a633 b0a0 d23f b201 3b31 8e30 b63f
00000140: dab2 cee2 cb0a da3f 4e33 dd80 b56a c53f
00000150: d70c 70b6 6e93 72bf fcbc 38ae d868 da3f
00000160: 51b7 5d8b 1f58 eb3f bdb4 156f e835 e2bf
00000170: 2ce6 a490 6653 e1bf 2975 4485 7914 e6bf
00000180: e372 0269 51d2 d7bf d56b 53cd f86a a9bf
00000190: ea7e c7cf 2596 973f fb22 92c8 5469 cbbf
000001a0: deec 47a3 eb78 c93f f04c ae02 6bdc c0bf
000001b0: 2b35 0d82 6577 c23f afe9 a4a7 5261 cfbf
000001c0: 2936 d2e1 191a d43f 52bf 3200 1569 b1bf
000001d0: 788f 07d5 7b33 c83f 4b0e 45bb 97ac ddbf
000001e0: ed0d 5391 7c97 813f 9361 a1d0 6067 a83f
000001f0: d0af 8736 bfc9 df3f c5ca 665c a627 b63f
00000200: 19da 0231 1561 d2bf 900e 6d9b 8be4 cfbf
00000210: 3c51 0707 50ac e53f 926a 99a9 cbfc c6bf
00000220: 3a61 e1de ce66 d3bf 2b1f 709c e18d e1bf
00000230: eb57 163c ef1c f3bf 3bc0 6a28 f8fb c83f
00000240: 2750 8237 eb63 b8bf ba7d fcb3 0aaa 9a3f
00000250: e6de 60fd c895 4b3f fa10 1210 75ff d2bf
00000260: fab7 b97a 1370 dc3f bdcd 1720 9637 cf3f
00000270: 6137 178d 71e2 e2bf dc02 5c42 b331 cebf
00000280: 54aa 3fab b66a 97bf f851 7cc1 e66d 93bf
00000290: da08 52ab 8e04 b3bf 9e3d fc3c a818 94bf
000002a0: 26d4 145a 9eb5 b73f 8f9e b396 ffc3 cfbf
000002b0: ad78 d8a1 7405 b63f c7b4 271b 0599 d63f
000002c0: 067e 435a 9270 933f 6469 ed5b be4e a33f
000002d0: 0d07 e6bc 7779 ecbf a43f 69ae 3ca0 94bf
000002e0: 9065 519d c71e e23f f3cd 9924 025e c6bf
000002f0: 6482 e628 b59a a23f 07fc 4980 40e7 90bf
00000300: bfbb 712b 18cc e2bf 1ff1 1a39 b033 e3bf
00000310: e3a7 465d f3d5 ac3f 2992 c00c 270c bfbf
00000320: ec39 220b 74bb 9abf 000c 7b00 e3d6 cf3f
00000330: f314 d2b9 8ece c13f d8be fa99 9740 b9bf
00000340: 6f76 d737 d7e1 b3bf 784a 97fb 972e bbbf
00000350: 52f3 0103 90de 98bf 8acc 6f09 4227 e4bf
00000360: 044e 67df 7607 cd3f 8c9a f32c 468f e0bf
00000370: 267e 5b11 976b e23f 1da3 8e3c c821 c9bf
00000380: 09ec b6bb b38b d83f bc11 8f5b c5b0 afbf
00000390: 79bc 4026 cb0e e23f 2449 8fcb a8d0 c5bf
000003a0: 5e90 a4d1 aad3 d1bf 3081 2b96 8fbc ddbf
000003b0: 5949 9cce 1c9f b9bf 31c7 c8a2 3e7b b0bf
000003c0: 8d66 f2fd 0abf b1bf 0d7b 59e6 a4fe d2bf
000003d0: 6daa 7e38 045d cbbf e8f0 9c4a c397 dfbf
000003e0: 5abe c774 6b66 933f 7fdb f02f 8943 c9bf
000003f0: fa15 7f52 18ea e3bf 9173 4d0e c9a4 d93f
00000400: 9c31 3829 82fb b3bf 6fd1 474d 3047 943f
00000410: f16a 0bb6 c954 ce3f 2233 afc2 e8e5 ad3f
00000420: 0099 0d0c 55ea b63f 7efb 29b0 b57c b03f
00000430: 4254 1b08 bc55 a73f e14b ba2f c0c6 95bf
00000440: 32a3 396b cc7f d23f d0d7 10a4 c508 bc3f
00000450: 679f e358 db47 bfbf 44f7 71af e50f b5bf
00000460: 9d6a 5721 f8bc be3f 7036 1868 9408 b0bf
00000470: 567d 2bad 9db6 d03f 66ef d252 3f47 acbf
00000480: b17f 2483 571b 7abf fa4c fa00 7fe7 d1bf
00000490: f87f 754b 7dcf ce3f 8c6b feda 851d acbf
000004a0: 7ee0 10ca c297 9dbf 327b ffb9 196c d1bf
000004b0: 0c83 0917 0e06 cb3f bc75 5dbd 0b0a fabf
000004c0: de97 53ea acb9 cabf f733 b4bc 46bd d73f
000004d0: f5e0 7bf7 2e56 e13f 5828 9330 847f bb3f
000004e0: c559 7015 affa e33f e32f e33e 5781 c83f
000004f0: 69e3 f94b e58a babf 7a24 a972 7f5c 85bf
00000500: 0357 c2b8 5feb c1bf e47e 0aa2 ee88 9b3f
00000510: 2934 a0de 70a2 9c3f b230 e4b1 d985 b73f
00000520: ebe4 65fa 582f a03f 40e3 6903 95f8 a2bf
00000530: ee93 9381 3e05 d43f 4021 5315 2d1a d0bf
00000540: 548a c8c2 829e ba3f 024b f202 5070 c0bf
00000550: efed e79e b52a b1bf 8571 c9da dd06 b0bf
00000560: c1fe b67f 59aa c23f e59a c202 0ea7 cabf
00000570: 542a 80e1 5e3a d53f ee78 29f5 1430 d8bf
00000580: cf51 7bcf 2b45 bebf b9ca 52db 4764 8abf
00000590: 5fa5 0e72 265b a1bf 8a08 e0c1 ba95 84bf
000005a0: 0bbb 5fcc 832b 8d3f b97c 586f 7cdb 6cbf
000005b0: a32a df86 172a a1bf e8c4 4bae 1ab0 dc3f
000005c0: bbe6 af8f 9d30 ec3f cf1f 1325 037b 4f3f
000005d0: 33a0 6bce 11ed 7dbf 4859 7213 f389 a0bf
000005e0: f82a eea2 bb90 e3bf 19cb 73e3 b6c1 c0bf
000005f0: 0e7e 17db 47cb 8dbf fb1e fe38 bec7 a03f
00000600: d861 bd0d 655c c6bf f1b8 0a77 cbc5 bc3f
00000610: d0fb eb5d b8df c7bf 934f b029 888c bf3f
00000620: 764a 49b6 4bcb a83f f746 08f0 4896 cb3f
00000630: 7577 c838 0f0f b63f e84a caf8 865e ecbf
00000640: a30a f340 30b9 9c3f cc5b 81a7 5310 e23f
00000650: 17f2 8439 4919 e23f 27da 0006 c75d c03f
00000660: 0be4 8ef9 2f97 ca3f 6bc3 4cf1 84fc bbbf
00000670: c700 28ba 7ed1 bbbf dfdd 66be b636 eb3f
00000680: 3c93 368b c770 5a3f c15c 98a2 a973 cabf
00000690: d3ed 13cc 9965 ea3f 18c3 0a40 a789 eb3f
000006a0: f593 b9c1 9ffc d0bf d172 88b5 e8b4 ecbf
000006b0: db76 4826 31db d4bf 85eb 7a58 156e c0bf
000006c0: ce72 a6ac c39b bbbf 8fd6 70d8 bcde e7bf
000006d0: 6d92 c68d ee72 c5bf 530d 6439 6305 d9bf
000006e0: b712 3742 bb10 f13f effd 4080 6b1f 80bf
000006f0: 8d4d 2578 6b1a c23f 8ef7 66b7 06ef 0ac0
00000700: 9901 d70a 0cb7 c9bf 77f5 523b ecb3 c9bf
00000710: bf74 ca3c c1be bdbf fb4e c0c4 6bfb afbf
00000720: 450e bf27 1de2 d83f 9f28 5a0c 0a95 70bf
00000730: f2d5 f696 e78b ce3f f1d4 9d1e de4d c9bf
00000740: ef4b 64aa 4dcd 9cbf 0dda 5b90 700c cbbf
00000750: a3d7 efe9 d518 ba3f 2bf8 7129 e0bd d9bf
00000760: 6ce1 dcbc c87a d83f 0b77 f129 5f87 f8bf
00000770: 2d47 f618 96b7 f53f 4e57 45e4 a5fd adbf
00000780: fac6 57a6 1a3d cabf 22e3 6f1e b896 c6bf
00000790: f047 0a97 5927 e13f 5e9e 4259 fe6f e73f
000007a0: eada 8b0b 98d1 c3bf fc25 7db0 6ba5 e0bf
000007b0: 5e6b 48af c96f 89bf ff3c 00e4 1aa9 9b3f
000007c0: 62b5 0ae1 f9ac a73f 3b81 b2e4 fa9c ebbf
000007d0: 133f 2ae1 59aa d4bf 8b5e 6a76 333e debf
000007e0: 3f88 5c94 603e e83f 7348 967c 121b a5bf
000007f0: d53d 820c b816 81bf 5a3f 742f 6170 fdbf

bias f8 [128]
0.01499122849424249 -0.3232166661887778 -0.1716315064041146 -0.4103006742006989 -0.49999332329616225 -0.1364946902306337 -0.27662016329211025 -0.2067851041802346
-0.21598503496823057 0.19442198160206456 -0.16814315050783268 0.03150984462202443 0.27675389252146304 0.08053555128650376 -0.06034037719786469 0.02583413155393829
0.19330506118559096 -0.124792391059988 -0.33444725674912323 0.2551463071808664 -0.37663494966393907 -0.13551874805188918 0.3503062220074113 -0.11208271217908689
0.12488512791903336 -0.2119566655444508 -0.2742700430330574 -0.7730392139819183 -0.45729560876902936 -0.48584346722048416 -0.22095532616968708 0.0501792335446422
-0.6132325590614157 -0.4493608030818641 0.016761249712101862 -0.44535030817435994 -0.353942000501948 -0.3267435205372068 -0.19957252242596468 -0.5039209525964419
-0.07365857230011952 0.0414075212560128 -0.2840925730836591 -0.08676880526977716 0.0003811927753602084 -0.1789589095688562 -0.1920647009109464 -0.21601069461992273
-0.2377887397203764 -0.21034966748647843 -0.03986928283006122 -0.24271026650448504 -0.4754899253744893 -0.21862651071430098 -0.46148118001787447 -0.33731992805996913
-0.4988930606982801 -0.18593714305949444 0.08735337164989572 -0.28206809650643927 0.18369547867271632 0.3700329138149713 0.20897024929366054 -0.5389455222349069
-0.07404367399903078 -0.1894215513662031 -0.38102223366552435 -0.2101981368426907 -0.38601009943277914 -0.25262306100025267 -0.1417727458505547 -0.2889912257449156
-0.31846436569083464 -0.40089227838649966 -0.04942413071310316 -0.08363037265818213 0.09403582230620491 0.09786860114832288 0.21265923714956733 -0.1650085243079589
-0.3818040870272459 -0.38386073696579626 -0.5596077414866908 -0.5800240099318728 -0.14601325116559125 0.036365557789787804 -0.3360113929631641 -0.10918995191594037
-0.3512997841923481 -0.09846419831748988 -0.38749196100063604 -0.4050198578755242 -0.09561313842894306 -0.6405706428106864 -0.291163963432049 -0.28931914414133036
-0.44445589704249816 -0.30458754296026047 -0.1204647067320415 -0.3715744947239951 0.18066793278208004 0.01767159765971615 -0.12319923018774798 -0.11812006872058049
0.0051759433674570705 -0.2400370375744346 0.023865242020023384 -0.6471742420166838 -0.2610062391854264 -0.04421019953449496 -0.3459742820350397 0.19381116174224602
-0.5099212920392302 -0.026366737786161738 -0.07111422869079648 -0.3855070432583686 -0.25792675587790836 -0.11503217144958015 -0.07464502963019552 -0.3823236136525133
-0.2063691989820982 -0.12262012825411349 -0.024270723696972505 -0.6899177103311329 -0.5333540695628788 -0.3762745485100566 -0.15197893516208227 -0.2127163410153886
00000000: 3888 e0a0 b8b3 8e3f 8763 b3f4 94af d4bf
00000010: 7b04 7c6d 05f8 c5bf 0b00 4ec2 5d42 dabf
00000020: b19f f1fe e3ff dfbf ea21 4f73 a878 c1bf
00000030: 263e b00e 25b4 d1bf 0e85 e02d ef77 cabf
00000040: 7696 ceca 65a5 cbbf 5b5c 4dca d1e2 c83f
00000050: 4420 3dfa b685 c5bf 6ea9 4ef0 0e22 a03f
00000060: 8de7 5af5 55b6 d13f 7ddc f056 fa9d b43f
00000070: 53e2 6215 efe4 aebf 3733 9438 4374 9a3f
00000080: 13c1 f861 38be c83f 336d 64e6 64f2 bfbf
00000090: 905c 7e77 9567 d5bf 105e 422d 5154 d03f
000000a0: 1695 d579 c91a d8bf 6259 70a7 ad58 c1bf
000000b0: 7fdb c6c9 6a6b d63f a493 41df 73b1 bcbf
000000c0: 3645 2bc4 78f8 bf3f 4c60 5761 6521 cbbf
000000d0: 1d5e 46f0 a38d d1bf 097e d2bb bcbc e8bf
000000e0: f31c 11cd 5444 ddbf 89fb ab32 0f18 dfbf
000000f0: 094e e39d 4348 ccbf 7771 06ae 17b1 a93f
00000100: 7f5b 40e3 999f e3bf 58d1 55d0 53c2 dcbf
00000110: 720d 6a6d dc29 913f 5cd5 3794 9e80 dcbf
00000120: 348c 3559 fca6 d6bf 02c8 b8a7 5de9 d4bf
00000130: a4f7 7fa8 978b c9bf e277 65d5 1e20 e0bf
00000140: 505c 19c7 49db b2bf 64bc 34db 5d33 a53f
00000150: 5292 9b9d 922e d2bf f959 f2fc 7a36 b6bf
00000160: f5c8 ee80 5afb 383f 1989 f623 20e8 c6bf
00000170: e073 907c 9395 c8bf b049 7d0a 3da6 cbbf
00000180: 9860 3a86 dc6f cebf 6019 4ae7 bcec cabf
00000190: 147c bd23 bf69 a4bf 8525 8548 2111 cfbf
000001a0: fce5 c34b 6d6e debf ed3b c718 f4fb cbbf
000001b0: 515c f95b e888 ddbf fe9f d352 a696 d5bf
000001c0: 12a1 f928 dded dfbf 8eae 46ce c9cc c7bf
000001d0: ad7f 6e62 ca5c b63f 445e 6f58 670d d2bf
000001e0: d143 a95c 5583 c73f 4ed9 d187 9eae d73f
000001f0: 8ad0 4681 89bf ca3f d862 0aae 0a3f e1bf
00000200: 9830 4db6 86f4 b2bf 2c41 2324 f73e c8bf
00000210: 661b 2914 ab62 d8bf d3b1 b5c5 c5e7 cabf
00000220: e153 3fb4 63b4 d8bf 3089 4dea f92a d0bf
00000230: 5135 72fd 9b25 c2bf 83f1 d90d d57e d2bf
00000240: 6158 e55c b861 d4bf 74e4 3816 38a8 d9bf
00000250: 428e 17a2 1e4e a9bf 4ce9 84d3 cc68 b5bf
00000260: 6a26 754d bb12 b83f aac0 3ca9 ea0d b93f
00000270: 2bf6 5ffa 6a38 cb3f 3961 bbd3 ff1e c5bf
00000280: d4b6 d068 7a6f d8bf b023 df9f 2c91 d8bf
00000290: a3c2 887e 4ee8 e1bf 66ab 3183 8e8f e2bf
000002a0: fbf8 44ed 8fb0 c2bf 13dd d0a2 819e a23f
000002b0: 6d0d f7ed 3581 d5bf f7e0 8768 dff3 bbbf
000002c0: eaab 0c17 b27b d6bf e1b8 991f f334 b9bf
000002d0: 1d7b fd14 abcc d8bf 9894 f368 d8eb d9bf
000002e0: 7ac7 9e46 1a7a b8bf 7dc9 3401 8e7f e4bf
000002f0: 92b8 2d2d 6ea2 d2bf f965 8c71 3484 d2bf
00000300: b9f5 9325 f771 dcbf d021 f2bf 5c7e d3bf
00000310: 6381 bc67 c6d6 bebf 9381 b763 e0c7 d7bf
00000320: 2c13 5e77 2020 c73f bff2 10d8 8018 923f
00000330: 1c7b 8c18 fc89 bfbf 7bfa 27e8 1d3d bebf
00000340: 74aa d3b7 5e33 753f 6bff 1a9d 88b9 cebf
00000350: 01d1 f247 2170 983f d1ce 88c1 a6b5 e4bf
00000360: 749d 5683 53b4 d0bf d9f2 4c22 b8a2 a6bf
00000370: af3e a650 7124 d6bf f12f a4dc cdce c83f
00000380: 3ef6 1a75 4651 e0bf 659f f9d1 e1ff 9abf
00000390: 34da 81c6 8a34 b2bf ca07 cbbb 25ac d8bf
000003a0: 5493 5039 df81 d0bf c322 5d96 bf72 bdbf
000003b0: 8315 12c9 ef1b b3bf c211 4876 fd77 d8bf
000003c0: 6ad1 4350 4e6a cabf 3fc8 ae60 0864 bfbf
000003d0: 6970 1db2 6cda 98bf 98b5 594e ce13 e6bf
000003e0: 1dc1 be8d 3c11 e1bf 32be 0ad8 e114 d8bf
000003f0: b4dc 19b6 0b74 c3bf 3c31 feff 493a cbbf
