experiments/Datasets/darts_logs/base_transformer_5_84/checkpoints/last-epoch=8.ckpt (torch, 378459 bytes, 201 tensors)

encoder.weight f4 [16, 1]
000000 e5 4c 30 bf e8 99 a3 bf c3 eb 1b bf d1 35 d4 bf
       -0.6886733 -1.2781343 -0.6090662 -1.6578923
000010 dc 12 43 3f a2 48 ac 3f 79 ae 8a 3f e8 9b c3 3f
       0.7620065 1.3459666 1.0834495 1.5281954
000020 b1 b4 81 bf c6 3e 81 3f 00 ca ac 3f 23 01 90 bf
       -1.0133268 1.0097282 1.3499146 -1.1250347
000030 53 4f cb be c8 8f a0 bf ce 52 73 3f 70 90 40 3f
       -0.39708957 -1.2543879 0.95048225 0.75220394

encoder.bias f4 [16]
000000 64 e2 9c 3e f3 63 dc 3d f6 48 3f bd d8 6c d1 3e
       0.30641472 0.10761251 -0.04670044 0.40903354
000010 0c 8a b6 be 9e a1 a0 bf 54 2e 14 bf 40 cc 4c bf
       -0.35652196 -1.2549322 -0.5788319 -0.7999916
000020 76 3f 9b 3d 7d 2e a8 bf 12 83 f9 be 4d 37 00 bf
       0.075804636 -1.3139187 -0.4873281 -0.5008438
000030 79 25 0f 3e 61 ec b7 be 20 78 12 bf ed 0c a2 bf
       0.13979138 -0.3592253 -0.57214546 -1.2660195

transformer.encoder.layers.0.self_attn.in_proj_weight f4 [48, 16]
000000 86 ea 23 3e 7f 09 03 be aa b1 4a bf 96 54 84 3e
       0.16007432 -0.12796591 -0.79177344 0.25845784
000010 f0 96 a3 be a8 d5 ac be 2a 34 b4 3e 42 b8 30 bb
       -0.31951094 -0.33756757 0.35196048 -0.0026965295
000020 c7 85 7d 3e d3 4d 8d bf ce 04 fd be 41 2a 08 bf
       0.24758063 -1.1039375 -0.49417728 -0.53189474
000030 0f 50 e4 3e 98 f9 d7 be 01 7e 96 be ba 70 12 c0
       0.4459233 -0.42182612 -0.29393008 -2.2881303
000040 18 2f af 3d c6 ab 29 bd 00 3c 19 bf bc 57 68 3e
       0.08553904 -0.04142358 -0.5985718 0.22689718
000050 c4 12 5e be db 29 f9 bc 72 e7 0f 3f 41 95 75 be
       -0.21686846 -0.030415466 0.5621253 -0.23982717
000060 07 4f 13 3f 86 09 72 3f 25 4c 63 3f 04 15 64 3e
       0.5754246 0.9454578 0.8878806 0.22273642
000070 a1 57 18 bf c6 01 16 3e d0 4b e4 3e 45 82 1c 40
       -0.5950871 0.14649114 0.4458909 2.445451
000080 84 7d f8 3d ca 9f d0 3e 74 d2 ab 3e ec eb 8d 3f
       0.12133315 0.4074691 0.33559 1.1087623
000090 7b d9 16 3e 11 28 8c 3a a7 9d ad be 7a 17 ac 3f
       0.147314 0.0010693093 -0.33909342 1.3444664
0000a0 43 a0 74 bf 1a 09 38 3f 73 ed 11 bc 7d aa 2e 3f
       -0.9555704 0.7188889 -0.00890671 0.68228894
0000b0 23 48 96 bd 3d 83 82 3f 25 52 2d be d3 ae 02 3e
       -0.07337978 1.0196301 -0.16925867 0.12762003
0000c0 b6 45 3f bf ed 27 69 3f e6 e6 2c 3d b8 50 1c be
       -0.74715745 0.91076547 0.04221239 -0.15265167
0000d0 fd ff 7f be 57 13 02 40 1d 1d 01 3f 77 26 20 c0
       -0.24999996 2.0324304 0.5043505 -2.5023477
0000e0 78 28 f0 3f bf 2d ad bf 3e ad dd be 91 f0 4e bf
       1.876235 -1.3529586 -0.43296236 -0.80835825
0000f0 da 22 17 3f 5e 7e b2 bf 04 5b 8e 3f ec 47 7c bf
       0.59037554 -1.3944814 1.1121526 -0.98547244
000100 67 3a a7 be ed 42 28 3d b6 27 98 3e 5a 39 3b 3d
       -0.32661745 0.04107945 0.29717797 0.04570899
000110 a0 70 9b be ee a7 25 3e f2 a6 42 3c ad d8 0a bf
       -0.30359364 0.16177341 0.011880623 -0.5423687
000120 21 0d 6c 3f 40 9d 0e bf 64 65 02 3e d7 ce 8c 3e
       0.92207533 -0.55708694 0.1273399 0.27501556
000130 96 94 e1 3f e3 1c 9a 3e c3 52 68 bf 4d f6 2e bf
       1.762347 0.30100164 -0.90751284 -0.68344575
000140 ac ef 95 be df 94 78 3e 35 72 50 3f 72 86 d6 3d
       -0.29284418 0.2427554 0.81424266 0.10474862
000150 cc ea 53 3f f2 41 f7 be 43 b7 73 3e 7a 37 5a be
       0.82780147 -0.482925 0.23800378 -0.21310225
000160 2a 00 c9 3e c1 86 81 3d 8d b0 09 bc e7 cf 6c be
       0.39257938 0.063245304 -0.008403909 -0.23126183
000170 ab af 9c 3e 8d 11 f4 bc 83 7e 27 bf 0a 46 bc 3e
       0.30602774 -0.029793525 -0.65427417 0.36772186
000180 b9 1b 0b 3e da e2 1e be 7d 36 fa ba db 2b da 3e
       0.13584794 -0.15516225 -0.0019089725 0.42611584
000190 c4 3c 2f 3e 92 19 b9 3e 15 5f 94 bc 91 92 80 bf
       0.17113024 0.3615232 -0.018111745 -1.0044729
0001a0 cd 40 cf 3f 0c 32 1c bf f6 e5 03 bf 7e ce 00 3d
       1.6191651 -0.61013865 -0.5152277 0.031446926
0001b0 3e f3 07 40 39 5a 6e be f3 c8 03 3f 32 65 3d bf
       2.1242213 -0.23276605 0.514785 -0.73982537
0001c0 77 8a d6 3d 1c ba f0 be 51 30 08 bf 28 03 c8 3e
       0.10475629 -0.4701699 -0.53198725 0.39064908
0001d0 7c bf b4 be 77 b0 e3 be 0a 6b c3 3c 3e b7 4c 3f
       -0.3530234 -0.4447057 0.023854751 0.79967105
0001e0 85 84 a3 bf 2d 35 f7 3e 4d a9 c7 be 28 0d 72 3f
       -1.2774817 0.48282757 -0.38996354 0.94551325
0001f0 94 8e d5 bf 1d 43 6c 3f 8e 6b aa bf 4f 11 85 3d
       -1.6684136 0.92289907 -1.3314073 0.06497442
000200 1d d6 4e 3e 9e f7 c7 3d b5 ff 8d be 9f 64 05 3e
       0.20198865 0.09764026 -0.2773415 0.13026665
000210 5f 05 8e 3e 55 27 20 be e8 07 25 be ce 48 7f 3d
       0.27738473 -0.15640004 -0.16116297 0.06232529
000220 2a a0 a2 3c a6 26 5a bf d2 c3 78 bf 31 1d ec 3d
       0.019851763 -0.8521522 -0.971738 0.11529005
000230 ca 7d 81 3f dd 70 7a 3e 8f 87 37 bf 08 a2 0d c0
       1.0116513 0.24457116 -0.7169122 -2.2130146
000240 21 59 75 3e 08 c9 15 3f 9f 73 33 bf 3f cd 86 3d
       0.23959781 0.58509874 -0.700983 0.06582116
000250 f5 52 45 3d 1c 89 90 bf 26 a7 86 3f 75 05 0d bf
       0.048174817 -1.1291842 1.051976 -0.5508645
000260 92 fa 86 3f 17 34 26 3e 22 be 45 3f f9 52 d4 be
       1.0545218 0.16230808 0.77243245 -0.41469553
000270 49 35 fc 3e be b1 1f bd 5d a4 af 3f f0 1c 9b 3d
       0.49259403 -0.038987868 1.3722035 0.07573879
000280 26 25 0d 3e ef 78 61 3e 8b 83 ef be 36 81 7e 3e
       0.13783702 0.22018789 -0.46780047 0.24853978
000290 ed 53 fd 3e 16 2d 79 3e fe 91 ab be 09 b0 ad 3e
       0.49478093 0.24333605 -0.3350982 0.33923367
0002a0 f5 3f fa 3d 1b 83 8b bd 86 dd ba bd b6 35 a4 3e
       0.1221923 -0.06812116 -0.091242835 0.32072228
0002b0 f1 fa 06 40 ec 03 ec 3e f2 80 9a be 17 6c ad bf
       2.1090662 0.46096742 -0.30176502 -1.3548611
0002c0 25 c7 ab bb 0a 4f 55 be d8 ca 89 be 76 fd 85 be
       -0.0052422457 -0.20830932 -0.2691257 -0.26169938
0002d0 ac 84 43 bd 75 e1 e5 3d fb 2f 79 3e 90 ba 02 bf
       -0.047733948 0.11224643 0.2433471 -0.5106592
0002e0 f5 2b a1 3f 99 db dc be dc 9b 03 3c ca 46 dd 3e
       1.259154 -0.4313629 0.008032765 0.4321807
0002f0 ae 64 30 40 6b 6d 31 3d 61 f4 a8 3d 0c 7c fe be
       2.756145 0.04331724 0.082497366 -0.49704015
000300 5f 64 39 3e e9 99 87 3d e7 e7 21 bf e9 5c 04 3d
       0.18104695 0.06621153 -0.6324448 0.03231517
000310 bb 93 bb 3e 67 50 8e bf af d6 af be 37 d6 92 3f
       0.36636147 -1.1118287 -0.34343478 1.1471623
000320 73 4d a1 bf 0c e9 de 3d 99 8d 40 bb a7 19 8b 3f
       -1.2601761 0.10884294 -0.0029381274 1.0867203
000330 2b 7b e8 be 4a eb c8 3f f2 7a dd bf f1 20 13 3e
       -0.4540647 1.5696805 -1.7303145 0.14368035
000340 1f 11 38 be 39 31 b9 be 86 96 7c be a5 06 86 be
       -0.17975281 -0.36170366 -0.24666795 -0.26176944
000350 33 b3 27 bf 2c c3 a3 bd d1 b3 ad 3e e1 da f1 3c
       -0.6550781 -0.079962105 0.33926252 0.029523315
000360 62 3d 85 bf 52 22 a8 be 98 90 ea bd 66 b9 e8 bd
       -1.0409358 -0.32838684 -0.1145336 -0.11363487
000370 73 dc 02 bf 4d c5 30 3e bb cf db be c6 c7 26 3e
       -0.5111763 0.17262764 -0.42931923 0.16287145
000380 22 e4 0c bd cb 7a e5 3d 55 66 0f bf 9e eb 82 3e
       -0.034397252 0.112050615 -0.5601552 0.25570387
000390 9f 77 19 3d 79 4e 95 3c 16 e6 30 3e b1 be c3 3d
       0.037467595 0.018225895 0.17275271 0.09557856
0003a0 52 b8 2b 3e cb e7 4b 3f ef 4f 22 3f c1 48 cc bc
       0.16769531 0.79650563 0.6340322 -0.024937036
0003b0 f3 39 22 bf 73 87 15 be b4 3f 14 3e 2a 7b b9 3f
       -0.63369673 -0.14602451 0.14477426 1.4490712
0003c0 94 ac cc 3c 40 fa 4c be ee d0 ca 3d 2e bc 95 3e
       0.024984635 -0.20017338 0.099031314 0.29245132
0003d0 55 19 31 bd f9 4d 97 3e c3 a2 4d be 80 a9 6a bf
       -0.04323705 0.29551676 -0.2008162 -0.91664886
0003e0 8f 56 22 3f ff b3 af 3d 7d ff a5 3e ee a5 c9 be
       0.6341333 0.085792534 0.32421485 -0.39384407
0003f0 89 2b 45 3e a8 a7 3f bf 6e f3 e5 3e a4 b7 ae be
       0.19254889 -0.748652 0.44912285 -0.34124482

transformer.encoder.layers.0.self_attn.in_proj_bias f4 [48]
000000 19 d4 5c bf d5 c3 a2 3d 32 7e 62 3f b8 f9 0d c0
       -0.86261135 0.07947508 0.8847381 -2.2183666
000010 c5 43 01 3f fd aa 25 3e 43 67 a6 3d d5 f8 bf 3e
       0.50494033 0.16178508 0.08125164 0.3749453
000020 54 8a a3 be 4b 2e f2 be 32 8f 35 3e 9a cb bc 3e
       -0.31941473 -0.47300944 0.17730406 0.36874086
000030 18 67 da 3e 2c 0d 06 bf ca 7f 1b 3f 80 b6 29 be
       0.4265678 -0.5236385 0.60741866 -0.16573524
000040 ac a1 a7 b8 54 79 55 36 56 52 37 39 86 d7 36 b8
       -7.993294e-05 3.1810096e-06 0.00017482913 -4.3592903e-05
000050 3e 12 15 b8 76 61 86 35 a2 5f 3d b9 05 7e a2 b8
       -3.5541358e-05 1.0012143e-06 -0.0001806007 -7.748235e-05
000060 bb 4b 99 37 2d 75 3a 38 d3 80 53 b9 6d f3 f6 b6
       1.8274286e-05 4.4454984e-05 -0.00020170519 -7.35971e-06
000070 26 3a 85 b9 ed c9 20 b7 67 71 48 37 a2 91 df 37
       -0.0002541106 -9.583758e-06 1.19473325e-05 2.6651487e-05
000080 f2 4b 14 bd e0 60 1c 3e cc 52 8a 3d b4 c8 93 3d
       -0.03620524 0.1527133 0.067540735 0.072160155
000090 ee ca 75 bd e8 67 c6 3d 4a fd a5 3c de a7 3a be
       -0.060007982 0.09687787 0.02026238 -0.18228099
0000a0 99 9a d1 bd 9e dd 85 3d ec 62 c4 bd 81 17 07 bb
       -0.10234565 0.06536411 -0.0958918 -0.0020613375
0000b0 ce 70 1c be 9e b7 d6 3b 3c 26 6c bd 9c f0 d2 bd
       -0.15277407 0.0065526506 -0.05765365 -0.10299799

transformer.encoder.layers.0.self_attn.out_proj.weight f4 [16, 16]
000000 95 41 51 3e 29 83 07 bf a1 85 e9 bd b4 98 16 3e
       0.20435174 -0.5293451 -0.11402441 0.14706689
000010 49 0d 34 3e c5 96 89 3e b8 65 d5 be 01 25 3b 3e
       0.17583193 0.2687284 -0.41679168 0.18275835
000020 7d d8 96 bc af 32 12 3e f8 d7 58 3d f7 15 91 3c
       -0.018413777 0.14277147 0.05294034 0.017710669
000030 3f a6 84 bd 63 76 83 3e 1e 61 a1 3e a5 d8 16 bf
       -0.064770214 0.2567626 0.31519407 -0.58924323
000040 02 7a da 3c ce 03 8f 3b da fd 20 3e c3 4d 18 3e
       0.026669506 0.004364467 0.15721837 0.14873414
000050 99 bd 38 be 8b f5 31 be 50 25 28 be 44 0f 8b 3e
       -0.18041076 -0.17378823 -0.16420484 0.27160084
000060 1b d5 8d 3e c6 b0 0a be 1d c0 2f bd 68 d0 47 bd
       0.2770165 -0.13543996 -0.042907823 -0.048782736
000070 a0 da 49 3c 38 47 c4 bd f4 6d 54 3c 5c 87 b3 3d
       0.012320191 -0.095838964 0.012965668 0.08766052
000080 11 7a d0 bc b1 56 c1 bd 63 12 29 bd 08 63 90 3e
       -0.02544883 -0.09440363 -0.0412773 0.28200555
000090 a6 16 15 be 47 b3 9a 3d c2 28 d4 bd 0d 7e 7c 3d
       -0.14559421 0.07553726 -0.103593364 0.06164365
0000a0 67 b6 1e be c1 e4 8d 3d b4 91 78 3d 77 56 fd 3d
       -0.15499268 0.06928397 0.06068583 0.123700075
0000b0 4b 76 03 3e fa d3 06 3e 14 51 71 3e 4e 42 82 bc
       0.12838094 0.131668 0.23566085 -0.015900757
0000c0 78 71 27 3e 91 0f 03 be b8 6c c4 3d ca fe 16 3e
       0.16351879 -0.12798907 0.09591049 0.14745632
0000d0 d9 e4 e6 bd a8 8e 8c bd 35 1a 31 3d a6 38 8b 3d
       -0.11274118 -0.06863147 0.043237884 0.06797914
0000e0 bb d8 7e bd 7c a5 74 be b1 ed 0f 3d 6a 46 53 3c
       -0.06221841 -0.23891252 0.03513879 0.012895206
0000f0 8a f8 05 3d 85 e0 a2 bd 52 93 b7 3c f4 56 53 3c
       0.03270773 -0.0795298 0.022409115 0.012899149
000100 79 90 4e bd 9d 6b 17 3e 6d 1d 5e 3c b3 40 be bc
       -0.05043075 0.14787145 0.01355682 -0.02322421
000110 4e 37 e2 bc 65 48 c7 bc 1d 75 32 bd 0b fd 6d 3d
       -0.027614262 -0.024326513 -0.04356872 0.05810265
000120 38 ed 94 3d 6e d2 92 3d 08 4e 44 3d 42 71 20 be
       0.072718084 0.071690425 0.04792598 -0.15668204
000130 55 d9 24 3c bd b9 8b bd 6e 97 d8 bb 67 87 58 3e
       0.010061582 -0.06822536 -0.0066098487 0.21145402
000140 f9 03 82 bc 92 6b 5a bb fd 13 0f bd 1e 45 23 3c
       -0.015871035 -0.0033328277 -0.03493117 0.009965209
000150 7b 2d b6 bc be cc b1 3d 92 b5 17 be 00 e9 8d 3c
       -0.022238484 0.086816296 -0.14815357 0.017323017
000160 49 12 1e 3d 35 33 20 3e b3 a4 e1 3d 7e 3e 2b 3d
       0.038591657 0.15644534 0.11017742 0.041807644
000170 8c fe 62 3d 30 9e a1 3c cd c3 f7 b8 44 97 a0 3c
       0.055418536 0.01972875 -0.000118143485 0.01960338
000180 8d cd 00 be 29 fa 00 3e 42 bf bf 3d 0f f9 b7 bd
       -0.12578411 0.12595429 0.093626514 -0.08983051
000190 4e 50 9f 3d 41 ad a0 bd 78 23 92 3e a8 b0 18 be
       0.07778989 -0.078455456 0.28542686 -0.14911139
0001a0 3e e7 0a 3e 65 18 d1 bd 0b 59 0b be 8c f4 09 3e
       0.13564774 -0.10209731 -0.13608186 0.13472193
0001b0 2d 80 3f 3d fa fd 9d bd 07 c8 6e be b3 6c b1 3c
       0.046753097 -0.07714458 -0.23318492 0.021658277
0001c0 de 15 12 bb a7 6d ba bc 75 bc 24 bc d4 c2 b7 3c
       -0.0022290866 -0.022757364 -0.010054697 0.022431768
0001d0 25 c2 2c bc 53 08 df 3c 35 30 bf bd dc 9e a0 3d
       -0.010544335 0.027225649 -0.09335367 0.078428
0001e0 eb ec 3c bd 4a 6f e0 3c 2f 41 34 bd 34 d2 22 bd
       -0.04612438 0.027396817 -0.044007476 -0.039751247
0001f0 c7 c8 6b bd 0e 92 65 3d 9b 19 dd bd 65 f4 9d 3b
       -0.057564523 0.05604749 -0.107958995 0.004820394
000200 c0 06 d0 3b a0 da 89 3d 49 44 3d bd 2a 1e 94 3c
       0.006348461 0.067311525 -0.0462077 0.01808079
000210 61 13 86 3d 1c 95 d9 3c 58 82 66 bd 85 8e ef bb
       0.06546665 0.026560359 -0.05627665 -0.007310691
000220 e3 65 77 3c 62 28 ee 3c 93 54 af bb 1b b7 eb bc
       0.015099975 0.02907199 -0.005350658 -0.028773835
000230 41 c4 05 3d 02 b7 de 3d e6 58 07 3e a2 98 c6 3d
       0.032657865 0.1087475 0.13217506 0.09697081
000240 69 69 d2 bc 06 b8 18 be 70 cf 83 bd 01 59 90 bd
       -0.02568503 -0.1491395 -0.0643605 -0.07048226
000250 aa 4c d5 bc 13 2f 03 3e 78 02 f1 3b b2 f1 50 3d
       -0.026037533 0.12810926 0.0073550306 0.05101175
000260 22 9b 85 bc ca cf 38 3d 4f cf 00 3b ea 91 ab bd
       -0.016309325 0.045120038 0.0019654816 -0.0837744
000270 d8 ba 20 bc 0e a2 21 bd 6a 08 1b 3d 00 d9 06 3d
       -0.009810172 -0.039461188 0.03784982 0.03292179
000280 2e 5e 4e bd 47 26 ed bd 53 95 b9 3c a5 10 ce 3c
       -0.050382785 -0.115795664 0.022654211 0.025154421
000290 80 84 85 bb 43 ce d8 3d fc 68 fb 3b 46 2d 3b 3c
       -0.004074633 0.10586216 0.007672427 0.011424368
0002a0 70 a6 3b 3d d8 68 b2 3d 87 af 85 bc d4 0a 3f bc
       0.045813024 0.087114036 -0.01631905 -0.0116602965
0002b0 33 3c 5c 3c 7d c2 39 bc 5a 78 34 bd a0 e1 7c bd
       0.013442087 -0.0113378735 -0.04406009 -0.06173861
0002c0 10 4a ef 3d b5 0d 09 3e c5 09 b2 bd 43 7f 2e be
       0.11684048 0.13384135 -0.0869327 -0.17040734
0002d0 68 83 ab bc 22 92 29 be 49 ed 41 3e 63 20 d3 bd
       -0.020936683 -0.16559651 0.18938173 -0.10308912
0002e0 2f 93 01 be bf e5 86 bd a5 c2 60 bd 60 4b 01 3e
       -0.12653802 -0.06586789 -0.054873127 0.1262641
0002f0 23 b3 bf bd bd 98 11 be b8 23 b5 3d 1f d0 3a 3e
       -0.093603395 -0.14218421 0.088447034 0.18243454
000300 e9 91 08 3e 9d 57 34 3e f5 a7 b4 3e fa b7 44 3d
       0.1333691 0.17611547 0.3528439 0.048027016
000310 28 fa 0c 3d 80 81 6b bd 09 ba bc bd 1d 17 c4 bd
       0.034418255 -0.057496548 -0.09215171 -0.09574721
000320 9e 6b b9 3d 0a 9f 18 bd e5 ef c5 3d 4a a1 c0 bc
       0.090537295 -0.037261046 0.09664897 -0.023514409
000330 fc ee 32 bd 39 48 e5 3c 57 8c b1 3d b4 6b b9 bd
       -0.043684945 0.02798854 0.08669346 -0.09053746
000340 bd 32 c4 bb 14 a2 1a 3e 52 f1 b6 3c 11 87 e4 3d
       -0.005987494 0.1510089 0.022331867 0.111585744
000350 b1 a4 f2 ba a4 52 60 be 1c c7 b8 3c 42 16 73 3c
       -0.0018512217 -0.21906525 0.02255588 0.01483685
000360 11 48 16 bd 3d b0 c8 bd 58 b2 ad bd 57 df ae 3d
       -0.03668982 -0.0979924 -0.08481282 0.085386924
000370 36 ed 1d bc 31 21 b6 3d ef 52 00 3c 68 fa 30 bd
       -0.009639075 0.088930495 0.007832273 -0.043207556
000380 e1 e7 0d be d1 7a 46 3e 03 8b a3 be 0b ba 85 3e
       -0.13857986 0.19382788 -0.31941995 0.26118502
000390 77 b8 9a 3d 38 48 07 be 07 7f 0b 3e 66 7a 0c 3f
       0.07554715 -0.13211143 0.13622676 0.54874265
0003a0 78 59 b3 bc f1 e3 10 3d 72 3d 0d 3e 72 25 51 be
       -0.021893248 0.035373632 0.13792971 -0.2042444
0003b0 58 28 0c 3f e3 fb da bd 12 ae 7d be e2 1d 03 3e
       0.5474906 -0.10692575 -0.24773434 0.12804368
0003c0 58 07 1a 3f e8 81 cd be 99 6b a1 be 1b b3 a9 bd
       0.60167456 -0.40138173 -0.31527403 -0.08286115
0003d0 29 fa 0c be 3b c7 77 be 9b af 4c be cb 88 10 bf
       -0.13767304 -0.24197094 -0.19988863 -0.5645873
0003e0 f3 a3 3e 3c 28 c5 8b bd 9f af a3 be e8 b8 ec 3e
       0.011635768 -0.06824714 -0.31969926 0.46234822
0003f0 17 75 a0 be 2c 57 a1 3e 20 3b fe 3e 79 cc 94 be
       -0.31339332 0.3151182 0.49654484 -0.2906225

transformer.encoder.layers.0.self_attn.out_proj.bias f4 [16]
000000 d9 c2 0c bc 6c 89 76 bc f0 41 8a 3c 63 ef aa 3c
       -0.008591377 -0.015047412 0.016877145 0.020866102
000010 43 2b a0 bc 60 ff 4b bc 09 02 62 bc 6c 4f a2 3c
       -0.019551879 -0.012451023 -0.0137944305 0.019813262
000020 ac 77 95 bc 6f 2c 59 3b af 6d c4 b8 12 56 3d 3c
       -0.01824554 0.0033138057 -9.3664385e-05 0.011556165
000030 58 7f 38 3b 2b 19 a2 3c d7 91 c8 bc ba 08 d6 3c
       0.0028152075 0.019787392 -0.024483604 0.026127208

transformer.encoder.layers.0.linear1.weight f4 [128, 16]
000000 41 58 89 3c e0 d7 84 3e ed a8 84 be 4f 33 4b 3e
       0.016765716 0.2594595 -0.2591013 0.19843791
000010 b4 2e df bd b6 67 3b 3e a4 ee e1 be 06 f3 b2 bd
       -0.1089758 0.18301281 -0.4412738 -0.08737759
000020 fb cc ac 3b 6e d4 74 3d f5 21 c7 bc bb 1e b4 be
       0.005273459 0.0597729 -0.024308184 -0.35179695
000030 0a 76 d2 3e 38 13 80 be 9f bf e2 3b b8 d1 2d be
       0.41105682 -0.25014663 0.0069198157 -0.16974533
000040 64 26 3d 3e 9b fc de bd fb eb eb bc 3e 84 c8 be
       0.18471676 -0.108880244 -0.028799048 -0.39163393
000050 95 64 45 bd 29 e8 24 3f 2e c0 0f bf 6d 5f 5f 3d
       -0.048191626 0.6441675 -0.5615262 0.054534364
000060 86 da 6c bd ff 92 27 3d bc 3a 86 be fe ce 09 3e
       -0.057825588 0.04091167 -0.26216686 0.13457868
000070 0c c3 ca 3d 90 07 31 3d e8 69 3e 3e b2 5a 4c be
       0.099004835 0.043220103 0.18595088 -0.19956473
000080 ec 13 01 be b2 5a 18 3f 08 3e b2 3e 2c df 7a 3c
       -0.12605256 0.5951339 0.3481295 0.015311997
000090 ba f4 bd bd a4 22 25 bd 0a 52 ea 3d a8 48 7e be
       -0.092751935 -0.04031624 0.11441429 -0.24832404
0000a0 a2 6f a5 3e b8 a2 b4 3e 9a 40 a2 bd 90 25 53 be
       0.32311732 0.35280395 -0.07922478 -0.20619798
0000b0 c7 57 12 3e 30 95 ad be 34 d4 6d 3d de 4b f1 3d
       0.14291297 -0.33902884 0.0580637 0.11782049
0000c0 d1 3a 2f bd 7d e5 87 3e 5e 8a 07 be ec 83 76 bd
       -0.0427807 0.26542273 -0.13236377 -0.060184404
0000d0 0a 1f 49 3d b1 02 d1 3b 3e 9a 47 3d 6a ad 5e 3d
       0.049101867 0.0063784947 0.04873108 0.0543646
0000e0 2f cb 5b 3e a3 fb 63 3e c7 b9 d1 be 65 07 c7 be
       0.21464227 0.2226396 -0.4096205 -0.3887283
0000f0 f8 34 be 3e db 0a d8 3e 7f a7 64 be f3 7b bb be
       0.37149787 0.42195782 -0.2232952 -0.36618003
000100 c0 93 0a bf 46 61 d9 bd fa 91 1a 3f 7e 90 b7 bc
       -0.541317 -0.106142566 0.6037899 -0.022407766
000110 eb 6a 96 bb 22 9c e6 3d d8 e5 3a 3e de f7 7c bd
       -0.0045903823 0.11260249 0.18251741 -0.061759822
000120 43 f5 77 bd f4 4f 96 3e 79 e8 a5 bd 6c b0 a2 bd
       -0.060536634 0.29357874 -0.08100981 -0.07943806
000130 e9 86 12 3e 5d 7c 7e bd db 62 93 3d ae 01 e9 be
       0.14309277 -0.06213032 0.071965896 -0.45509094
000140 7c 42 37 be b3 11 84 3e c5 fa a9 3e 85 cd 40 b8
       -0.17896456 0.25794753 0.33199134 -4.5967772e-05
000150 e1 c5 ba 3e 96 77 08 3f 0e 45 0d bf e1 8f 9c 3c
       0.36479095 0.53307474 -0.55183494 0.019111576
000160 15 48 60 be 51 b4 90 3d b6 0a 87 be 28 0b 91 bd
       -0.21902497 0.070656426 -0.2637536 -0.07082206
000170 5f c0 91 3d 19 2d 12 be 55 bd 9c 3d f6 f1 dd bd
       0.0711677 -0.14275016 0.076533 -0.10837166
000180 31 34 0b bd ff 7b bd 3d 61 56 90 be 9c 83 bc 3c
       -0.03398532 0.09252166 -0.28190902 0.023011975
000190 ca 0b 75 3d cc 26 76 3e 4d 82 19 be 50 05 8e be
       0.059825696 0.24038237 -0.14991112 -0.27738428
0001a0 3b 4d 56 bd 94 81 3d bb 97 1a fc bd e1 24 d2 be
       -0.052319746 -0.0028916346 -0.12309759 -0.4104376
0001b0 1a 5b 11 bf 0b b7 ff bc 23 ea 61 3f 39 de 01 bf
       -0.56779635 -0.031215211 0.8824789 -0.5072971
0001c0 8a c9 73 be ed 65 18 be 82 b7 4a bd f0 f6 d1 3e
       -0.2380735 -0.14882632 -0.049491413 0.4100871
0001d0 c8 8d 98 3d 12 14 1b 3d 38 bc 8d bd 06 00 39 bd
       0.074489176 0.037860937 -0.069206655 -0.045166038
0001e0 21 f7 82 bd 11 1a d1 bd 93 e5 c5 be ac b4 1f 3e
       -0.06394792 -0.1021005 -0.38651714 0.15596265
0001f0 6e 2f 8f 3e 57 93 7a 3d 38 af b3 3d 90 e8 b7 3d
       0.27965873 0.06117567 0.08773655 0.08979905
000200 99 73 b8 bd 79 63 0b 3e eb c4 8d 3e e9 cf 8c 3d
       -0.090064235 0.13612165 0.276893 0.06875593
000210 08 4e c5 be de e3 83 3f ab ac b4 3b 23 aa 72 bc
       -0.38536096 1.0303915 0.0055137477 -0.014811072
000220 96 6e 37 3d a8 8c 1d be 31 35 1a bd ca ed f1 bc
       0.044783197 -0.15385687 -0.037648384 -0.029532332
000230 6e 52 cf bd 65 4f 49 bd 1e 8c 9f 3d 3e 3c 41 3d
       -0.10123144 -0.049147982 0.07790397 0.047176592
000240 21 52 c2 bd 11 b1 c3 bc 0f 07 38 3e d6 de 8a bb
       -0.09488321 -0.023888143 0.17971443 -0.00423799
000250 26 5e 0d 3d a3 79 60 3d e9 03 18 3f 6d e8 b5 be
       0.034513615 0.0548035 0.59380966 -0.3552889
000260 97 83 8f 3e ab 09 1c be 25 18 c3 3d 1a 09 75 be
       0.28030083 -0.15238063 0.095260896 -0.23929253
000270 b8 07 1b bf 6d 5e 4e be 7c a1 a0 bc fc 8b db be
       -0.6055865 -0.20153208 -0.019608252 -0.42880237
000280 9f a4 37 bd f2 7e b9 bb 28 98 41 be 2d a7 4d 3d
       -0.04483473 -0.005660885 -0.18905699 0.05020826
000290 67 29 fa 3d 48 7c 7f 3e fb 44 49 3e 63 c2 86 be
       0.12214928 0.24949753 0.1965522 -0.2632018
0002a0 99 0e a2 be 5a 9d 9b 3e 1c 6c b6 3d a0 10 69 3f
       -0.31651762 0.30393487 0.08907339 0.9104099
0002b0 be 0c 7d be 72 ea 06 bf ee 2b b6 3e ab 66 ba be
       -0.24711892 -0.52701485 0.3558039 -0.36406454
0002c0 c4 6f 1a be f0 12 69 bd 9f 29 86 3d 9c 55 b1 bc
       -0.15081698 -0.056902826 0.06550907 -0.021647267
0002d0 1e 0d 00 3c ad f5 ba be f8 77 21 be 0b 3e 9a bd
       0.007815627 -0.3651556 -0.1576842 -0.07531365
0002e0 11 ff 7d 3f 68 bb 72 3d 76 a8 38 bf 0e 63 a6 be
       0.99217325 0.059260756 -0.7213205 -0.32497448
0002f0 4d 9e 9e bd 1a 4c 5c be 81 e4 03 bd a5 ec 9d bd
       -0.07745037 -0.21513405 -0.03220034 -0.07711152
000300 81 ea 3b bc c2 9e b7 bc bd 59 2f 3e 39 7f ff bb
       -0.011469484 -0.022414569 0.17124076 -0.0077971485
000310 73 0e ac 3c 9d 85 c9 3d 3f cc 65 3b 38 6e 8a bf
       0.021002984 0.09839938 0.0035064367 -1.0814886
000320 c6 2c 07 be b3 e4 4d 3e c7 76 0e 3f c6 3d 00 be
       -0.13200673 0.20106773 0.5564999 -0.12523565
000330 3c d3 0f 3e b0 8d 3a be 55 32 85 3e 89 6f ce 3d
       0.14045423 -0.18218112 0.26014963 0.100798674
000340 7e 4d 46 be 3f f3 de bd 31 2a c5 3d 48 90 41 be
       -0.19365498 -0.10886239 0.09627188 -0.18902695
000350 06 b2 d2 bd 06 97 07 bd 12 f4 39 bd ed 29 ef 3e
       -0.102878615 -0.03310301 -0.04539878 0.46711674
000360 6d cc 4d 3f 93 fc 4e bf 13 29 8a be 27 84 3e bc
       0.80390054 -0.8085415 -0.26984462 -0.011628187
000370 f3 dd 23 be 34 6b 56 be 71 3b a5 3d e3 4a b9 bd
       -0.16002636 -0.20939332 0.08067978 -0.09047487
000380 c4 41 76 be 71 e6 8f be bf 8f 9b 3d 4d c7 ef bd
       -0.24048525 -0.281055 0.07595777 -0.117079355
000390 8d 1f 01 3e e5 ba 9f 3f b6 7c 00 3c eb 31 79 be
       0.12609692 1.2478911 0.007842233 -0.24335448
0003a0 71 81 09 3e 97 6e 0c be 28 6d cb bd 0f 9e 19 3e
       0.13428284 -0.13714062 -0.09932929 0.15001701
0003b0 90 63 ca 3d 32 31 b8 bf 2c de f6 3e ab 82 6b bb
       0.09882271 -1.4390013 0.4821638 -0.0035936038
0003c0 a8 ac e3 be 21 c6 22 3d 2d b5 e0 bd 3c 05 21 be
       -0.44467664 0.03973973 -0.109720565 -0.15724653
0003d0 65 79 f1 bd 11 da e5 bd a8 c1 41 bd f8 78 83 3e
       -0.11790732 -0.112232335 -0.047303826 0.2567823
0003e0 82 54 6b be 17 86 0d bf 42 65 75 be dd f6 3a 3e
       -0.22981456 -0.5528273 -0.23964408 0.18258233
0003f0 15 2f 62 3e ce 67 04 be 85 d7 33 3e e6 ef 60 bc
       0.22088273 -0.12930223 0.17562683 -0.013729071

transformer.encoder.layers.0.linear1.bias f4 [128]
000000 a7 28 84 be e3 2a f7 be 4d 5a 97 be 2e 7b ca be
       -0.25812265 -0.48274907 -0.29561082 -0.39547104
000010 93 2c c4 be 3c 47 eb be 7b 27 88 be c8 a2 24 bf
       -0.38315257 -0.45952785 -0.2659262 -0.64310884
000020 cd 79 9d be 94 0d 3b be ba 89 75 bd e0 4c 68 be
       -0.3075699 -0.18266898 -0.0599458 -0.22685575
000030 de 6c c8 be 89 fd 92 be 4c cb 10 be 7c ce 03 bf
       -0.3914556 -0.28709057 -0.14140052 -0.51486945
000040 1a ff af bd 11 fb 50 be a9 6e a2 be 0b 74 c6 be
       -0.08593579 -0.20408274 -0.31725052 -0.3876041
000050 a5 19 2f bf 94 cc 72 be eb 34 37 bd ec 2e f7 bd
       -0.68398505 -0.23710853 -0.0447282 -0.120694965
000060 ba c2 df bd 80 ea cf be 20 34 bb be 65 79 5b be
       -0.10925813 -0.40608597 -0.36563206 -0.21433027
000070 0e 7e e1 be 14 a0 db be da 18 18 bf e1 53 ec bd
       -0.44041485 -0.42895567 -0.5941292 -0.11539436
000080 4d 32 d5 be a7 d5 71 be 4c 8a f7 be cd a8 84 3d
       -0.4163994 -0.23616658 -0.483477 0.06477509
000090 4f 46 bd be 39 24 75 be c0 5b 53 be c4 c9 18 bf
       -0.36967704 -0.23939599 -0.20640469 -0.5968287
0000a0 b7 b4 c4 be 0b 00 e5 bd 09 47 18 bf 76 16 61 be
       -0.38419124 -0.11181649 -0.5948339 -0.21981224
0000b0 b3 44 de be 6d 2b ed be 55 38 e2 be 8a e3 1c be
       -0.43411788 -0.46322194 -0.44183603 -0.15321174
0000c0 06 ce 6d be b3 34 2c bf 3c 54 d7 bd 7b 81 e1 be
       -0.23223123 -0.6726791 -0.10514113 -0.44044098
0000d0 c4 6d 00 bf d3 4a 17 be 00 e1 e2 be 63 89 d4 be
       -0.5016749 -0.14774637 -0.44312286 -0.41511068
0000e0 1c d0 1a bf 2e 37 9f 39 05 57 3e be 41 a6 c2 be
       -0.604738 0.00030367955 -0.18587883 -0.38017467
0000f0 cc 6f c3 3e 91 9c da be f2 e7 3c be 73 8f 23 bf
       0.38171232 -0.42697576 -0.18447855 -0.6389076
000100 ca e5 dd be 7c e7 90 bd b7 d9 31 bf 32 e9 97 bd
       -0.43339378 -0.07075402 -0.6947283 -0.07417525
000110 de 13 20 bf 4b f6 b3 be bd 9f 80 be 5c 1b 34 bf
       -0.62530315 -0.35148844 -0.2512187 -0.7035425
000120 29 3d a7 be a6 87 f4 be 87 db b7 be c6 63 9b be
       -0.3266385 -0.47759742 -0.35909674 -0.3034956
000130 5d 6f 9e be a7 5d 9d be 11 98 c1 bd 07 61 6b be
       -0.30944338 -0.30735514 -0.094528325 -0.22986232
000140 8c e0 c4 be 5b 59 07 bf 60 e1 0d bf 96 8e de be
       -0.38452566 -0.5287072 -0.5542202 -0.4346816
000150 d4 3f a5 be 78 4c c9 bd d8 c9 01 bf db ac a4 bd
       -0.3227526 -0.098290384 -0.50698614 -0.08040782
000160 3f ac b9 be 75 df 62 be b9 18 f7 be e9 9f 27 bf
       -0.36264226 -0.22155555 -0.4826105 -0.6547838
000170 83 89 a0 be 85 4b 01 bf bf 1f b4 be d6 0d 96 be
       -0.31354913 -0.5050586 -0.3518047 -0.2930743
000180 71 2f 02 bf d2 15 d1 be f2 2d 86 be f1 9c 12 bf
       -0.5085364 -0.4083696 -0.26206928 -0.57270724
000190 73 ae bb be 75 72 f7 bd 64 cc 8a be 6c 1b e0 be
       -0.36656532 -0.12082378 -0.27109063 -0.4377092
0001a0 65 9b 45 bd 20 6e d5 be e7 6d f0 bd 80 2f c6 be
       -0.0482439 -0.4168558 -0.11739712 -0.38708115
0001b0 20 a2 bc be 37 82 b1 be 2a d3 04 bf 09 3d f2 3d
       -0.36842442 -0.3466966 -0.5188471 0.11828048
0001c0 38 7e 50 be 13 41 80 be f8 b9 72 3d 27 80 a0 be
       -0.20360649 -0.25049648 0.059259385 -0.31347772
0001d0 46 96 8c be 7f a5 b6 be 8b db e8 be e5 ca 9f be
       -0.274584 -0.35673138 -0.45479998 -0.31209484
0001e0 09 c6 53 be b5 f8 7c be 4b 41 27 be a9 e2 bb be
       -0.20681013 -0.24704249 -0.16333501 -0.36696365
0001f0 c8 ca 1c bf 45 82 d2 be 7a fe 9d be d4 e6 1d bf
       -0.6124692 -0.41115013 -0.30858213 -0.6168034

transformer.encoder.layers.0.linear2.weight f4 [16, 128]
000000 22 82 2c be 78 0d 40 3c 82 b2 63 3e 8f bd ae 3e
       -0.16846517 0.011721961 0.22236064 0.34128997
000010 2a c3 ad be 75 dd 99 3d 0a f4 87 bd fc 75 f5 3e
       -0.3393796 0.07512943 -0.06638344 0.47941577
000020 62 28 d1 3c bf 4b cb bb 2e 80 d6 bd 2a 1c a1 be
       0.025531951 -0.006204098 -0.10473667 -0.314668
000030 1f 4b d6 3d a6 5a 1c 3d 6a 36 eb bb 50 d2 11 3e
       0.10463547 0.038172387 -0.0071781175 0.14240384
000040 14 3c 4a 3e 9b 41 9b 3e 30 ed 03 be dd b3 7f 3d
       0.1974948 0.3032349 -0.12883449 0.06242739
000050 9d a8 05 be f8 52 10 3c 77 ee 69 be 62 9a 87 be
       -0.13052602 0.008808844 -0.22844873 -0.26484972
000060 79 cb 0e be ae 6d a2 3c 97 54 09 3d ed 9b b5 bc
       -0.13944806 0.01982769 0.033527937 -0.022169078
000070 40 cd 0b 3f f0 34 84 bd f7 53 55 bd ac 37 2f 3e
       0.5461006 -0.064554095 -0.05208203 0.17111081
000080 98 15 0d 3f a6 dd e1 bd fa 87 98 be f5 34 a6 bd
       0.55111074 -0.11028604 -0.29791242 -0.081155695
000090 1f cd e9 bd c0 ac d8 3e 1f bf f6 be 10 c1 81 3e
       -0.11416077 0.42319298 -0.4819269 0.25342607
0000a0 98 47 5d 3e 0a 61 ba 3e b5 91 8f 3e 03 bc 54 bd
       0.21609342 0.3640216 0.28040853 -0.051937114
0000b0 e0 a0 18 3e 15 94 18 3e c5 95 69 bf 0f bb 2d be
       0.14905119 0.14900239 -0.91244155 -0.16965888
0000c0 28 8e 5a be 1f 71 3f bf 4d de 74 be 4a 25 c1 bd
       -0.21343291 -0.74781984 -0.23912926 -0.094309404
0000d0 fe 6f f4 bd 77 a6 ef 3d 72 e4 b6 3c ab 64 8e be
       -0.11935423 0.117016725 0.022325728 -0.2781118
0000e0 af d9 d5 3d 7c db 16 bd bc f4 58 3e 3b 9d 34 3d
       0.104419105 -0.03683041 0.21187109 0.04409526
0000f0 14 c9 64 bd 7b c1 8c be cd 3a 57 be 76 ae 3f 3e
       -0.055855826 -0.27491364 -0.21018524 0.18718895
000100 cc e7 cb 3e 7e 61 72 3d cd 8c 34 3f a3 7c 0d 3e
       0.39825284 0.059175007 0.70527345 0.13817076
000110 b9 1d 01 bf cf 4e 7c 3a f2 9b 65 3e 6a c6 18 be
       -0.5043598 0.00096247805 0.2242277 -0.14919439
000120 d0 9d 6e be 0d a9 ef bd a5 e3 f6 3d 93 8c e7 bd
       -0.23302388 -0.11702166 0.120551385 -0.11306109
000130 fb 5c b6 3d 2e 1b 9b bd 96 cc bf be 81 da fe bd
       0.08904453 -0.075735435 -0.37460774 -0.1244402
000140 55 3e 34 bd ea 82 7c 3e d6 6d 2e be 14 16 82 3e
       -0.044004757 0.24659315 -0.17034087 0.2540747
000150 8c 72 dd bd 54 fd 67 bd c8 a1 89 3d e5 50 dd 3e
       -0.10812864 -0.056638077 0.067203104 0.4322578
000160 d8 35 cf bd 18 e4 70 3e e7 6d 64 3e 81 a6 fc 3e
       -0.10117692 0.23524511 0.2230755 0.49345782
000170 ce 02 c1 bd b0 22 45 3e 7b 89 ef 3d 83 e7 44 be
       -0.09424363 0.19251513 0.11696144 -0.1922894
000180 3c a7 28 be 2f 06 fc 3d 70 47 0f 3f f4 45 9a bc
       -0.16470045 0.12305867 0.5596838 -0.018832184
000190 28 76 1d 3e f3 94 23 3e 09 10 77 be c2 a5 c8 3e
       0.15377104 0.15974788 -0.2412721 0.39188963
0001a0 d3 55 e7 bc 48 26 7f 3a 61 4d 90 3d 99 fc d5 bd
       -0.028239166 0.00097331824 0.07046009 -0.1044857
0001b0 2d f4 9f bd 27 3e 16 3d 40 92 2e be 6b 34 c4 3d
       -0.07810245 0.036680367 -0.17047977 0.095803104
0001c0 35 c6 c7 3d 93 f1 8c be 62 bc 2d be 6f e5 73 be
       0.09754602 -0.27528057 -0.16966394 -0.2381799
0001d0 d3 e6 06 3d 93 89 3d 3d e8 cb 3f be 4d 63 14 bd
       0.032934975 0.04627378 -0.18730128 -0.036227513
0001e0 83 c7 84 3e 81 a0 26 be 70 14 68 bd 63 33 4e 3d
       0.25933465 -0.16272165 -0.056660116 0.050341975
0001f0 b8 94 be 3e 2e ef 7a bd 15 c5 dc 3e 0f 22 4c bc
       0.37222838 -0.061263256 0.43119112 -0.012459292
000200 0b 1d 32 3f 2c 5a 70 3d ac 6f 48 bd 04 9a 86 3c
       0.69575566 0.058679745 -0.048934624 0.016430862
000210 9e 25 8d 3e 34 65 e8 be 5d ad b0 3e c2 c6 02 3e
       0.27567762 -0.45389712 0.34507266 0.12771133
000220 9d 4a 53 3e c4 26 00 be e6 b6 00 bc 78 af fa 3e
       0.20633931 -0.12514788 -0.007856106 0.48961997
000230 8d bd e4 bd 73 c7 60 3e 6c 7e 4b be b9 48 13 3d
       -0.111689664 0.21951084 -0.19872445 0.035958026
000240 21 60 99 be b3 bc df bd 5f 9b ce bd 31 e6 ae 3d
       -0.29956153 -0.109246634 -0.100882284 0.08539999
000250 77 15 1d 3f 8f 7e 9f 3e 55 2b 81 3e ca 23 a1 be
       0.6136088 0.31151244 0.25228372 -0.31472617
000260 6c 53 32 3e cc ab 15 3e 70 1a f2 be 1c 36 bb bd
       0.17414635 0.14616317 -0.47285795 -0.0914118
000270 36 53 09 3e a7 bb e0 be 7d 44 62 3e 84 1c 8d 3d
       0.13410649 -0.43893167 0.22096439 0.068902045
000280 85 79 05 be 11 26 67 bd 28 21 81 3e 4c b2 8d 3c
       -0.13034637 -0.056432787 0.2522061 0.017296933
000290 57 c1 ad be d2 42 22 3e 01 c6 07 3e e3 49 72 3d
       -0.3393657 0.15845802 0.13259126 0.059152495
0002a0 0b 4c b4 be b0 5c a2 be 78 d6 f8 3d 6d 5d 0c 3d
       -0.35214266 -0.3171134 0.12150282 0.034268785
0002b0 2c 00 24 bf cd bf a0 be e0 db d0 3c 2e dd b8 3d
       -0.6406276 -0.31396332 0.02549547 0.09026562
0002c0 bd aa bd 3e 17 24 1b 3e 97 3a 8e bb 02 d1 d4 bd
       0.37044325 0.15150486 -0.0043404805 -0.103914276
0002d0 bc 6a b9 3d db c0 7e 3c c6 b7 91 3d de ec 5c be
       0.09053561 0.01554891 0.0711513 -0.21574733
0002e0 90 46 88 bd d5 95 a0 3e a2 8f da be e2 0f 1a 3e
       -0.06654084 0.31364313 -0.42687708 0.15045121
0002f0 4f d0 08 bd de 6d cc 3e 03 84 52 bd 35 21 76 3e
       -0.033401784 0.39927572 -0.051395427 0.24036105
000300 ce ad d5 bc df 3c 35 3e e5 bb 21 bf 3c 71 41 3e
       -0.026083853 0.17699002 -0.6317733 0.18890852
000310 48 49 81 3d 04 9c 6a be e6 a4 49 be 1a ed 18 3e
       0.063128054 -0.22911078 -0.1969181 0.14934197
000320 a6 6c b6 be 33 32 b2 bd 80 ee b7 3d ea 33 f5 39
       -0.35629767 -0.08700981 0.08981037 0.0004676872
000330 9e a8 b2 be a7 50 ff 3d d9 1d 62 be d4 25 5d bd
       -0.3489427 0.12466555 -0.22081698 -0.053991154
000340 3d 0a e7 3c 4e f1 bc 3e bd 09 8d 3e da 69 32 be
       0.028203124 0.3690285 0.27546492 -0.17423192
000350 52 58 59 bd bc 4c ca bd 4d fc 5d bd c1 7c e4 3e
       -0.053062744 -0.09877917 -0.05419569 0.4462643
000360 a8 0a cf 3d 25 4e 2d bd 4c a5 19 3f 3f 17 04 bf
       0.101094544 -0.042310853 0.6001785 -0.5159797
000370 31 d8 b4 be fc c5 aa 3e 08 0f 0e 3b 96 19 af 3e
       -0.3532119 0.33354175 0.002167644 0.34199208
000380 1c 33 cb be cd 8b 55 3e 3e b7 84 be 1c 1b fb 3c
       -0.3968743 0.20854111 -0.25921053 0.030652575
000390 72 4a 07 bc 62 c1 6a 3d 3e 98 bd bd 6c 38 07 3e
       -0.008257495 0.05731333 -0.092575535 0.13205117
0003a0 30 11 e6 3c 5c 9a 2e bf ec a1 fd 3d 2f 95 b0 3c
       0.028084368 -0.68204284 0.123844 0.021555511
0003b0 b9 5f 4f 3d ae 97 b3 3d 3a 70 22 bd 27 f1 67 3d
       0.050628398 0.08769165 -0.03965781 0.056626465
0003c0 d3 aa 64 3e b5 6d ab 3a 71 d1 b3 bb 8d 64 36 be
       0.2233079 0.001307896 -0.005487614 -0.17811795
0003d0 74 6d 95 3b f2 af 61 bd 4b 51 a6 3e 11 e0 01 3e
       0.004560167 -0.055099435 0.32483897 0.12683131
0003e0 32 31 fe bd 5b 13 78 be ee 15 83 3e 18 af 09 3f
       -0.12411727 -0.24226134 0.2560267 0.53782797
0003f0 b2 b0 88 be 71 f4 a2 be 70 18 16 bf f6 51 4f be
       -0.26697308 -0.3182712 -0.5863104 -0.2024611

transformer.encoder.layers.0.linear2.bias f4 [16]
000000 74 19 10 bd 49 2b 01 bd e1 c3 52 bc 18 92 7a 3b
       -0.035180524 -0.03153542 -0.012864084 0.0038234051
000010 38 fe a5 bd ae 5f a2 3d 53 41 3f 3e 5b 73 4b bd
       -0.08105129 0.07928406 0.18677263 -0.04967056
000020 4f 4e 58 3c 21 b4 3b bc 07 06 e8 bc 1a 7c 3c 3d
       0.013202264 -0.01145652 -0.028323187 0.04601679
000030 ab 80 9b bc 88 eb 35 bd 0a 3d da bb 5f 9a 9f 3e
       -0.018982252 -0.044414073 -0.0066601085 0.31172463

transformer.encoder.layers.0.norm1.weight f4 [16]
000000 5b 40 d4 3e 48 da da 3e d5 32 59 3f 97 d5 5c 3f
       0.4145535 0.4274466 0.8484319 0.8626341
000010 b5 0e 87 3f 5b 7c 23 3f ee 58 34 3f 45 10 81 3f
       1.0551363 0.63861626 0.70448196 1.008309
000020 ef 36 96 3f c7 bc ab 3f 57 67 ae 3f 48 0c a0 3f
       1.1735514 1.3416985 1.3625287 1.2503748
000030 89 18 95 3f d5 50 a1 3f ec b0 46 3f a0 d7 21 3f
       1.1648113 1.2602793 0.7761371 0.6321964

transformer.encoder.layers.0.norm1.bias f4 [16]
000000 86 45 ec 3d d9 71 94 3d 28 32 f9 bd 67 3c 8f 3e
       0.11536698 0.07248277 -0.1216777 0.2797577
000010 e0 2b 4f be 5f a6 67 bd ff 9e ed be ef 5b 05 3e
       -0.2023158 -0.05655515 -0.46410367 0.13023351
000020 71 4e a2 be af b0 2f 3d 5d 34 d8 bc a0 d4 e5 3d
       -0.3170047 0.042893108 -0.026392156 0.112221956
000030 1f 97 c8 bd 72 79 48 3e 54 b6 f3 bd e5 dc 47 3e
       -0.09794449 0.19577578 -0.11900011 0.19517858

transformer.encoder.layers.0.norm2.weight f4 [16]
000000 d3 a3 80 3f 3d ab 80 3f 51 97 92 3f ab 44 87 3f
       1.0049995 1.0052258 1.1452428 1.0567831
000010 41 55 6a 3f 0b 7c 7f 3f d4 a2 27 3f af e8 8b 3f
       0.9153634 0.9979865 0.6548283 1.0930384
000020 bc a5 80 3f 0f 65 99 3f 21 2e 9a 3f bf a5 aa 3f
       1.0050578 1.1983966 1.2045327 1.3331832
000030 b8 03 17 3f 1a 1f 90 3f 90 8e 3e 3f e3 34 19 3f
       0.5899005 1.1259491 0.74436283 0.59846324

transformer.encoder.layers.0.norm2.bias f4 [16]
000000 ca 25 58 3e 90 66 a1 3d 27 4e a0 bd a1 c4 7c 3e
       0.21108165 0.0788089 -0.078274064 0.24684383
000010 16 11 db bd db 80 37 3e a4 e7 c6 be 02 39 a2 bc
       -0.10696618 0.17920248 -0.38848603 -0.019802574
000020 45 93 23 bd c8 73 72 be be 55 c1 bd 73 88 25 be
       -0.03993537 -0.2367698 -0.09440182 -0.16165332
000030 22 1d 36 3e 79 d2 61 3d a3 86 3f 3e 40 b1 55 bd
       0.17784551 0.055132363 0.18703704 -0.052170992

transformer.encoder.layers.1.self_attn.in_proj_weight f4 [48, 16]
000000 3a 6a 9e 3d a1 11 95 3e 8e 46 1a 3f f9 cf d9 be
       0.07735105 0.29115012 0.6026391 -0.42541483
000010 ee 62 c2 3e 21 f3 b3 3e 23 f5 51 3e 38 d4 03 bf
       0.37966102 0.3514643 0.20503668 -0.51495695
000020 6d f1 6a 3f e5 69 12 bf 4b 30 39 bf 92 94 51 3f
       0.91774637 -0.5719283 -0.72339314 0.81867325
000030 c6 0a 89 3e 11 ab 50 be 60 67 64 bf d9 10 80 3e
       0.26766032 -0.20377757 -0.8922024 0.25012854
000040 d2 35 a3 3e 5f 4e aa 3e 99 32 96 be f9 a7 2f 3e
       0.31877 0.33262917 -0.29335478 0.1715392
000050 a5 cd 15 be ef 8f b2 be 97 ea 28 bf 88 f5 4b 3e
       -0.14629228 -0.34875438 -0.65982956 0.19917881
000060 6a ef 95 be 87 6f 57 be d2 f5 48 be f4 65 be be
       -0.2928422 -0.21038638 -0.19625023 -0.3718716
000070 e8 66 02 bf aa 0e 25 3f 9c 09 64 3e c9 15 e0 3e
       -0.5093827 0.644755 0.2226929 0.4376662
000080 62 66 a1 bd 95 55 04 3f 38 41 2e ba 92 8d 43 3f
       -0.07880856 0.5169309 -0.00066472916 0.76387894
000090 97 88 15 3f 2b c2 64 3d 4b 06 e3 be 1b df ca ba
       0.58411545 0.055849236 -0.4434074 -0.0015477868
0000a0 48 60 3b be 13 bf d5 3c a9 02 14 bf 15 06 d7 bc
       -0.18298447 0.026092088 -0.5781656 -0.026248017
0000b0 45 d7 15 3f 12 b1 26 bf 21 81 34 bf 99 14 17 3f
       0.585316 -0.6511394 -0.70509535 0.59015805
0000c0 16 25 2c 3e fd 79 cd be c1 c0 c1 be 20 4e b8 3e
       0.16811022 -0.40132132 -0.37842372 0.35997105
0000d0 28 1b 56 3e 50 f2 9f be aa 00 80 be f5 97 b3 3e
       0.20908797 -0.31239557 -0.25000507 0.35076872
0000e0 20 b6 2b be e8 6d 39 3d a3 fe e5 bd 9c 7a ab bd
       -0.16768694 0.04527083 -0.11230209 -0.08372995
0000f0 f0 cf e3 bb ef d4 3a 3f 6d f4 11 3e e3 82 90 3e
       -0.0069522783 0.7298116 0.14253397 0.2822486
000100 b0 44 ce 3e 1e 7f 1b bf d3 25 54 bd 85 ff 1d 3e
       0.4028678 -0.6074084 -0.051793884 0.15429504
000110 5a 8c 2d 3e 7a 72 b9 be 0c d8 48 be 4d 65 05 3f
       0.16948071 -0.3622015 -0.19613665 0.521077
000120 9d 36 87 be 32 1d a2 3e 41 a5 41 3e 28 de 2a be
       -0.26408854 0.316629 0.18910696 -0.16686308
000130 0c 86 05 bf f6 07 c4 bc d1 f5 f2 bd cf d2 07 3f
       -0.52157664 -0.023929577 -0.11863292 0.53056043
000140 85 35 75 3e 84 b2 dd 3e f9 c2 51 be 28 7a d8 3e
       0.23946197 0.4330026 -0.20484532 0.42280698
000150 ff 98 d5 3e 9e ac f5 be 93 e2 7f be 64 d3 89 3d
       0.4171829 -0.4798326 -0.24988775 0.06729773
000160 d7 f6 d9 3d 46 b0 e3 3d ca 3b ff 3d 0d a0 98 3e
       0.10642784 0.11117606 0.12462576 0.2980961
000170 6e 84 bf 3e 2c ae 5d 3e 65 96 d4 3e e9 08 b6 bd
       0.37405723 0.21648473 0.41520992 -0.08888418
000180 04 3d 6d 3e f3 af a5 3d e5 78 35 3f ad 56 cf be
       0.23167807 0.080902 0.70887595 -0.40495816
000190 46 2c be be be f6 3a be 8f bf 40 be ea 65 bd be
       -0.37143153 -0.18258187 -0.18823074 -0.36991817
0001a0 fd ec 73 3e 8c db 10 3f eb 62 e0 bb 49 14 94 3d
       0.23820873 0.56585 -0.0068477294 0.072304316
0001b0 6d cc 00 bf a8 ae 5e be ac 1e 86 3e c3 b7 dc be
       -0.5031193 -0.21746314 0.26195276 -0.4310895
0001c0 e1 a5 ca 3e d7 68 4b be f2 73 7d 3e cb 85 81 3e
       0.3957968 -0.19864212 0.24751261 0.25297388
0001d0 16 c7 44 bb 65 8d b5 be d6 87 46 be d3 85 35 3e
       -0.003002589 -0.35459438 -0.19387755 0.17726831
0001e0 ac 8c 8a bd 93 11 15 bf 67 b1 d7 3b 5c 97 f6 bd
       -0.06765112 -0.5822994 0.0065824273 -0.12040588
0001f0 40 68 9b 3e 4c 36 1c 3f 73 54 ba bc 3c 4a 25 be
       0.30352974 0.6102035 -0.022745347 -0.161416
000200 1f 1c 12 3e 4d c4 fb be d6 b5 b7 3e de 51 b4 3d
       0.1426854 -0.49173203 0.35880917 0.088046774
000210 22 7c 81 be 72 ed 0f be 8b 3c 04 3d 1e a5 45 be
       -0.25290018 -0.14055422 0.0322843 -0.19301268
000220 20 79 9e 3e 94 e1 d2 be aa a4 2c bd 4a dc fd be
       0.30951786 -0.41187727 -0.042149223 -0.4958213
000230 bd e9 37 3f d7 b7 80 3d 0f 9f 03 bf e6 2f 89 3f
       0.7184103 0.06285065 -0.5141458 1.0717742
000240 d6 95 f1 be 71 09 10 3c 33 55 55 3e a5 29 cb bd
       -0.47184628 0.0087913135 0.20833282 -0.099200524
000250 3d ac ae 3d 86 09 4b 3e bd 95 de 3e c4 7a f7 be
       0.085289456 0.19827852 0.43473616 -0.4833585
000260 c9 13 f3 3d 17 ae e8 bc a9 4f 49 3d 4a c8 85 bd
       0.11869008 -0.028403325 0.049148235 -0.06532343
000270 00 b3 90 3e 34 60 1c bf fe 3e 6f be 2d 2b 98 be
       0.28261566 -0.61084294 -0.23363873 -0.2972044
000280 d4 47 3a be e4 c9 21 bb 66 1c ae be ff da d8 3e
       -0.18191463 -0.0024686987 -0.3400604 0.4235458
000290 9e db 75 bd 91 88 d8 be 32 2a 4c 3f 4e f3 55 be
       -0.060023896 -0.42291692 0.79751885 -0.20893595
0002a0 cf fc d7 3d ea 91 8b be ce df f7 3e 61 9f cc be
       0.10546266 -0.2725976 0.48412937 -0.39965346
0002b0 98 9d ed 3d 8e 97 60 be c7 f5 da be e2 32 9a be
       0.11602324 -0.21932814 -0.42765638 -0.30116946
0002c0 84 03 8d bd f3 26 74 3e 9a dd 1e 3e e1 13 51 be
       -0.06885436 0.23842983 0.15514222 -0.2041774
0002d0 3a 8b a4 3e 85 c9 23 3f 48 ab 9d be 79 81 c6 be
       0.3213747 0.6397937 -0.3079474 -0.38770655
0002e0 70 d6 fc 3d a4 b3 5e 3e 7f fb f3 be 25 1e 54 be
       0.12345588 0.21748215 -0.47652814 -0.20714624
0002f0 64 b7 27 bf 37 e7 37 bf 11 b1 09 3e d8 66 02 3e
       -0.65514207 -0.7183718 0.13446452 0.12734544
000300 45 b3 b0 bc 1d 1e 99 3c ca 64 5d 3d 46 ef 37 3e
       -0.021569857 0.018691117 0.054051198 0.1796237
000310 32 94 80 3e aa e1 34 3e 89 ea 56 3d 2e 48 68 3e
       0.25113064 0.17664209 0.052469764 0.22683784
000320 ad a2 60 3d 4e b6 2c bf a4 43 01 bf 6b 2f 11 3f
       0.05484264 -0.67465675 -0.50493836 0.5671298
000330 66 1c 25 3f 3b a3 30 3e ea 26 90 be 2c a6 87 bd
       0.6449646 0.17249767 -0.2815469 -0.06623492
000340 d1 d0 5a 3d 32 e4 2e be 09 4f 4b be ea 5a 52 3e
       0.0534218 -0.17079237 -0.19854368 0.20542493
000350 2e 03 cc 3e 05 59 f6 3d 20 bd 35 be 9c c1 79 3e
       0.39846176 0.12028698 -0.17747927 0.24390262
000360 41 8f 05 bf 39 fc 5f 3c 13 be 85 3e 37 43 98 3d
       -0.52171713 0.013670974 0.26121578 0.07434695
000370 f6 cf 15 bf 53 c8 5d 3d 28 b3 6e 3e ef 01 f7 bd
       -0.5852045 0.054146122 0.2331053 -0.12060916
000380 7e a3 a6 bd 6b 2e 60 3e 00 97 f4 3e f9 50 c7 be
       -0.081366524 0.21892707 0.47771454 -0.38928965
000390 66 c5 ed 3e b6 46 38 3e fc 0d 2c 3e 2c bc 17 3e
       0.46439666 0.17995724 0.1680221 0.14817876
0003a0 2c 77 e4 3e 2f f5 34 3e 5c a9 df bd 8c 2f aa 3e
       0.4462217 0.17671655 -0.109209746 0.332394
0003b0 74 71 c7 be fd 38 18 bf b0 5a 5a be bd b6 02 bf
       -0.38953745 -0.5946196 -0.21323657 -0.51060086
0003c0 79 2c b5 be 4d ed 9c be 5a b7 12 3f 4a f7 8e be
       -0.35385492 -0.30649796 0.5731102 -0.27923042
0003d0 81 ca 7c be 64 34 c3 3e 85 03 83 3e 5c 33 ce bd
       -0.24686624 0.38125908 0.25588623 -0.1006839
0003e0 68 7a f7 be 65 12 07 bd 45 fc b9 3e 11 4e b4 3d
       -0.48335576 -0.032976527 0.3632528 0.088039525
0003f0 08 58 b1 bb 9d 51 13 be e3 6e ce be 65 f2 31 be
       -0.0054121055 -0.14386602 -0.40318975 -0.17377622

transformer.encoder.layers.1.self_attn.in_proj_bias f4 [48]
000000 ad ff 42 bf f3 66 f4 3e bd c8 cd be 93 14 03 bd
       -0.7617138 0.47734794 -0.40192214 -0.032002043
000010 dc dc 7c ba a1 62 20 3f 02 68 a1 be 40 7b 29 3e
       -0.0009645948 0.62650496 -0.31524664 0.16550922
000020 88 20 84 3d 71 74 ab be 32 5f 5f be 07 68 47 bf
       0.06451517 -0.33487275 -0.21813658 -0.7789311
000030 0e 2a 63 3d 10 4a 1a 3d 35 7f 09 bf d1 68 a6 bd
       0.05546003 0.037668288 -0.5370973 -0.08125461
000040 d5 80 f3 39 5c 3b 1f b9 f6 ef 25 39 e2 33 b1 38
       0.0004644456 -0.00015185535 0.00015825019 8.4496816e-05
000050 50 a5 48 38 46 b1 aa 38 98 a6 ea b7 2f 01 15 b9
       4.7837675e-05 8.1392514e-05 -2.797255e-05 -0.00014210188
000060 7b 80 3e 38 f0 2b 86 39 a6 be d3 38 f5 02 f4 38
       4.5419187e-05 0.00025591208 0.00010096775 0.000116353775
000070 bc 1c de 37 ab 78 7b 38 91 90 15 38 e1 24 c1 b7
       2.6477843e-05 5.9955444e-05 3.5659006e-05 -2.3024566e-05
000080 81 a2 56 3d 3c 0b a2 3e 74 ec 90 3d 08 89 1e bd
       0.05240107 0.31649196 0.0707635 -0.038704902
000090 3a 22 a3 bc a0 3d 96 3c 9d 76 04 be 1e aa 35 3d
       -0.019913781 0.018339932 -0.12935872 0.04435169
0000a0 02 48 7f be 8e 8d 05 be 28 12 e7 3d 1d a6 23 bc
       -0.24929813 -0.1304228 0.1128276 -0.009988335
0000b0 37 f8 4a 3e 72 3a 2f 3d ae cc a0 bc e2 72 af bc
       0.19821249 0.042780347 -0.019628849 -0.021417085
