experiments/SWT-T all implementations/darts_logs/modwt_pred_transformer_5_24_6/checkpoints/best-epoch=1-val_loss=0.00.ckpt (torch, 668891 bytes, 206 tensors)

encoder.weight f8 [16, 1]
-0.1731827837376485 -0.5050284277182545 -0.6017455135093879 -0.3638587667331972 0.8405074469920587 1.1159504292983193 -0.09263975322287493 0.9135213105504315
-0.6903669352951749 0.9300983521666877 1.1920711017339447 -0.8191615901308594 -0.28269279624120425 -0.7957087350483224 0.5478523213525343 0.18339461067144985
00000000: 9814 317c da2a c6bf dd34 9360 3129 e0bf
00000010: 9633 a1ce 7f41 e3bf add8 de47 7649 d7bf
00000020: d502 9cdf 6fe5 ea3f f0b1 5cd6 eeda f13f
00000030: a4d9 6626 3db7 b7bf d56b 200b 913b ed3f
00000040: 0aa4 2a66 7c17 e6bf 3ed2 939e 5dc3 ed3f
00000050: 8243 c725 b912 f33f 730b f85d 9236 eabf
00000060: cced aa86 a317 d2bf 0392 452a 7276 e9bf
00000070: ede5 6797 0188 e13f 165b 8c7f 7979 c73f

encoder.bias f8 [16]
0.6611927401572308 0.1734892657993235 -0.4729381361508665 0.41286183139359955 -0.33178962656915917 -0.8140030778488291 -0.8828144980313194 -0.48189235274387693
-0.16050252800919956 -1.1494148477257506 -0.1661735273315893 -0.4441926723273681 0.06858071115170951 -0.20929099143805094 -0.5419102278443464 -0.30608293741114473
00000000: 6c7e 6aad 7d28 e53f b256 6871 e534 c63f
00000010: 8d25 f350 9e44 debf 0e8a e607 546c da3f
00000020: d50f d18e 0a3c d5bf af87 c62e 500c eabf
00000030: 6355 af30 0440 ecbf 7f8e ce05 53d7 debf
00000040: 6ec7 5cca 588b c4bf 7e4d c8d2 0064 f2bf
00000050: 54d1 ac94 2c45 c5bf 7f35 311a a76d dcbf
00000060: a973 8867 818e b13f bf73 c915 0cca cabf
00000070: 36b3 3e1e 5457 e1bf c9d8 82e3 dc96 d3bf

transformer.encoder.layers.0.self_attn.in_proj_weight f8 [48, 16]
-0.7049389690945491 0.38249579874323947 0.12356430249421717 -0.6369837973545647 0.19481335641508263 0.7039299564289875 0.9370961531503313 -0.6356251983755442
1.2449830504818535 -0.5450117272558203 -0.7964372944886107 -0.7106758387304367 0.6552333245504364 -0.4285992507393356 0.1834364046344339 -0.6332611288965885
0.4821780769632597 0.06246720835213861 -0.3939150722278523 0.7606259858394814 0.0858350484655439 -0.07181824449340612 -0.3238446196713382 -0.04019600276781723
-0.01742956133845074 0.15043467624158902 0.26016387398369417 -0.01909941441525284 0.46919570768073116 0.3825266466349965 -0.24060747630905227 0.29549463956357136
0.6426127056044776 -0.13359946321135563 -1.0796920526635914 0.6514478180603169 0.9175659229599479 -0.23371046306788287 -1.135859454263815 1.0295699691255273
-0.9664359459129411 0.6401606854684323 0.7468837707121107 0.5735361762104176 -1.0209225280557275 1.0801281027852776 -0.5066527549779687 0.8629916600956142
-0.0861913668392076 0.303789325352011 0.44462677065740197 -0.02489486988754225 0.6238107327486959 0.5496717322889509 -0.11327913578510306 -0.3815180755236943
-0.02537392539611255 -0.1903652836009136 -0.2172292813963143 -0.4579322834419254 0.0909916014812691 -0.5717402366980546 0.34639377046559916 -0.13093872900184106
-0.005196092864655494 0.1929662505788242 0.10904251334637215 -0.1275980649944946 -0.24035313088782465 0.14593505639330673 -0.0152060549904667 -0.3029365561884618
0.3678827910481209 0.008677638837755223 -0.19458899331855106 -0.03162796115844568 0.19395040757522158 -0.10044897080219913 -0.06769208216515558 -0.232174501682874
0.07488276252457061 0.02554937496125953 0.37938903502861687 -0.1136632049800967 0.22103043350606258 0.295527679695772 0.15509581015963944 0.048822428956950874
0.024842649131364695 -0.49629335028046284 0.43872883377155675 0.07732136444049516 -0.17927278157153806 -0.11784619567622229 0.04027635867378042 0.21192299017391103
0.0485287392208056 -0.11096826689046242 0.06435519786102932 0.5756220929869698 0.08727170340778993 0.3081024805646063 0.20719664168364632 -0.24491113614706486
0.10612096708232963 0.1029829201713937 -0.11780654564420538 0.2735586114825468 -0.47995969734873595 -0.20622654032363272 -0.23391725631180765 -0.3087480147932713
0.007886648380498873 -0.20850765574936186 -0.2523998756214484 0.18847630596444823 -0.1956953033870025 0.05737103677846588 0.09966767624985588 -0.2755985349156327
0.3126950100301052 0.7203324907082397 -1.002791388971385 -0.1989940477494278 0.33729090885750873 0.11443619979489074 -0.14412648952733828 -0.026025722861646585
0.42075507864186484 0.08910082548793198 -0.031894442604784405 0.5927788916448489 0.5630813271768387 0.018070311180006807 0.03301245145918887 0.2875987153302837
0.10414106707804975 0.035354641921080475 -0.16327939756426368 0.1817846179700338 0.24945186090337765 -0.10894274530405346 -0.03786970800804353 -0.21080652013068418
-0.03577912690455864 -0.13056529095912672 0.0416038675136011 -0.1497465601531097 -0.33920284068648454 0.05034708970280589 0.132955395585259 -0.1502219575976363
-0.21797536801244768 0.09818078914848358 0.44900469840636664 0.1132845135614033 -0.321015683270467 0.4271583952873997 -0.06139115668516152 -0.21702941313127405
0.6451095018367912 -0.23590832267778578 -0.24074787156470143 0.6633256262482503 -0.16136677125967824 0.033556516500951795 -0.2589408605418341 -0.04935215147583968
-0.4040173335429181 -0.029013136228328757 0.3060963065711229 0.08615815204889979 -0.6963684806007807 0.2383958588423785 -0.2808593217715883 -0.10047203135765748
-0.2336244227270281 -0.18820423118149116 0.21010294316218084 -0.27861120591724386 -0.4125001404079399 -0.2841763106470049 0.3057123809439083 -0.24707799550935025
0.12931025930951406 0.2920061402382564 -0.07375002327050013 0.09177713091897689 0.036062690086490795 -0.03534819379964641 0.2476611847425329 0.22143281634367923
1.0919385645097421 -0.07216531627083365 -0.7165538597165312 1.0949818342281685 -0.2630391070103813 -0.7487873820527686 -0.5965134721903221 1.0003906485655953
-0.852774859477604 0.4488122618026206 0.6205299950863753 0.49876011900069506 -0.9619469956593262 0.5356007115688692 -0.560126840902788 0.6733285130371943
-1.3528900152870411 0.058868177211258615 0.6542619977704991 -0.9322160121247661 -0.12126227448563849 0.8619894830100886 1.428252060345252 -1.1925325891402354
0.5784329088979305 -0.30728649097585053 -0.8379143234159311 -0.6891071668728647 0.42750013248095 -1.103466577150062 0.8031043107023624 -0.6178188477771341
0.8528304203121875 -0.39125713007616364 -0.6772276037049989 0.7567070366404356 -0.4192734957092092 -0.7969363730288764 -0.5616528604759927 0.43506055170095276
-0.2453251876987791 0.5711495960354369 0.3746871262265076 0.20172158933460405 -0.1132026456106289 0.2675472491783711 -0.24119666784782834 0.6320526216689348
-0.7312258203503066 0.3092471218391502 0.43110227369083287 -0.23431777889529604 0.5492863651852173 0.8036076000316755 0.5049025193288035 -0.7604384619910853
0.5439251474673221 -0.31533738465128963 -0.214378963057164 -0.7137811638379246 -0.048807412764258214 -0.7486468511169121 0.6605947159752956 -0.7843216594208554
00000000: 42fc 3d2b dc8e e6bf 466a 9da8 cf7a d83f
00000010: 3b6c 2afe e8a1 bf3f 2a08 37d8 2b62 e4bf
00000020: 0e3a 50e1 a4ef c83f cb30 b11d 9886 e63f
00000030: 5b9e 5f12 b1fc ed3f cd2a f1a7 0a57 e4bf
00000040: 534d de58 73eb f33f cd01 106f bc70 e1bf
00000050: f295 a410 6a7c e9bf 73f2 ac41 dbbd e6bf
00000060: f930 86e0 abf7 e43f c6fe 408d 2b6e dbbf
00000070: e07d 6617 d87a c73f 5f0b ced7 ac43 e4bf
00000080: 9bf1 d96f 01dc de3f d3c3 e3b1 b3fb af3f
00000090: c7af 2790 e735 d9bf f962 b54e 0c57 e83f
000000a0: 0095 0226 49f9 b53f b0f5 5a33 ae62 b2bf
000000b0: 4b55 9ec8 deb9 d4bf a3a9 a20a 9294 a4bf
000000c0: 7da5 ba0f 0ed9 91bf 2c2c 5287 7141 c33f
000000d0: 9714 9760 86a6 d03f d821 2501 cc8e 93bf
000000e0: 6463 fa6e 4d07 de3f bf55 490b 517b d83f
000000f0: 1ad2 f5cc 39cc cebf fc67 4459 62e9 d23f
00000100: ff16 5285 4890 e43f 3cc2 a086 c919 c1bf
00000110: 4c0f 7f2c 6b46 f1bf ecd3 3318 a9d8 e43f
00000120: 5d2f e135 b35c ed3f 7b06 ce75 39ea cdbf
00000130: dca5 8ef6 7a2c f2bf ea67 255c 1e79 f03f
00000140: 3dff ab13 0bed eebf 12b3 0843 327c e43f
00000150: c9e4 23cb 78e6 e73f 40b1 fc89 685a e23f
00000160: dffb 5bdc b255 f0bf b140 cf67 3448 f13f
00000170: aee0 a1d6 7f36 e0bf ec9a 9aaf a09d eb3f
00000180: 919d c52d a310 b6bf ccb0 50c8 4871 d33f
00000190: 9a93 b9d7 c374 dc3f 114b 0570 0a7e 99bf
000001a0: 0e95 01ed 41f6 e33f 4def 362c e996 e13f
000001b0: 1f23 8487 dcff bcbf 8a41 4dca ca6a d8bf
000001c0: d062 fd4e 9ffb 99bf 4a0a aebd e35d c8bf
000001d0: 0e56 aa49 2bce cbbf 5e9a 4a35 c34e ddbf
000001e0: 839d 92c0 394b b73f 3c9d 4d2e b24b e2bf
000001f0: 3606 ecc6 502b d63f 0ede 6bab 99c2 c0bf
00000200: fa14 bb8e 7f48 75bf 93e0 bb3b 1eb3 c83f
00000210: 7f41 b2cc 35ea bb3f 1295 1726 2255 c0bf
00000220: d9c3 5332 e4c3 cebf 244b 46fb ffad c23f
00000230: 8df4 1427 5a24 8fbf 68e8 6502 5063 d3bf
00000240: 3d06 1443 648b d73f 1505 1ef8 94c5 813f
00000250: 947c 3bc9 4ae8 c8bf 101e a145 8a31 a0bf
00000260: de6c caf0 5dd3 c83f 5d26 8314 06b7 b9bf
00000270: fbf4 18af 4454 b1bf 90b5 d8e1 e4b7 cdbf
00000280: 19c1 1348 842b b33f 6041 9187 9d29 9a3f
00000290: 8c2b 7af2 e847 d83f 3de7 2524 0819 bdbf
000002a0: 9524 aaa9 b94a cc3f 68ca d6ed ece9 d23f
000002b0: 6bee 30f4 2dda c33f cfde 5cdf 40ff a83f
000002c0: 81c7 42f6 5970 993f ae51 2b2f 45c3 dfbf
000002d0: 8d1b 371a 2214 dc3f 85d4 8d3b 55cb b33f
000002e0: 99d3 f416 69f2 c6bf 142c 6314 2b2b bebf
000002f0: be98 9c56 1a9f a43f 18a3 08e4 4a20 cb3f
00000300: 822b bd47 c2d8 a83f c536 3095 6a68 bcbf
00000310: e306 240e 9579 b03f cc7d 0706 7f6b e23f
00000320: f3ae 0038 7057 b63f 7ada 7577 f3b7 d33f
00000330: 3ea7 ef67 6b85 ca3f b1c3 1684 3f59 cfbf
00000340: 06db 0963 be2a bb3f 63c6 2eb2 165d ba3f
00000350: 8bed cbdc 9128 bebf 50d4 76fa fb81 d13f
00000360: 3db2 e0e0 a8b7 debf d7ec 209b a165 cabf
00000370: 4e25 ea2a 00f1 cdbf 547d 8f08 87c2 d3bf
00000380: 6d50 f406 e026 803f 8e5e 34fd 60b0 cabf
00000390: eabf d3ce 5127 d0bf c516 18d9 fd1f c83f
000003a0: a594 0330 8b0c c9bf bff9 668d bc5f ad3f
000003b0: 6321 f621 d283 b93f 2871 9209 68a3 d1bf
000003c0: 8de8 6cee 3103 d43f d3d1 3ab9 f60c e73f
000003d0: f07a c5fb 6e0b f0bf ae5a 970f a378 c9bf
000003e0: d1fd b19b 2c96 d53f d9fa 98d7 b04b bd3f
000003f0: 13ec 809f bc72 c2bf d79f 2eb2 7ca6 9abf
00000400: 4922 99b5 a6ed da3f e16b 84cb 4fcf b63f
00000410: 17ca d2e7 7754 a0bf caf5 2b70 0bf8 e23f
00000420: 3ecf a621 c304 e23f e4ca 2f0e 0681 923f
00000430: b389 c10e 02e7 a03f 8cc5 2d71 0468 d23f
00000440: eb50 452d fda8 ba3f 6b2b a0ed 001a a23f
00000450: 8815 53dc 56e6 c4bf 626f 8ce6 b744 c73f
00000460: 03d0 40e0 09ee cf3f 60a5 37f8 abe3 bbbf
00000470: cba6 ce8a a863 a3bf 6257 df42 b5fb cabf
00000480: 7f78 de47 a451 a2bf 1cc2 540b 5db6 c0bf
00000490: 2d50 b724 1a4d a53f b3e6 4531 e52a c3bf
000004a0: 265c ddd4 7fb5 d5bf 31d5 71ff 17c7 a93f
000004b0: 6bc6 eeb1 ae04 c13f eaef 821d 793a c3bf
000004c0: 3138 79ea 9de6 cbbf 3efb 7c4e 6022 b93f
000004d0: cbf6 d933 7ebc dc3f fdb5 e3c0 3600 bd3f
000004e0: 8195 495d 858b d4bf 8128 7e2a 9056 db3f
000004f0: 25e8 7364 a96e afbf 5a9e d5ab 9ec7 cbbf
00000500: b64a 97ae bca4 e43f d6ad 6071 3e32 cebf
00000510: 2bdb 7985 d3d0 cebf f2b7 eaa9 f639 e53f
00000520: d857 9c96 aaa7 c4bf 4de8 e0d9 512e a13f
00000530: 7e04 e8af 7c92 d0bf 7be5 2669 af44 a9bf
00000540: 8d5f a584 6bdb d9bf b52f 059d 9eb5 9dbf
00000550: 298f 89f6 1497 d33f 3a75 55ed 750e b63f
00000560: 75a8 448d a648 e6bf a96b 9d68 c183 ce3f
00000570: 1d49 7260 99f9 d1bf f004 d8f8 88b8 b9bf
00000580: 5869 94b3 67e7 cdbf 9258 f284 1317 c8bf
00000590: 9163 d63a a7e4 ca3f 00ad 6d18 c4d4 d1bf
000005a0: ce70 29fd 6666 dabf 76b7 21d6 f12f d2bf
000005b0: 72ba 88a9 ca90 d33f f70e 2373 40a0 cfbf
000005c0: 2ec5 6213 3d8d c03f f17c a385 3ab0 d23f
000005d0: 5daa 0612 48e1 b2bf d955 d1bf b47e b73f
000005e0: 34f5 0d15 cf76 a23f 752e af90 2819 a2bf
000005f0: f698 7a98 5cb3 cf3f 0a88 3a18 e957 cc3f
00000600: edf7 7c92 9478 f13f 07ea 4919 6d79 b2bf
00000610: 29c3 295c 02ee e6bf d295 fbab 0b85 f13f
00000620: b56e 8bfa a1d5 d0bf 045f b2f4 10f6 e7bf
00000630: 6fc9 d56b a316 e3bf f003 ed9f 9901 f03f
00000640: 71d5 8980 ee49 ebbf 5f1b 9f10 57b9 dc3f
00000650: 1fa8 62b8 61db e33f 2a0d ea8f afeb df3f
00000660: cbf3 da10 45c8 eebf 48e2 7c1a a423 e13f
00000670: b241 e91f 8fec e1bf 9db0 de3c e88b e53f
00000680: 6fe2 2b00 70a5 f5bf 9483 cb3f f823 ae3f
00000690: d013 6edb b6ef e43f e544 9cac b6d4 edbf
000006a0: 4586 275f 0b0b bfbf e3c6 e0f7 6a95 eb3f
000006b0: 240a 1ad5 1eda f63f 2158 5c0d 9d14 f3bf
000006c0: 40b2 54bb 8582 e23f af9b 4ff5 94aa d3bf
000006d0: 097c fdb2 31d0 eabf b70f 2579 2a0d e6bf
000006e0: 70a5 0284 295c db3f d06a d191 cca7 f1bf
000006f0: ddc8 b7cf 07b3 e93f 25c4 4108 2cc5 e3bf
00000700: feca 8805 634a eb3f 9140 8058 5b0a d9bf
00000710: be90 3b39 d9ab e5bf 84c2 e0ac f136 e83f
00000720: 3fa4 0980 60d5 dabf 35dc 64b5 8080 e9bf
00000730: 2c60 6e6b 0ff9 e1bf b575 5536 08d8 db3f
00000740: 9491 06d5 d066 cfbf e610 8384 db46 e23f
00000750: 3701 58b6 dffa d73f 186d 8b56 03d2 c93f
00000760: 6ae4 b73c d9fa bcbf 85c6 567f 7e1f d13f
00000770: a8c1 274c 88df cebf 9069 6d6b c639 e43f
00000780: 9ca6 0cb1 3366 e7bf 0d9a ab70 b4ca d33f
00000790: 82ef aefd 2d97 db3f 0c03 9dfe 1ffe cdbf
000007a0: be7e d3ff c093 e13f c17f 1e49 27b7 e93f
000007b0: 50ed 0554 2928 e03f 7ae9 9b0a 8355 e8bf
000007c0: 1403 fbb5 d567 e13f 3b24 92da 7c2e d4bf
000007d0: e9f4 a315 c570 cbbf 18e9 6598 4bd7 e6bf
000007e0: e9ed 3f03 49fd a8bf d99d b93d eaf4 e7bf
000007f0: 18c7 a087 9723 e53f 8b39 98bc 2919 e9bf

transformer.encoder.layers.0.self_attn.in_proj_bias f8 [48]
-0.4029839077151682 0.08873884084427726 0.8641331319843522 -0.31293175768212694 -0.03639328969543879 -0.00990070122958312 -0.029684431397545497 -0.03245994348053744
-0.024528582175179812 0.006832723415268267 0.06356230066216492 0.0264894746464958 0.5304955003312649 -0.6404732909139788 0.44868289077264306 -0.5615851053251122
8.787794166740095e-14 7.211043522669448e-14 6.050923168546823e-14 1.234706204291119e-14 -3.5006186581135564e-14 -1.0110983705713548e-14 -5.1225004732734774e-14 -5.813472900990216e-14
-6.432865945407531e-14 -5.17197367782389e-15 4.4421404044116006e-17 1.0754583689583e-13 -8.612043665779183e-15 -5.789635219505643e-14 9.110828255350484e-14 -2.2821621463451175e-13
-0.014912259766028254 0.029411590747142634 -0.0016246070787095369 0.002836516126343551 -0.024168912818367985 0.03768460130784546 0.026324192172395015 0.018018277049310697
-0.06157812800046724 0.07012614818349197 -0.06899855525343758 -0.07681913811359796 -0.04774910490075179 -0.019604676754836528 0.0032222783618633386 0.030236540304443945
00000000: 07dc 1c04 7dca d9bf 8da5 4fb3 96b7 b63f
00000010: 3869 a886 faa6 eb3f 55f8 47ec 1207 d4bf
00000020: 954f 122a 24a2 a2bf 9380 e89f d146 84bf
00000030: bd14 3678 9865 9ebf f99a 5bf7 969e a0bf
00000040: 99e0 0949 051e 99bf d46f c739 a1fc 7b3f
00000050: 963e 9a72 9e45 b03f acff 2d8d 0e20 9b3f
00000060: 5322 13b3 d1f9 e03f 2cfc cdd7 c17e e4bf
00000070: e12a 8971 38b7 dc3f a858 a953 81f8 e1bf
00000080: 2c4f 50e6 45bc 383d 0233 61be 1a4c 343d
00000090: 2e9b 9d4f 2608 313d 0379 a0bf 98cd 0b3d
000000a0: 285d 6854 ecb4 23bd bd51 7cd4 95c4 06bd
000000b0: bd91 de1a 4dd6 2cbd ce5e c477 0c5d 30bd
000000c0: 763a 4b51 5e1b 32bd 09d1 5732 e14a f7bc
000000d0: 2df8 5632 719b 893c b96e 8787 7e45 3e3d
000000e0: 2fac d952 8164 03bd 181b 1631 df4b 30bd
000000f0: 54ad d72b 0ba5 393d 0498 b586 2d0f 50bd
00000100: 7150 09a0 518a 8ebf 467d 8771 121e 9e3f
00000110: f6ee 6691 189e 5abf 703e e9ff 9a3c 673f
00000120: 0400 8a48 bcbf 98bf 5128 5c64 654b a33f
00000130: e16e e5a1 baf4 9a3f 81d3 a01a 6273 923f
00000140: 9f62 d21b 2b87 afbf 6ae4 0a89 c9f3 b13f
00000150: 41e6 48aa e3a9 b1bf a7a1 e745 6baa b3bf
00000160: 908b ec17 9272 a8bf 34ee 0a96 3f13 94bf
00000170: 7d97 d985 9b65 6a3f afd0 01df 53f6 9e3f

transformer.encoder.layers.0.self_attn.out_proj.weight f8 [16, 16]
0.0714975291497383 0.6500841552429811 -0.3751816032356342 0.11683602709370292 0.22375903420712207 0.3169833587974992 -0.25832754499614935 0.32085735266487936
-0.06966492241600342 0.42502212945481066 0.03586199243852265 0.057702681413864323 -0.7107627125593301 0.16503805656201648 -0.4512806271138488 -0.13955423413750354
-0.1937434646344647 0.1776914012305557 0.20781055425640008 0.05784893923506629 -0.16892920191547345 -0.03961507295569266 -0.2037418376574235 -0.2247886186470648
0.20319413080883916 -0.318626649347552 -0.13287392136473344 -0.4392793770339011 -0.6195704835840701 0.2858735154541819 -0.27828683916762886 -0.03290207615130221
-0.09326378132440766 -0.2574552154793582 -0.1879465452987558 -0.1860571968842384 0.010971233962038026 -0.15844748551736745 -0.22041180417758682 -0.19200862599693896
0.15122683307998594 0.4030219044768897 0.060926828144278126 0.310268651469633 0.43757109842594377 0.3050064584508196 0.39329254869138275 -0.26327580038639997
0.3465651519855857 -0.11790575319297408 0.05133183151049916 -0.18563455803806392 -0.20695330261790146 -0.3559760200182667 0.2063740050986667 0.1119754473101889
0.37729084981340016 -0.11812112916482989 -0.17647685860844378 0.25588259736926355 1.5433038462052587e-05 0.23565648320744728 -0.5818327884459416 -0.5123153230539387
-0.16998639765481136 0.15902457575693033 0.11865778141968124 -0.35426818516374914 -0.27258014496019667 -0.27406517271720765 -0.14046459852127705 -0.40389016084768603
-0.009345536808158814 0.15691351723130162 -0.38352562365641685 -0.270517545437191 -0.0332700645758773 -0.031690755688991594 0.05092408380133519 0.5580935389853047
0.1590975851497109 -0.08650422559069955 -0.2605051922680251 -0.3303600114054179 -0.26975082284053226 0.3194271541287554 -0.11526626815279781 -0.3229928004232318
0.0776431041975358 -0.1722410995616734 0.21884857008188835 0.11356082259196155 0.49860117107445995 0.35594191309755185 0.35122778985800357 -0.17176088876103354
-0.26394422700460907 0.20614904179727575 -0.07997412848031579 -0.28666953699099657 -0.03646991663148617 -0.11487517953173224 0.2662100929845926 -0.3276285228885098
0.1649606084107596 -0.01109238574043037 0.042342391760855726 -0.18029006294460367 -0.23901683256282244 -0.25462337113919314 -0.10234558595855474 -0.2804715145224618
0.28435543414834796 0.29196374411159703 0.22202566553546782 0.27003710066554254 0.2537898937760452 -0.25982036914532786 0.21059161796281103 0.14144642434298402
-0.27156292461907366 -0.04218932802699056 0.03034114878522069 -0.16316468302578674 -0.17070994908255985 -0.05087462660158176 0.03540804518071644 0.38176093488827617
0.19487663550177176 0.035540228811014735 0.06606726760208644 -0.28094808243460984 0.3931820508272845 0.2212379728324648 0.3691705510104967 -0.11551178187880819
0.07456968279368925 0.2250787220844318 -0.28585944335465324 -0.0717202304549534 -0.1245716545192016 0.2428732457932675 -0.06851836868615499 0.0196367300633613
0.04626625797743169 0.1924721434389452 -0.29207185496926646 -0.3827486386807474 0.34620508828327656 0.12225610154278085 -0.15382907629460985 0.1600410089635765
-0.2951270322317165 -0.2868349554552162 0.15766342332769337 -0.2538953558209646 0.12999077293761147 -0.044335687398873995 0.4699368562558184 0.27175683105889403
-0.07679151097394288 0.1521997102481814 0.1414921338341537 -0.17201863227555983 0.0936237164547357 -0.06844464352326608 0.1842561347684883 0.20583915969334218
0.06680276359780196 0.144170683565675 0.05323612693293215 0.11537731581801353 0.13263558572166267 0.2336600848355854 0.010528461620885816 0.034072945769853195
0.2137925270954533 0.12255837485807612 0.07671545905852592 -0.18673011465337586 0.02731687774345573 -0.2620903089215537 0.09846021098282168 -0.0031001014328071812
-0.26664244254889424 -0.2129357195912878 -0.11484120119681861 -0.06379626118772581 -0.3170163265300139 -0.16779751750092234 -0.059517189921748107 -0.2813638468113447
-0.042842480687791756 0.2743129941985958 0.36007914552577064 -0.289375786071214 0.27797796760963644 0.156112751860126 -0.0754730101793853 -0.166150551352147
-0.00832667890467671 -0.07632464683648923 0.3015337955717122 0.20118385905798725 0.2715644449028954 -0.22895878073453388 -0.11106689999818972 -0.0025590462129443637
-0.12042583301659071 0.27709493407830155 -0.012533101814365373 0.15050097283002384 -0.07216158481391496 -0.33488814382055876 -5.1699922904795515e-05 0.22483894707190286
-0.1795018007709687 0.025799221881607916 -0.21360419165477795 0.03759019192710203 -0.10853362320687156 0.3046659202760969 -0.05719301111992515 0.22722805751409597
0.05365310200575047 0.21293276294178626 -0.22828909838210573 0.11464255215958845 -0.30491718815684954 -0.3661535793804079 -0.14508341194333624 0.3605712925254654
-0.40749707108158817 -0.08341580083726796 0.21258376295814346 0.06631889224222512 0.035146217460806886 0.14478659268589406 0.015277722343493673 0.26001779698501193
-0.19220368634669927 0.3477547832590191 0.03801519572429568 -0.4200197673212342 -0.27829054619096033 0.2537510854868424 -0.18060629305554937 0.16113642822263832
0.3498201976463863 0.3913461850051876 -0.3082592884319095 0.30014414372086234 0.14681009923617064 0.4813372365539889 0.37234289741584675 -0.41565805076844575
00000000: 0964 717d a94d b23f 1353 4d49 7dcd e43f
00000010: 2e4e fdb2 f902 d8bf 9aad 5c43 f7e8 bd3f
00000020: 4854 0dd3 22a4 cc3f e755 da91 7449 d43f
00000030: 0586 5a41 7088 d0bf 6a1d 1847 ed88 d43f
00000040: 3882 7473 8fd5 b1bf 906b 8504 9033 db3f
00000050: c5bd 62c9 805c a23f bacb 20b3 348b ad3f
00000060: 0413 b571 91be e6bf c2be c38f f71f c53f
00000070: 356e b123 c8e1 dcbf 9fc7 d1c3 e9dc c1bf
00000080: e199 35fa 95cc c8bf 4067 8882 97be c63f
00000090: 5dbe 2547 8999 ca3f e0ec 3e4c 609e ad3f
000000a0: cc7d c8da 789f c5bf 0ff5 8b45 6d48 a4bf
000000b0: c564 c868 3614 cabf 8c13 cd9a dfc5 ccbf
000000c0: ff13 48e9 4302 ca3f 243c a507 6164 d4bf
000000d0: f15b 603d 0302 c1bf 32be 8a3f 271d dcbf
000000e0: 80ef 917a 85d3 e3bf cdc4 ea6d c04b d23f
000000f0: 9a75 489a 73cf d1bf 0aa8 147a 8ad8 a0bf
00000100: 5c8b b09a 22e0 b7bf 51c8 aa70 257a d0bf
00000110: c527 bae4 a10e c8bf 79d0 e6e3 b8d0 c7bf
00000120: 7e7e 8218 1678 863f 811b 37d8 0148 c4bf
00000130: f62b 4c39 7436 ccbf ba76 9a18 bd93 c8bf
00000140: a797 2d9f 665b c33f 3031 d362 1ccb d93f
00000150: a749 a81c cd31 af3f 664f c20b 71db d33f
00000160: ac82 5a35 2a01 dc3f 075d 07cf 3985 d33f
00000170: 60f5 9882 b42b d93f 5038 1fbe 82d9 d0bf
00000180: ec86 6d9a 1f2e d63f bc5c f949 122f bebf
00000190: 23aa 2973 2a48 aa3f 7bf4 e389 dfc2 c7bf
000001a0: 9483 4521 727d cabf 69e0 08a5 4fc8 d6bf
000001b0: 0258 52a1 766a ca3f b5f8 2644 6caa bc3f
000001c0: 9bd4 4185 8825 d83f e2c2 bab2 2f3d bebf
000001d0: b9ae 1c30 cb96 c6bf e841 d466 6160 d03f
000001e0: 02e5 da53 c62e f03e a9b1 3bdc fd29 ce3f
000001f0: aeb4 c3cb 5f9e e2bf f333 b81a e364 e0bf
00000200: 2b9c 5841 1dc2 c5bf f571 11d4 ea5a c43f
00000210: e30a 9d3a 5b60 be3f 2aa9 5277 54ac d6bf
00000220: a626 09fe f371 d1bf 7cc0 72a6 488a d1bf
00000230: 0d84 7274 befa c1bf 6216 011e 56d9 d9bf
00000240: a508 a3b7 c023 83bf df85 67fc bd15 c43f
00000250: 7011 b20e af8b d8bf 4a67 a9d2 2850 d1bf
00000260: 2b12 941e c608 a1bf ff1b 8a4e c539 a0bf
00000270: a2d0 02b5 b812 aa3f 07a0 41fb e6db e13f
00000280: 3e98 8b46 4f5d c43f 7dbb e013 2425 b6bf
00000290: d5ad 4ef8 1dac d0bf 031e 3951 9e24 d5bf
000002a0: c7d3 8af4 9843 d1bf a3fd 1b97 7e71 d43f
000002b0: fe58 0c14 1782 bdbf af51 aafe e9ab d4bf
000002c0: 6dd0 4921 6be0 b33f e77d d210 ff0b c6bf
000002d0: f297 a3dd 3a03 cc3f 51ab 2373 5212 bd3f
000002e0: 5bc6 e0e2 14e9 df3f f0e5 0197 c0c7 d63f
000002f0: 2fbc b81f 847a d63f bff2 fac3 42fc c5bf
00000300: 9cfa bc53 76e4 d0bf 1f7e 4f80 1763 ca3f
00000310: e65b 593a 2f79 b4bf d3b0 882f cb58 d2bf
00000320: 45ae 7056 2fac a2bf c2fe 35b3 7568 bdbf
00000330: f1f8 ce0e 9609 d13f 7bbf c29f ddf7 d4bf
00000340: 1a51 20e1 6d1d c53f 020a ebcf 9ab7 86bf
00000350: add0 b1e7 e6ad a53f 8307 12aa be13 c7bf
00000360: 9b81 8683 1a98 cebf 47c4 f5d2 bf4b d0bf
00000370: a3fa 9400 5233 babf 1659 95cb 3ef3 d1bf
00000380: aed9 8622 e132 d23f eded 24b3 88af d23f
00000390: da79 2c46 566b cc3f aa2b 04b1 4948 d13f
000003a0: 0cb3 74f7 173e d03f cd15 149d e5a0 d0bf
000003b0: cd22 fb87 aaf4 ca3f 7f39 589b ea1a c23f
000003c0: d9e1 0276 4961 d1bf ca76 3bf0 d699 a5bf
000003d0: 2bba 0507 c011 9f3f 729e ba90 94e2 c4bf
000003e0: 67a9 34d8 d2d9 c5bf 1867 e632 3d0c aabf
000003f0: 0808 22d8 0021 a23f f312 8f6a c56e d83f
00000400: 1a08 1eb4 b7f1 c83f 840f df30 5432 a23f
00000410: f5e1 afd1 c8e9 b03f 518e 7baa 0dfb d1bf
00000420: 785a 6b0c e529 d93f 6371 f9a0 8651 cc3f
00000430: e620 cf84 7da0 d73f e9df 781d 2e92 bdbf
00000440: b03a dfac ff16 b33f d465 302b 61cf cc3f
00000450: 0781 1d68 854b d2bf e4fe 43cc 415c b2bf
00000460: 2828 2b8e ede3 bfbf b3b2 e073 7816 cf3f
00000470: 9eab ae78 6b8a b1bf 3ea8 b0a5 a61b 943f
00000480: 93bd d701 36b0 a73f 920b bb5c eda2 c83f
00000490: 1834 4b26 4eb1 d2bf aa3a 6e25 f47e d8bf
000004a0: 78ab f862 3928 d63f d6d9 dc05 2d4c bf3f
000004b0: 84fb edd1 abb0 c3bf 4b3a c249 397c c43f
000004c0: db72 e67d 5ce3 d2bf c2e7 4100 815b d2bf
000004d0: 65e2 7ba7 502e c43f 6fde 764e d23f d0bf
000004e0: 2e3f 46a3 89a3 c03f f701 d9ce 2ab3 a6bf
000004f0: 5871 3309 7213 de3f f833 77c3 7664 d13f
00000500: a856 3ec4 9ba8 b3bf ba01 fdb4 477b c33f
00000510: b8be ba0b 6a1c c23f 0d8d f6df b404 c6bf
00000520: cb95 4d50 b9f7 b73f 79d0 8491 9685 b1bf
00000530: de81 757c b495 c73f 3f3c 8f05 f058 ca3f
00000540: c45a ef64 fc19 b13f dd6f 7a59 2f74 c23f
00000550: 3509 4900 c441 ab3f 5c7d 2326 5e89 bd3f
00000560: 9cec 7aef 33fa c03f 27ed 5fdb 92e8 cd3f
00000570: f70e b632 f28f 853f bf11 8557 0272 a13f
00000580: 8188 00b4 8d5d cb3f d3c8 dd53 fc5f bf3f
00000590: de05 c1d3 9fa3 b33f 8caa cebb c5e6 c7bf
000005a0: 28dc 25a2 f4f8 9b3f bea9 5a6e 16c6 d0bf
000005b0: 02e4 203a b034 b93f 5302 9548 6265 69bf
000005c0: 9c46 9e76 ab10 d1bf 41bc e547 7a41 cbbf
000005d0: 47aa 5fa3 3b66 bdbf 0d8a 68a7 f354 b0bf
000005e0: 58a5 afd8 fe49 d4bf 011b 0299 637a c5bf
000005f0: 7a07 8780 0979 aebf f536 1582 dd01 d2bf
00000600: d4fd dd1a 73ef a5bf 04da bc16 588e d13f
00000610: cd4e 8066 890b d73f af87 5b04 2285 d2bf
00000620: 7a15 f919 64ca d13f b128 ddad 80fb c33f
00000630: 957d 73fe 3252 b3bf 1e8a 22d8 6b44 c5bf
00000640: e797 a3ec 930d 81bf da9d 0a16 038a b3bf
00000650: daa1 a767 544c d33f 6e8d 9187 64c0 c93f
00000660: 2d51 67d6 4f61 d13f 8f84 b175 854e cdbf
00000670: 360b 295f e16e bcbf 3bc0 6479 b5f6 64bf
00000680: 385a 6636 3ad4 bebf ac3a f063 ecbb d13f
00000690: 31f6 4773 f4aa 89bf 041b 29aa 9d43 c33f
000006a0: bea4 cd7e 2e79 b2bf a6c1 61ae ce6e d5bf
000006b0: 6b8f 1cd3 0b1b 0bbf 233c 45ca 85c7 cc3f
000006c0: 9d34 f13d eaf9 c6bf 8a9a f978 1c6b 9a3f
000006d0: 900f b9d4 6157 cbbf 445c f489 053f a33f
000006e0: 499d 300a dcc8 bbbf 3da9 f27c a57f d33f
000006f0: 71c2 a300 6748 adbf e2d9 e019 cf15 cd3f
00000700: 2126 e35c 6b78 ab3f 767b 8a7a 6141 cb3f
00000710: efcf cac1 9338 cdbf 5362 41dc 3659 bd3f
00000720: fccd c761 c383 d3bf e923 306c 0f6f d7bf
00000730: 8a8e bede 1792 c2bf 207e 519d 9913 d73f
00000740: a4b7 6098 6e14 dabf b8d2 90e8 bc5a b5bf
00000750: 866d c8da f135 cb3f d28c 4961 46fa b03f
00000760: 8a00 255d affe a13f a21a 3ef8 5d88 c23f
00000770: 01d6 942e ed49 8f3f 146e 9baf 21a4 d03f
00000780: b4cd 8361 219a c8bf e800 4847 9d41 d63f
00000790: 5016 c64c ba76 a33f e35d 1497 9ae1 dabf
000007a0: 1346 ab26 83cf d1bf 2964 5f31 753d d03f
000007b0: 560c 1065 1b1e c7bf b58a b454 1ea0 c43f
000007c0: 6ac6 1741 7463 d63f d0be 80de d00b d93f
000007d0: c735 a02a 85ba d3bf 617d 57c8 8f35 d33f
000007e0: 1d8f 785f acca c23f 632b 56b2 3ace de3f
000007f0: e921 d34d 77d4 d73f 3ca7 9739 249a dabf

transformer.encoder.layers.0.self_attn.out_proj.bias f8 [16]
0.031989383185561326 0.03653749911207247 0.060016811943941865 0.04119823372916243 0.0801489712645543 -0.056981234339170024 0.0172688179474163 -0.026190759307597997
0.02193585336909673 -0.03513029410307281 -0.0040552300110405564 -0.005207713811550828 -0.019657444396498535 0.035214418900244855 -0.013310864578090541 0.045038435027259655
00000000: 40d0 3395 e960 a03f 6d28 8707 0bb5 a23f
00000010: b7d1 0409 86ba ae3f 5118 0a55 ef17 a53f
00000020: 75a9 639a a484 b43f a1e4 f1f3 a42c adbf
00000030: 3f86 4cc1 eaae 913f 2cf2 bb1a c0d1 9abf
00000040: 780b 5233 5a76 963f d409 8b10 99fc a1bf
00000050: e71f 6784 379c 70bf 7fe0 1e08 af54 75bf
00000060: c33d 39c3 1421 94bf 6963 0cd3 9f07 a23f
00000070: d9e5 5a00 ba42 8bbf 9c9c 021b 470f a73f

transformer.encoder.layers.0.linear1.weight f8 [128, 16]
0.06798107773667769 0.07774949957497547 -0.13641278095831846 -0.07273291822537323 -0.15700355972670432 0.07426977691393435 -0.057193880047192586 -0.05313809082750639
0.12169598664153318 -0.041430056603672 -0.10431283659677561 -0.24917870430846967 0.24590346788029424 -0.294821941968871 0.03574781448156324 -0.0856010049845313
-0.12652888306572407 -0.216133074337825 -0.1488087318240333 -0.14950690728431093 -0.20111389026696236 0.18672132121412002 -0.09519106923360292 0.07467818225690548
-0.0529326559816948 0.13651419528212175 -0.1812315792437273 -0.026379843356251903 -0.01252495658181062 -0.18436710718148575 0.10944213595275183 0.08648689113874992
-0.10042426348782514 -0.02755644627082107 0.11079657004579245 -0.03248975100392099 0.15270393145065922 -0.0376360768184089 0.06265634543964081 0.09302428693229745
0.05438326646636181 0.1633782718900107 -0.09490187963199055 0.1791944102081054 0.07838611648108607 -0.21387598399545732 0.0023543459763446474 0.015085187610385542
-0.021919652394627856 0.044177663307567554 0.010297034042757388 0.0044991880440544835 -0.09778647066925622 -0.03386021455707894 0.05076558407303305 0.008894934408069157
-0.07329609300586012 -0.010566973190473988 -0.04826939722838615 -0.2517753863523742 0.11169797249247405 0.06907164177154068 0.0994077759632552 0.06972030547508214
-0.18660002656737926 0.026572444401084257 0.3235254623948651 0.11774396441315099 0.07888468387569285 -0.07028396428459856 -0.34402404221430677 -0.4576551114009923
0.1490482178466443 0.3027921432300952 -0.13267264974037177 0.03545905449425404 -0.18658570795901291 -0.09092142300206012 -0.002756322163452843 -0.0577549258544506
-0.016001972003545528 -0.19496565775397934 0.02915893006531211 -0.2792525370606033 -0.014663102526289787 0.19063766326450154 0.027864084798448544 0.06884349768869602
0.04340883446076655 0.12713687838039817 -0.7982904399238308 0.1524319816732984 -0.07254068393938196 -0.03458126372442259 0.04096055009401669 0.05300236737866537
-0.17820342723453497 -0.20990828064410744 -0.06773160123371563 -0.10452072598143554 -0.03540389944527793 0.004999581161272631 0.046666627391638356 0.1052302075213308
-0.2413760554461945 -0.05263012170551933 0.044505085201652646 -0.3455033842564301 0.2068157177719572 -0.08142022285583508 0.046562766076957474 -0.161834212110699
-0.0027945958026778166 -0.04741757591074108 0.031161758728773067 -0.0007436633721541731 -0.057266599003107245 -0.08669820271004047 0.012365367284842436 0.09512235124491251
-0.10468231677577416 -0.045318273392419096 -0.3159055243063615 0.15479031090971507 0.15882818246443542 0.10225777575754932 -0.1316818827941478 0.003814150600420185
0.041021707430362764 0.16713896111879542 0.1196053440881677 0.018294048173783235 -0.1864788183181137 0.11604766389627368 0.038446267421178106 0.02699279618947215
0.34697897542486544 0.1901791967318769 -0.08830711220858695 -0.25553101204021456 0.1616763429862991 -0.009877634038134577 0.10299262122296383 0.017063879395206615
0.05078866959820313 -0.034087122444719266 0.13167629693417157 -0.058917436310893564 0.002493184162631419 0.0111434790489486 -0.014014970325541989 -0.23213832424164013
-0.14187320673818035 -0.030437605103867713 0.15845015737583115 -0.024095642511745577 -0.01606554627360996 -0.21820820748263797 -0.038346651708633106 -0.15081574962121566
-0.045293421429817494 -0.05757821731505802 -0.12810101387104492 0.16449017639255642 0.06796827764910224 0.1837603131395303 -0.0641082892401929 -0.0877857183399134
-0.1766978818739715 0.0909116330370905 0.09380535706334202 0.10138770973548832 0.10991943298069484 -0.24516067025801644 0.09019370179986777 -0.028653821370959297
-0.15549976406532762 -0.11239415651178541 -0.039907912191774114 -0.17118261784605776 -0.17647939973093166 -0.09775774734696328 -0.11873673224704014 -0.3344273322852267
0.33314502950149083 0.03452560521256979 -0.23614979029474606 -0.1512148748172408 0.3118213441489561 -0.21375695897481656 -0.0763852195513845 -0.07897489909594967
0.07045684238501897 0.01122659061169849 0.029846925686018703 0.10302177934980596 0.11467534215269279 -0.11086064869675485 -0.25343255400686904 -0.45780788007795997
0.28512031287359163 0.21771651812773612 0.20077412606793402 -0.06378261256268097 0.07019600835133862 -0.08176291474149476 0.05588902957844913 0.09018695125822598
0.06585471529674394 -0.030052499170289276 -0.10878405386426927 0.043278812320131296 -0.025843031896339838 -0.10015548566227792 -0.026065449723627888 0.02876147982525281
0.23802911032036328 -0.32375239752213764 -0.32788185314646173 0.02620143138406961 -0.016286213019384762 -0.07591412839554024 0.05534319197774789 -0.1756972621398323
-0.3452864810726174 -0.2680968265503057 0.02729643185116127 -0.04957337564130041 0.13795638370103885 0.18140411964100267 -0.13360416964815983 -0.013031894394571947
-0.14235570593641153 -0.13404199916443754 0.11460163830849397 -0.4707179538146579 0.15595608474604616 -0.35173417461158746 0.23221756994371245 -0.2116234763157156
-0.15851381917241722 -0.13603609746085107 -0.12683267789858815 0.02455172777465045 -0.05895451280960247 -0.07846895419222279 -0.14780729644826407 0.06787944393215652
0.12972756875541044 -0.2785870061329545 -0.3846016859629356 0.16956053774036786 -0.08136084677817762 0.060261668653322574 0.03745061119745611 -0.16336991711320156
00000000: a638 a039 3567 b13f 6173 f425 64e7 b33f
00000010: 4177 7c58 f975 c1bf fae0 1ee1 9f9e b2bf
00000020: 18de 3051 b118 c4bf 4a33 ed16 5803 b33f
00000030: 2c07 ab28 8448 adbf 2b52 8d74 ea34 abbf
00000040: db09 aeda 7727 bf3f 794f 5e04 5236 a5bf
00000050: e173 bcfd 3eb4 babf f8a8 ee78 16e5 cfbf
00000060: af69 42cc c379 cf3f 9691 b9d9 5cde d2bf
00000070: bb1d 349c 894d a23f b2cd e98c f2e9 b5bf
00000080: 0023 6233 1932 c0bf e3b4 eea2 3faa cbbf
00000090: 0490 451e 2a0c c3bf d0f6 a7d6 0a23 c3bf
000000a0: 54e5 bb96 19be c9bf ad4f 0af8 7be6 c73f
000000b0: d3c6 3a21 715e b8bf 98a4 84fe 1b1e b33f
000000c0: 6be1 a934 fd19 abbf 9596 1612 4c79 c13f
000000d0: c657 edac 9832 c7bf 086f f451 5103 9bbf
000000e0: fab8 3837 afa6 89bf dcbb e663 5799 c7bf
000000f0: 45b1 b85a 6604 bc3f ad40 f940 0124 b63f
00000100: 5db4 678f 67b5 b9bf 37cf 1bce c137 9cbf
00000110: ff0b dbfc 295d bc3f 59b7 0824 7fa2 a0bf
00000120: f58d c66b cd8b c33f 366c 2b2e 0945 a3bf
00000130: b7d5 8c0a 3f0a b03f cea1 1b8e 70d0 b73f
00000140: 2e69 d89d 1fd8 ab3f fe81 5247 94e9 c43f
00000150: 052c 5955 7d4b b8bf 1a23 bca9 d7ef c63f
00000160: 7828 bfce 1c11 b43f fe84 54ca 4960 cbbf
00000170: f68d 19df 6b49 633f 2d69 869b fbe4 8e3f
00000180: 34ce b2f8 1a72 96bf 8f49 3d66 749e a63f
00000190: beef ac83 9c16 853f 90d1 1f98 bd6d 723f
000001a0: 2406 84bd 8808 b9bf 38ff 5044 2056 a1bf
000001b0: a747 b656 f2fd a93f a1d0 0fe3 8137 823f
000001c0: 8e7e 6262 88c3 b2bf 5696 2a22 23a4 85bf
000001d0: cab2 fc34 c4b6 a8bf bc8e 9482 161d d0bf
000001e0: a17a e202 3d98 bc3f 3063 7dda adae b13f
000001f0: 5ef3 baba c972 b93f 91f2 e19f 30d9 b13f
00000200: 6f12 c579 82e2 c7bf 92b1 b58e ce35 9b3f
00000210: b830 1a24 a4b4 d43f fcb3 74ec 7724 be3f
00000220: 1bc2 6661 c931 b43f f51b 0940 21fe b1bf
00000230: 6f48 966a 7d04 d6bf bf20 14aa 384a ddbf
00000240: 7ed6 9612 0314 c33f 2a2d 2a4c f260 d33f
00000250: 15b2 dad9 6afb c0bf 13c0 cc6e b027 a23f
00000260: 36e0 ca5c 0ae2 c7bf 93b4 4c5a a046 b7bf
00000270: 879e 9331 6d94 66bf 4b9e 74bb 0d92 adbf
00000280: 30fa b429 d262 90bf 88bf f279 a2f4 c8bf
00000290: 7e45 11ac d6db 9d3f 3b05 8008 46df d1bf
000002a0: 086b 774e b007 8ebf baae 8da0 d066 c83f
000002b0: 31ec c413 6788 9c3f d07d 1d3b ba9f b13f
000002c0: f9a1 bbc8 ae39 a63f 0a32 616f 0546 c03f
000002d0: 73d5 8564 988b e9bf 685d 1324 e482 c33f
000002e0: 982c 26b9 0692 b2bf ce61 80a9 a2b4 a1bf
000002f0: 03f2 28fe c7f8 a43f f0fe 0055 2023 ab3f
00000300: e8f3 00b2 5ecf c6bf fe54 4348 46de cabf
00000310: 8c5b 34b4 db56 b1bf 6d2d d8cb dec1 babf
00000320: 0664 89bc 7520 a2bf f943 4dd9 707a 743f
00000330: 8964 ec2c b0e4 a73f 16fc daeb 5df0 ba3f
00000340: cee5 161c 69e5 cebf 17f8 04d7 55f2 aabf
00000350: e1c1 e4da 5ec9 a63f e079 023a ba1c d6bf
00000360: a18d 10fc ef78 ca3f 9a1a 66aa f4d7 b4bf
00000370: a80e 062b 13d7 a73f 2fd7 31c4 fbb6 c4bf
00000380: ef4d 7f32 b1e4 66bf 389f 95d3 1d47 a8bf
00000390: ecf1 803a dee8 9f3f f7d4 6aee 4c5e 48bf
000003a0: 2d34 be33 0c52 adbf 60f8 4279 da31 b6bf
000003b0: dc3d bb80 0353 893f 972c b73b f059 b83f
000003c0: 8c7e 05d7 75cc babf 9d64 43ec f433 a7bf
000003d0: 2b61 e1cd cb37 d4bf a025 8c3d 2bd0 c33f
000003e0: 6416 af5c 7b54 c43f aeef a3ca 902d ba3f
000003f0: 0bcd 09b2 f3da c0bf 9906 e882 da3e 6f3f
00000400: 68d1 ad17 cc00 a53f 1742 f239 cf64 c53f
00000410: 0017 49b1 749e be3f 05ad 78ca acbb 923f
00000420: da58 09b5 89de c7bf ab31 36b9 4cb5 bd3f
00000430: 8557 74aa 3aaf a33f a10c 72e3 ffa3 9b3f
00000440: 525c f64d e734 d63f 28e6 2bbb ca57 c83f
00000450: 4ca9 f07e 4b9b b6bf 70e5 f4be 9e5a d0bf
00000460: 49de d476 cfb1 c43f 81c2 3e99 b93a 84bf
00000470: 29c7 e173 b95d ba3f e6fc c78f 3179 913f
00000480: dbfe dcf5 f800 aa3f 45c9 3a08 de73 a1bf
00000490: afcd 7ed6 c4da c03f a628 3d1c 6d2a aebf
000004a0: c301 200e 966c 643f ec93 a170 64d2 863f
000004b0: bbf3 9e79 e1b3 8cbf 2f0f 6267 b5b6 cdbf
000004c0: b33f 8fb7 e628 c2bf 3c6d f519 092b 9fbf
000004d0: edd4 fc41 1848 c43f 8497 4132 87ac 98bf
000004e0: 52a1 598f 7c73 90bf c2a8 6d1d 3fee cbbf
000004f0: 48d6 ff1d 2ca2 a3bf e723 2c34 ee4d c3bf
00000500: 9daf 8707 b330 a7bf 180a a960 e47a adbf
00000510: e58d 9430 9d65 c0bf 4245 0f9c 030e c53f
00000520: 7418 ab79 5e66 b13f 1356 9e3b 7585 c73f
00000530: 4c6b b09d 6669 b0bf 5567 53f5 1f79 b6bf
00000540: 30e9 f543 099e c6bf c162 b81a fc45 b73f
00000550: f7d2 c6bc a003 b83f 53bf 8781 8bf4 b93f
00000560: 98d1 d811 ae23 bc3f ff05 83c2 6c61 cfbf
00000570: a21d 8937 ef16 b73f 4358 c666 6d57 9dbf
00000580: 4c20 9990 6ae7 c3bf a0c8 7a0a ddc5 bcbf
00000590: 0c3d 6e53 cf6e a4bf 1e70 a5e0 4fe9 c5bf
000005a0: 458b 2181 e096 c6bf af2c c9d7 a606 b9bf
000005b0: 05bf d5cd 8765 bebf c06d c3e5 4167 d5bf
000005c0: bc2a a287 3f52 d53f c572 8612 57ad a13f
000005d0: f9f7 2205 283a cebf cf1f 014f 025b c3bf
000005e0: 3821 d482 e1f4 d33f 926c 0b56 635c cbbf
000005f0: 4cf8 de53 fb8d b3bf d76e d2f0 b237 b4bf
00000600: 93b5 d2a9 7509 b23f 37bf 2e7c f7fd 863f
00000610: 2e93 d446 3190 9e3f f948 15a5 a25f ba3f
00000620: b613 34fc 5c5b bd3f 4adf 900c 5d61 bcbf
00000630: 62e1 cc2c 3d38 d0bf a54c 326c b94c ddbf
00000640: 4ae9 cd44 693f d23f d22c 9486 22de cb3f
00000650: 0521 ac70 f7b2 c93f 6c99 02ab 0e54 b0bf
00000660: 0dc2 2d98 5df8 b13f 9721 d714 6aee b4bf
00000670: 443e 7da4 7c9d ac3f 3a16 2ef6 7d16 b73f
00000680: e2a5 7cc8 dadb b03f bbd8 6514 15c6 9ebf
00000690: f15f ac91 45d9 bbbf 9ea3 0cf7 a328 a63f
000006a0: fc0b 4c83 9876 9abf 1e3a 6f37 caa3 b9bf
000006b0: bd5b 79b8 e6b0 9abf 26a4 ef3c a673 9d3f
000006c0: 3635 29e6 bc77 ce3f affc d6f9 5bb8 d4bf
000006d0: c3d1 0d2b 04fc d4bf 61a3 9c4b 8cd4 9a3f
000006e0: 6f00 2d41 55ad 90bf 7060 c3ba 1b6f b3bf
000006f0: e78b 335f f155 ac3f a993 7175 3f7d c6bf
00000700: d64c fd77 2c19 d6bf 057a 8c97 7f28 d1bf
00000710: 8296 6488 98f3 9b3f 456f 4376 ae61 a9bf
00000720: 1e9c 2206 8ea8 c13f 24e0 9b0c 4038 c73f
00000730: 29c1 9f01 f119 c1bf f03e d641 77b0 8abf
00000740: 37ac b236 b638 c2bf ead1 59c9 4928 c1bf
00000750: 5d5e 9a70 8856 bd3f 1f89 5132 3e20 debf
00000760: 3859 cc75 5ef6 c33f 99e8 350e d082 d6bf
00000770: cc7f 3b2a 4eb9 cd3f 0ec1 eb62 7a16 cbbf
00000780: a3a0 a74a 2e4a c4bf cbbc d57e a169 c1bf
00000790: 9ebb d19d 0d3c c0bf 68e0 688f 1624 993f
000007a0: da0d f030 492f aebf 71c5 0198 8a16 b4bf
000007b0: 1480 2d78 59eb c2bf 0960 c217 8c60 b13f
000007c0: 97d7 98b8 e99a c03f 309f 1b98 5ed4 d1bf
000007d0: 15a0 cc63 509d d8bf 2dbe 24e2 28b4 c53f
000007e0: cc4e 1680 10d4 b4bf 7b06 2310 9eda ae3f
000007f0: 95d7 9dfc b92c a33f 1b62 9331 4ee9 c4bf

transformer.encoder.layers.0.linear1.bias f8 [128]
0.14439663192961105 -0.15671306770893711 0.10092872903924319 -0.14289125251366863 0.0476700524128402 -0.024794178621845724 0.05094540125775399 -0.25079399830632
-0.08003168194846519 0.09880714221329572 0.16713972259187487 -0.12557366193311353 -0.1900175780528959 0.06735576726294354 0.043628613071340444 0.03291610889726803
0.10826785902018148 0.13257070550258815 -0.1493935884616834 0.02179246849120748 -0.10810384601334233 -0.08309860081996527 0.10340001340788527 0.14475497861793288
0.20785501319567695 -0.09907898502482516 -0.12113481650828589 -0.2531534469819336 -0.18027500552941159 -0.23739655730874157 -0.2658631429515188 0.1234608171903935
-0.15695825814334377 -0.12072186357171212 0.01631227704642492 0.1942158482665563 0.0011631400574770704 -0.014480249234141951 0.12654411239465707 -0.21840632099724963
0.14412501003898784 0.18863245642445395 -0.10151175462077787 0.13559456183006888 0.1345516247998625 0.03901989955958713 -0.016342719544334847 0.0025036067036103677
0.10961156848513681 -0.056818055918718205 0.07771391404907663 0.023451213323289758 -0.2915123400271977 -0.029577143480037805 -0.19615546594286895 -0.07864692053248215
-0.180724581899747 0.046406414284817045 0.046750591995778086 -0.06117935876648356 0.22008140569795143 0.11684521278181106 0.03480995934868639 -0.326114286112031
-0.2225769448154743 0.20335253678013707 -0.1798931122723585 0.15143611862554246 -0.2872069626983859 0.0011423533379523265 0.07450340029128541 -0.19342740640975786
-0.03967923080110401 -0.3012568559298817 -0.0015457367457129 0.09657850554047351 0.10620668899131479 -0.0016163690337022763 0.12643445887828456 -0.01472929267078989
-0.2019611378426504 -0.1975234619832352 -0.1754335855841169 -0.20690648793766542 0.02661442903090065 0.08260977169644067 -0.2001507217240639 0.13963165803497207
-0.1711239353675565 0.06781027038247196 -0.1799221456865146 -0.2154497687142525 0.1357007031815607 -0.27076038242165645 -0.15642370237854566 -0.1456480931988643
-0.1662107265467945 0.022623583766859977 0.10436505210152944 -0.2771240659634863 0.14330085645977272 0.07194572200833578 -0.08754057670924317 0.07259145455942716
0.17212608815622496 -0.06997603444442164 0.15464988060966905 0.05424429563114324 -0.13461934396552078 -0.2521066148639042 -0.12726671880259532 -0.02185427395840964
-0.09785599667458812 0.129890920772494 0.12422595523519965 0.038043091348809975 0.10259709972029116 -0.013735823610658832 -0.15440502408441945 -0.1572943117756099
0.06285152516562147 0.051439336674648624 0.15296919098149683 -0.07847085151086323 -0.270455018255202 0.008486827454031846 0.09893736964804942 -0.12830356989636674
00000000: 3826 e5bd 967b c23f 4436 557e 2c0f c4bf
00000010: 164d 7316 77d6 b93f ac20 37b4 424a c2bf
00000020: e437 3988 3568 a83f 7b7f 3f29 a563 99bf
00000030: a93a 9100 8415 aa3f ee8e 3045 020d d0bf
00000040: dece 9cd0 f47c b4bf e3d5 6ac4 6c4b b93f
00000050: be82 329d d564 c53f 76ef 9e39 cc12 c0bf
00000060: 117f b3f9 7e52 c8bf 6661 9741 3a3e b13f
00000070: 8c5b 9f54 7d56 a63f df5f 7356 61da a03f
00000080: 2b1a b341 71b7 bb3f 1e48 45ae 13f8 c03f
00000090: d566 5640 541f c3bf 5219 e0cd c350 963f
000000a0: e0f9 3293 b1ac bbbf d377 dd2c f345 b5bf
000000b0: 062a fe5b 6c78 ba3f 1571 8cc5 5487 c23f
000000c0: 2217 fe39 fe9a ca3f 190a 6788 3d5d b9bf
000000d0: 5c5f 4ffb b002 bfbf 830d ea83 aa33 d0bf
000000e0: 417c 845a 4013 c7bf f979 e9a8 0263 cebf
000000f0: 2411 0cd8 e603 d1bf 9190 2bcc 209b bf3f
00000100: 6909 c84c 3517 c4bf a9e2 f3c7 a0e7 bebf
00000110: e430 c061 2ab4 903f 9eba 559e 10dc c83f
00000120: ba65 7b20 900e 533f cd44 3027 d2a7 8dbf
00000130: 5e42 1ef4 9832 c03f 7320 f602 bdf4 cbbf
00000140: 9599 5336 b072 c23f 8151 a7bb 1b25 c83f
00000150: 477d 41a2 acfc b9bf 1fad 49a0 295b c13f
00000160: 1ccd 11d6 fc38 c13f d9d5 0091 6afa a33f
00000170: bce9 e157 25bc 90bf dbeb 3f9d 7182 643f
00000180: 5c2c e8f5 800f bc3f ea83 fc97 4117 adbf
00000190: c4f1 481f 0fe5 b33f 71a6 1949 9803 983f
000001a0: 1406 b35f 23a8 d2bf 7dcd d27f 7849 9ebf
000001b0: 7500 944f 9f1b c9bf 3a3d 9e5f 3422 b4bf
000001c0: 2add 6bac fb21 c7bf dd17 5bdf 94c2 a73f
000001d0: 098a 618f b1ef a73f a841 2fa2 e652 afbf
000001e0: a817 f7a3 a02b cc3f ea8f 975f 91e9 bd3f
000001f0: c494 f469 9cd2 a13f 0903 6774 0edf d4bf
00000200: 4cbc 69bd 667d ccbf f3c0 83b7 7407 ca3f
00000210: c422 fecc bc06 c7bf 5a06 773c 4262 c33f
00000220: 9b46 fe4f 9961 d2bf 29de 868e 60b7 523f
00000230: 3e1e b1a3 a712 b33f 980a 57b0 3ac2 c8bf
00000240: fe0a 3e0d d650 a4bf 3a89 fad5 ca47 d3bf
00000250: 0016 5931 4a53 59bf befa ca72 5eb9 b83f
00000260: 378a d58f 5c30 bb3f 1f4b d508 8b7b 5abf
00000270: c51e fc1c 012f c03f 2a98 8332 642a 8ebf
00000280: ce6e 0cd1 dcd9 c9bf a391 b4e4 7248 c9bf
00000290: 1716 5a94 9b74 c6bf 00e1 826b e97b cabf
000002a0: ab60 2819 d040 9b3f 3f28 c4fb e925 b53f
000002b0: f0ae 09f2 899e c9bf 068c 5f3e 73df c13f
000002c0: 62b5 fb9c 63e7 c5bf 9529 a08d 035c b13f
000002d0: 7a5d c659 b007 c7bf 397c 47a7 db93 cbbf
000002e0: b8c0 1a01 a45e c13f 046c e35a 2354 d1bf
000002f0: dd7d 041f b105 c4bf e4c6 81c2 98a4 c2bf
00000300: 19a6 61a1 6446 c5bf f381 9601 a32a 973f
00000310: 6614 9f05 abb7 ba3f a7da 0f94 66bc d1bf
00000320: cbe3 fdb5 ae57 c23f a5e7 1ceb 086b b23f
00000330: 9e07 0a2a 0f69 b6bf 6743 4d83 5a95 b23f
00000340: dfae b547 3a08 c63f a54b 710b f3e9 b1bf
00000350: 2a40 c639 91cb c33f f7eb 7587 e8c5 ab3f
00000360: 60d5 dee7 343b c1bf f086 7cc8 8322 d0bf
00000370: 102d 909d 464a c0bf 997e b77f f760 96bf
00000380: b951 6f31 170d b9bf b5f1 6104 44a0 c03f
00000390: d1ae 0caf 45cd bf3f 4b1f 5d52 627a a33f
000003a0: ce8d f6b3 cd43 ba3f fdfe 8709 8721 8cbf
000003b0: 1fed 6338 8bc3 c3bf 3b27 7652 3822 c4bf
000003c0: 830e 179d 0917 b03f a1b8 7db9 4156 aa3f
000003d0: 5bd2 4794 7e94 c33f 93ad ed6c aa16 b4bf
000003e0: c27d 9c90 224f d1bf c217 e5b2 8a61 813f
000003f0: 469a fd9e f553 b93f ed1c 555a 406c c0bf
