experiments/SWT-T all implementations/darts_logs/London_modwt_pred_transformer_5_48_6/checkpoints/best-epoch=2-val_loss=0.00.ckpt (torch, 664091 bytes, 206 tensors)

encoder.weight f8 [16, 1]
000000 f8 97 8b 4f 9b 21 d9 3f bb 63 4b 7f bf 52 e4 bf
       0.3926761891183328 -0.6351010786266821
000010 06 6b ef a4 90 1a 02 c0 b3 b8 cd c3 8b 09 f6 bf
       -2.2629711995663255 -1.3773305557802302
000020 d1 cc a7 e9 7c 3c f1 3f 56 9a 2a 9b ca 73 0d 40
       1.0772675635496862 3.6815387842537275
000030 f2 33 bd 58 09 f7 d1 3f f5 e0 4e 37 3a 6a 11 40
       0.28070291200566466 4.353737701596619
000040 8f 5b cb a2 17 96 0b c0 19 b1 76 1d 8a 76 05 40
       -3.448287269431098 2.682880621132551
000050 e9 68 15 04 51 46 03 40 05 52 01 70 41 4b 00 c0
       2.4093342131646875 -2.036745905914588
000060 14 fd 10 bc 2f b6 fe bf 73 f4 84 f7 69 54 03 c0
       -1.9194791170446637 -2.416217740769349
000070 a9 a0 21 3a 0a d8 f3 3f 76 83 c1 7c 93 93 ff 3f
       1.240244128299347 1.973529326751501

encoder.bias f8 [16]
000000 1f ac 73 8e b5 2a dc 3f 19 e7 0b d8 20 03 b4 3f
       0.44010676299393653 0.07817273401806481
000010 88 99 47 4b 74 9b a3 bf f6 7e 83 f6 48 e2 e5 3f
       -0.03829539698544965 0.6838726820678562
000020 df 13 09 ad 33 8a eb bf a9 e8 01 1d b5 f7 ee bf
       -0.8606203441237276 -0.9677377287437327
000030 72 83 a9 db 58 19 d5 bf 72 91 64 ba 90 f8 bd bf
       -0.32967206431754115 -0.11707405615431357
000040 91 3c d9 69 b0 37 a6 bf 9f 62 4f fb 9f a0 ef bf
       -0.04339362423035554 -0.9883575352096904
000050 83 25 51 ef ae 87 8e bf 86 67 b4 09 05 29 e0 bf
       -0.014907232931494324 -0.505007285074712
000060 22 64 23 af 99 60 79 bf 90 89 4f 87 2a 05 cc bf
       -0.006195640877387583 -0.21890765768973752
000070 6b 0c 21 e4 6c dc e2 bf 44 5a 99 13 fd 2f c9 bf
       -0.5894073920866395 -0.19677699524864256

transformer.encoder.layers.0.self_attn.in_proj_weight f8 [48, 16]
000000 ef a8 e1 94 81 ab c9 3f 82 85 90 33 28 ba d9 bf
       0.20054645318607053 -0.4019871238288816
000010 22 10 a5 5c 8d 2a bf bf 90 70 81 2f d7 45 e1 3f
       -0.12174304496608149 0.5397754600376334
000020 8b 49 1f 57 f2 d7 aa 3f a1 f1 11 3b f2 46 ec 3f
       0.05242879212859738 0.8836604264939077
000030 57 c7 35 5d 20 31 cf 3f c2 cd 36 09 7a 66 e6 3f
       0.24368671942971318 0.7000093631708568
000040 e2 61 ac 06 57 2c a4 bf 3e d4 35 c0 cd 11 e4 3f
       -0.03940078693830508 0.6271733049494583
000050 7b c6 8a bf 63 11 e1 3f 3e b0 e3 01 a1 f9 e3 bf
       0.5333727589661089 -0.6242222821142673
000060 0a 71 3d f2 43 b0 e4 bf 3b b2 66 50 e2 2c d9 bf
       -0.6465167742967719 -0.39336450435328957
000070 78 32 2d 43 76 40 66 bf aa dd 7c db 5d 0b bc bf
       -0.0027162847340263495 -0.10954844101512742
000080 27 c5 6c 4f 4e fd db bf c0 73 fa 9c 44 b8 b5 3f
       -0.43733556515060673 0.08484295685271004
000090 d3 1c 78 1f 1f 95 d3 bf bd 03 0a 62 54 4a c4 bf
       -0.30597665856516904 -0.15851836001459488
0000a0 29 71 67 71 7d e2 d1 3f 96 17 64 fb fb 7d ce 3f
       0.27944885325065855 0.2382197358603519
0000b0 56 f3 76 01 dd c3 e3 3f 42 46 44 db b5 58 f2 bf
       0.6176590946775871 -1.1466578068833688
0000c0 f3 2c 5a 2c 9a f4 dd 3f 7c 55 8a a5 2b 3b b2 3f
       0.4680543358924318 0.07121537009728302
0000d0 9f 12 a6 e2 fd 92 d3 3f 5a ae bb 19 14 82 e3 bf
       0.30584666379608366 -0.6096287252998522
0000e0 5f 76 29 ba 09 fe 7b 3f a3 b8 89 80 0b 5d de bf
       0.00683406638799297 -0.4744290118459366
0000f0 3a bc 3f d6 5b 2e d7 3f d3 6a bb 16 d2 10 d5 bf
       0.36220451281309674 -0.32915165157252807
000100 98 08 db e8 bb d1 d3 bf 73 27 86 df 1c db ae bf
       -0.3096761487942188 -0.060265447888993594
000110 52 c3 10 88 74 70 b1 3f c1 27 3d 54 6d 1d b5 bf
       0.06812218019400731 -0.0824802714024875
000120 33 2f 21 1a 94 20 d9 3f bb 79 83 78 96 94 e1 3f
       0.392613435284818 0.5493881562977586
000130 1b 29 74 1c 82 1b e1 3f 09 e5 03 a8 f2 0f e4 bf
       0.53460794026731 -0.6269467622325077
000140 d3 7b e3 a5 24 cf ee 3f 69 50 8a 60 4f fe ce bf
       0.9627860298168066 -0.24213592733269998
000150 f2 01 4b f2 40 09 b5 3f 3e 7d 5a f7 7d 80 dc bf
       0.0821724502120629 -0.4453425326882615
000160 35 6b 47 9b 4a b4 dc bf 87 16 36 a4 65 1f dd bf
       -0.4485041157146726 -0.4550413230539125
000170 fe e0 ef 53 3e 63 e8 3f ba e6 db 6d 14 86 e0 bf
       0.7621146811862045 -0.5163671632464777
000180 ca 5c 8d 3d 62 53 d3 3f 22 a8 a3 de 3c 87 dd 3f
       0.30196434031445263 0.4613792585574875
000190 5c 21 02 8a cc 1a f0 3f ab f7 d5 eb 75 bd e3 3f
       1.0065427199316082 0.616877518288438
0001a0 21 54 99 ce 86 4d da bf 2b 11 49 1d 71 d2 dd bf
       -0.4109818475311063 -0.46596935138610956
0001b0 6c 39 76 86 34 e7 e8 bf b5 34 e7 27 7e 3b b8 3f
       -0.7782232881743716 0.09465778803060483
0001c0 83 17 2c d5 c5 a7 81 bf 0b 3f c9 cd b7 3f ec bf
       -0.008620782440185831 -0.882778074193966
0001d0 d1 fa 59 a6 82 20 cb bf 40 00 c9 ab da 19 e4 3f
       -0.2119296371710875 0.6281560282877834
0001e0 30 0f d8 73 95 c9 e0 3f b6 ad 01 cd b1 85 d3 3f
       0.5246073973253029 0.30503506679698533
0001f0 fe bb 3b 67 89 b9 d7 bf 73 36 11 5e 8f 82 e0 3f
       -0.3706992633951244 0.5159375035525059
000200 f3 c4 c9 64 c7 13 e0 bf 6c 76 be 43 36 f9 d2 3f
       -0.5024144142645625 0.29646069160103283
000210 84 86 a7 fc c4 11 cf 3f 88 40 45 c0 48 a4 e0 3f
       0.24272978150024838 0.5200542216571344
000220 7b c5 b9 57 61 71 d0 3f cc fe ff 08 3a b3 f0 3f
       0.2569201809593193 1.0437565185128959
000230 02 87 ef 17 be cb e7 3f 22 ba a9 7d b1 d5 eb bf
       0.743620917081188 -0.8698356108050727
000240 e8 06 6d 5a 57 40 ed 3f b6 41 a0 14 cb b9 c4 3f
       0.9141041532641028 0.16191996104363476
000250 d8 c3 18 3f 62 03 ed 3f c6 24 b9 8b 6b f2 df bf
       0.9066630585058375 -0.4991711487278504
000260 04 a5 47 5a 0c 2a db bf b9 5e 4e 19 c4 6b ed bf
       -0.42444142166512244 -0.9194050306568534
000270 fa 35 80 58 86 ce ed 3f 61 4b d6 57 80 88 ec bf
       0.931460545399829 -0.8916627612655753
000280 20 6d 52 5b f9 1d ed 3f 0a a9 c8 12 f3 35 d1 bf
       0.9099089416153312 -0.268917816489776
000290 de 9e 4b e0 85 c8 e1 3f fc f5 7d f9 b6 af e5 bf
       0.5557278996247665 -0.6776995537654211
0002a0 f5 2f 9a 2d 4c 64 d0 bf 6d 49 88 84 a8 0d e0 bf
       -0.2561216779074578 -0.501667269565855
0002b0 e3 90 cb d7 3c 23 dc bf 4a 9b f9 55 33 50 df 3f
       -0.4396507365584183 0.48927005191801654
0002c0 ad 10 f2 9e 3b 5b b0 3f 04 0c 14 70 05 5a e3 bf
       0.06389210348612791 -0.6047389210729084
0002d0 50 4d 48 d1 c2 10 ed bf 6b ca bd 6f 46 7a e2 3f
       -0.9082960212275939 0.5774261648605948
0002e0 08 16 5a f9 35 47 ee 3f df ee dc ef ea 2e e2 3f
       0.9461927290109893 0.56822726104971
0002f0 a1 7c b0 69 20 79 e9 bf 35 3a 74 41 33 fe e8 3f
       -0.7960359634634139 0.7810302999876685
000300 82 07 71 88 65 c2 e7 bf c3 7d e5 31 0a 76 d9 bf
       -0.7424800553201154 -0.3978295790929815
000310 3f cc 94 0c cd 78 d6 bf 8c ec 08 95 2e c8 d3 bf
       -0.3511231062759101 -0.30909313730416765
000320 d4 be e4 19 25 2e e6 3f e4 2b 51 85 a3 6d d8 3f
       0.6931329255803242 0.381691818420846
000330 01 a1 7f 48 c1 fb e3 3f d2 47 42 a1 48 9d e4 bf
       0.6244818130481066 -0.6441996717060141
000340 84 66 0c 58 a6 d3 d6 3f ac 46 24 4d 5d 7b d8 3f
       0.35666807745438 0.38252956899041624
000350 14 ad 75 57 18 10 bf 3f f4 48 05 81 c2 6e ca bf
       0.12133934149976638 -0.20650512027584222
000360 90 aa 82 e0 46 d5 e5 bf ce 8f df 3a b7 60 e5 bf
       -0.6822847733468098 -0.6680561208599956
000370 bb fa f8 62 26 22 d4 3f 89 f4 4b ae 60 b5 e5 bf
       0.3145843473939 -0.6783908275825904
000380 8c 5c eb fd 48 ef 90 bf 80 29 e8 bf dc 34 b7 bf
       -0.016537800310143555 -0.09065036473490373
000390 96 af 6f 92 6e 7e a9 bf af 6e c6 e4 d6 0e db 3f
       -0.04979272401382599 0.42278072682686746
0003a0 34 20 38 32 4c 01 df bf f8 0e e0 a5 56 7d c0 bf
       -0.4844542017385749 -0.12882502650619876
0003b0 8a c8 a3 be 9c 63 b9 3f b0 46 13 eb d9 a8 d6 bf
       0.09917621282855485 -0.3540558620125962
0003c0 36 7f ff fe cc 26 bf 3f 51 eb d8 3c 37 d1 c0 3f
       0.12168580270326576 0.13138475867330127
0003d0 42 de ee bc 2a 22 e2 bf eb a3 98 54 45 d1 c5 3f
       -0.5666707697009274 0.17044893866230323
0003e0 0f 48 f0 a6 2c b3 c1 3f c4 5e 4f 6f 86 ed d7 3f
       0.1382804694299584 0.3738723837864024
0003f0 5f 7a c5 d8 f0 5b a5 bf a7 2f 7a 3a 52 d5 bc 3f
       -0.041717077695228914 0.11263002326648906
000400 39 28 c9 c9 8c c1 d9 3f 6c a4 b8 2f 17 4c f0 bf
       0.40243835168496706 -1.01857679978482
000410 82 d1 81 4f 4f 6f c0 bf 89 63 1c 4f a4 3f d5 3f
       -0.12839690572912948 0.33200938916848394
000420 ca fa ee e3 e0 5e e4 bf 62 47 0b 26 e3 3c 02 c0
       -0.6365818454576921 -2.2797301265899685
000430 0d 0b 54 43 e7 48 f4 bf 81 1f 74 65 16 ee f9 3f
       -1.2677986745845289 1.620626827529094
000440 46 bd 60 48 c9 c0 c2 3f cd 0d df a1 07 b8 dd bf
       0.14650836977078024 -0.4643572884344536
000450 9b 94 fc 64 bb 26 da bf 82 2c 2a 69 70 db fc 3f
       -0.4086140142629319 1.8035740001676293
000460 ec 1a d4 84 3d c0 e0 3f ee 3c 2b dc 19 ab fb 3f
       0.5234668344790783 1.7292727089259716
000470 3a ed b2 77 f0 98 fc bf 40 fa 1f 84 d2 f5 f4 3f
       -1.7873387027492087 1.3100152169350991
000480 ea 97 d5 fa 75 b8 eb 3f 87 d3 00 a3 49 0d a0 bf
       0.8662671946628937 -0.03135137667451376
000490 dc 3a 06 36 42 18 f1 3f aa ae 5b 12 7a 96 f3 3f
       1.0684225187612162 1.2242375104059797
0004a0 07 01 98 42 89 49 d7 bf 9c bd 87 d4 35 fc d1 bf
       -0.3638632917718642 -0.28101869349389985
0004b0 fb 98 a4 9f dc e8 e1 bf 26 61 12 9c 32 00 e0 3f
       -0.5596755140329884 0.5000241325642818
0004c0 aa 0c d1 2b a3 1b d6 bf 1a 3b b8 d4 d1 28 db 3f
       -0.3454368522545318 0.42436643384364603
0004d0 de 3e 7d 39 de 68 a3 bf 5f c5 53 e4 d4 39 e5 3f
       -0.037909454839448506 0.6633095225826472
0004e0 3b 4f 07 d8 3f 09 e5 bf ca ab b3 d1 4b 07 ea 3f
       -0.6573790759380026 0.8133906455744804
0004f0 c1 62 b3 a7 43 2a de bf a8 6c 0a 93 af dd d0 3f
       -0.47132960679077135 0.26353062972493513
000500 00 e4 55 9d 65 51 e1 3f 7a 6a 32 82 b7 8c b6 3f
       0.5411861489257035 0.08808466843258059
000510 f3 e6 d1 37 61 56 ba 3f 2c db c7 1d f4 19 e9 3f
       0.1028805505065085 0.7844181615499557
000520 55 f8 ae e7 5c ee e0 bf 79 fb 47 6a 95 b5 d7 3f
       -0.5290970349376588 0.3704579866315992
000530 08 cc 07 e2 62 77 e3 bf 55 9b 5d e5 03 bf be bf
       -0.6083235182435383 -0.12010216092822408
000540 cc 8a 06 ce e6 60 d5 bf 93 0c f4 c8 03 8f b1 3f
       -0.334039403149444 0.06858848243796194
000550 50 6b 6e 2c 13 53 e4 3f c0 e3 77 aa ac b4 cb 3f
       0.6351409786032978 0.21645124744079958
000560 f2 85 b5 5d c4 66 e1 bf 59 b2 26 b3 d1 c6 de 3f
       -0.543794806504762 0.48088495726805075
000570 ee 3d ab ae 2d 23 d8 bf e3 f3 6c 35 b3 5b b0 bf
       -0.377147121977912 -0.0638992314752183
000580 da d8 a9 d7 50 69 e3 bf 4a d1 da 44 e3 55 af 3f
       -0.6066059314896635 0.061202146678086836
000590 46 0b 25 f9 c1 a4 c5 bf 4f 32 d1 ae f1 c9 e7 bf
       -0.16909050622242655 -0.7434013761899879
0005a0 7b 8e 35 cf 55 54 dd 3f 44 1c 3e be 17 88 d7 bf
       0.4582724116828342 -0.3676814420545649
0005b0 fe 3a ac f7 f6 0a eb 3f d6 88 bb a3 3d cc e3 bf
       0.8450884663924112 -0.6186817357923029
0005c0 ea cc b8 f8 5d 35 d4 3f dc 41 fb 11 e0 38 c1 3f
       0.31575726784940505 0.13454819562913556
0005d0 97 8a bf 8e 64 14 a4 3f b5 be f5 ad 95 64 c5 bf
       0.0392180847409424 -0.16713210100305323
0005e0 6d 97 ce f8 38 ab d5 bf 17 81 f7 d0 3b 17 d7 bf
       -0.3385755948787537 -0.36079306990542775
0005f0 21 f4 c8 04 32 e9 e1 3f b8 83 4b ec 59 04 ce bf
       0.5597162335831208 -0.23450778997269395
000600 e6 b8 2b fd df 3d e8 3f cb 6e f3 2b 17 5b a0 3f
       0.7575530953161234 0.03194496547231792
000610 fc a9 c3 cb b2 7b b5 bf c0 c6 3e 95 73 6a e5 3f
       -0.08391873812403355 0.6692445673890788
000620 ca f9 3c 72 d9 39 e2 bf d6 e8 b6 df 8b 6d e6 bf
       -0.569561694261034 -0.7008723611282004
000630 8b 81 98 c5 2c 12 ea bf 9b 9d a4 82 f6 79 f5 3f
       -0.8147186145106827 1.3422761061900477
000640 2b 57 18 48 5d 0c ee bf 2b 36 98 8d cd 3c e8 3f
       -0.9390093238932641 0.7574222341078828
000650 bd 70 ba 1a 24 92 ee 3f cd 74 9c a2 ab b6 ec 3f
       0.9553394815480015 0.897298638915936
000660 20 27 f2 e7 c4 25 f5 bf f4 c7 a5 1d 1a 4e f1 3f
       -1.321720987356862 1.0815678747280772
000670 ed b3 e9 ec ca 28 ef bf 64 a9 e5 28 0a b2 ef 3f
       -0.9737295748906242 0.9904833601733967
000680 6f ae 5f 10 f7 cd d4 bf a7 4b 8a 0e c4 fc ab bf
       -0.3250711116695361 -0.054662825369767014
000690 c4 8c dc 48 54 63 d2 3f 0a 80 51 9f 58 af c9 3f
       0.28731257548697564 0.20066364077774806
0006a0 27 1d 68 6c 76 bf a4 3f 19 f8 cf 2b 78 92 f7 3f
       0.040523243649710765 1.4732591353818008
0006b0 37 4e 8a 00 a7 b1 ec 3f d5 ce 3d 0a 19 ed e5 bf
       0.8966860781242251 -0.6851926040676185
0006c0 64 0c 3c a2 c1 0a d5 bf 45 7c 45 ef 13 60 cb 3f
       -0.3287815174409785 0.2138695638959424
0006d0 f7 05 93 89 64 24 e9 3f f7 ba 96 5c 1d 9c f2 bf
       0.7856924712179411 -1.1631139389752982
0006e0 81 96 0b 73 7a 92 cd bf 54 56 20 63 01 88 f4 bf
       -0.2310326635117015 -1.2832044479486244
0006f0 1c fd 5a ae da 23 f1 3f e0 81 fa 49 a9 d5 e4 bf
       1.0712534724005485 -0.6510816998380129
000700 2c ce 8f 1e 17 c9 da 3f 4c f4 3a aa 68 f8 c1 3f
       0.4185235784964074 0.14039333641076934
000710 d0 3e e0 d1 b2 6a e0 bf ee 9e bb 9b 8c d6 a1 3f
       -0.5130247210635961 0.03484000588451673
000720 e0 c7 f2 c2 a9 12 d1 3f e8 cd e2 10 4a db d8 3f
       0.2667641071121789 0.388384357919874
000730 1d 9e 5c 9e c9 6e d2 bf c9 d4 ed 98 b1 58 da 3f
       -0.2880119368078072 0.41166343626475715
000740 36 e9 11 98 6d a1 e2 bf 8c d8 12 7b b5 e4 f1 3f
       -0.5822055788151264 1.11833713603622
000750 b4 cb 05 2b 6d ac ea 3f 3b ad 81 91 08 63 d2 bf
       0.8335481491361549 -0.28729452333091715
000760 82 37 c8 ee 62 ac f3 bf ac df 1d f1 1e f7 d5 bf
       -1.2295865371156371 -0.3432080607085435
000770 9a 37 c0 bc da d4 c5 3f 99 6d ab 10 2e e3 d5 3f
       0.17055830208158512 0.3419909632482017
000780 b7 dd 82 01 bc b8 d8 bf b7 b2 9f f3 c4 ac de bf
       -0.38627529285028167 -0.47929500380886786
000790 a8 63 3d 68 7f ca e7 bf d6 16 1b 13 3a 7f e7 bf
       -0.7434689556058531 -0.7342806218300335
0007a0 5a 29 b6 99 15 96 cd 3f 6a c5 08 9e 1f 76 4e bf
       0.23114271169135742 -0.0009296087628795472
0007b0 ed 41 82 fd a7 5a da 3f 95 a5 5e e1 88 9b e6 bf
       0.41178321606369545 -0.7064861680748203
0007c0 05 c0 c8 47 d5 48 e0 3f 7a e1 d3 f4 4b 91 d9 bf
       0.5088907625231519 -0.39949320706320857
0007d0 49 b4 f7 41 44 b9 cb bf ab 90 a0 5b 8d 94 e5 bf
       -0.21659138890336951 -0.6743838109582801
0007e0 77 8b f4 53 ac 50 ea 3f 20 47 73 05 94 18 e5 bf
       0.8223477973700558 -0.6592502695513964
0007f0 9a fe 99 8e 9a 4a e2 3f 16 ef b3 b4 88 b7 e4 bf
       0.5716069016634322 -0.6474040536263341

transformer.encoder.layers.0.self_attn.in_proj_bias f8 [48]
000000 77 36 99 24 f0 66 c1 bf cf 65 45 4c ef fe e1 bf
       -0.1359539202407409 -0.5623699655217765
000010 17 59 2c ce a4 e5 e4 bf a3 6b 65 d5 cb c1 db 3f
       -0.6530326868840203 0.4337033828684815
000020 c7 e1 06 dd 7c 73 e7 bf c3 13 03 00 57 c7 e1 3f
       -0.7328476254397679 0.5555834770426532
000030 37 05 46 47 97 6f e3 bf 13 6e 09 90 f2 18 a8 bf
       -0.6073719398556595 -0.04706533439886242
000040 97 3c fd 66 0d af fb 3f d3 ec 9a f7 73 6d de 3f
       1.7302373908058024 0.4754304807681368
000050 ac ed 44 fe 76 6b cd 3f f3 4e df 3c 2c 43 e0 bf
       0.229842065958889 -0.5081998051559523
000060 be 4e 42 9e a7 b7 e8 3f f0 14 e4 6a d1 94 e9 bf
       0.7724187937733047 -0.7994162643159637
000070 9f 12 dc c3 8c d7 8d bf 5d b1 6f 39 7d 01 dd bf
       -0.01457128498760457 -0.4532158909703606
000080 c6 02 12 5f e2 56 f6 bc 79 6a d8 0f 6f a1 10 3d
       -4.960341393847679e-15 1.4770940843828008e-14
000090 41 87 67 51 f2 b1 f4 bc 8b 9c ec 97 0f a4 04 bd
       -4.595236131395879e-15 -9.166384512416894e-15
0000a0 4c e9 3e bd ed 7e f9 3c 91 f2 e8 65 40 78 1c 3d
       5.66120819399293e-15 2.5286202142643827e-14
0000b0 b1 36 09 01 60 2d 05 3d 5a 00 04 ca 7a 15 f2 3c
       9.40458651199621e-15 4.015433510881186e-15
0000c0 de c3 d1 93 7d 3c dd bc b6 e4 e2 ce 7b 97 27 3d
       -1.6229401799880605e-15 4.190733611231545e-14
0000d0 ae 88 a6 8a a2 1a ee bc 38 14 9e 76 58 bb 01 3d
       -3.342220132656426e-15 7.874509308432571e-15
0000e0 97 10 f6 4e 45 03 16 3d 1c 31 e0 cd 72 16 25 bd
       1.955127287880301e-14 -3.7459261067425645e-14
0000f0 4f d7 70 c5 89 dc f6 bc 76 13 54 d6 5e 5f 21 bd
       -5.076267677870269e-15 -3.085983175868515e-14
000100 ac 29 55 69 aa 41 6e 3f fe 37 7d e3 70 87 82 3f
       0.0036934212063545937 0.009047395651261777
000110 f4 cc da e0 86 f1 b6 3f 35 a3 4f d8 4a 12 a0 3f
       0.08962290753952457 0.03138955965534366
000120 83 01 fb 15 ea 1f 7a 3f ab 3a f1 fe b7 a8 bf 3f
       0.0063780921915966874 0.12366819357087404
000130 48 7d 4b 5f f2 0f c3 3f fe 05 77 97 ff df b1 3f
       0.14892415669508297 0.06982419441103357
000140 7b 10 b9 ad 2d 04 b2 bf 54 0f 1e 27 5c 15 c5 3f
       -0.07037625781328131 0.16471435461073247
000150 e6 47 19 1c dd 95 c4 bf 14 65 db dc 99 0b a8 bf
       -0.16082347747811737 -0.04696350880630909
000160 38 0f ed ae 81 70 b0 bf e2 f5 54 a5 2e de b0 3f
       -0.06421671410231233 0.06589023147986198
000170 3d 09 72 9d d7 bf 92 bf 5b 5f 17 1a fa be 7f 3f
       -0.01830994509192262 0.007750489197370171

transformer.encoder.layers.0.self_attn.out_proj.weight f8 [16, 16]
000000 6c fb 2a dc 5d 3a b0 bf 0a ff 16 9a 5c a1 d1 3f
       -0.06339060425942272 0.2754737381728637
000010 56 fd 28 97 c6 6a c9 bf 8d 5e 1f 62 e0 51 da 3f
       -0.19857103710999507 0.41124734480170205
000020 84 a5 79 bd 90 df d3 3f e4 5d 21 71 ef 63 e3 3f
       0.3105203485816548 0.6059491357399875
000030 82 8a e4 78 60 2f ce bf cf 79 53 57 98 8f cd 3f
       -0.2358208265587401 0.23094467414826034
000040 35 c8 5c 69 cf b7 b7 bf ce f3 be 7d 16 03 e0 3f
       -0.09264847109150838 0.5003769355749854
000050 08 8a fa 07 d1 e5 83 bf 3b a8 dc ac a8 30 c5 3f
       -0.00971568399046864 0.16554745140575897
000060 fb 4d a3 6a 99 3c d9 bf 08 9a 7b b2 2e 5c b3 bf
       -0.39432368673189416 -0.07562534196367932
000070 b8 18 72 33 89 ef bf bf ab 11 18 ed f1 92 c4 bf
       -0.12474877840040477 -0.16073440625053811
000080 b9 22 a3 1e 81 0a dd bf 01 db 81 2b 58 89 d9 bf
       -0.4537661360923653 -0.39900783776049314
000090 18 0d a8 68 f6 0f d5 3f de 4a 92 1e 8d 58 94 bf
       0.32909927578312326 -0.019869046202596212
0000a0 e6 9d 22 f2 67 95 c4 bf fc 67 52 a7 0b 54 cb bf
       -0.16080951045044783 -0.21350236578001602
0000b0 8e c9 60 26 72 22 ce bf fb 24 d9 67 13 e8 a6 bf
       -0.23542620538644282 -0.04473934786489938
0000c0 29 28 60 8f a9 56 d3 3f 68 d7 ca cc 7e 60 e8 bf
       0.302164449706313 -0.7617792129374097
0000d0 a7 65 4a 6b bd 3d be bf 25 50 2f 8f 67 22 d3 bf
       -0.11812957639121767 -0.29897488577739956
0000e0 31 f6 63 37 f6 ee df bf 28 d9 0f 3b 93 51 f4 3f
       -0.4989600697443591 1.269915800772262
0000f0 ea c5 8a 70 b8 68 d0 3f 83 b5 6a 89 3e 3f d2 bf
       0.25639163008153665 -0.2851101247750522
000100 71 60 57 bb 88 b5 92 bf 2d 00 57 83 3e 52 b2 3f
       -0.018270622667700246 0.07156744677104206
000110 57 11 79 ea 85 65 95 bf 10 b1 80 82 bb 25 9f 3f
       -0.020895092426387176 0.030417375412228387
000120 fa 00 b0 1b 68 43 c4 3f 11 89 0c c6 4c b9 91 3f
       0.1583070883934921 0.017308425510358442
000130 50 70 56 5e 08 eb cd bf 2a 79 b0 7a d3 d5 ce bf
       -0.23373512846308353 -0.24090045443240032
000140 5c 2f c5 bc 3d 12 94 3f 89 6f c8 5e 50 e2 bb 3f
       0.019600834509489004 0.10892202676808273
000150 a7 c7 16 2f f6 52 d8 bf 0c 64 eb 83 0d 81 ad 3f
       -0.38006357763799276 0.057625219682172796
000160 78 96 b9 e0 e7 f9 be 3f 96 05 4c c2 6a da c1 3f
       0.12100075947236089 0.139478058692515
000170 3e 1d f6 03 f0 03 ca 3f 19 af 73 fe 74 78 81 3f
       0.20324516480853022 0.008530534758811424
000180 c8 eb 5e 7e 72 05 d1 3f 80 34 b0 e4 b2 2b 91 bf
       0.26595747319123264 -0.016768260200525464
000190 13 2b 34 19 f1 90 a6 3f 30 99 44 22 a7 62 c6 bf
       0.04407456810630186 -0.1748856465648685
0001a0 c5 79 07 83 9e 37 bf bf 91 60 26 42 84 89 c6 bf
       -0.1219424314399254 -0.1760716746327984
0001b0 23 da 45 b8 ea 9c a5 bf 8e b6 f9 19 37 c9 b8 3f
       -0.04221280574249799 0.09682030090490398
0001c0 1c a3 db fe e0 91 97 bf b2 54 90 ac 5b 6f b0 bf
       -0.023017421298308624 -0.0641991897867509
0001d0 6a a0 09 c5 e3 40 a9 bf 4d 5a ed 9a 07 47 bb bf
       -0.049323194315378086 -0.10655257732774111
0001e0 a3 d5 1c c4 6a d2 b8 3f e6 bc ee c8 10 91 cf 3f
       0.09696070945650219 0.24661454974327696
0001f0 64 41 2b dc da 91 c7 bf f7 7e 8c 3a a2 f5 99 3f
       -0.18413863897741145 0.025351080726180943
000200 af 87 e2 10 07 f6 d4 bf 32 d9 a0 b5 d8 53 d1 3f
       -0.3275163330928263 0.2707425855363851
000210 41 a8 c9 9a f1 8e cc 3f 4e d9 37 4d 5e 17 a6 3f
       0.22311229761118237 0.04314703648190009
000220 5f 90 4b 52 70 1e dc bf fe 8b 6d 44 0e cd c4 bf
       -0.43935783421171054 -0.1625078043099108
000230 b1 1b 2a d0 a5 e2 c7 bf 0a b5 c6 10 77 61 80 bf
       -0.18660423912316795 -0.007998399924725525
000240 23 e4 85 4e 6d d4 c9 bf 7e 9e b6 7e 98 d6 d2 3f
       -0.20179525694018804 0.2943478810725323
000250 05 6b ec 0f 22 35 d1 bf 07 e8 28 66 f6 6c b4 3f
       -0.2688679843428619 0.07978763574729451
000260 45 da 88 a0 99 82 d3 3f 8e 74 c5 ce 0c 21 c3 bf
       0.3048461978645814 -0.14944610687499388
000270 a8 fa 16 cd c3 99 b3 3f a8 04 2a c9 54 32 d0 3f
       0.07656501538347504 0.2530719723218433
000280 7d 55 46 f9 03 96 c0 3f 0d 68 eb 6e ac 77 6c 3f
       0.12957811042421588 0.003475033553837831
000290 b1 03 1a 6f 3c 83 ca bf 86 e6 bc e9 13 e6 cc bf
       -0.2071300070274709 -0.22577141678793938
0002a0 f0 d8 c0 44 52 29 bc bf 99 ad 31 cf 7e 94 c4 3f
       -0.11000551394031155 0.16078171841523384
0002b0 4d 39 5c 7a 59 cb c2 bf 53 64 6b 25 a2 bb d2 bf
       -0.14683073496457624 -0.29270223287818914
0002c0 e0 14 8d 62 4c fd 9b bf 4d 31 14 b2 f2 58 c7 bf
       -0.027333444132882856 -0.18240197844751052
0002d0 51 d7 01 6d 81 c1 ba 3f d9 b7 47 df e8 42 a8 3f
       0.10451516066845314 0.047385480171086854
0002e0 e7 cf bf 43 07 1e b6 3f dd 8f 09 cd 3d 05 b6 3f
       0.08639569667849366 0.0860174775676223
0002f0 1e 27 67 ed 87 d5 ce 3f 05 d5 93 ff 02 22 c2 bf
       0.2408914479440733 -0.1416629550873624
000300 70 b3 42 aa d3 4a cc bf 6e 43 8c 8d 5a 4b ae bf
       -0.22103353322509234 -0.05916865327720343
000310 db 7c 1a d7 2e 37 d1 3f 77 67 3d 4a 8a f0 b1 bf
       0.26899310117910397 -0.07007660210129339
000320 32 16 99 6b cf 83 73 3f 24 a9 55 bf 52 dc 8c 3f
       0.004764375911297901 0.01409210821539781
000330 0b 91 16 58 f2 1f d8 3f 2f f1 81 80 39 d7 90 3f
       0.37694986917837586 0.01644601675842344
000340 a5 9e 0f f2 a8 c3 82 3f bd 98 b3 f8 92 03 b3 3f
       0.009162254225841446 0.07427328655066652
000350 b0 48 d2 87 23 c6 95 3f 7f b9 b3 7e ef 1d c1 bf
       0.02126365200508279 -0.13372605978606697
000360 68 f4 e7 7f 94 bc d9 bf 53 44 d3 1d f2 47 e1 3f
       -0.40213501444652033 0.5400324423336634
000370 20 95 bf 97 99 8f 9e 3f 67 6c a8 02 47 98 dc bf
       0.029844665419564653 -0.4467942739444823
000380 9d b1 50 65 ae c4 c3 3f ea 9f c8 0b a5 b1 aa 3f
       0.15443973490745302 0.052136571587027294
000390 ff 15 d2 ab 36 5b 5b 3f 44 f4 1f a3 a7 8d 93 bf
       0.001669696225947148 -0.019095057803486762
0003a0 a8 37 a1 36 91 9b ca 3f 69 c8 17 46 80 9d c0 bf
       0.20787253539532213 -0.12980655119423837
0003b0 04 b7 29 07 f6 e6 cd 3f 3e 23 73 db 3f a2 bd 3f
       0.23361087178948747 0.1157569800153739
0003c0 ae 84 c2 38 f3 97 9e 3f 25 92 85 05 4f 01 92 3f
       0.029876518573136827 0.017583117210408745
0003d0 57 e8 26 0f 22 bf 5e bf b6 f1 0b 6d 3f d9 ab 3f
       -0.0018766243561985274 0.05439184385429334
0003e0 0a cf 28 53 73 e5 7e bf 3d 06 f4 72 d7 92 ab 3f
       -0.007543039786970027 0.05385468748319198
0003f0 b4 e2 52 4a 8f a5 9e bf 25 91 5e 6d 84 73 c3 3f
       -0.029928435241091747 0.15196280803969234
000400 c6 2c 80 58 41 20 d0 3f 4f e9 a9 23 8f 7c 91 3f
       0.2519687046303257 0.017076717902889723
000410 49 1c 25 de 94 05 bc 3f d5 6e bc 1c ea 56 cd bf
       0.10946016715489394 -0.22921492007377844
000420 30 9a f9 dc f8 4b d2 3f a2 d3 5c 0e 37 7b af 3f
       0.28588697032538146 0.06148693132710227
000430 0f 57 b1 d9 91 f5 d5 3f b4 2d 73 25 12 7c a5 bf
       0.34311338671737784 -0.041962210723422017
000440 db 92 de b5 10 f5 bb 3f 19 99 48 6b ed 6d ca 3f
       0.10920814933940497 0.20647971857506134
000450 75 3d 4e b9 12 0d c6 bf a4 31 68 f1 1c be a3 bf
       -0.17227396057249292 -0.03855982252943882
000460 f1 52 9a dc 06 cc 64 bf b1 1e df 6b 66 14 8e 3f
       -0.0025386938112411596 0.01468734757135279
000470 0c 6d e4 52 36 70 a9 3f 4b 6d ef 7a 32 b9 a4 3f
       0.04968423616284143 0.04047544241594866
000480 8a a4 65 c5 a4 6a a9 bf 2c 8e 50 ea 05 48 af 3f
       -0.049641751381224244 0.06109636769567958
000490 1a 8e ca de 58 8c d5 bf 25 c2 51 58 2c 61 b5 bf
       -0.3366911102004636 -0.08351399570688807
0004a0 6d 5f 0d 48 c6 08 dc 3f 44 5d 4b f1 7d 3f b6 3f
       0.4380355552325373 0.086906310472263
0004b0 52 5f 3c 24 40 ee ca bf 12 96 e6 7e da c6 c4 3f
       -0.21039582986190425 0.16231852718662815
0004c0 0a e9 9d 14 97 95 cd bf 50 e5 5a 04 01 56 db bf
       -0.2311276293438101 -0.4271242659120462
0004d0 b6 80 a6 89 d7 f3 b0 3f 64 36 29 47 7c 4d ca bf
       0.06622073279004578 -0.20548966860444573
0004e0 de 07 b0 b7 2b e8 bb bf d0 c4 55 78 25 c7 cb bf
       -0.10901139483033215 -0.2170149648259554
0004f0 21 8f f9 04 cf 24 e2 3f 00 f7 a1 9b c5 57 7b 3f
       0.5669932458081101 0.006675502687469637
000500 9c 9b d0 db 61 1a d3 bf d2 64 40 05 9d 86 bf 3f
       -0.2984852453832276 0.1231477868863238
000510 fa 9f 45 3a 49 de ab 3f a2 cc 24 f5 d3 3b d1 bf
       0.05443028293922221 -0.26927660884684645
000520 16 ef 53 65 c6 02 c3 3f a4 f2 74 a6 1d 8c c5 bf
       0.148522185780046 -0.1683384955193975
000530 45 32 6b 02 0a 58 ca 3f 00 b2 24 ea ca a5 c6 3f
       0.20581174009420714 0.17693458969860387
000540 30 a2 95 4f 2b 9a db 3f a9 52 56 af 6c 4a c4 bf
       0.4312847401802484 -0.1585212570322672
000550 36 5c 5e 24 c3 ca af 3f 18 0d a8 ea ad 2f b9 bf
       0.06209382838203974 -0.09838377932469589
000560 08 dd 77 42 55 ce d0 3f 49 c9 c5 b7 7d cf d1 3f
       0.2625935696700741 0.2782892508177111
000570 0c 58 4f 85 7b 0a c5 3f 4d dd 25 67 70 ff b7 bf
       0.16438240060114173 -0.09374144094714616
000580 19 35 2a d2 84 d0 c4 3f c5 ba 0d e3 77 11 c1 bf
       0.16261348974186587 -0.1333455904636677
000590 40 97 9d b0 99 af b0 bf 6c 00 6f fa e5 9d d6 bf
       -0.06517944871810943 -0.35338735062032955
0005a0 ed 73 53 6d 12 28 b2 3f a4 80 36 e7 7c e2 cb bf
       0.07092394990054603 -0.21784936227505114
0005b0 7e e2 da 62 75 c1 d1 3f 67 d3 22 93 77 ca c6 bf
       0.2774327721959152 -0.17805380520226352
0005c0 21 6c 5f cc 65 86 d0 bf f7 e9 cc a7 69 ed c1 bf
       -0.25820298155093907 -0.14005776112919907
0005d0 eb 67 86 62 98 bd 8e bf 48 9a 52 e0 aa 48 8c bf
       -0.015010061747307865 -0.013810477228912835
0005e0 f5 b7 1e 00 c8 bd d0 bf c0 24 52 93 a2 de b6 bf
       -0.26158332835882386 -0.08933464142514236
0005f0 57 b5 82 a1 f2 b4 a2 3f 14 7e 74 07 f1 c1 d2 bf
       0.036536771979948916 -0.2930872509768687
000600 41 bf be 9c ec b3 a9 3f d1 59 8c 04 49 fd cb 3f
       0.05020083821670918 0.21866715166170406
000610 e5 ad 35 2c 63 d2 a7 bf 92 da 7f 20 e9 f7 d5 bf
       -0.04652700342816355 -0.34325626539013243
000620 78 cc 33 55 81 37 d5 3f da 8a b7 64 b0 ae d4 3f
       0.33151276894131554 0.32316217265740266
000630 a3 90 12 53 65 d9 ba bf e5 4d 46 b3 46 76 db bf
       -0.104879696637513 -0.42909400470054343
000640 54 a8 c4 c7 84 8b b0 bf 39 67 e0 f3 35 a5 b5 bf
       -0.06462888600495492 -0.08455216602342554
000650 19 fb 44 aa 04 ee bd 3f a9 1b fa a5 e0 ff a1 bf
       0.11691311985940124 -0.03515531564794767
000660 71 8e f1 fd 1f 8f d2 3f 91 3d 70 8a f1 1a d9 bf
       0.28998565482309063 -0.3922695018709073
000670 cb 27 35 56 38 2f b9 bf 95 0b 25 92 09 91 d5 3f
       -0.09837677101782487 0.3369773795313276
000680 da 20 68 59 2d e0 b5 bf 9b 13 ce ff 95 31 d1 3f
       -0.08545192177564634 0.2686514852614949
000690 e7 e6 06 49 e3 6e 92 3f 09 26 88 45 91 41 91 3f
       0.018001128513538325 0.016851682537923938
0006a0 7e 66 c7 13 8b 25 7c bf 83 22 94 4e 44 e9 b5 bf
       -0.006871741552879505 -0.08559061926292526
0006b0 fe 5a 68 e0 ea 7e 9f bf 19 43 bd cc 46 9a c0 3f
       -0.030757589289431835 0.12970814702068692
0006c0 6d 42 1a f1 0f 7c b7 bf 47 a7 e5 71 3b ec b1 bf
       -0.0917367900494896 -0.07001086741152306
0006d0 0d 36 c6 8b e1 be b0 bf 74 cb 2d f5 f8 22 82 3f
       -0.06541261351068091 0.008855767233148383
0006e0 b4 4f bc db 1f 45 b0 bf 6b 25 c0 be 03 3a b8 3f
       -0.06355475535047966 0.09463523299213754
0006f0 45 7c 1c ff be 6e 22 3f a9 18 c7 39 76 94 cc 3f
       0.00014062959194746836 0.22328069516351448
000700 ff 29 3e b5 10 3a bc 3f 0e 4f 87 e4 f3 7e c9 3f
       0.11026100563882578 0.19918678911800963
000710 3c ab 09 e1 09 4d c4 bf 0b fb a2 07 0a 60 c7 3f
       -0.1586010311906082 0.18261838314898457
000720 e3 66 f4 f9 7d b3 d6 bf f4 f4 d8 2b 07 5c d6 bf
       -0.3547053280795877 -0.34936694414120884
000730 51 c2 5e d2 f6 68 d1 bf 00 23 af 65 b8 76 d7 3f
       -0.27203150314293106 0.3666211121567784
000740 b7 1b dc 15 bd 0e c5 bf c9 80 14 75 de a5 c8 bf
       -0.16451228682873673 -0.19256191937257075
000750 de 30 2c c4 d5 f8 c4 3f d7 b7 d4 2c e4 f4 cc 3f
       0.16384384230366938 0.22622348965654623
000760 4c b8 65 25 d6 22 c0 3f d4 33 92 81 f7 d9 c1 3f
       0.12606312585870894 0.13946431948389082
000770 b9 05 c4 30 7b 1e af 3f ab ba 1f 3a 97 75 dc 3f
       0.06077942819866728 0.4446771686188337
000780 4e 87 c4 99 5f 29 c5 bf 42 c2 20 d7 2d b2 7a 3f
       -0.1653251171892926 0.006517581046907641
000790 de 5f 9e 4c 11 17 c1 3f 10 7c 14 41 5b be c9 bf
       0.1335164665331367 -0.2011217181943441
0007a0 0e bb fa be f5 82 c7 bf 83 de e5 e5 3f bd d5 3f
       -0.18368408036391098 0.3396758790108622
0007b0 aa 30 88 e3 9f d4 c2 bf de 73 1d c4 ef c4 c1 3f
       -0.14711378679237913 0.13882252765588893
0007c0 d7 b9 6e ac 13 f6 d3 3f f1 9e 79 a0 25 18 d4 3f
       0.3118943389808044 0.3139738146914928
0007d0 5f fc 2f e8 57 5c d1 bf 04 33 55 6e 9d f0 c0 3f
       -0.27126119303279056 0.13234298598617766
0007e0 01 a9 0d ce 80 11 a0 3f c1 09 2a 4e 89 2f db 3f
       0.0313835383920651 0.42477638848518146
0007f0 55 aa fa dc ab 27 bf 3f 34 59 5e 78 6b 63 c8 bf
       0.12169908661841451 -0.19053405167933024

transformer.encoder.layers.0.self_attn.out_proj.bias f8 [16]
000000 d0 85 b8 84 18 4a 9b 3f a2 a2 7a ae f2 e7 af 3f
       0.02664984045089175 0.06231649761077064
000010 2f 43 0e 5c c5 ef b1 bf 76 40 b7 d4 d7 9d 9d 3f
       -0.07006486413434908 0.02892243610205055
000020 ea 88 cf f0 37 ca 9f bf 1f f3 e5 42 60 2f a4 bf
       -0.031044839928548486 -0.03942395035389822
000030 00 f7 22 0f 67 c3 b3 bf 06 78 46 03 6a 41 9f 3f
       -0.07720035666985936 0.030522972535997915
000040 57 ae 1b 4b f4 fe 92 bf 7b d4 09 a7 36 f2 7b bf
       -0.01855069836066855 -0.0068227896559750435
000050 63 02 99 5b 7f 0a 93 bf fe b6 c2 44 7f 07 cd 3f
       -0.018594732251815304 0.22679129464579967
000060 6d 20 9b e9 96 1a 87 bf be 5f 5c 73 0d f7 ab 3f
       -0.01128118420037102 0.05461923630917863
000070 45 7f b9 f0 ae e9 b9 bf b4 14 16 df 4c ef b5 3f
       -0.10122197510781657 0.0856826824802564

transformer.encoder.layers.0.linear1.weight f8 [128, 16]
000000 37 ff 37 46 fc 3e a2 bf f3 0b 8f e4 7a 31 b6 3f
       -0.035636790820716184 0.08669250564621205
000010 d1 f6 1f f3 f2 a9 c1 bf 39 57 42 d4 a4 e5 c6 bf
       -0.1379989325650315 -0.1788831745549773
000020 4d dc 47 8d c3 65 91 3f da 0d 44 61 1b cb 70 3f
       0.01698976087388031 0.0040999478844727325
000030 99 61 39 0a 80 e7 aa 3f bf 8f 4c f8 66 0c b5 bf
       0.05254745602423156 -0.082220492954149
000040 4a 11 b2 10 87 d4 c9 3f 0f 66 4c 5d ab c3 b6 bf
       0.2017983275910729 -0.08892317798417813
000050 70 9d 95 a6 37 b1 9f 3f 50 70 5c 63 10 cb cd bf
       0.03094946817637151 -0.2327595219766203
000060 99 37 8c 04 ea 9d c1 bf 67 f6 84 2c 5c fd cf bf
       -0.1376316568570786 -0.2499194352512177
000070 20 6e 63 88 a3 aa bf 3f 08 9c 9c e6 da aa c0 bf
       0.12369749145312214 -0.13021408329333917
000080 0d bf b7 47 e5 db c1 bf bb a8 d6 8a a6 6c dc bf
       -0.13952318193286609 -0.4441315036625714
000090 7a ba 1e af 7e 9d c9 bf fb b3 0f 6a 2e 6d c6 bf
       -0.20011886168272836 -0.17520694903160447
0000a0 7a b8 d7 06 c9 cf a1 3f 81 3e 4d 74 13 48 cb 3f
       0.034788400731358984 0.2131370847587171
0000b0 80 5c 16 d4 8c 2b a3 bf 98 30 6a 46 56 bb c6 bf
       -0.03744163598019501 -0.17759207189772463
0000c0 51 be 3d b7 51 13 63 bf fe 41 38 c2 95 60 c2 3f
       -0.002328548051018044 0.1435725401247651
0000d0 10 64 dd 0a d7 44 8a 3f 1d c6 ab 52 70 d2 de bf
       0.012826614398067121 -0.48159416268672023
0000e0 da 8b 0c 55 44 06 64 3f b8 1b 36 37 a1 5b db bf
       0.002444394551632351 -0.4274676360295717
0000f0 eb 3d 97 29 79 23 db 3f e1 35 84 9f ff 4a b7 bf
       0.42404011785126156 -0.09098813671535978
000100 0b 16 da 1d 21 ee cb 3f f0 4f 7d 86 c9 04 b4 3f
       0.21820463140117882 0.07819804700312694
000110 83 aa a6 50 ce 92 5c 3f 17 23 97 a9 9f d0 bb 3f
       0.0017439856334059707 0.10865209474935643
000120 39 d7 27 82 60 08 c5 3f fc 37 8f 89 27 ac da bf
       0.16431814532523406 -0.41675747331180424
000130 dd e2 6b be 5e d8 c0 3f eb 9d 47 55 18 d9 c1 bf
       0.1316030912201062 -0.13943771518755396
000140 e9 bc 3b c9 3d d5 b0 3f a1 3d 36 4d 41 ef cc 3f
       0.0657538048069345 0.22605148573027825
000150 67 65 c1 f1 89 6c c5 3f 85 d1 9c 4c c9 31 b0 bf
       0.16737484268632416 -0.06325967903541681
000160 fa 3f 71 ba 76 77 b6 3f 0b c9 71 ea 5e ee d2 bf
       0.08776037265602091 -0.2957989968773666
000170 06 fc f9 2c 67 78 d0 3f bf eb 8a e1 63 2a bb bf
       0.25734881775127894 -0.10611557251370039
000180 ad c3 20 23 ef 27 c5 bf 59 71 e4 5f a1 aa c3 3f
       -0.1652811929248207 0.15364472563022494
000190 c4 65 1a ff a3 8f c7 3f f2 af dd fb 25 98 b8 bf
       0.18407106357771685 -0.09607159995147166
0001a0 e1 05 50 8e 1a 08 b5 3f 1d df 7e 46 88 63 53 3f
       0.08215490316799602 0.0011833983244126719
0001b0 1e 0e 0f 0f 15 1b b2 3f d1 a4 aa a5 19 55 d6 bf
       0.07072574250838001 -0.34894410303475093
0001c0 13 c0 fe 45 9a e2 ad bf f8 ae 9b fa bf c0 b2 bf
       -0.05836946587021443 -0.0732536303364063
0001d0 7c 84 cd 96 fb 41 a7 3f fa 42 6a 7b 8f 21 da bf
       0.04542528358320738 -0.40829836895231575
0001e0 df fb 2f b0 42 99 b4 bf 21 f2 d8 f1 63 5d c9 bf
       -0.08046356965495204 -0.1981625491042829
0001f0 41 29 c0 fa 72 b0 ba 3f 47 57 b4 bc 7d 9f c5 3f
       0.10425490018693485 0.1689297839554291
000200 9f 40 38 5e 05 16 cd bf 5a a8 41 0d 4d a8 57 bf
       -0.22723452663968133 -0.0014439346751040833
000210 10 e4 c2 d2 93 9c d0 3f c3 c4 a5 a3 ac 14 8c bf
       0.25955672819287745 -0.013711308235288993
000220 f3 09 15 fb fe 63 ca 3f 3b 1d 36 f6 45 dd 89 bf
       0.20617663631317348 -0.012629076553607113
000230 0c af 2e 22 d4 6c c1 bf 74 a9 8d b4 07 04 c9 bf
       -0.13613368672428583 -0.1954354888542401
000240 bb 5c 02 f1 c3 de c6 3f cc 20 01 48 d7 cf c0 3f
       0.1786732603838795 0.13134280219879313
000250 dc 44 87 54 6d 30 c0 bf 93 71 b9 1c a1 ad c3 bf
       -0.126477876924162 -0.15373624708707875
000260 69 9b 2e a0 29 ce 9d bf 84 bb 43 b2 ae be c6 bf
       -0.029106760408150665 -0.17769416527104565
000270 f7 8f 03 06 18 7a c6 3f 8d a0 e3 57 ef 3f ce bf
       0.17560100835464684 -0.236326139368661
000280 68 f2 0a f8 2c 25 ac bf f7 0a 54 d3 dc c7 a9 3f
       -0.054971127775819195 0.0503529556244952
000290 65 b4 90 6c 1e bd b4 3f 92 e0 45 31 4c 78 90 bf
       0.0810107245494734 -0.01608389902818936
0002a0 66 83 4b bd 9a 7a b9 3f 26 ce 3f 05 17 f6 c6 3f
       0.09952704545459098 0.1793850684767772
0002b0 4f b7 75 48 9d 20 71 bf b5 51 8c ca de e7 b2 bf
       -0.004181494128131138 -0.0738505596639872
0002c0 db 62 34 40 09 ee b3 3f ae 56 cd 8b 77 15 b4 bf
       0.0778508931874841 -0.0784525600732546
0002d0 27 d1 4a c1 96 29 cc bf 33 27 8f 4f b1 95 ae bf
       -0.2200191921052774 -0.0597358140581278
0002e0 14 e9 87 a2 d9 ba a0 bf f6 0d 30 52 8a 4f c6 bf
       -0.03267555340785769 -0.17430237782546926
0002f0 74 c1 07 6f f9 0d b4 3f b3 cd 85 53 ab c4 c3 bf
       0.07833823166561676 -0.1544393689942872
000300 8e b9 07 8d 23 1b d0 bf f1 61 3e d8 23 f7 aa bf
       -0.2516564252136043 -0.05266677870458015
000310 80 bf 27 b4 41 58 b8 3f 90 c2 0b 84 f0 37 72 bf
       0.0950966896850769 -0.004447879328595264
000320 2d 30 37 68 e6 59 5d bf 89 b4 f1 b4 de 69 9d 3f
       -0.0017914533681162679 0.028724174303012027
000330 6c 75 86 08 eb 63 cf 3f a2 db 16 50 66 8a be bf
       0.24523675838728864 -0.11929931121163276
000340 28 ae 61 48 6e 32 ab bf 1b cf fb ce e7 cc bf bf
       -0.053119131408348175 -0.12422035983382466
000350 09 e3 5e b4 b8 84 b6 bf d8 48 f6 f7 69 07 d1 bf
       -0.08796266940670362 -0.26607751097720955
000360 90 8f e1 d1 62 59 7e 3f 6c c9 32 dc cd 78 b3 bf
       0.007409463896781335 -0.07606207490861089
000370 34 8c a9 9a 36 c9 cb 3f a9 b2 df 9e e4 92 d3 bf
       0.2170780425250044 -0.30584064021131013
000380 1f b1 62 0f b7 9a ad 3f e7 27 7b c4 27 a8 b7 bf
       0.057821007373919146 -0.092409596890462
000390 04 1b a4 85 9b e3 c6 3f 63 66 a0 56 c3 e7 a7 3f
       0.1788210299057128 0.04669008667424348
0003a0 73 d2 6c 79 b8 38 9f 3f 0a 55 fe 5e 66 c3 71 bf
       0.030489809428404912 -0.004336738478646804
0003b0 b0 28 4f 5a 62 af c3 3f 2f 2c 01 a0 7e 1c 81 3f
       0.1537898007357561 0.008355130441620144
0003c0 88 d7 e1 40 03 5b 8b bf 2b 91 79 8f 1d 3b a4 3f
       -0.013357186715648131 0.039513515247366314
0003d0 bb 69 f6 67 71 fd 98 bf e4 8c 76 9e c9 27 9e bf
       -0.024404308290834936 -0.029448652550524992
0003e0 86 c8 d4 8b 0b d9 a9 bf 32 93 19 ea 7a 6b c0 bf
       -0.05048404771731989 -0.12828003340396205
0003f0 1f 97 40 cb db d4 96 bf 32 11 c7 15 ef 6f c0 bf
       -0.022296366005455256 -0.12841595233306574
000400 d1 ae ab 17 ca 49 c0 bf e6 ba 70 d6 cd 50 7c bf
       -0.1272518745021132 -0.006912998250341506
000410 cd a0 b3 c5 a8 38 d2 3f 63 43 b4 85 47 34 70 3f
       0.2847082071953196 0.003956107505715819
000420 2d fd c4 84 58 91 98 bf 02 6b 0a 52 89 3b c3 3f
       -0.02399195013390203 0.15025440698521925
000430 0e 8d ce 34 ed 9c cc 3f 73 a8 ec d4 af 1e c2 bf
       0.22353901937922455 -0.1415614881200927
000440 cc 23 6a c0 65 a5 d3 3f ae aa 6c eb f4 51 c9 3f
       0.30697006025780804 0.19781362052284152
000450 77 59 b6 38 80 7b 49 3f a5 d6 58 2a de f3 da bf
       0.000777661903543599 -0.4211345113320511
000460 99 ba 9b a9 33 84 a2 bf 33 35 a2 c5 ee 51 cc bf
       -0.036164869741573465 -0.22125038766936597
000470 f5 e7 85 48 ed 1d d3 3f b2 8e ee ad 68 6e cc bf
       0.29870159227686993 -0.22211941235319937
000480 e2 15 b4 43 1a 00 d0 bf b9 e7 c4 58 10 69 c6 bf
       -0.2500062619368163 -0.1750812943881195
000490 e8 55 30 58 aa cd d8 3f c6 85 3f 77 1a 8a 9d bf
       0.3875528203219276 -0.028847135094002295
0004a0 01 00 24 c4 55 5e 68 3f ca a1 ce cd 3d 3e 9e 3f
       0.0029746699448196527 0.029534307180854737
0004b0 e2 d5 e7 ae c6 b9 ac 3f b2 b1 22 a7 7b 64 47 bf
       0.05610485920980658 -0.0007138828061861639
0004c0 48 8a d0 53 09 a5 d0 bf 96 5b ad 11 46 b1 a3 3f
       -0.2600730246069003 0.03846186605249284
0004d0 3b b0 b6 87 c0 06 a0 3f 38 aa 58 9e 08 c9 d1 bf
       0.03130151421223145 -0.2778951212264107
0004e0 d4 47 86 35 0b 4b cb 3f a2 29 48 bd 5c d3 cb bf
       0.21322765458586324 -0.21738776438026003
0004f0 c1 eb ea 9a d8 c7 b0 3f 0d 8d 96 3a 1e 0d d0 bf
       0.06554940969628743 -0.25080066415303365
000500 31 f3 f5 3b 69 6a bb 3f 0f 78 63 14 d7 3d ca bf
       0.10709245408902458 -0.20501221175703718
000510 78 85 96 3a d8 6d ac bf ab 45 c5 2c 39 ad b3 3f
       -0.05552554812607985 0.07686192839653098
000520 3c fa 9e 7d f3 66 c8 3f 0d 71 0e 26 de 10 d6 3f
       0.1906418193229501 0.34477952686735663
000530 c4 6a c4 04 58 11 b4 3f 37 b2 3c de 2a 94 c4 bf
       0.07838964573276558 -0.16077171183987257
000540 99 e0 5c 63 5e 30 c6 bf 5a 22 18 80 0d 5a b4 3f
       -0.1733510956926281 0.07949909570027938
000550 87 b5 b7 ff fd f1 b0 3f ed 27 a6 15 75 ac ca bf
       0.06619250767808725 -0.2083879810055004
000560 2a 32 48 6a 16 bd ad bf 0c a0 16 cf c5 fe d0 bf
       -0.05808324859035381 -0.2655500910136659
000570 81 59 d1 a4 a0 27 d2 3f 68 a1 e1 f3 51 ea ca bf
       0.283668671564918 -0.2102758827998159
000580 1a 39 2f 3b 05 58 bc bf c7 55 3f 07 13 35 d2 bf
       -0.11071808524068097 -0.2844893999839226
000590 95 90 30 72 ab 94 ba bf ff b9 af 36 a4 82 b4 bf
       -0.10383101976236937 -0.08011843047254529
0005a0 0d ea 97 55 e9 6d aa bf f5 25 58 73 fe f8 c0 bf
       -0.051619807909407546 -0.1325986922459347
0005b0 78 8a fd 01 20 42 be bf e5 c4 87 d7 75 17 d2 3f
       -0.11819648789018256 0.2826819042957836
0005c0 f8 e4 e7 d0 1c 84 76 3f a4 81 44 d7 79 f9 b2 bf
       0.0054970861078740205 -0.07411920075947492
0005d0 87 67 50 97 d2 50 a6 bf 75 ab 21 99 b7 3f af 3f
       -0.0435853776654787 0.06103299850732117
0005e0 a0 1a ff 00 22 85 bf bf 8f 7f 73 81 de 9d b0 3f
       -0.1231251957352506 0.06490889225415074
0005f0 e0 b9 85 0a 22 f8 c4 bf a3 e9 a6 f1 38 1d f0 bf
       -0.1638224173907039 -1.0071343841105793
000600 5a 84 1b 75 14 56 bf 3f cd cb c1 b4 14 59 b3 bf
       0.12240722521848238 -0.07557801640523039
000610 7b 85 1c 09 ae 37 ab bf ec 02 9a e4 b1 a1 b8 bf
       -0.05315917836402214 -0.09621726828664706
000620 e5 f5 b9 c8 88 47 ae bf 22 ca 1a dd 99 fe 88 bf
       -0.0591395134951929 -0.012204362926557858
000630 ec f3 42 43 71 9d c5 bf 72 0b e1 98 73 a6 eb bf
       -0.16886726173643696 -0.8640687929076718
000640 31 aa 69 32 2a 42 b3 bf c8 e8 01 3e 0a 22 d6 3f
       -0.07522834521083933 0.34582763724723664
000650 fe 36 5a fd d6 44 c2 3f 30 a2 87 18 51 4f b6 3f
       0.14272582407686935 0.08714777802345774
000660 a8 c0 fa f2 60 d2 d1 3f 30 58 e1 36 fe ab b3 3f
       0.2784654972883893 0.07684315528726482
000670 5e e1 4b 70 c8 e6 bf bf c9 17 1b 48 34 82 c8 3f
       -0.12461521855937494 0.19147351761620104
000680 1b 18 fd 7d 79 d8 b4 bf 21 2e 70 4b 44 f1 ca bf
       -0.08142813993353608 -0.21048787768846558
000690 63 75 aa b2 23 e6 94 bf 4b fe c5 ec 4d 79 a7 bf
       -0.020409162311456962 -0.045847354081158
0006a0 10 d8 10 c5 f7 00 d0 3f 74 90 a6 44 44 05 b0 3f
       0.2500590729208634 0.06258036304513032
0006b0 c6 9f 0a 18 fb d4 82 3f fc 56 ef 1a e3 d7 cf bf
       0.009195291205585831 -0.24877585234815303
0006c0 a6 4e ae fe 4c 6b 9d 3f 7a 38 86 d4 d0 1d ba bf
       0.028729632420051353 -0.10201745213109517
0006d0 c3 f6 a9 98 ed e4 a2 bf b0 28 63 79 03 da c7 bf
       -0.03690283287595044 -0.18634074618450347
0006e0 cf 8a 96 b8 46 4e c3 bf 6d 17 b3 be f4 11 cd bf
       -0.15082630169953012 -0.22711047469618553
0006f0 14 7e c8 38 f5 92 d4 3f a1 1c d6 9a 03 94 d9 bf
       0.3214695982478315 -0.3996590625833481
000700 37 92 b4 1e c1 e9 bf bf d7 18 c8 ce 9c 21 bf bf
       -0.12466055869715197 -0.12160663650874724
000710 9e f6 48 50 27 9e b8 3f a0 23 e4 ff 42 a7 d1 bf
       0.09616323194583251 -0.27583384503719266
000720 36 f9 5c 3a a0 c9 69 bf 40 b0 a7 ee 4b ae d3 3f
       -0.003147900529170712 0.3075132208457525
000730 9c b0 48 ab a1 09 97 3f 93 ec 85 5a 8a 4c d1 bf
       0.022497678832380616 -0.27029665794516083
000740 91 03 fe e1 6f be c7 bf 19 62 9f a6 71 ab a0 bf
       -0.18549917731072843 -0.03255801352469607
000750 50 8d 90 86 90 b7 c5 3f e7 db ba c2 ba af e0 bf
       0.16966444559612137 -0.5214513591116628
000760 59 c6 04 44 89 26 c3 3f 32 fe 67 bb ba 79 e0 bf
       0.1496135313150713 -0.514859548595217
000770 a8 e1 a7 35 95 df d1 3f de 14 12 ae 5a 40 d9 bf
       0.2792714141828818 -0.3945528697880273
000780 a3 ca e8 35 38 bf d5 bf 1c 40 65 04 f9 fe bd bf
       -0.33979611649116687 -0.11717182500183337
000790 89 38 3a 39 bb e3 bf bf fa 8b a0 f3 b8 d9 c2 bf
       -0.12456865451005873 -0.14726936241012806
0007a0 d2 c9 55 d9 fe 64 c5 3f d5 46 06 66 a1 b4 97 bf
       0.16714463817659336 -0.023149988033373276
0007b0 01 40 1d b7 44 df d6 3f a5 aa 5b 97 c3 49 de bf
       0.357377222845571 -0.47325219899236465
0007c0 a6 f2 5f ae 6e 0a ca 3f 82 c8 cb ea b9 4d bb bf
       0.2034433700026927 -0.10665475828480633
0007d0 9f 31 f8 10 86 89 c1 bf de 7d 63 1f ee e2 b7 bf
       -0.13700939014996735 -0.09330642954181864
0007e0 53 61 d1 ad 6c 2d ac 3f ff c4 8e 9f 07 ee b4 bf
       0.055034061639789876 -0.08175704617930889
0007f0 e3 7a b5 34 86 cc d8 3f 6d fc f0 b8 d9 36 dd bf
       0.387483169053594 -0.45647280750922087
