experiments/SWT-T all implementations/darts_logs/London_base_transformer_5_168/checkpoints/best-epoch=5-val_loss=0.01.ckpt (torch, 376027 bytes, 201 tensors)

encoder.weight f4 [16, 1]
00000000: 27a9 4dbf 67d2 f9bf 6c5f 44bf 1a8c e5bf
00000010: d421 a43f 742f aa3f bc92 2b3f 185f 0a40
00000020: 20be 3cc0 d84e c23f 601d 0940 9984 90bf
00000030: d60e 6dbf 85b8 7abf 260b 723f 6667 213f
-0.8033623 -1.9517335 -0.767081 -1.7933381 1.2822824 1.3295732 0.67020774 2.162054
-2.9491043 1.5180311 2.142418 -1.1290466 -0.9260076 -0.97937804 0.9454826 0.630484

encoder.bias f4 [16]
00000000: d14c ee3e 7155 8c3e 7319 fe3d cc0a 0c3f
00000010: 86db 52bf d9bc a7bf 0e2a a3be cbc8 8ebf
00000020: 6ee3 193d 3dd2 97bf f73f 13be 34fe e9be
00000030: cdfd f43d 761e 08bf 78e6 1dbf 3c67 90bf
0.4654298 0.27408937 0.12407198 0.54703975 -0.82366216 -1.3104507 -0.31868023 -1.1155027
0.03757041 -1.1861035 -0.1437987 -0.45701754 0.11962471 -0.5317148 -0.6167979 -1.1281505

transformer.encoder.layers.0.self_attn.in_proj_weight f4 [48, 16]
00000000: 60e4 07be d784 903e ef85 99bf ba12 433e
00000010: 4954 b8bd a83a bd3e 68dd 943f 8b9d 08bf
00000020: 0946 183f 5a40 2fbf 9bbe 1abf 192c a4bf
00000030: 4232 963e 77fa 79bf 6d19 3c3f 145f 8fbf
00000040: e1f5 47be 7939 b5bd e495 e6be 04fe 853e
00000050: 14b3 efbd 2136 ec3e 7b9a cf3f eac4 aabe
00000060: bd5f 26be c7b1 093f c772 623f 8b66 60bf
00000070: e576 c2be 506c 33bf 2333 483f d404 7a3d
00000080: 72ee a43d b5dd ef3e 3b3c 2f3e a1c1 c33e
00000090: 0e17 d9bd 04d9 343f 674e 7b3d f607 4fbd
000000a0: cdc2 ea3d 0b91 3f3e e223 6c3e b79a b2be
000000b0: 9a96 fcbe 3e81 9cbc 5881 383f 3140 10be
000000c0: 6107 bbbe 5301 1ebd 3fc4 7ebe c5fc 943e
000000d0: cce4 113e 1735 a83d e12c 52bf da02 f0be
000000e0: 55f7 123e 7855 e6be 2c91 40be d354 0c3f
000000f0: a040 713e d150 f83d 3334 6cbe a744 873e
00000100: ff7b eebe 2818 dbbd 9626 af3e 02fb b0bd
00000110: f23c fcbd b3b5 f5be 9eff 2f3d 6e5f 7cbf
00000120: ce64 813f 611e cabf b7bb 90bf 716e cd3e
00000130: f828 f83f 8517 b1bd da84 cbbd 1acf 3bbf
00000140: fdd9 16be 3ce3 c7bd 54cc 923e 5a8a 9cbe
00000150: 95c7 a53e 17dc c2be 81ba be3e 0d23 a2be
00000160: 0308 de3e 99bd 47bf d60c 26bf b96e 01be
00000170: b262 943f 2ed9 85bb c476 c3bd b725 d9bd
00000180: 5daa ca3e 3e17 c1bc f5b6 903e bcc5 29be
00000190: 9ddb 553e 9fd2 743e 72de ac3e f5e3 9bbe
000001a0: 7369 203d bdc3 b73e a9a9 98be f003 0b3e
000001b0: 00b4 24bf 6484 92be 09f1 23bd 5638 f6be
000001c0: 75a8 06be 2d3f ed3d fcda b6be 3235 d93e
000001d0: d30a 10bf 4095 e83e 622e 49be 1ef5 9bbd
000001e0: 495d 633d d86b 97be 8153 0cbf c51a c03d
000001f0: e1a9 2f3f 0416 553e 9f98 e4be 36f1 e33c
00000200: 64aa aa3e e387 7a3e 37ac cb3e 46f6 e2bd
00000210: 346e c53e 8948 7b3e 8f5b 2c3f 59ff 393d
00000220: 6d76 5e3e e07e 92bd d219 a73e d39d 863e
00000230: 9459 66bc c441 4cbd 8f7c ef3d f083 24be
00000240: 05ce fe3e 4f5a edbe dd12 1e3f c1fe ae3d
00000250: 1e32 153e 228f a13e 8d67 3c3f 31c2 29be
00000260: f667 38be 7f88 b93e ecb7 843d 8b6d d03a
00000270: 6263 5abf 7e82 0dbd 8783 a93e 03c9 eabc
00000280: 78a3 463e 0f75 4bbe 0888 e4be 60ff 3e3e
00000290: ec46 fc3d c31a 4f3f be1a 153f 8bf1 bbbe
000002a0: b508 ffbd 3eb1 173c cfbb f63e 7a0d 25bf
000002b0: 4258 a6be 7f60 12bf bdc6 8a3f 38ed 07bf
000002c0: 0b01 25be dca9 c0bc 24d1 cfbc 6f1d 2fbe
000002d0: 7a98 78be 7c52 d83e d9aa 723f dbb2 abbe
000002e0: ba9e f23d bb8d 3c3e d513 0d3e e5c6 56be
000002f0: c2de a3be c284 4cbf 95df bb3f 3b3f b7bd
00000300: d957 aabe 25b7 1c3e bfa9 01be 0ab9 163e
00000310: 9251 8fbe e2ef 993e 8a78 78be 1d21 fa3e
00000320: 341f e7be 06ff 8e3e e267 5f3e 1c5e 493e
00000330: e145 ffbe c09f a1bd fc8c 233d 9b8e b63e
00000340: 3b5b af3d 243d d8be 8c9a a23d b980 a23e
00000350: d620 bdbe dc1e 1d3f 45c7 f83d 13e9 3b3d
00000360: 1442 bbbe db7b 30bd 2d71 a3be b40f 0dbf
00000370: 7226 4d3e 603b 11bf 5ead cc3e c7bf 703e
00000380: e4a5 18bf bba7 e0be 1210 5dbe 4e82 bd3e
00000390: 0eff 8e3d dc76 b2be 1650 903f bdc7 e1be
000003a0: 23f9 5a3e ec91 22be 8ca1 0dbf 82e4 57bd
000003b0: 657d bc3d d6ca 6ebe 3a9a ce3e 6c4e 18bc
000003c0: 24e4 8dbd c95e 11bf f1aa 133e af96 573e
000003d0: 8cad 1b3e 17aa 3d3e 6c00 893f 2f73 26bf
000003e0: f948 0d3f 69fd 72be d298 b3be d8da a5be
000003f0: 19d0 033f 6015 d3be 3c39 143f 8b3e a6be
-0.13270712 0.2822635 -1.1993998 0.19050112 -0.09000451 0.36958814 1.1630068 -0.5336539
0.59481865 -0.6845757 -0.6044709 -1.2825958 0.2933522 -0.97647804 0.73476297 -1.120089
-0.19527389 -0.08848853 -0.45036232 0.2617036 -0.11704078 0.46135047 1.6219019 -0.33353359
-0.16247459 0.5378689 0.88456386 -0.8765647 -0.37981334 -0.70087147 0.7820303 0.06103976
0.08053292 0.46848837 0.1711282 0.38233665 -0.106001005 0.7064364 0.061354067 -0.0505447
0.114629366 0.18707673 0.23060563 -0.34883663 -0.4933365 -0.019104596 0.7207236 -0.14086987
-0.36529067 -0.03857548 -0.2487955 0.29099098 0.14247435 0.08213251 -0.8209973 -0.46877176
0.14352162 -0.44987082 -0.18805379 0.5481693 0.23559809 0.121247895 -0.23066787 0.26419565
-0.46578977 -0.10697967 0.34209126 -0.08641626 -0.12316312 -0.47990188 0.042968385 -0.98583114
1.0108888 -1.5790521 -1.1307286 0.40123323 1.9387503 -0.08647064 -0.09937449 -0.73362887
-0.14731593 -0.097601384 0.28671515 -0.30574304 0.32378832 -0.3805854 0.37251666 -0.31667367
0.43365487 -0.7802368 -0.64863336 -0.12639894 1.159262 -0.0040847277 -0.09544137 -0.10602897
0.39583102 -0.023570653 0.28264585 -0.16579336 0.20884557 0.2390847 0.33763462 -0.30447355
0.039163064 0.35891524 -0.2981694 0.13575721 -0.6433716 -0.2861663 -0.04002479 -0.48089856
-0.13150199 0.115843154 -0.35713947 0.42423397 -0.56266516 0.4542637 -0.196466 -0.07615112
0.055508886 -0.29574466 -0.54814917 0.09380106 0.6861859 0.2080918 -0.4464769 0.02782498
0.33333123 0.24465899 0.39779827 -0.11082129 0.3856064 0.24539389 0.6732721 0.045409534
0.21724863 -0.07153106 0.32636887 0.26292285 -0.014059443 -0.049867406 0.116936795 -0.16065955
0.49766555 -0.46357962 0.61747533 0.08544684 0.145699 0.31554514 0.73595506 -0.16577984
-0.18008408 0.3623695 0.06480393 0.0015901787 -0.85307896 -0.034548275 0.3310816 -0.028660303
0.19398296 -0.19868873 -0.44635034 0.18652105 0.12318215 0.8090021 0.5824393 -0.3670772
-0.124528326 0.009258566 0.48190162 -0.6447369 -0.3248921 -0.5717849 1.08419 -0.5309634
-0.16113679 -0.023518495 -0.02536828 -0.17101072 -0.24276915 0.4225043 0.9479194 -0.33534893
0.11846681 0.18413441 0.13777097 -0.2097431 -0.32005888 -0.7989007 1.4677607 -0.08947607
-0.33270147 0.15304239 -0.12662409 0.14719024 -0.2799192 0.3006583 -0.24264732 0.48853388
-0.45140994 0.27928942 0.21816972 0.19664806 -0.49858 -0.07891798 0.039929375 0.35655674
0.08562323 -0.42234147 0.07939634 0.31738833 -0.36939114 0.6137521 0.12147383 0.045876574
-0.3657385 -0.043086868 -0.31922284 -0.55102086 0.20034197 -0.56731224 0.3997602 0.23510657
-0.5962813 -0.43877968 -0.21588162 0.37013477 0.069822416 -0.34856308 1.127444 -0.440977
0.213841 -0.15875977 -0.55324626 -0.052708156 0.092036046 -0.23319563 0.4035204 -0.009296041
-0.0692828 -0.56785256 0.14420678 0.21053575 0.15202922 0.18521915 1.0703254 -0.65019506
0.5518947 -0.23729481 -0.3507753 -0.32393527 0.51489407 -0.41227245 0.5789983 -0.32469591

transformer.encoder.layers.0.self_attn.in_proj_bias f4 [48]
00000000: a1d2 a7bf 48d6 55bf 46ea c3be 06d3 d73c
00000010: 31ac 9dbd c10e 6bbd 0c14 0ebe 1028 dd3d
00000020: 884d bebd 4028 a4be bb4c 53bf 4ca8 4cbf
00000030: 4ba8 3a3d e75f 63be 8ddb 8ebe 5f78 ffbe
00000040: c776 1a3a 792b bb39 9257 7ab8 59a7 e8b7
00000050: 1378 8739 abbd ae36 43e3 0cb9 a573 49b8
00000060: 518d 1b37 7b41 1cb8 1dcb 163a 97bb 9239
00000070: 4d11 033a 1327 b1b9 8ed2 b2b6 00dc 44b9
00000080: 6544 813d 79ad 9abd 941a aa3d 11f1 cf3d
00000090: 0a15 9cbd 138f 443d 2928 b33d 8e74 fa3d
000000a0: 7ea6 a5bb 5e90 c03c 0e64 68bd 7c2f 2c3c
000000b0: cae3 933c 6770 99b9 dda0 b93d 5fed 183d
-1.3111154 -0.8353009 -0.38264674 0.026345741 -0.076988585 -0.057387117 -0.13874835 0.10798657
-0.09292132 -0.32061958 -0.82538956 -0.799443 0.045570653 -0.22204553 -0.2790188 -0.49896523
0.0005892333 0.0003569981 -5.96862e-05 -2.7734483e-05 0.0002583867 5.2076844e-06 -0.00013436102 -4.8029837e-05
9.271623e-06 -3.725428e-05 0.0005752312 0.00027987055 0.00049998314 -0.00033789183 -5.329325e-06 -0.00018773973
0.06311873 -0.075526185 0.083058506 0.10153402 -0.076212004 0.04798801 0.08747894 0.12229262
-0.005055248 0.02350634 -0.056736045 0.010509368 0.018052954 -0.0002926618 0.09063885 0.03733575

transformer.encoder.layers.0.self_attn.out_proj.weight f4 [16, 16]
00000000: 9fed 743d 445b 09be bbb1 63bd ae4b 88be
00000010: 31fd 293d a034 b83e a31a 40bc 921e b7bd
00000020: 3286 bf3b 8ca7 463e bdc9 abbe 5d45 5cbe
00000030: 02d4 06bd 8ad3 243e 271d 9ebe 2c06 76be
00000040: 5201 6bbe 9837 56be db59 8dbd 5a6f 1ebe
00000050: a882 71bd eaf0 08bd 8a02 3abc c86a 223c
00000060: 9640 313d d5e7 c8bb 42ac debd 1550 d13d
00000070: 9b23 dabd 8cad 67bd e037 d9bb 1e31 e8bd
00000080: 1bc3 7dbe 49da a63c 3ca3 0ebe 3b24 2d3e
00000090: 20b1 23be a42e 6abd 319c 94bd 3861 94bd
000000a0: ca1a 00be ce91 f93d 36e0 79be ad5d 35be
000000b0: f5d9 36bd c51f bdbd e11e 203e f307 333e
000000c0: 7e9f 843e 33f8 69be e893 8d3d 656c 42be
000000d0: ef3e 8ebe 503a 47be 0a17 863e 8e62 bf3d
000000e0: 95ab 253e d2c4 98be e43c b2bc 1035 2cbe
000000f0: 81c8 0a3e 33bf 12be e111 84be e70d 03bd
00000100: 54d8 bcbe 1428 f6bd eefa 8f3d 54fc 8bbd
00000110: 2326 e7be 1871 54bb 67ba 01bd b5fb 2fbd
00000120: 0e10 ad3b 989e ce3d 8f32 14be aa5a 99be
00000130: 219c f03d a479 42bd 0c47 aa3e 3dda 22bd
00000140: a9f1 4fbd a646 3b3d 0493 a13c d8c9 babc
00000150: ef91 a0bd ac03 4f3d 504f 1a3d d69d 96ba
00000160: 50b6 933b 7088 02bd 7b87 6e3c 3211 c6bd
00000170: 2e74 9cbd 6456 c5bb eacb 02be ae4c bc3c
00000180: dd2f b33c 90b9 ae3e 3e3d 02bd efac 0dbe
00000190: ee05 843d db7c 5b3d 7275 433e 06c1 dbbd
000001a0: 5155 113c 111f 9c3d 41c2 e03d 9bf6 b0b9
000001b0: 55a8 7bbd 6c3d 93bd a33c 9e3d 47b1 48bd
000001c0: 73b8 b33d 65dd 5f3d fad5 b03d 68cc 983d
000001d0: fdb5 c23d b111 62bd 024c b63c 44d5 823d
000001e0: c203 28bd 6556 b9bc ade2 9d3a 795f 923d
000001f0: 6c63 c5bd dd2d e93c 5529 7dbd e121 ec3c
00000200: 82f6 943d 41e9 b1b9 cab6 14bd ec61 ddbc
00000210: 37f6 3d3d 2b46 2a3b 21ef 563c 0aa9 7cbc
00000220: f139 8e3a 2367 a03c 283c d53b 2664 20bc
00000230: d882 28bd 20c1 f3bc cb69 30bd 2e64 103d
00000240: 061b 0ebe 8e06 8d3d 7f11 05be 24bc abbc
00000250: 7583 d93d 4641 023e e6cb afbd 3c57 163e
00000260: 0ee0 d9bc 905b b3bc c58e 523e 03f5 debc
00000270: 8827 df3b 62de 0fbc 739f 373e ec75 c4bc
00000280: 3cfc 8bbd 1295 df3c 13ae 1dbd 3ab1 3dbd
00000290: 1764 11bd e918 523c a82e b7bc b560 32bb
000002a0: 894e 313b c6c0 65bc d59f 523d 3bc4 3bbc
000002b0: 0349 b23c 6ec6 bd3c f418 083c c657 aaba
000002c0: 9311 493e e960 803d c5a4 a1bd add6 69be
000002d0: a484 8e3d 4d22 1bbe 22db 433d 36c7 543c
000002e0: 1736 253c 12e8 bdbd 9587 99bc e4a3 3b3e
000002f0: 8e12 eebd a3a6 e0bc f84d 503c d4b7 d6bc
00000300: cd0e 273d 2b81 28bc 6b8a de3c bd38 7e3c
00000310: 580e f33d 1bac bf3d e699 35bd 0aed 34bd
00000320: 444d 023c faf6 d0b8 42a3 af3c 80fb 7abd
00000330: 4e31 dbbb 8793 79bd 4651 a93b ee83 803c
00000340: a785 913b 64a5 a43e c09f 77bd 6291 99bc
00000350: cce6 f2bd ca25 81be 1ca8 62bd dd5a 183e
00000360: 2771 2fbe 49e6 27bc 3c33 34bd 931c 0d3e
00000370: 8dfb 55bd 12ec e13d dcf5 20be 0ed3 083e
00000380: 109e 8ebd 0933 633d 4aed 68be 170a a5ba
00000390: c986 13be c814 51be 0ab0 a03c d05f ce3c
000003a0: 93f5 cabd c4d6 3fbd 0cd3 f2bb cdb6 2fbc
000003b0: 4a44 8b3c f728 ba3c 0d8d 2c3e c9cd ae3d
000003c0: de52 a03e 4deb 08be ff3f d33d 6579 58be
000003d0: 06e9 b5be 677c f93e cd8c 3dbe cc95 2ebe
000003e0: a112 b8bd 581a cf3d 5419 623d 8bbb c33e
000003f0: 958b ef3c 6bb6 8b3d 7f4a b4be 0fa6 4a3d
0.059796926 -0.13413721 -0.05558942 -0.2662024 0.041501228 0.3597765 -0.011725101 -0.08941378
0.0058448547 0.19399852 -0.33552352 -0.21510835 -0.03291703 0.16096321 -0.30881616 -0.24025792
-0.22949722 -0.20919645 -0.06901904 -0.15472165 -0.058962494 -0.03343288 -0.011353144 0.009913154
0.043274485 -0.006131152 -0.10872699 0.102203526 -0.106513225 -0.05656199 -0.0066289753 -0.11337493
-0.24781458 0.020367758 -0.13929456 0.16908352 -0.15985537 -0.057173386 -0.07256354 -0.072451055
-0.12510219 0.12186013 -0.24401936 -0.17711516 -0.044641454 -0.09234575 0.1563678 0.17483501
0.25902933 -0.22848587 0.069129765 -0.18986662 -0.2778239 -0.19455838 0.26189452 0.0934497
0.16178735 -0.29837662 -0.02175755 -0.16817117 0.13553049 -0.14330749 -0.2579489 -0.03199568
-0.36883795 -0.12019363 0.07030283 -0.06835237 -0.45146284 -0.0032416042 -0.031671908 -0.042964656
0.005281455 0.10088843 -0.14472412 -0.29951984 0.11748529 -0.047479287 0.3325733 -0.03975891
-0.050767574 0.045721672 0.019723423 -0.022801325 -0.078403346 0.05054061 0.037673295 -0.001149113
0.0045078173 -0.0318684 0.014558668 -0.096712485 -0.07639347 -0.0060222615 -0.127731 0.022985782
0.021873409 0.34125948 -0.031796686 -0.138355 0.064464435 0.05358587 0.1908777 -0.10730176
0.008870439 0.07623113 0.10974551 -0.0003375307 -0.06143983 -0.0718945 0.07726409 -0.04899719
0.08775415 0.054654498 0.08634563 0.074608624 0.09507368 -0.055192653 0.02225304 0.063883334
-0.04101921 -0.022624204 0.0012045704 0.07147116 -0.09638104 0.028464252 -0.061806995 0.028824748
0.0727358 -0.00033933859 -0.036307134 -0.027024232 0.046377387 0.0025981765 0.013118536 -0.015421161
0.0010851008 0.01958043 0.0065074153 -0.009789502 -0.041140407 -0.029755175 -0.043069642 0.03525179
-0.13877496 0.06886016 -0.12994955 -0.020963736 0.106207766 0.12720212 -0.085838124 0.14681715
-0.026596095 -0.021894246 0.20562275 -0.02721644 0.0068101324 -0.008781048 0.17931919 -0.02398201
-0.06835219 0.027292762 -0.03849609 -0.046311595 -0.035495844 0.012823322 -0.022361115 -0.0027218286
0.0027054867 -0.014023012 0.05142196 -0.011460359 0.02176333 0.023165908 0.008306731 -0.0012996129
0.1963561 0.06268484 -0.078927554 -0.22835799 0.06958893 -0.15149803 0.047816403 0.012986949
0.010083697 -0.092727795 -0.018741408 0.18324238 -0.11624633 -0.027423209 0.012713902 -0.026210703
0.0407856 -0.010284702 0.027165612 0.015516457 0.1186797 0.093589984 -0.044336222 -0.04417137
0.007952992 -9.964216e-05 0.021440152 -0.061275005 -0.006689227 -0.06093171 0.0051671593 0.015687909
0.0044409814 0.32157433 -0.060455084 -0.018746082 -0.11860427 -0.25224143 -0.055336103 0.14878412
-0.17133008 -0.010247775 -0.043994173 0.13780431 -0.05224185 0.11031355 -0.15718788 0.13361761
-0.06963742 0.055468593 -0.22746769 -0.0012591508 -0.14406885 -0.20418084 0.019615192 0.025192171
-0.09910121 -0.046835676 -0.0074104127 -0.010724735 0.017000336 0.022724612 0.16850682 0.08535344
0.31313223 -0.1337101 0.10314941 -0.21140058 -0.35529345 0.48727724 -0.18510742 -0.1704933
-0.08987928 0.101124465 0.055199936 0.3822902 0.029241363 0.06821903 -0.35213086 0.049474772

transformer.encoder.layers.0.self_attn.out_proj.bias f4 [16]
00000000: accf 733b 9ba9 cb3c 394b 24bd ca83 53bd
00000010: cf94 293d 4202 28bd 0c28 273b b37f ab3c
00000020: dc63 50bc 0125 ba3c a83a 06b9 4097 383e
00000030: cca3 febb a8b1 6e3e b9e7 87be 1009 803d
0.003720264 0.024861148 -0.0401108 -0.051639356 0.04140168 -0.04101778 0.0025506048 0.020934915
-0.012719121 0.022722723 -0.00012801087 0.18026447 -0.007770991 0.23309958 -0.26543978 0.062517285

transformer.encoder.layers.0.linear1.weight f4 [128, 16]
00000000: 9910 dabd 41cc bb3e d37a 1cbf 23a1 033f
00000010: 5e70 26bf 60ee 973f f806 ccbe f979 243e
00000020: 5805 3cbd 2aab 013e 3da3 f63d 6ad5 3abf
00000030: 4cfe 72bd eed3 52bf 9658 f93d 2042 88bc
00000040: 71e8 3ebe dd90 d2bd f486 d7be 5e51 3cbe
00000050: 4d48 ebbd 341a 543f 657e cc3e 8d10 2cbd
00000060: ae18 9bbd db82 7abd 79c8 85bd a5bd 0cbf
00000070: f910 683d 534b b9bf 16a6 de3f 7fd5 15bb
00000080: 4b18 393e 3be4 853e 8e7f 453e 9dcb 713e
00000090: a592 7bbd 4319 debd 3874 483c df85 143d
000000a0: e2d0 503f 67ac 69be cf41 1ebf b91b c73c
000000b0: 7ced 8fbd 3620 9fbe e946 0e3e fe83 a63d
000000c0: 7315 073e da6a d43e 6bca d8bc a278 1b3f
000000d0: 3ea2 8bbf 6a20 5a3e d218 c3be f45f ae3c
000000e0: 8683 933e b9b9 5bbe 852a d7be 5e86 263d
000000f0: 5bbc 813e e9d9 5d3d f286 aa3d d671 f7be
00000100: 0a41 debe f98b eabc 34c0 d03e a0e0 3c3f
00000110: 87a2 45bf d710 9c3e d61f 55bf 78b4 75be
00000120: 49f1 ce3d bb95 723e e693 11be 98ad 723e
00000130: 0930 513f 478e 773e b89f 92bd 21d2 6abf
00000140: 4413 e4be 7613 3d3d e422 5abe 3ba0 e23d
00000150: 938f a93d be56 b53e 8ae3 1dbe 3278 e33c
00000160: dda6 f83d de77 84be a928 2cbe 66be 783e
00000170: 864a b93c 314f 66be de7d 0c3f d203 51bd
00000180: 168d 20be ea51 8bbd 2530 d03c 3f34 e83d
00000190: ce7b 54be 68c5 1cbd 13ae bc3e 9602 5bbe
000001a0: 23d5 683e 29c4 3bbe d85c a6be b768 80be
000001b0: 2212 0a3e 23f3 c6be 780f 3e3e 4389 6fbe
000001c0: e1f2 a03e 8c6c 1e3e 8742 b5be d833 573f
000001d0: 6498 87bf 1bf6 233f e7ad 34bf 2fd3 123e
000001e0: 44c7 57be 6191 fe3d c24a 303d 6b8b 1a3c
000001f0: 080a aabe ff72 01bf a93b 283e 0016 473e
00000200: fd3f dabe ca62 76be b50c 2d3d 5b65 a63d
00000210: c8cf 22be 68ac 863f a5ac 2e3d e719 7a3e
00000220: 1ae1 9b3d e646 473e 9eb5 983d f981 c6be
00000230: 2f9f 943d 82b4 88bf 285d c63f 905d 89bd
00000240: d6eb 95be 5b11 3d3f ccb4 973e aaa2 2f3c
00000250: af5f 9abd 50ab c83e 4ff7 d7bd 386b 2ebe
00000260: 42bc 64be 73ae 293e e1e4 45bd bfd3 0cbf
00000270: 4854 14bf 89fd f3be ccfb cabc 3ee3 01be
00000280: 7831 983e 4490 6abc bc1b 06bf 8d30 da3e
00000290: 0005 e6be c2c9 873f 776c dabd 034e fcbd
000002a0: 3063 61bd e159 013d 7b3d 59bd 4219 fbbe
000002b0: dca4 29be 61ff 6abf 9b79 103f b2aa b63e
000002c0: f4f6 273c c99e 1c3f 5187 22bc 722d 56be
000002d0: fc26 79be 648c b13e ec2a 74be 99c3 d5be
000002e0: 57dd 443e 4c20 4c3e bf5d 293e 2870 b8be
000002f0: 9548 bfbe f0e4 1ebf 2af4 0bbe ef20 11bf
00000300: 8907 e5bc a906 083f 77de 3d3e 994a d63d
00000310: 1cc0 c6be b041 283e cff5 34bf 57b5 e5be
00000320: 568f 1c3e 6c81 873e a2ff 843e a296 783e
00000330: 552a a3be 1c6b 3c3e 91ff 3ebe cd37 95be
00000340: 69da 5dbd 30c5 133d 163d 383c 4a24 123e
00000350: 6970 c4be 66dc 95be d7fe a1be b153 29bf
00000360: 53c5 bd3f 2a45 b6bc 6a4a 98bf bbe8 61bc
00000370: 9f5a 263e ca59 90bc 0970 b43c 0368 02bd
00000380: 32d7 62bd 824b af3d ab91 2b3f 330e 2e3e
00000390: 3840 92be c21d 333f c7af 1cbf cac8 ec3d
000003a0: a809 97be 4ecb 4cbe 5245 8bbe 34da 5ebf
000003b0: 2090 f6be 0247 c3be 2d6d 2ab9 1c51 833e
000003c0: dc61 1fbe 500b 1e3e 7780 3fbe 712b 283e
000003d0: 5ffa a3be 668f 37bd 73e3 6ebe d56d ffbe
000003e0: cf89 ae3f 443c d9be a14b 9bbf 8b48 953d
000003f0: a57f 74bd 81bd 2cbd 4a5b 4d3e bac6 87be
-0.10647697 0.3667927 -0.61124915 0.5141775 -0.6501521 1.1869621 -0.39849067 0.16062154
-0.045903534 0.1266295 0.12042854 -0.72981894 -0.059324548 -0.8235463 0.121750996 -0.016633093
-0.18643357 -0.10281537 -0.4209515 -0.18390414 -0.114884 0.8285248 0.3994018 -0.04200797
-0.07573067 -0.06115995 -0.06532378 -0.54976875 0.05665681 -1.4476112 1.7394435 -0.002286285
0.18075673 0.2615069 0.1928694 0.23612829 -0.061419148 -0.10844662 0.01223474 0.036260482
0.8156873 -0.22819673 -0.61819166 0.024305211 -0.070277184 -0.31079262 0.13894238 0.08130644
0.13191776 0.4148777 -0.026463708 0.60730946 -1.0908887 0.21301427 -0.38104874 0.021285988
0.28811282 -0.21457566 -0.42024627 0.040655486 0.25339016 0.054162893 0.0832652 -0.48329037
-0.43408996 -0.028631197 0.4077164 0.7378025 -0.7720112 0.30481598 -0.832517 -0.23994625
0.10104615 0.2368993 -0.14216575 0.23699033 0.8171392 0.24175368 -0.0715937 -0.9172688
-0.44545949 0.046161138 -0.21302372 0.11065718 0.08279338 0.35417742 -0.1541883 0.027767275
0.12141202 -0.258727 -0.16812386 0.24291381 0.022618543 -0.22491147 0.5487956 -0.051029034
-0.1567882 -0.06802733 0.025413582 0.1133809 -0.20750353 -0.0382742 0.36851558 -0.21387705
0.22737555 -0.18336548 -0.3249271 -0.2507989 0.1348348 -0.38857374 0.18560588 -0.23392205
0.31435302 0.15471095 -0.3540232 0.8406348 -1.0593381 0.640474 -0.70577854 0.14338373
-0.21072108 0.124300726 0.043040045 0.009432654 -0.33210778 -0.50566095 0.16429009 0.19441986
-0.42626944 -0.24061123 0.042248446 0.08124801 -0.15899575 1.0521364 0.042645115 0.24423943
0.07611294 0.1946064 0.07456516 -0.38771036 0.07256924 -1.0680087 1.5497179 -0.06707299
-0.2928149 0.7385461 0.29630125 0.0107199345 -0.075377814 0.391932 -0.10545217 -0.17033088
-0.2233744 0.16570453 -0.04831398 -0.550106 -0.57941103 -0.4765437 -0.02477827 -0.12684342
0.29725242 -0.014316622 -0.5238607 0.42615166 -0.4492569 1.0608447 -0.10665219 -0.12319567
-0.055026233 0.031579856 -0.053037148 -0.49042708 -0.16566795 -0.9179593 0.56435555 0.35677105
0.010251749 0.61179787 -0.009919957 -0.20915774 -0.24331278 0.34677422 -0.23844498 -0.41750792
0.1922506 0.19934195 0.16539668 -0.36023068 -0.37360063 -0.6206808 -0.1366736 -0.5669088
-0.027957695 0.5313516 0.18541895 0.10463447 -0.38818443 0.16431308 -0.70687574 -0.44864914
0.15289053 0.2646593 0.25976282 0.24276212 -0.31868234 0.18400234 -0.18652178 -0.29144135
-0.05416337 0.036076725 0.011245033 0.14271656 -0.38367012 -0.29269713 -0.3163974 -0.6614333
1.4825844 -0.022249777 -1.1897709 -0.013788397 0.16245507 -0.01762094 0.022026079 -0.031837475
-0.055381007 0.08559324 0.67019147 0.16997604 -0.2856462 0.6996728 -0.61205715 0.11561735
-0.29499555 -0.1999943 -0.27201325 -0.870517 -0.48156834 -0.38140112 -0.00016253135 0.2564782
-0.15564674 0.15434003 -0.18701349 0.16422822 -0.32026955 -0.04481449 -0.23328952 -0.49888483
1.3635806 -0.42428792 -1.2132455 0.07289227 -0.059692044 -0.042172913 0.20054355 -0.26518804

transformer.encoder.layers.0.linear1.bias f4 [128]
00000000: 529e 40bd 0034 abbe 0cc5 04be aad8 66be
00000010: 86cc 0d3e b8ac b5be 584a 87be c9f6 cbbe
00000020: 5ae1 28be 9c7e 26be d390 0fbe d84a 97be
00000030: f52c 12bd 80f3 043d 7103 0bbd 6041 20be
00000040: f441 0fbe 086d 173e d502 8fbe 53f4 2bbe
00000050: 9b00 abbe 9fd6 97bd de49 1bbd b395 29be
00000060: 2f49 12be 2b49 d4be f260 c4be da90 16bf
00000070: e46d 47bd 2601 06bf 7c6d f0be e6f4 d1bd
00000080: ffcb eabe fd0a cbbd 1f24 06be 4c6e 933d
00000090: ba0a bdbe b1e1 f6be 829e 57be 8370 1cbf
000000a0: 8fc7 52be 5b15 b3be 9fd0 e7be e039 60be
000000b0: f9a2 59bd acdc 9cbd 1882 c3be 9927 50bd
000000c0: 6139 d93d 8276 e8bd 76e3 8e3d 12ba 43be
000000d0: 6058 eebe f19a 5abd ddf4 b5be 00fe 73be
000000e0: 0f13 31be a0a3 a2be 17fa ecbd 7c1a dfbe
000000f0: 13d6 5dbd 6faf fa3d be86 c8bd 474f d6be
00000100: ec29 0dbf 070b 7fbe 5ee4 0bbf 4245 433e
00000110: f967 06bf 26ce cdbe d4fa 733d f9a5 bbbe
00000120: fb54 8cbe 86ed efbe 3f0f 11be e71f 363e
00000130: 53b1 d4be bd1f babd b6f8 f4bd 04c1 543d
00000140: cfbe dabe 097f 20be aa17 69be 0fc0 f4be
00000150: 6ba2 443d e820 963c 8128 c9be 5c1d 8ebe
00000160: 4908 cdbe dc85 98bd 6c0a afbe 847a 78be
00000170: fad9 5dbe b7c0 1abf 3a20 f1bd 6fb2 85be
00000180: 0991 84be d340 08bd 8c30 c7be 6a2f 43bf
00000190: 4a70 bcbd 0c02 b1bc 5d4a 0b3d a48d e73c
000001a0: 2a17 4a3d d6da 70be fe47 a83e 9c42 93be
000001b0: e600 a4be 1bcd 16bf 3837 52be 8831 3dbe
000001c0: 3e8f f1be 2a08 173d 0547 9d3d e217 2ebe
000001d0: 44c8 21bd a5b6 dbbd 6806 d2be 6f89 5fbe
000001e0: 3614 d4bc 0cb7 fcbe 9c49 48be d1ee 97be
000001f0: d0b4 09bf 9449 45be b3f3 0abe ebc4 1abf
-0.047025986 -0.3343811 -0.12965792 -0.22543588 0.13847551 -0.35483336 -0.26423907 -0.3983672
-0.16492215 -0.16259235 -0.1402009 -0.2954929 -0.035687406 0.032458782 -0.03393883 -0.15649939
-0.13990003 0.14787686 -0.27931848 -0.16792421 -0.333989 -0.074139826 -0.037912242 -0.16561012
-0.1428573 -0.41462073 -0.38355213 -0.58814776 -0.048688784 -0.523455 -0.4695853 -0.10251789
-0.45858762 -0.09914205 -0.13099717 0.07198772 -0.36922246 -0.48219064 -0.2105656 -0.6110918
-0.20583938 -0.3497723 -0.45276353 -0.21897078 -0.05313394 -0.07659277 -0.3818519 -0.050819013
0.10606647 -0.113507286 0.069769785 -0.19113949 -0.465518 -0.05337042 -0.35538378 -0.23827362
-0.17292427 -0.3176546 -0.11571138 -0.43574893 -0.054159235 0.122404926 -0.09791325 -0.4185736
-0.5514209 -0.2490655 -0.54645336 0.19069389 -0.525024 -0.4019634 0.05956538 -0.36650065
-0.27408585 -0.46860904 -0.14165972 0.17785607 -0.41541538 -0.09088085 -0.119615 0.051941887
-0.427237 -0.1567346 -0.22762933 -0.4780278 0.048006456 0.018326238 -0.39288715 -0.27756774
-0.40045384 -0.07447407 -0.3418764 -0.24265486 -0.21665183 -0.6045031 -0.11773725 -0.26112697
-0.25891903 -0.033264946 -0.38904226 -0.76244223 -0.09201105 -0.021607421 0.034006465 0.028265782
0.049338497 -0.2352098 0.32867426 -0.28761756 -0.32031935 -0.58906716 -0.20528877 -0.18475926
-0.47179598 0.03687302 0.076795615 -0.17001298 -0.03949763 -0.10728196 -0.41020513 -0.2182977
-0.025888544 -0.49358404 -0.1955933 -0.2967439 -0.5379152 -0.19266349 -0.13569526 -0.6045672

transformer.encoder.layers.0.linear2.weight f4 [16, 128]
00000000: 1445 2e3f 7ea7 3dbe e7bf 933d 1ccf 403e
00000010: f8c8 1a3d ebb4 adbc 3fa4 8dbe 465e 0b3f
00000020: 43c6 123e 8346 89be 4a5b 2c3e 2f88 81bd
00000030: d876 ca3e ab17 9c3d f35a 80bd b6ca 753d
00000040: e776 8e3e 5f95 a5be 572b 903c d4f0 e83d
00000050: 547e 253e 7639 8bbe b5a7 24bd ea99 e8bd
00000060: 8d3a 573e 7849 d3bd 3e8b 973d 21a4 43be
00000070: 345c af3d dab9 a3bd 1eb9 a63c 025a afbd
00000080: 1ca2 c4bd 91ab 7abe 7483 0abe c964 af3e
00000090: 4338 2e3e 72de 38be b9d3 b93c c59f 47be
000000a0: a8d3 823e e3b5 35be b93b bfbc 2300 003e
000000b0: 3469 683e 8684 62bf 8c1c bcbc 2bcc bfbe
000000c0: e39d 79bd b13e 2ebd b8d0 783d 0b16 053d
000000d0: f779 f8bd 6b13 47be cd39 ce3d 791d d2bd
000000e0: 7afa 21be 7c74 1abe 5cb4 a43d 70b2 6fbd
000000f0: a0cb a53e 14cb 1dbd 6a67 f83d 9d37 2b3e
00000100: 8863 883c 6d17 8ebd 190e fa3d f72c f23d
00000110: 0647 303d 19eb f33d e8fe ad3d 6054 733e
00000120: eabe 37be 489a db3d 2376 b53d f556 293e
00000130: d000 06be b8f9 b7bd 5865 843e 650f 81bd
00000140: 08e1 e1bc 0dc5 f03d b050 5cbb 85f5 80bd
00000150: 4a55 e9bd c073 8cbd e515 333e 7a0b d3bd
00000160: cd60 5d3d bea3 273e f10c 823e 9d18 963e
00000170: b276 2f3f e4f1 82be 0c42 6fbd cd46 12be
00000180: f45d 2d3e f911 22be 7a7f fabc 7609 c8bc
00000190: 8259 9e3e 0219 d33c b3e9 ba3c f80b 05bd
000001a0: 86b3 993b 7d0d 4fbd 23c2 8f3d e73b ea3e
000001b0: 30ea 683e ddca c93d 8215 b33d 1510 0e3b
000001c0: 36b8 9dbc b216 323e 933d 3ebd efb4 053e
000001d0: 72a1 183f b675 a03e b1e7 a53d 3c4b 08bd
000001e0: 1d54 103d f271 353e 2f0b 963e 6b64 a33e
000001f0: 14bc f1bd f128 f1bd 3811 2e3d a40d 37be
00000200: 4a37 1abf 5024 45be 9122 d2be 71e1 86be
00000210: 5ee5 56be a7e8 7abe d774 8fbe 045c 8cbe
00000220: 750e 003e 4fc5 8d3b 3f12 1cbf 0737 2dbe
00000230: ba23 c03d c5a3 70bc 2c74 c3bc 620e 2a3d
00000240: 9a97 b2bd 25bc e1bd 8c02 07bf 7845 a33d
00000250: 7dde 873d 012e 8abd 43cb 963e 66bd 703d
00000260: 3fc6 c3be 1fcb f83d 20f1 64bd e1ab f53c
00000270: 9ce8 80bd bbb3 dabd 870b 6fbe 7897 be3c
00000280: ba1c cfbe c77c 2abe fcc9 a53d 5282 0b3e
00000290: 3c45 e3bd e74c 033e b6f1 0c3d cac5 923c
000002a0: 72e0 21bf 289e 84be bead 613a 30cc bd3d
000002b0: ae7e 21bf f3e2 f63e 4f6c 1dbe 1a76 5b3e
000002c0: 7df3 7fbe ffb4 b63e 3117 f7be dbdf a63e
000002d0: 0f13 363e f02f 54be 4a6f 673e 4b80 e8be
000002e0: 3335 a13e 0b06 2f3e 85ba e23c e7a8 6d3d
000002f0: 7d15 6f3e 7fc1 a53d b306 e5be 807e 35bd
00000300: b5ea 87be d75c 153d bd73 62bd c1e4 9abb
00000310: 95c1 54be 7628 a2bc 9c5c d63d 65b0 973d
00000320: e77c e1bc cae8 ebbe 3f5f bfbe 1586 693e
00000330: dd52 d13c 8bc8 893c 3484 ebbd 8736 3d3d
00000340: abf7 00be b7b4 a7bd e3bd 93be f705 00be
00000350: 680f f43d 026e 8b3d 3e53 5b3e 6ca7 3fbe
00000360: d912 d93e 0462 fdbe 24c4 083e 197a 9b3d
00000370: 11a5 f0bd 4d31 363d 046a 02bd c55a 4a3e
00000380: e150 1d3e c5dc 3f3d c6a8 9e3d 732c 6c3e
00000390: 8795 c63e 355f c03e aee3 debe 2552 253d
000003a0: de53 1c3e 5b52 50bf 77e7 8cbd 175b d2be
000003b0: b56d a33e a99d 133d 59f4 c7be ec87 093e
000003c0: a890 b03d c2f3 1a3e 547c c2bd 2614 963e
000003d0: 4587 38be 7cb6 01bf 4627 5f3e b44c b53e
000003e0: 6ac0 b63d 71dd 4dbd c116 b4be 0305 f3be
000003f0: 6f53 b43c 0e1f 35bf 1c36 683d 1b20 383e
0.68074155 -0.18520924 0.07214337 0.18829006 0.037789315 -0.021204432 -0.27664372 0.54440725
0.14333443 -0.2681161 0.16831699 -0.06324803 0.39543796 0.07621702 -0.06267347 0.060007773
0.2782509 -0.32340524 0.017598791 0.11374059 0.16161472 -0.27192277 -0.040199 -0.11357482
0.21018429 -0.103167474 0.07399605 -0.19105579 0.08562508 -0.07994433 0.020351943 -0.085620895
-0.096012324 -0.2447951 -0.13526708 0.3425658 0.1701365 -0.18053606 0.022683965 -0.19494541
0.25552106 -0.17745166 -0.023343908 0.12500052 0.22696382 -0.88483465 -0.022962831 -0.37460455
-0.060941588 -0.042540256 0.060745925 0.032491725 -0.12132638 -0.19441001 0.100696184 -0.10259528
-0.15818205 -0.15083498 0.08042213 -0.05851978 0.32381916 -0.03852375 0.121291 0.16720434
0.016649023 -0.06938062 0.1220972 0.118249826 0.043036483 0.11910076 0.08495885 0.23762655
-0.17943922 0.10722786 0.088604234 0.16537078 -0.13086247 -0.08983177 0.2585857 -0.063017644
-0.027573124 0.117563345 -0.003361743 -0.06296829 -0.11393221 -0.06858015 0.17488821 -0.10304923
0.054047395 0.16371056 0.25400499 0.29315653 0.6854049 -0.25575173 -0.058412597 -0.14284821
0.16930372 -0.15827169 -0.030578364 -0.024418574 0.30927664 0.02576876 0.022816515 -0.032482117
0.0046905903 -0.050549973 0.070194505 0.45748827 0.22745585 0.09853146 0.08744337 0.0021677066
-0.019252878 0.1739147 -0.04644544 0.13057302 0.59621346 0.31339806 0.08100832 -0.033274874
0.035236467 0.17719248 0.29305407 0.3191255 -0.11803451 -0.11775387 0.04249689 -0.17876297
-0.60240614 -0.19252133 -0.41041997 -0.26343873 -0.20985934 -0.24502812 -0.2801883 -0.27413952
0.12505515 0.0043264995 -0.6096534 -0.16915523 0.09381814 -0.014687483 -0.023859106 0.041517623
-0.08720322 -0.11022214 -0.5273826 0.079722345 0.06634233 -0.06747056 0.2945195 0.058774374
-0.38237187 0.12148117 -0.055894017 0.029989185 -0.06294367 -0.10678812 -0.23344241 0.023265585
-0.40451604 -0.16649161 0.08095166 0.13623932 -0.1109719 0.12822305 0.0344102 0.017916579
-0.632331 -0.25901914 0.00086089585 0.09267461 -0.6308392 0.48220024 -0.15373348 0.21431771
-0.24995227 0.35684964 -0.4825988 0.32592663 0.17780708 -0.20721412 0.22601047 -0.4541038
0.314859 0.17092149 0.02767683 0.058022406 0.23348041 0.08093547 -0.44731674 -0.044310093
-0.26546255 0.036465492 -0.055286158 -0.0047269766 -0.2077697 -0.019794684 0.104668826 0.074066915
-0.027525378 -0.4607604 -0.37377355 0.22805054 0.025552208 0.01681926 -0.11499825 0.04619458
-0.12594478 -0.081887655 -0.2885581 -0.12502275 0.11917001 0.06808092 0.21418473 -0.1871621
0.42397192 -0.49488842 0.13356072 0.07591648 -0.11750234 0.04448061 -0.031839386 0.19761188
0.15362884 0.0468414 0.07747035 0.23063831 0.38785955 0.37572637 -0.4353308 0.040361542
0.15266368 -0.81375664 -0.06880086 -0.4108512 0.31919637 0.03603903 -0.3905361 0.13430756
0.08621341 0.15132049 -0.0949637 0.29312247 -0.18020351 -0.50669074 0.21792325 0.35410082
0.08923419 -0.05026001 -0.3517361 -0.4746476 0.02201244 -0.7075051 0.056692228 0.17980997

transformer.encoder.layers.0.linear2.bias f4 [16]
00000000: a86b 91bd 4581 523d 1861 cdbd 17e6 89be
00000010: b041 11be d796 7c3d f572 103e e18e b13d
00000020: 54d4 9abc 0aaa a23d 2a7f 513d 65f7 4c3d
00000030: 03e6 b2bd 1835 923c b733 a63e 8ad1 e03c
-0.07100612 0.051392812 -0.10028285 -0.26933357 -0.14185214 0.06166729 0.14106353 0.0866983
-0.018900074 0.079425886 0.051146664 0.05004062 -0.087352775 0.017847583 0.3246133 0.027443666

transformer.encoder.layers.0.norm1.weight f4 [16]
00000000: 14bc 103f 691c 503f e35e 7f3f b559 243f
00000010: cf6b 6b3f 6ee4 c53f 6b01 6a3f ef2c 943f
00000020: c937 0940 7db5 693f e241 c93f 75f3 583f
00000030: 22e3 a83f af1e 5e3f d55c 593f 84b6 ec3e
0.56536984 0.8129335 0.9975416 0.6419938 0.9196138 1.5460336 0.91408414 1.1576213
2.1440299 0.91292554 1.5723231 0.84746486 1.3194315 0.8676557 0.84907275 0.46232998

transformer.encoder.layers.0.norm1.bias f4 [16]
00000000: 31ba 653e 0281 753e 6963 1fbe 8ae4 ce3d
00000010: 71a0 113d 5d43 68be c06f 06bc 74ab 9cbd
00000020: ed90 1fbe 2890 8c3c 8a44 b43d 2f0b a2bc
00000030: 2bad a93b af45 213e 4ea4 fbbc 6eff 043e
0.22434308 0.23974994 -0.15565266 0.10102184 0.0355534 -0.22681947 -0.008205354 -0.076498896
-0.15582629 0.017158583 0.08802135 -0.019780723 0.005178114 0.15749238 -0.030717995 0.12988064

transformer.encoder.layers.0.norm2.weight f4 [16]
00000000: 75d7 a83f 9dfa 933f 639c 923f 35af 3f3f
00000010: 111a 593f cd47 bf3f f0ce 193f 094e 1c3f
00000020: 191c b23f 4ae9 613f b76b 743f 85d7 4d3f
00000030: 23c4 823f 2f51 893f 2af7 463f 5a9e ff3e
1.3190752 1.1560856 1.1453975 0.7487672 0.848054 1.4943787 0.60081387 0.6105657
1.3914825 0.88246596 0.9547686 0.8040698 1.0216106 1.07279 0.7772089 0.499255

transformer.encoder.layers.0.norm2.bias f4 [16]
00000000: a800 b83d a8b3 c339 d52f 9cbd f034 783e
00000010: 9756 26be 0bdf 153e 9017 81bd fe2c 0ebe
00000020: 2dac f83c 1d34 00be dbb8 74bd cffc 47be
00000030: 771d f53d 5857 67bd 9f60 853e fe7b bc3c
0.089845 0.00037327153 -0.07626311 0.24238944 -0.16243969 0.14635865 -0.06303322 -0.1388435
0.030355537 -0.1251988 -0.059746604 -0.19530033 0.119685106 -0.056479782 0.2605028 0.023008343

transformer.encoder.layers.1.self_attn.in_proj_weight f4 [48, 16]
00000000: c776 afbe 3d98 7e3e fe19 9c3d ab47 e53e
00000010: 96ec f53d ee40 123f 741b 803e 8abe b23e
00000020: 1cac c73e a626 8cbd a34b 11be 23af 6fbe
00000030: ea44 1fbe c1e3 46bf 5a9e d53e ca96 8a3d
00000040: f7fb 9ebe 2bba 7abe f639 b23e b777 adbc
00000050: eedf 30bf 1230 413e 6c79 84bd f38c 98be
00000060: 0fdc 8fbe 5728 8cbe 088e 7d3e 3a0c a3bc
00000070: 64bb 043e b775 c63e bc3f 67be 402f 4cbd
00000080: 0b29 05bf 2ce2 3e3f f92f 3abf ad45 f33e
00000090: b015 a8bd 0425 043e e82e 583e 71d4 983e
000000a0: 1ed4 34be d0ee 3f3e dc11 86be edef cf3d
000000b0: 66b3 02be ba7c e1bd 1a82 b1be 9d4c 23be
000000c0: 4558 b9be 4d72 123f e262 3bbe 4620 21be
000000d0: 8afa 7f3e 2597 adbe 506f 433f 5f69 39be
000000e0: ea7f 343d abc0 1dbd 8dba 14be cfce b73d
000000f0: df16 0e3e db2d 913d 51b9 bebe 9c33 dabd
00000100: 89fc 403f 4177 febe e5d5 933e 7a66 0f3e
00000110: 4c01 9bbe 8a1f babe be8e 21bf f12a 7abe
00000120: 767a 1abe 7829 db3b ede2 d8bd b030 023e
00000130: 67f7 953e 3151 b53e 1d04 db3d 309b b639
00000140: 99db 17be 8b13 9b3e 1ef4 b8be 16ea 2d3e
00000150: 4229 bf3d 4bc7 29be 5d90 043e 488b 22be
00000160: 36d7 1f3e f6a0 303e 0245 d6bd aca1 1f3f
00000170: 8098 7d3f dfee ec3e 05f8 dfbe eca7 0c3e
00000180: e8fd ce3e c545 b5bd 3b24 bebc 214f c0be
00000190: ee8d cb3c 06f7 ce3d 6a12 d73e 3bf2 493f
000001a0: 7a74 edbe 2204 463f 4272 093f 7e7a 07bd
000001b0: b88d 52bf 1c1a 76be 0eed 413e f043 d9be
000001c0: c6b8 babd 53e3 b83c 7a5f d53d 8b05 dc3e
000001d0: f2d3 303e d123 42be a13c 0dbd 4115 93be
000001e0: 1032 143f 0ccc 3fbf 0b07 bfbe 0335 91be
000001f0: ccf5 563e 1328 bbbe 577b df3d ed8e 633e
00000200: 1264 293f 397c 09bf 1f6e 233f d92d 4e3d
00000210: a232 e0be aac6 a53e a864 91be a7b1 42be
00000220: 29c2 59be 9c32 8b3e 322b 923c 0d0a a4be
00000230: b7ad 07be 9631 5abd 4883 893e 6b18 493f
00000240: 28fb c6bd b056 d3be 9030 d6bd 30dd b4be
00000250: 1245 8cbd 479e 97be cdd1 bdbd c95e 6ebe
00000260: 981c 23be c003 6cbd 9380 bf3e b05e 123f
00000270: e6f7 623e eb9c bd3e 7a00 40be e1fd 9e3e
00000280: 0386 eebe a154 0c3f baff 0cbf c619 8cbe
00000290: edd7 fe3e 216e 63bf 6eb0 bf3e 33eb 30bd
000002a0: b1cb 0e3f 2f10 493e bca2 acbe dd55 b23d
000002b0: 26de e43d d119 01be 10a7 08bf f3f0 13be
000002c0: 3693 da3d ad56 e73d 34b7 73be fd0d 153f
000002d0: 08b3 7bbe acc3 083e 2fe7 20bd 16b2 7f3d
000002e0: 6e07 643e 79ee 56be 5932 28bc 8404 68be
000002f0: 7f2b 1cbe dd95 57be 9d49 6b3e 8b43 07bf
00000300: 6b84 43bf 3d8e 813e ee6f 5fbe ef4f 623e
00000310: 9227 0dbe 9013 3fbe 9bda 173e ef5a 8b3e
00000320: 1047 b83e 8ab8 8ebd 052d 09be 4e95 ff3e
00000330: b31c 713e 1e34 b13e e635 1a3f c266 cfbe
00000340: 7643 b13e 2907 693e 7d46 a83e b094 d2be
00000350: e3f1 f73b bbd1 b13e 27e2 f13e 7f3e 54be
00000360: 4be4 a2be ea84 7e3e 0d20 a63d e3c0 613d
00000370: a272 3dbf 256e f63c 46a1 0fbf 76dd 843e
00000380: 377a cfbe 5dde ae3f b3fd 9bbe 6db8 18be
00000390: 1291 923e 3d47 8c3e 4b5b 803e 1134 3fbe
000003a0: e8a0 a53e 6243 0fbf 9e2e 933d cef9 883e
000003b0: 6052 46be fec4 bebe 7af4 f4bd a2c1 de3e
000003c0: 791d 19bd e18d 5c3f 5422 f03a f542 993d
000003d0: 4734 cc3d d97c dfbe d994 b83e e5d6 23bf
000003e0: a075 093e 8ea3 99be 5687 bcbe 4a28 a93d
000003f0: 0e0c fdbe 2cbe 7dbd 3c49 673e 5281 1abe
-0.34270307 0.24862762 0.07622145 0.4478124 0.12008016 0.57130325 0.25020945 0.34910995
0.38998497 -0.06843309 -0.1418901 -0.23406653 -0.15553632 -0.77691275 0.41722375 0.06767042
-0.3105161 -0.2448508 0.34809846 -0.021175249 -0.6909169 0.18865994 -0.06468472 -0.29795036
-0.2809758 -0.27374527 0.24761212 -0.019903291 0.12962109 0.38761684 -0.22582906 -0.04984975
-0.5201575 0.7456386 -0.7272945 0.47514096 -0.082072616 0.12904745 0.21111643 0.2984958
-0.17659041 0.18743443 -0.261855 0.10153184 -0.12763748 -0.11010118 -0.34669572 -0.15947194
-0.36200157 0.5720566 -0.1829944 -0.15734968 0.24997917 -0.33904377 0.76341724 -0.18106602
0.0440673 -0.03851382 -0.14524288 0.089749925 0.13875912 0.07088824 -0.3725076 -0.10654375
0.7538534 -0.4970036 0.28874126 0.14003935 -0.30274427 -0.36352187 -0.6310843 -0.24430443
-0.15085778 0.006688293 -0.10590158 0.12713885 0.29290316 0.35413507 0.10694144 0.0003482937
-0.14829864 0.30288348 -0.36123747 0.16983828 0.09334041 -0.1657993 0.12945695 -0.15873444
0.1560944 0.17248902 -0.10462381 0.62356067 0.9906082 0.46275994 -0.4374391 0.13735932
0.4042809 -0.08851198 -0.023210635 -0.3756037 0.02484795 0.1010571 0.42006236 0.7888524
-0.46377927 0.77350056 0.5368997 -0.033075802 -0.82247496 -0.24033397 0.18938085 -0.42434645
-0.09117274 0.022569334 0.10418601 0.4297298 0.1726835 -0.18958975 -0.03448165 -0.28727153
0.5788889 -0.74920726 -0.3731006 -0.28360757 0.20992202 -0.36554012 0.10912197 0.2222249
0.6616832 -0.53705174 0.63839906 0.050336692 -0.4378863 0.3237813 -0.28397107 -0.19013081
-0.21265472 0.2718705 0.017842863 -0.32038918 -0.1324986 -0.053269945 0.26857972 0.78552884
-0.09715873 -0.41277075 -0.10458481 -0.35325003 -0.068491116 -0.29612944 -0.09268532 -0.23278345
-0.15928876 -0.057620764 0.37402782 0.5717573 0.22164878 0.3703378 -0.18750182 0.3105307
-0.46586618 0.54816633 -0.5507771 -0.27363414 0.49774113 -0.8883992 0.37439293 -0.043193053
0.5577956 0.1963508 -0.33717906 0.08707783 0.11175184 -0.12607504 -0.5337992 -0.14447384
0.106726095 0.11295829 -0.23800355 0.5822447 -0.24580014 0.13355893 -0.039282974 0.062425695
0.22268459 -0.20989408 -0.01026591 -0.22657973 -0.15250967 -0.21053262 0.229773 -0.5283744
-0.7637393 0.25303832 -0.21820042 0.22100805 -0.13784626 -0.18659806 0.14829485 0.27217814
0.35991716 -0.06968792 -0.1339608 0.49918598 0.23546104 0.34610075 0.6023849 -0.40508085
0.3462178 0.22756638 0.32866278 -0.41129065 0.007566677 0.34730324 0.47242853 -0.20726965
-0.318148 0.2485539 0.08111582 0.05511559 -0.7400304 0.030081818 -0.5610546 0.2595021
-0.4052293 1.366161 -0.30466995 -0.14914103 0.28626305 0.273981 0.2506965 -0.18672206
0.32349324 -0.55962193 0.07186626 0.26753086 -0.19367361 -0.37259668 -0.11960693 0.43507105
-0.037381623 0.8615399 0.0018320777 0.07483474 0.099709086 -0.4364994 0.36051062 -0.6399978
0.13423777 -0.30007595 -0.36822003 0.08259638 -0.4942326 -0.06194894 0.2258653 -0.15088394

transformer.encoder.layers.1.self_attn.in_proj_bias f4 [48]
00000000: 96d8 97be 0c74 c23e a46d 47bf eb2d 3cbf
00000010: de36 af3e 5f24 613e ee33 8bbd 9156 a3be
00000020: 1dce 2a3f ffac 783f 3e36 edbe 5276 09bf
00000030: 2ab3 8cbc 17d8 f2be 7f31 a0be 697b a7be
00000040: 6006 68b9 e50e 96b8 7696 9538 3179 acb7
00000050: c177 4e39 5ac5 f237 bca3 0039 9105 5ab9
00000060: 71ba 96b9 4cd4 4e38 5b3a a838 e6f9 65b9
00000070: dded a239 e58a 49b8 8e40 87b8 402f c538
00000080: ac2e f03d 7583 d43c 84f8 19be 8521 b8be
00000090: bd0e 803e 9692 3d3e 3cfa 79be 4072 07be
000000a0: 5c3c aebe cc32 02be 1efd 003e ec62 de3d
000000b0: c63e 7e3d 1563 56bd bdf5 603e 0919 8e3a
-0.2965743 0.37979162 -0.77901673 -0.73507565 0.34221548 0.2198653 -0.06797014 -0.31901982
0.66720754 0.9713897 -0.46330446 -0.5369617 -0.017175276 -0.47430488 -0.31287763 -0.32711342
-0.00022127619 -7.155332e-05 7.132899e-05 -2.0560432e-05 0.00019690303 2.8940547e-05 0.00012268027 -0.00020792174
-0.0002874914 4.9311944e-05 8.021734e-05 -0.00021932236 0.0003107627 -4.805149e-05 -6.449326e-05 9.402493e-05
0.11727652 0.02594159 -0.15036207 -0.35963073 0.25011244 0.1851295 -0.24411863 -0.13227177
-0.34030426 -0.1271469 0.12596557 0.108587116 0.062071584 -0.052340586 0.21968742 0.0010841201

transformer.encoder.layers.1.self_attn.out_proj.weight f4 [16, 16]
00000000: 256b 953e fd73 ec3b 71d9 973d 0982 633e
00000010: 2379 8b3e 25ed 9e3e a1ab 60be 951f babd
00000020: 792e 43bd ab0b 893d bc16 9c3e defb 933e
00000030: 11bd 773e f9e5 19be 0d7b 1b3a 76f1 d2be
00000040: f42e 2e3e c140 253e f7d5 de3d 0a86 683d
00000050: 7661 543d 8921 87be cba3 8cbe 4ee7 8e3e
00000060: 92b6 8a3e aab5 2ebe 4a63 a33e aede f23d
00000070: 4f3f 883e 85b2 2cbf a8d2 2cbf cb76 06be
00000080: 9e30 303d 9f4d 9e3e 2ec8 f03e f753 cf3e
00000090: 6c95 e23e 2a5e 1b3f 16f2 64be ec27 3bbe
000000a0: 6a27 e7ba 0132 55bd 0b9f 943d e91d 2f3e
000000b0: b10e f13d a049 08be c993 833e f70e c4bd
000000c0: c6fa a33d 14e1 eb3d 1f3d b1be 1210 813e
000000d0: c832 b1be 5031 853e dacc 91be b49e a93e
000000e0: ad03 8a3e ce8f eebd 6288 c33e e10e c1bd
000000f0: 39bb 26bf 658d 1fbd 3fb4 8f3e c253 a23e
00000100: 6d0a 98be 8181 003f 1248 c33e 974e ee3b
00000110: 4ba3 cb3d 1cec 29bd 0fc8 4cbe b497 bfbe
00000120: 809a 81be acef 56be 4fa0 103f cc57 d33e
00000130: fef0 9fbe 2da5 9c3e 48ad 033e 3d3d 543e
00000140: f117 92b9 4be7 0fbe adbd d23d d251 78be
00000150: 1cbe e53d 3060 6f3c bfc5 10be ee86 8c3d
00000160: 31f6 c23d 9e37 cdbc d9cc 30be 6a3d b13e
00000170: 76b8 e03d b757 a7bd 42b5 b63d f3b1 81be
00000180: ac24 e2be b348 763d 2d3b 93bd eb0f a5be
00000190: bc7a 1f3f bf9b 88be c7b2 2dbe 0845 29bd
000001a0: c6e1 c43d f6d1 8ebe 9273 5fbe 481b 6e3d
000001b0: c40a 9c3e 0c07 9abc d6f0 81be a26f 363e
000001c0: 4813 bb3c 3c58 a2be 16be bd3d efe9 83be
000001d0: 4d78 193f 21d5 503d 9470 fb3d 36a9 b53e
000001e0: 60bd 403e ccdf e7be 1055 3a3e 64bd 95be
000001f0: b263 23bf 1742 4b3f 3f68 2ebe 5ee7 b5be
00000200: 3fd7 c23c 156d ff3c f9d3 01be 761f 90be
00000210: fe29 1b3e aa22 57be 7bc5 3cbe e7d8 5a3a
00000220: 7de1 e0bd f589 8d3d 39c8 4f3c a0c8 4dbe
00000230: c86a 833c 1112 a93b a072 9fbd a7cc afbb
00000240: ed17 573c d317 fe3b a597 61bd 1733 7b3e
00000250: 83f1 773e 8088 1cbe dce7 413e 9e6c 9ebe
00000260: c284 103f 261d 2dbe e4a0 ac3d fc1e 7fbe
00000270: 683a 10be 5668 c6be d0c9 ec3d 43ce ac3e
00000280: 30df 58be 8e0d 043e a205 83be dcb0 57be
00000290: 2f35 74be 5394 823e c4fe e93c 8905 77be
000002a0: 4f4b 003e d3ad 16be 00ad 743e ab7f 2dbe
000002b0: e528 55bd c80f 05be e137 73bd da0d 293e
000002c0: e157 0abf 874d 043e 994f db3d 5bb8 f63d
000002d0: 1ac4 7cbe df63 fcbe 70d2 c2bc b338 11bf
000002e0: a936 233e 8d7e cb3e 4a8f 24bd 0525 c73e
000002f0: 3ddf 903e f7d9 0b3d de19 8dbe 5ee2 f23e
00000300: 0acc 313e 0e84 bebc 83ed d93e 5c43 803e
00000310: 759f 71bd 779a 443e a4a7 ab3e fce5 833d
00000320: 68b4 8e3d 97e0 093f 98d7 51bf bdbb 473e
00000330: 9ed3 423e ea60 9e3e 4208 503e 7589 fc3d
00000340: 5ba2 27be 8b03 f2bd b41a 5f3d fd5b 27be
00000350: 5c12 6b3d dd57 1fbe edfb 703e eb77 ce3c
00000360: 7468 ef3e 65e3 b0bc b7fd 37be e166 c3bd
00000370: b38d e5bd d8aa 71be a452 0fbe a702 65be
00000380: 1070 4dbe 68b7 4dbf e689 10be 2f6b 223e
00000390: 6b40 023e 9bff f2be 5582 f3be cbdf 44be
000003a0: 6e6a 053f 588c adbd 9360 463e 606b e73e
000003b0: 6fe8 53be 3b37 17bf 0b64 483e 6663 20bf
000003c0: 5932 333f fe38 a7be 4017 dabe 6422 94be
000003d0: a6d8 c63e bbea 7bbe e002 ee3e 585c ab3e
000003e0: 7270 43bf 817d 7abb e2b3 903e 594d a03d
000003f0: 3a73 163e 11d9 273e 8f22 b9bc be3a 6ebe
0.29183307 0.0072159753 0.074145205 0.22217573 0.27240857 0.31040302 -0.21940471 -0.09088055
-0.04765174 0.066916786 0.30486095 0.28903097 0.24193217 -0.15029134 0.0005931117 -0.41199845
0.17010099 0.16137983 0.10880654 0.056768455 0.05185076 -0.26392773 -0.27468714 0.27910846
0.27092415 -0.17061487 0.3191169 0.11858879 0.266108 -0.674599 -0.67508936 -0.13131253
0.043015115 0.30918595 0.47027725 0.40493748 0.44254625 0.6069056 -0.22357973 -0.18276948
-0.0017635648 -0.05204964 0.072568975 0.17101254 0.1177038 -0.13309336 0.2569869 -0.09573167
0.080068156 0.115175396 -0.34616944 0.25207573 -0.34609056 0.26014185 -0.28476602 0.33128893
0.2695593 -0.11648522 0.3818999 -0.09426666 -0.6512943 -0.038953204 0.28067204 0.31704527
-0.29695454 0.5019761 0.38140923 0.0072725522 0.09943255 -0.041484937 -0.19998191 -0.37420428
-0.25313187 -0.20989865 0.5649461 0.4127792 -0.3123855 0.3059477 0.1285907 0.20726486
-0.00027865128 -0.14053075 0.10290084 -0.24249962 0.11217901 0.014610335 -0.14137934 0.06861673
0.095196135 -0.025050934 -0.17265643 0.34617168 0.10972683 -0.08171027 0.08921291 -0.25331077
-0.44168603 0.060127925 -0.07189021 -0.32238707 0.6229665 -0.26681325 -0.1696273 -0.0413256
0.09613375 -0.27894562 -0.2182143 0.058131486 0.30476964 -0.018802188 -0.25379056 0.17816022
0.022836342 -0.31707942 0.09264772 -0.25764415 0.5994919 0.050984506 0.12277332 0.3548066
0.18822241 -0.4528793 0.18196511 -0.29246056 -0.63824 0.7939772 -0.17031954 -0.35528082
0.023784278 0.031179944 -0.12678517 -0.28149003 0.15152737 -0.21009317 -0.18434708 0.0008348361
-0.109805085 0.06911079 0.012682014 -0.20096064 0.016042128 0.0051596244 -0.07785535 -0.0053649726
0.013128263 0.007754305 -0.05507626 0.24531208 0.24213223 -0.15286446 0.18936104 -0.30942243
0.5645257 -0.1690565 0.08429125 -0.24914163 -0.1408478 -0.38751477 0.1156193 0.33751115
-0.2117889 0.12895796 -0.25590235 -0.2106356 -0.23848413 0.25503787 0.028563865 -0.24123205
0.12528728 -0.14714746 0.2389412 -0.16943233 -0.052040953 -0.12994301 -0.059379462 0.1650919
-0.5404034 0.129202 0.107085414 0.12046882 -0.24684182 -0.49294946 -0.023781985 -0.5672714
0.1593882 0.39744988 -0.040175714 0.3889543 0.28295317 0.034143414 -0.27558798 0.4743833
0.17362991 -0.023256328 0.4256402 0.2505139 -0.05898996 0.19199549 0.33526337 0.064403504
0.069680035 0.5385832 -0.81969595 0.1950521 0.19026038 0.30933315 0.2031565 0.12330905
-0.16370527 -0.11817082 0.054468825 -0.16343684 0.057390556 -0.15560861 0.23533602 0.025203666
0.4675938 -0.021592805 -0.17967878 -0.09541107 -0.112086676 -0.23600328 -0.13996369 -0.22364293
-0.2006228 -0.8035798 -0.14115104 0.158612 0.12719886 -0.47460636 -0.47560373 -0.19225995
0.52115524 -0.08474034 0.19372778 0.45199108 -0.20694135 -0.5906865 0.19569413 -0.6265167
0.699987 -0.3266067 -0.42595863 -0.28932488 0.38837165 -0.24601261 0.46486568 0.3346889
-0.7634345 -0.0038221779 0.2826224 0.07827253 0.14692393 0.16391398 -0.022599487 -0.23264596

transformer.encoder.layers.1.self_attn.out_proj.bias f4 [16]
00000000: 977f a53c 52a7 57be c312 6abe 3c2a 693e
00000010: b405 c33c bce6 7cbe ee56 6abd dc5b c33e
00000020: 45dd 76be 35ef 053e 96f5 ab3d 5cff 9a3b
00000030: 1acd 803d ee6a d83d b327 943e 1d01 a63d
0.020202441 -0.21059921 -0.2285872 0.22770017 0.02380643 -0.24697393 -0.05721181 0.3815602
-0.24107845 0.13079531 0.08396451 0.0047301482 0.0628912 0.1056727 0.28936538 0.08105681
