experiments/SWT-T all implementations/darts_logs/REE_base_transformer_9_24/checkpoints/best-epoch=2-val_loss=0.00.ckpt (torch, 378459 bytes, 201 tensors)

encoder.weight f4 [16, 1]
00000000: a171 07bf ff5a 96bf 2e25 60bf 7285 85bf
00000010: 4a11 163f 0bcb aa3f 9884 2b3f f8f8 a33f
00000020: b4e6 abbf c9c4 8d3f 8d0b ab3f b836 8bbf
00000030: 4326 0abf dacd 8dbf 4886 613f 4356 b63e
-0.5290776 -1.174652 -0.8755673 -1.0431349 0.5862013 1.3343214 0.66999197 1.2810354
-1.342978 1.1075679 1.33629 -1.0876074 -0.5396463 -1.1078446 0.8809552 0.35612687

encoder.bias f4 [16]
00000000: 60f8 aa3e caf8 713c 0ed9 063e 3660 953e
00000010: b2ee c0be f319 9ebf c8e5 83bf 0eb6 6bbf
00000020: 4b42 343e 6f8a 9abf 4073 ffbe db58 adbe
00000030: 1c90 f83d fc7f b4be 355d 30bf bad8 72bf
0.3339262 0.014768789 0.13168737 0.29174966 -0.3768211 -1.2351669 -1.0304499 -0.9207467
0.17603414 -1.2073497 -0.49892616 -0.33856854 0.12136862 -0.35253894 -0.6889222 -0.9486195

transformer.encoder.layers.0.self_attn.in_proj_weight f4 [48, 16]
00000000: a18d 103f a93a 2d3e b0f5 8dbf 114d 0cbf
00000010: e931 c5bd c8de f1be 8e12 5dbe 7503 f33e
00000020: d386 0cbd 64d8 3abe 87a9 34be 9f1d 86be
00000030: 74ba 253e e5b8 523d a832 bbbe 63ff 3f3d
00000040: 16a6 b2bd 6038 053e 4c68 2abe 81e2 8b3d
00000050: c2ab 3e3e 24b8 ad3e 0115 893e 102c 43be
00000060: 4cb2 13be 86ee 753f a343 193f 1573 5cbe
00000070: f155 90bf 5d64 39be 1503 b23d 1cf9 843e
00000080: 9d47 33bd a5e6 c13e 2866 49bd a7d9 fb3d
00000090: a82f 473e 3195 363e ff25 77be 05a4 903e
000000a0: fad8 b3be f71a 743f 722a 9f3e aa81 953e
000000b0: 79d4 7fbf 12d3 77bd 0ac9 093e 784c 5a3e
000000c0: 9c89 fabe e450 1b3f 5626 05bf b2ae 2d3f
000000d0: 6104 a5bd 00be 48bd e40c fe3c 4275 cebe
000000e0: d860 c93e 6230 c8bf b3b5 57bf 6f7f 423e
000000f0: 4483 883f 2cc6 783d d198 f4b9 606e b8bd
00000100: 40d4 b7be 1996 0e3f 9376 803f 553b 00bf
00000110: cc7a 38be 7491 893e 1977 b63e 4c06 88bf
00000120: 2005 823f bc50 30bf 0da5 e4be c5c0 613e
00000130: 4e05 303f 5b89 07be 7a64 6b3e e6a0 04bf
00000140: 0440 ac3e 38d0 df3d 54e4 6ebe 7214 0dbe
00000150: 3a77 f2bd 3ca8 463e cecf cabd 892d 9e3e
00000160: 29b7 233e 8534 d23e b484 803e 559a a43e
00000170: f0ef 5dba 9592 a73d 3ca5 ccbe 4123 7b3e
00000180: 057d f5bd 6d7f 8abe 956a 37be 086e 253e
00000190: 0fb5 6dbc 4bb2 ab3e fb3e b2be a3c7 22bf
000001a0: 2d02 313f 7007 95be 2090 13bf 6801 c83e
000001b0: bda7 823f fedc c63e 380a 78be f10b 14bf
000001c0: 28f1 7fbe d961 38be f1ae 62bd 6959 ea3e
000001d0: eae4 b1be 69a9 0c3b aa22 513f 7076 c1be
000001e0: ee1f 8e3c 7547 0b3f 9b41 5e3e 75d6 083f
000001f0: 2a5d a5be 1846 0a3f ac36 2fbf d1ab b53e
00000200: f35d dfbe 987d 1abe 7b5b 09be 4a91 58bf
00000210: c774 4f3e 8fc4 6cbe 0b41 003f 54d0 cb3e
00000220: 0d83 d2be 4c08 c93e 9c08 4d3f 943c c5be
00000230: 8e66 12be 5754 97be d8f1 b53c 5633 b23d
00000240: b55b 1e3e 2b53 cbbe 61bb a0be 26c4 343f
00000250: 7df3 4b3e 0d96 f0bd 5c30 2abd 5a96 043e
00000260: 2fab 9e3c fff9 2c3e c120 173e 782d 823d
00000270: 0b9c 99bd c3c0 c33e 48ae 973c 0d31 c3be
00000280: b83d 793e be22 373d fd78 2f3e 6648 9f3d
00000290: 8e0c cd3e a24e 2c3e 66a7 8abf 7374 ad3e
000002a0: d608 eebd efd0 6cbe d618 84be e220 c53e
000002b0: ca55 313f de3a 3f3f aee1 04bf 3caf 44be
000002c0: ae68 81be e437 d63c 4b77 033e 15a0 7bbe
000002d0: f827 71be 06cf 1b3e 3cd4 193e 6b26 7cbe
000002e0: f766 233f 8cb7 28be 27ae 2fbe 6829 233f
000002f0: 0e62 a13f f943 7b3e 95cc 253e bd2d b4bd
00000300: dbff 723e 116e c93e a1d9 28bf 3e8a 7dbe
00000310: 08ed 79bf 0d84 fc3d 69ac 6f3f 9b79 e9be
00000320: 4177 5e3e a8aa 9b3e c674 033f c92b 14bf
00000330: 7595 14bf fdad f0be f08a f13e e9a6 033c
00000340: 7726 0b3d 3d5b 96bd db31 fc3d 1174 90be
00000350: 457d 37bf 6c9c 023f fd1c 833f f3ef 9fbf
00000360: f16a b33e c690 cf3d 6190 41bb e221 30bf
00000370: 116a 28be 976b 60bf 37ed 623f 39cb 14bf
00000380: 689c a6be 7f92 abbe 6c4a fcbe 478e 8a3d
00000390: 252c b1be 5274 7cbe 0e6e 23bf 5bb2 ab3e
000003a0: ec90 0bbf a77a 093f 4a7b 5c3e ccb0 fa3d
000003b0: 2691 65bf ff21 533b bd79 1dbf 2d0b 4b3f
000003c0: 94bb 503c 371a 95bd c734 913f 2be6 783e
000003d0: 6670 dcbe 02a3 063f 0e15 b93f b402 c7bf
000003e0: 65e9 923f 1aec 12be f56c e03e 1f9d f7be
000003f0: 5557 6e3f c772 d3be b600 6c3f 11f8 1cbf
0.5646611 0.16916908 -1.1090603 -0.54805094 -0.0962866 -0.4724028 -0.2158911 0.47463575
-0.034308266 -0.18246609 -0.17642795 -0.26194474 0.16184407 0.05144586 -0.36562085 0.046874415
-0.08723085 0.13009787 -0.16641349 0.068303116 0.18620208 0.3392955 0.26773837 -0.19059777
-0.14423484 0.9606708 0.5986883 -0.21528275 -1.1276227 -0.18104692 0.08691994 0.25971305
-0.043769468 0.3787128 -0.04916969 0.12297373 0.19451773 0.1783035 -0.24135588 0.28250137
-0.35126477 0.95353645 0.3108707 0.29200488 -0.9993358 -0.060504027 0.13455597 0.21318233
-0.48933113 0.60670304 -0.5201162 0.6784469 -0.08057476 -0.049009323 0.031012006 -0.40323836
0.39331698 -1.5639765 -0.84261626 0.18993925 1.0665059 0.060735866 -0.00046653164 -0.09005427
-0.3590412 0.5569778 1.0036186 -0.50090533 -0.18015593 0.26868784 0.3563774 -1.0626922
1.0157814 -0.6887319 -0.44657174 0.22046192 0.68758094 -0.1323599 0.22987548 -0.5180801
0.3364259 0.109283864 -0.23329288 -0.1377733 -0.11839147 0.19400114 -0.09902917 0.30894116
0.15987839 0.41055694 0.25101244 0.32148996 -0.00084662344 0.08182255 -0.39969814 0.24525167
-0.11986736 -0.27050343 -0.17911752 0.16155255 -0.0145085 0.33534464 -0.34813675 -0.6358587
0.69143945 -0.29107237 -0.5764179 0.39063573 1.020744 0.3884048 -0.24222648 -0.5783072
-0.24994338 -0.18006076 -0.05534262 0.4577134 -0.3474496 0.002146328 0.8169352 -0.37785673
0.01734921 0.5440591 0.21704714 0.53452235 -0.3229764 0.54013205 -0.684428 0.35482648
-0.43626365 -0.15086973 -0.13413803 -0.84596694 0.20259391 -0.23121856 0.5009925 0.3980738
-0.4111561 0.39264143 0.8009126 -0.3852278 -0.14296934 -0.29556534 0.022210047 0.08701198
0.15464671 -0.3971189 -0.3139296 0.706118 0.19917102 -0.1174737 -0.041550025 0.1294798
0.019368736 0.16892241 0.14758588 0.06356329 -0.07500466 0.38233003 0.018515721 -0.3812336
0.2433995 0.044710867 0.17135997 0.07777481 0.4004864 0.16826871 -1.0832336 0.33877906
-0.11622779 -0.23126577 -0.25800198 0.3850165 0.6927153 0.746992 -0.5190686 -0.19207472
-0.25275177 0.026149698 0.12838475 -0.24572785 -0.23550403 0.15215692 0.15022367 -0.2462403
0.63828987 -0.16476268 -0.17156278 0.63735056 1.2608049 0.24537648 0.16191323 -0.087977864
0.23730414 0.39341787 -0.65957075 -0.24759766 -0.97627306 0.12329874 0.9362245 -0.4560059
0.2172518 0.30403638 0.5135006 -0.5787931 -0.58040553 -0.47007743 0.47176313 0.0080354
0.03397223 -0.07341621 0.12314197 -0.28213552 -0.7167552 0.5101993 1.0243222 -1.2495102
0.35042527 0.10135035 -0.002953552 -0.688017 -0.16446711 -0.8766417 0.8864321 -0.58122593
-0.32541203 -0.33510205 -0.4927553 0.067654185 -0.34603992 -0.24653748 -0.63839805 0.33534512
-0.5451801 0.5370278 0.21531406 0.122407526 -0.89674604 0.0032216308 -0.6151388 0.7931393
0.012740035 -0.07280391 1.1344231 0.24306552 -0.43054503 0.5259248 1.445955 -1.55477
1.1477476 -0.14347878 0.43833128 -0.4836206 0.9310201 -0.41298506 0.92188585 -0.6131602

transformer.encoder.layers.0.self_attn.in_proj_bias f4 [48]
00000000: 6e8c 8ebd fe5d 243e e224 f53e 919b 03bf
00000010: cbf9 2bbf 70b0 dc3e a6ba 8bbe 78b1 1a3f
00000020: 5e19 273e 19b8 78bd 4397 423e df3f ca3d
00000030: e37b 35be cc93 14bf 2330 003f 97cd b7be
00000040: 6f3a c0b9 175d ddb7 e61e 9f39 2c56 e6b8
00000050: 15da 88b9 11a0 9c38 24ac e9b9 9183 2a3a
00000060: d6d9 77b9 2ae8 a537 8974 5a3a c2c9 ef39
00000070: 1c85 d739 6353 703a 075c 98ba 7f3d 553a
00000080: d728 43bd 69e3 773d 5b0c 32bd c644 f5bb
00000090: 944d 8abc 98b4 c03d cdd5 64bd e4c4 17bc
000000a0: 9710 9fbd 2228 bf3d c88e b4bd 0192 04bd
000000b0: b214 2b38 df00 f1bd 72d3 84bd e9e2 b8bd
-0.069603786 0.1605148 0.47879702 -0.5140925 -0.6717803 0.4310336 -0.2729084 0.60427046
0.1631827 -0.060722444 0.19003014 0.09875464 -0.1772304 -0.5803802 0.5007345 -0.3589904
-0.0003666463 -2.6388601e-05 0.00030349864 -0.000109833054 -0.00026102425 7.468474e-05 -0.00044569478 0.000650459
-0.00023636906 1.9777643e-05 0.0008333405 0.00045735954 0.0004110717 0.0009167699 -0.0011624106 0.0008134469
-0.04764637 0.06051961 -0.043468814 -0.007485005 -0.016882695 0.094094455 -0.05586796 -0.009263251
-0.07766836 0.093338266 -0.08816296 -0.032365803 4.078885e-05 -0.11767744 -0.064856425 -0.09027655

transformer.encoder.layers.0.self_attn.out_proj.weight f4 [16, 16]
00000000: a054 563e d5f9 5abe 97ac 3bbd 0541 1e3e
00000010: 0b24 313e 9c45 9e3e b6f4 2abc 885a b83e
00000020: cf8b 843d ac1f ef3e 8b24 253c de7a c4bd
00000030: 7dab 1bbe f538 073f 7d97 1b3e be43 25be
00000040: 494f 1dbe b1a1 fdbd 05bc 75be 0b0a 0b3e
00000050: 1a4a 433e 001f 583e d368 44bd 9602 90be
00000060: 4f1b 8dbd c1cb 623e 668c 22be 63e1 9ebe
00000070: 5f2c 9fbd 4cd8 9cbd 1677 d73d ad39 e8bd
00000080: b86e 203e 29ea 763e 16d9 23be 3a8c dd3d
00000090: b87b 4f3d ad1a 79be 4e19 22be 1457 173d
000000a0: 33c9 443e 3c5d 813b 4598 033e 1703 163d
000000b0: 66e6 663d f02c 98bc 526f bb3d 578c 50bc
000000c0: cfcf 463e 3783 9f3d dd46 2bbe 9588 b73d
000000d0: af54 813d cc9f 3d3d 5843 efbd b130 6f3d
000000e0: 0955 be3e 827b 32be 5b95 6ebe a18d 46bd
000000f0: a139 4abe 2fb5 bd3e 40fd cdbd 37a4 c1bc
00000100: c779 39be d08b 463d 92ba edbb 0a02 35be
00000110: 2fa4 26be 5baa 08be a6ad debd 593e 32bd
00000120: 4fa9 7d3d 058e 133e 96df 87be f0b7 aabe
00000130: cdeb 813d e0d5 31be 7414 453e 8dc0 903e
00000140: 15b3 62be d22e 8abd c191 063d 86fe c1be
00000150: 6161 a3be 7fde e23e c4e1 983e 1d76 9ebe
00000160: 7269 813e 7d51 0ebe 16ae 943e 60d0 f13d
00000170: af39 bb3d b719 ff3d 31a7 91bc 4981 43be
00000180: 780f f8bd 0bd8 0f3e bfed abbd 917f a1be
00000190: d371 4ebe 654f 413d 26f8 5dbd 0430 07be
000001a0: d74f c53d 907b f2bd 028d 88bd bba2 743c
000001b0: eb49 c4bd bfc4 92bd 2248 1dbe 2144 d33d
000001c0: b525 813d 1110 303c 939e 703d eceb 303e
000001d0: e740 623e 3836 f6bd 2402 cbbd 038b 7bbd
000001e0: 230d a738 4225 82bc b9f1 a5bc 3d0f 7bbe
000001f0: 5a09 9e3d 6e9f acbc 904e 4fbd 0017 f73d
00000200: 246a ee3d f694 52bd fe0c 82bd 8d37 94be
00000210: 4692 a03e 9af0 1cbe 99ee 4b3e e8d2 8c3e
00000220: 2e90 b83d 10c3 f23c 6dda d1bd f1a2 8abb
00000230: 73af 60bd 2ab7 6a3d 9fce 303d 3294 1cbe
00000240: 9de4 053e 4f8d 4ebd b4cb b2bd bc0f 523e
00000250: cca3 af3e af2a a53e 4339 02be 266c b63d
00000260: b326 bfbd 36da 56bd 56e9 a73c 2ea6 b7be
00000270: 90fc 313d 9532 09bf 9290 223e 1a9e 803c
00000280: 7f92 4fbe f3ee 96bd f38d 273e f615 66bd
00000290: 3ed6 263e ffa0 41be e390 9f3d e3a6 b33e
000002a0: 8636 0abc 6d16 173d 590e 993d d205 81bd
000002b0: 7e46 413e 7168 ac3d 7963 ff3b 6819 efbd
000002c0: 3978 763e bf7e a23c 98bc 723d a4ca 89be
000002d0: f793 413a 56b9 57be b0bd 7a3e f424 88be
000002e0: 5594 c1bd 0dbd 36bd 22e4 91be b27b ba3e
000002f0: 544e ccbe bac5 8bbe 72e7 033e b648 07be
00000300: aceb f43c 3d81 d0bd 4d1b 78ba 167c d6be
00000310: e05e ac3d aa3b 8c3e 98bb 2bbd e49c f9be
00000320: ab77 50be 9f09 0cbe 266b 3b3e 1c78 913e
00000330: e56a 8d3c e8a6 34bd f3ec d23d a877 313e
00000340: 672a debd 05e7 1d3e 11ae 913d c1b3 003e
00000350: 8ecd 4bbd 6cd1 5cbd 7f21 aabd b63d 393d
00000360: 88cb 5abe a929 a83d 810b a8be a927 3d3e
00000370: 76bb 2b3e 5b96 813e 6b23 313d 4945 343e
00000380: 60d8 8abc 9fd3 0b3d 28bf 873e bb09 d53d
00000390: 6f47 56bd eb26 9d3d c3a0 7abe 9357 203e
000003a0: 3680 18bd e3bc 70bd ba3f 813e f30c 7d3d
000003b0: 6b06 243c 5dab 293e c9cf b83d a456 343e
000003c0: 6526 44bd a205 f93e b1d4 593d 8d9f c5be
000003d0: 759b 43bf a379 033e 1c58 6dbe 0eb6 b5be
000003e0: 74b7 563c 44ef a43d 7c82 8bbe 3d51 503f
000003f0: 79d3 1a3f 10f2 fb3e 58ea 353f 93b8 26bf
0.2093072 -0.21384366 -0.04581889 0.1545449 0.17298906 0.30912483 -0.01043432 0.3600657
0.06471979 0.4670385 0.010079513 -0.095937476 -0.15202136 0.52821285 0.15194507 -0.16139123
-0.15362276 -0.12384356 -0.23997505 0.1357805 0.19071236 0.21105576 -0.04795153 -0.28126973
-0.06889974 0.22148038 -0.1587387 -0.3103133 -0.07772135 -0.07658443 0.10520761 -0.11339126
0.15667236 0.24112763 -0.1600078 0.10817762 0.050655097 -0.24326582 -0.15829965 0.03694828
0.19217376 0.003947882 0.12851055 0.03662404 0.05637207 -0.018576115 0.09152092 -0.012728772
0.1941521 0.07788699 -0.16726251 0.08961598 0.0631498 0.046294972 -0.11682767 0.058396045
0.37174252 -0.17429927 -0.23299162 -0.04847491 -0.19748546 0.37052295 -0.10058069 -0.023637874
-0.1811286 0.04847318 -0.007254907 -0.17676559 -0.16273569 -0.13346235 -0.108729646 -0.04351649
0.061929043 0.14409645 -0.2653777 -0.33343458 0.063438036 -0.17366743 0.19246083 0.28271905
-0.22138627 -0.067472115 0.032853846 -0.37889498 -0.31910232 0.44310376 0.29859746 -0.30949488
0.2527576 -0.13898273 0.29039067 0.118073225 0.09141862 0.124560766 -0.017779918 -0.19092287
-0.121123254 0.14047258 -0.08394956 -0.31542638 -0.20160608 0.047194857 -0.05419173 -0.1320191
0.09634369 -0.11839974 -0.0666752 0.014931376 -0.09584411 -0.071664326 -0.15359548 0.10315729
0.0630602 0.010746018 0.05874498 0.17277497 0.22095071 -0.1202206 -0.09912518 -0.06141187
7.9656274e-05 -0.015886907 -0.020256864 -0.24517532 0.077166274 -0.021072116 -0.050612032 0.12064934
0.116413385 -0.05141159 -0.06350134 -0.28948632 0.31361598 -0.15326157 0.19915237 0.2750466
0.09011875 0.029634029 -0.102467395 -0.00423085 -0.05485482 0.057303585 0.0431658 -0.15290907
0.1307549 -0.05042773 -0.087302595 0.20513815 0.34304655 0.32259127 -0.12717156 0.089073464
-0.09333553 -0.052454196 0.020497005 -0.35868973 0.043453753 -0.5359281 0.15875462 0.015700389
-0.20270728 -0.07369795 0.16362743 -0.056173287 0.16292664 -0.18909071 0.07791307 0.35088262
-0.008435851 0.03688662 0.0747344 -0.06299938 0.18874547 0.08418358 0.0077938405 -0.11674768
0.24069299 0.019835828 0.05926189 -0.26912415 0.0007384414 -0.21066794 0.24486423 -0.26590693
-0.0945212 -0.044613887 -0.28494364 0.36422497 -0.3990351 -0.2729929 0.12881258 -0.13211331
0.029897533 -0.101809 -0.00094645174 -0.41891545 0.084165335 0.2738927 -0.04192695 -0.4875251
-0.2035815 -0.13675545 0.18302593 0.2841195 0.017262885 -0.044104487 0.10299101 0.17330801
-0.10847931 0.15420158 0.07113279 0.1256857 -0.04975658 -0.053910658 -0.0830717 0.045224868
-0.21366704 0.08211071 -0.32821277 0.1847216 0.1677073 0.25310025 0.043246668 0.17604555
-0.016948879 0.034137364 0.26513028 0.104022466 -0.052314218 0.07673439 -0.24475388 0.15658407
-0.037231646 -0.058773886 0.25243932 0.061779927 0.010011296 0.16569276 0.09024007 0.17611176
-0.04788818 0.4863711 0.053181354 -0.3859829 -0.76409084 0.1283937 -0.23178142 -0.3549046
0.013105262 0.08053449 -0.2724799 0.8137396 0.6047893 0.49208117 0.71060705 -0.6512539

transformer.encoder.layers.0.self_attn.out_proj.bias f4 [16]
00000000: 03df 2bbd 616e 4dbb f884 8cbc 8a1f 29bc
00000010: a881 f8bc a038 c9bd 154f c03d 9f04 123a
00000020: f70e 99bd 7e22 c3bc 7126 3b3d 090e c93d
00000030: 7f51 7dbd 13ad 693d 2f54 8fbd a590 8d3d
-0.041960727 -0.0031346309 -0.017153248 -0.010322461 -0.030335262 -0.098252535 0.09390084 0.00055701466
-0.074735574 -0.023820158 0.045690957 0.0981713 -0.0618453 0.057049822 -0.069984786 0.069123544

transformer.encoder.layers.0.linear1.weight f4 [128, 16]
00000000: 01f1 863d 8151 b43d b5be d2be bdb8 403d
00000010: f13a 82be cb67 2b3f 7a5b c9be 504b c73d
00000020: 4343 7e3d 5994 aabd 8220 0fbe 29bb 9bbd
00000030: 5b0a bf3d 7cd6 87be 9733 c73d b34c b0be
00000040: 782c 4b3d ea61 83be 45d7 94be 10ca 0a3e
00000050: 1434 47be 5b2e 023d e146 6d3d 96fa 83be
00000060: c0ad ef3c 79c4 d83d 15e5 313c 0c53 9fbe
00000070: 3673 383e 66fe 1dbf 6adf ed3d 9230 96bd
00000080: b5b4 8abe e342 f33d 6d68 40be 76b6 df3d
00000090: 34c6 383e 6a3d a3bc 188c 12bd 7ffe 923d
000000a0: 8503 e43e e36b 303d 6d5f 01be d5f3 ec3d
000000b0: 9071 a63e bea3 a6bd 466c 343d a75c a7bd
000000c0: e1f1 923e 7e8b c73e f082 0cbc 3b85 163e
000000d0: 0c08 73be 3732 733c daf1 16be 86e8 8bbc
000000e0: dfc8 1bbe 507b 993b 7d7a ea3d 4121 10be
000000f0: 5355 7ebe 9116 e4be 9122 a83d abce 26be
00000100: 7e77 e0be f706 073e 3a5f c53e 9600 143d
00000110: b846 8a3d 4551 8abc 2330 41bd 3f3b 1fbe
00000120: db5d 853e 1a30 723e d4cb da3c b57d 0cbf
00000130: a4e2 febe 2eb7 f9bc 4c61 683e ab07 93be
00000140: a606 23be 7e64 15be a9b3 883e 9ae7 e7bc
00000150: 7351 9e3e 3fe8 743f 9c11 0dbf 6db5 ca3d
00000160: f423 79bc 5769 de3d a96e a3be a932 4ebe
00000170: d22a 603e 4d97 91be 6e8a 9e3d 7b3b 81be
00000180: 24b1 e2be 7ec2 943d 1fec 35bd 421f 85bd
00000190: c639 713e c706 233d 55da 6d3c 8784 883e
000001a0: 7eb3 5abe e522 dcbd 88a8 95be f44f 11bd
000001b0: 805e b8bb b0cd 2fbf 38d2 003f 81c1 3abe
000001c0: 25b5 b9bd ff7a 203e a86f 493e c224 f8bd
000001d0: b87e 053d eba8 e5bc 97e9 c4bd d32d b6bc
000001e0: 90b9 8dbe 3c89 ec3c f3ae 0ebf be58 663e
000001f0: a7f1 6b3e a5db 26be eaf1 8ebd 4233 76bc
00000200: 4f0e 923d 696d bbbe a725 c93c fb09 19bd
00000210: 3323 17be 30f6 b53e 48fc 433c d24e 54be
00000220: 2c45 183f 09f5 203e 4af3 ffbd 073c 033e
00000230: 89f4 ae3e 7de5 813d eb8c cd3d 92c0 b7bd
00000240: d789 89be 2fd1 353e 979f 6f3e 21cc 62be
00000250: 3646 0cbe 98ae 963e 5ed5 a03e cc49 a8be
00000260: 8322 29be dc4c e3bd 4c95 bc3a b731 8abe
00000270: acc0 53be 003f 1bbf 799e 9b3e 08a2 c3bc
00000280: 5479 643e e0e3 eb3c 908a bbbe 31f3 8d3d
00000290: fe9f 82bc 9623 fe3d 0473 5bbd f8b9 d8bd
000002a0: 4696 733d 7dab 363d 2404 683d 67f4 75be
000002b0: 3918 ba3d 3d73 4bbf 4cd5 463f 52e0 edbd
000002c0: 6921 b6bc 44cd d0be 6b9a aa3d ee3d 48bd
000002d0: 2c36 0e3d 74d8 84be 117d ec3c 0d07 dabe
000002e0: 1bc3 d83e a84f 8bbe c752 a8be 41e8 7fbe
000002f0: 4179 803e 289d 4dbe b8d6 b93b e525 0bbb
00000300: 402b 873d 2297 bd3d 360a 823e d22b c7bd
00000310: d7dd 8a3d 905b 9a3d f2c9 1bbe b5fe 7dbf
00000320: f453 51bd 6a83 5b3d 23bf 39bd 31f1 ca3b
00000330: 15ba 593e 8aca bebe b668 343d 006e 0f3d
00000340: 3bbb b5bd ccb7 a13d 3740 053e 6d32 48bd
00000350: ccba a0bd 0a09 83be 2264 86bd f163 933d
00000360: 1bed 463f 4c3a 9cbe c5a6 c1be d89a 97be
00000370: 8d37 e03e 70fc 4dbe 3d64 1c3d 778c c0bd
00000380: f6bd 893e d12d 06be 443d 43be f3ab 9d3b
00000390: 2780 c7bd 95a9 4c3f dda5 1dbf efea 45bd
000003a0: 219a 0abe 9841 c33d c60f 39be d471 d5be
000003b0: becf b63e 4dc4 f1be f467 073e f595 dbbe
000003c0: 10c1 0fbe 3445 edbd 169b a6be c314 8a3d
000003d0: b074 1dbe 2efd 7bbd 9b9b 86bd b12e 613e
000003e0: 8971 c73c 1d89 99be 9b08 a4bd 1e7c 26bd
000003f0: c9e7 fb3c 1835 493e c44a 0a3f 5286 01bf
0.065889366 0.08804608 -0.41161123 0.04705118 -0.25435594 0.6695525 -0.39327604 0.097311616
0.062075865 -0.08329076 -0.13977244 -0.07604057 0.09328147 -0.26530826 0.09726637 -0.34433517
0.049602956 -0.2566064 -0.29070488 0.13553643 -0.1945346 0.03178249 0.057928924 -0.2577712
0.029257655 0.10584349 0.01085784 -0.31118047 0.180127 -0.61716306 0.116148785 -0.07333483
-0.27090994 0.11877992 -0.18789835 0.109234735 0.18044358 -0.019926745 -0.035778135 0.071774475
0.44533935 0.04307164 -0.12634058 0.11569945 0.32508516 -0.081367 0.04404857 -0.08171969
0.28700164 0.38973612 -0.00857614 0.14699261 -0.23733538 0.014843515 -0.14740697 -0.01707865
-0.15213345 0.0046838894 0.11449144 -0.14075185 -0.24837236 -0.44548467 0.08209718 -0.16289775
-0.43841165 0.1318625 0.38549215 0.03613337 0.0675177 -0.016884455 -0.047165047 -0.15549944
0.2604817 0.23651162 0.026708521 -0.54879314 -0.49782288 -0.030482855 0.22693366 -0.28716788
-0.15920505 -0.14589116 0.2669957 -0.028308678 0.30921516 0.9566688 -0.55104995 0.098978855
-0.015206326 0.10859936 -0.31920364 -0.20136513 0.21891335 -0.28435746 0.07741247 -0.25240692
-0.44275773 0.07263659 -0.044414636 -0.065001026 0.23557195 0.039801385 0.014517386 0.2666361
-0.21357533 -0.10748843 -0.29230142 -0.03547664 -0.0056264997 -0.6867323 0.5032077 -0.18237878
-0.09067754 0.1567192 0.196715 -0.12116386 0.03259155 -0.028034648 -0.09614866 -0.022238648
-0.27680635 0.028874032 -0.557357 0.2249479 0.23041402 -0.16294725 -0.06979735 -0.015026869
0.071316354 -0.3660691 0.024554087 -0.037363034 -0.14759521 0.3553939 0.011962004 -0.20733193
0.5948055 0.15718473 -0.124975756 0.12815867 0.3417094 0.063425995 0.100366436 -0.08972277
-0.26862976 0.17755578 0.23400722 -0.22148181 -0.13698658 0.2943008 0.31412786 -0.32868803
-0.16517071 -0.11098644 0.0014387756 -0.26991054 -0.20678967 -0.60643005 0.30394343 -0.023880973
0.22311908 0.028795183 -0.36629152 0.06931151 -0.01594543 0.12409131 -0.053576484 -0.10582346
0.059469484 0.044597138 0.056644574 -0.24019013 0.09086651 -0.79472715 0.77669215 -0.11615051
-0.022232728 -0.40781605 0.08330234 -0.048887186 0.03471963 -0.2594639 0.02886823 -0.42583504
0.42336354 -0.2720921 -0.32875654 -0.24990942 0.2509251 -0.20079482 0.0056713484 -0.0021232304
0.06600046 0.09257342 0.25398415 -0.09725155 0.06780594 0.075369954 -0.15213755 -0.9921678
-0.051105455 0.053592123 -0.045348298 0.006193303 0.21262391 -0.372639 0.044045173 0.035017014
-0.08873602 0.078963846 0.13012777 -0.048876215 -0.07848129 -0.25592834 -0.065620676 0.07196797
0.77705544 -0.30513227 -0.37822548 -0.29610324 0.43792382 -0.20115829 0.038181532 -0.094017915
0.2690274 -0.13103415 -0.1906634 0.0048117577 -0.0974124 0.7994626 -0.6158121 -0.048319753
-0.13535358 0.095339954 -0.18072423 -0.41688406 0.3570537 -0.47220078 0.13223249 -0.42887846
-0.14038491 -0.11585465 -0.32540196 0.06742241 -0.15376544 -0.061520748 -0.06572648 0.21990468
0.02434613 -0.29987422 -0.08009454 -0.04064571 0.030750172 0.1964916 0.54020333 -0.5059558

transformer.encoder.layers.0.linear1.bias f4 [128]
00000000: e645 2ebd 3f6c d2be ba99 4bbe ae82 a9be
00000010: 88f7 66be b19f 96be c3ee 16ba ff04 ebbe
00000020: 089e a7be 2954 51bd 310f 7f3d fe43 4bbe
00000030: 0669 b0be 8465 143c fc6d 3bbe 3254 debd
00000040: 8127 b1bd 404f 54bd 6013 adbe d951 77bd
00000050: 683e e6be 78d2 5dbe 0516 a4bd 9d5f 0ebe
00000060: 5a01 8bbd abf6 f8be 65af 7dbe f06e d1be
00000070: f323 febe 0fe2 c9be 39e2 babe b163 8fbd
00000080: 64ad bdbe 9586 9abe 0d53 23be 1ffd a73d
00000090: 518c 35be 4a04 2bbe b22c 09be 7bff 13bf
000000a0: c406 6fbe d622 60bd 92df d2be 36f1 febc
000000b0: 0a44 76be 171b f1bd 89bb 44be f960 e8bd
000000c0: c8d9 00be a604 64be 1182 b3bd e25c 32be
000000d0: d95f d9be 0311 b9be 31fb 8dbe 2c5e 14bd
000000e0: 79aa c8be 3c4c 00be 7fdb d7bd 1b5e 1fbe
000000f0: 3237 cabd 990e 3dbe f720 9abd 77ce f1be
00000100: f60b f0be 0a9a 31be 9558 01bf fc5a 3fbd
00000110: 6636 aebe fd80 3ebe e0f0 95be f22c 87be
00000120: 1168 7fbe 2372 f7be f528 8fbe 6271 8ebd
00000130: 1cfd 1dbe 74c5 7abe 75bf c2bd 9eb9 04be
00000140: 6146 dcbe 7d5f 98be aba9 d5be 488e e1be
00000150: 3005 81be 28f9 b5bd 73cf e6be 8c99 88bc
00000160: ef85 dfbe 33ec 24be 2c06 f6be 7315 e7be
00000170: f6c7 cbbd 827b bdbe f120 68be 761f 90be
00000180: 2fd4 bfbe b2b4 2bbe bf27 02bd 7935 d8be
00000190: fcb4 4ebd d8be 75bd 4d34 4cbe b89b bfbd
000001a0: c56c 3cbd 745a 93be 27ab 93bd cd10 65be
000001b0: 8fbf a3be 0756 02bf f8e2 63be 646e 55bd
000001c0: 9252 63be 8dd7 87bd 2a3a 8abe a950 2dbe
000001d0: 7feb 33be d7ec 7fbe 9fb5 c8be 3b6d c9be
000001e0: 62c6 b2bd 84bb 043d 1b24 3e3d f8c5 e2be
000001f0: c023 a8be 0c10 76be 1763 62be 7709 7bbe
-0.04254713 -0.4109821 -0.19882861 -0.33107513 -0.22555363 -0.2941871 -0.0005757624 -0.4590225
-0.32737756 -0.051105652 0.062270347 -0.19850156 -0.34455127 0.009057406 -0.18303674 -0.10855903
-0.08650113 -0.05183339 -0.33803844 -0.06038079 -0.44969487 -0.21662319 -0.080120124 -0.13903661
-0.06787367 -0.48625693 -0.24773939 -0.4090495 -0.49636802 -0.39430282 -0.3650072 -0.070014365
-0.3704635 -0.30180803 -0.1594965 0.08202576 -0.17729308 -0.16700855 -0.13395956 -0.5781171
-0.23342425 -0.054720722 -0.41186196 -0.031120878 -0.24049392 -0.11772745 -0.19212164 -0.11346621
-0.12583077 -0.22267398 -0.087650426 -0.17418244 -0.42455938 -0.3614579 -0.27730706 -0.03622262
-0.3919256 -0.12529081 -0.105399124 -0.15563242 -0.09873809 -0.184626 -0.07525819 -0.47227833
-0.46884125 -0.17343917 -0.5052579 -0.04671763 -0.34025878 -0.18603893 -0.29285336 -0.26401478
-0.24942042 -0.48329267 -0.27960935 -0.0695522 -0.15428585 -0.24489385 -0.09509174 -0.12961432
-0.43022445 -0.29760352 -0.4173101 -0.44053864 -0.2519927 -0.088854134 -0.45080146 -0.01667478
-0.4365687 -0.16105728 -0.48051584 -0.45133552 -0.09950249 -0.3700829 -0.22668816 -0.28149003
-0.3746657 -0.16768149 -0.031776186 -0.42228296 -0.05046557 -0.059996456 -0.19941826 -0.09355873
-0.04600217 -0.28779948 -0.07210379 -0.2236969 -0.31982085 -0.5091252 -0.2225455 -0.05210723
-0.22199467 -0.0663291 -0.269975 -0.169253 -0.17570303 -0.24992691 -0.39201066 -0.3934115
-0.08729245 0.03240539 0.04642115 -0.44291663 -0.32839775 -0.24029559 -0.22108112 -0.2451533

transformer.encoder.layers.0.linear2.weight f4 [16, 128]
00000000: 2ccd ca3e e4f1 333e 35fe 3b3e 0a08 9f3d
00000010: c42d 78be 423b fbbc a228 27bd 29b0 743d
00000020: e656 2d3c f8fd 78be cb46 2b3d 70a2 c13c
00000030: f1b8 3d3e 1a57 0bbe 4d6d 0e3e cf87 12bd
00000040: 923b 883d 6a3d 933e 4110 bb3e 95b3 46be
00000050: fb91 b83c 189a 0dbd 36c4 e0bc 4106 51bc
00000060: a482 3ebe f704 8bbe a2ce 713d 5b40 6f3d
00000070: efb4 c33d 5701 143e ce5e 8f3c 9785 80be
00000080: 8880 b33e 71a5 c6bd 001a 5cbe d26e 2bbd
00000090: 34a9 2abc a04f 80be 9460 fdbd b43c 413e
000000a0: 3439 24bd b708 efbd 6feb c63d 8dcd 7b3d
000000b0: 9f0f 33be 8f3c 0dbe e9b8 3fbe 059f 0abe
000000c0: 8812 203e 503a 103d 61e5 13be 5000 063e
000000d0: 2731 88be a2d0 44be 5109 c2bd 171b cd3b
000000e0: 2adc e6bd 491b 483d 7b8b 70bd bdf2 5abe
000000f0: 721d 24be 3da6 4b3d 2b65 823b 8d46 843e
00000100: 7c44 ac3e 0a85 993e 3d07 d43e 68bb d93d
00000110: ec1d b2be aec2 6abd 5362 7c3e cddc a2bd
00000120: 0651 52be 5025 c1be cbf4 afbe 07b6 b53d
00000130: 67d3 a8be 77d3 29bd bcbc 23be dbe6 c23b
00000140: ecd9 11bd d02f a73e fa2b 4bbd 6137 953e
00000150: baf8 413e 37ae 1f3c b75b 1bbd b471 a33e
00000160: edc9 b3bd 12e3 e13d cc5f 8fbd 3a31 0abe
00000170: d2dd 3b3e d706 07bd 7277 a63d 7211 c13d
00000180: ebca 0cbe 7d6f cb3d 5781 01be f39f 4f3d
00000190: aecd 643b ae76 5ebd d56f f93d f4b3 22be
000001a0: 06ec b13b 1810 4f3e ece6 66bd f339 83be
000001b0: cff7 19be 3bc4 bb3e 1526 29bd 4cf2 2fbe
000001c0: 3edf dc3d 3ae0 fdbd f079 22be d53b 3d3e
000001d0: a24c 28bd ade6 c63e 5a20 933e 291c b93c
000001e0: 0044 193d b1b6 7c3d 2570 513e e45f 893e
000001f0: 26c8 d53d 963b c53c 98b1 113e c2f4 7a3e
00000200: 8de5 833d 226f 46be 94ee 153e c6c6 0cbf
00000210: 191f 223d fe5a 7ebf 38b8 213d 5b98 6d3e
00000220: ced6 c33d f48b 42be d2bd 813c d670 81bd
00000230: a6ae 2d3f 1173 203e 2813 07bf fdba 803e
00000240: 0b4c 88be faad babe 3c37 673d 6249 0abd
00000250: 8c3a 563c e416 b63e 55a6 923e 5f31 db3c
00000260: 723c a93e 6bc7 db3c 14c0 06bd 50fb e33e
00000270: 1aa2 ec3c 6b09 acbd 161e d33e 727b f13a
00000280: bb32 2ebf 47bd df3b f2a0 94bd 2117 c43b
00000290: 45ee 03bb 16bf 74bd 132c 943d 4778 393e
000002a0: ce30 5e3e 3869 86bd 3d46 4c3e 7351 a6be
000002b0: 0ac4 0ebf 166e 2c3e d803 c6be b03f 913d
000002c0: 096c cf3d 0979 fe3e ec95 683d 9f4e 13be
000002d0: 7b6a 3ebc dfa1 a53d 391e d4bd 6d51 d0bc
000002e0: a9d7 3cbd 1d1f c43d f8ca 9f3d 11d5 933e
000002f0: 6c6f a5be a3d3 29bf 2341 b1bd 555a 8e3e
00000300: db8f bbbd 2c1e febd 1a9d fdbe 99fc 063e
00000310: efc0 573e c4d3 41be 6708 a0be ff3b 29be
00000320: 3044 25bd b492 2abe 90bf e1bc 0fe0 8c3e
00000330: bd2e c2bc b553 123e 1216 d13c 5160 4abe
00000340: cd39 c4bd 9a40 cdbe 1daf e1bd eaee c13e
00000350: 6ea0 e53c c02a 513d 8208 f6bd 0ea5 913e
00000360: 047f c83e 84f1 14bf b605 b5be 5c10 1e3e
00000370: 70eb d9be d28e e6bc 95a1 64be eb1f 3bbf
00000380: 46ad 1e3e 9491 d43e 5094 9d3e 37ef 7bbe
00000390: 2fc0 183f c0c9 a6bd 94ed d4be e8e2 5abd
000003a0: 1368 d13d c0f8 d6bd f6b6 5d3e a06d 1ebe
000003b0: 9d90 193e b132 95be 5ebf 3bbe be11 c43e
000003c0: 9ef0 7d3e 70d0 ae3e 3957 75be 4b3e bf3e
000003d0: 9e23 3fbe a535 8cbe 98a3 a33d 2731 82bd
000003e0: e707 aa3e 4a30 26be 6207 66bd 3945 90bd
000003f0: 0c22 a33d d079 09bf fd34 36bf b12f 98bd
0.3960966 0.17572743 0.18358691 0.07765205 -0.24236208 -0.030667905 -0.040810235 0.059738312
0.0105798 -0.24315631 0.04181556 0.023637027 0.18527581 -0.13607445 0.13908882 -0.03577405
0.06651987 0.28757793 0.36535838 -0.19404443 0.022530546 -0.034570783 -0.02743731 -0.012757839
-0.18604523 -0.27152225 0.05903495 0.058410984 0.09555995 0.14453636 0.017501261 -0.2510192
0.35059 -0.09699524 -0.21494293 -0.041853733 -0.010416318 -0.2506075 -0.123719364 0.18870813
-0.040093616 -0.11671584 0.09712874 0.061475325 -0.17486428 -0.13792633 -0.18722881 -0.13537224
0.15632069 0.03521186 -0.1444297 0.13086057 -0.266 -0.19220212 -0.09474433 0.006259333
-0.11272462 0.048854146 -0.05872677 -0.2138166 -0.16026857 0.049719084 0.0039793453 0.25835076
0.33646 0.29984313 0.41411772 0.10631448 -0.34788454 -0.057314567 0.24646883 -0.07952271
-0.2053872 -0.3772378 -0.3436645 0.088726096 -0.32973787 -0.041461434 -0.15989965 0.0059479303
-0.035608217 0.32653666 -0.049602486 0.29143813 0.18942538 0.009746126 -0.037929263 0.31922686
-0.08778749 0.11029638 -0.07000694 -0.13495341 0.18346336 -0.032965507 0.08128251 0.094271556
-0.13749282 0.09933374 -0.12646995 0.05068965 0.0034912634 -0.0543124 0.121795334 -0.15888959
0.0054297475 0.20220983 -0.056372568 -0.2563015 -0.15035938 0.3667315 -0.041296083 -0.17182273
0.107847676 -0.123962834 -0.15866828 0.18479855 -0.041088708 0.38847867 0.2873562 0.022596436
0.037418365 0.061697666 0.20452936 0.2683097 0.10438566 0.024076264 0.14227903 0.2450743
0.06440268 -0.19378331 0.14641792 -0.54990804 0.03958044 -0.99357593 0.039482325 0.2320265
0.09562455 -0.189987 0.015837584 -0.0632035 0.6784462 0.15668894 -0.52763605 0.2514266
-0.26620516 -0.3646086 0.05644916 -0.03376139 0.013075482 0.3556434 0.28642526 0.02675694
0.3305393 0.026828488 -0.032898024 0.44527674 0.02888589 -0.08400234 0.4123389 0.001842363
-0.6804616 0.0068279835 -0.072572604 0.0059842025 -0.0020131033 -0.059752546 0.07234969 0.18112288
0.21698305 -0.06563038 0.19948669 -0.32484016 -0.5576788 0.1683887 -0.38674808 0.070922256
0.10128028 0.49701717 0.0567836 -0.1438546 -0.011622067 0.08087515 -0.10357327 -0.025429452
-0.046104107 0.09576247 0.07802385 0.28873494 -0.3231157 -0.66338557 -0.08655002 0.27803293
-0.09158298 -0.124080986 -0.4953392 0.13182296 0.21069692 -0.18928438 -0.3125641 -0.16526793
-0.04034823 -0.16657525 -0.027557164 0.27514693 -0.023703927 0.14289744 0.02552322 -0.19763304
-0.09581337 -0.4008835 -0.11019728 0.3787759 0.0280306 0.05106616 -0.120133415 0.2844624
0.39159405 -0.58181024 -0.3535592 0.15435928 -0.42562437 -0.028144274 -0.22327264 -0.7309558
0.15495786 0.41517317 0.30777216 -0.24602972 0.5966825 -0.081439495 -0.41587508 -0.05343905
0.10224929 -0.10496664 0.21651825 -0.15471506 0.14996572 -0.29140237 -0.1833472 0.38294786
0.2479882 0.341434 -0.23959054 0.37352213 -0.1866593 -0.27384678 0.079901874 -0.06357031
0.33209154 -0.16229358 -0.056159385 -0.07044453 0.07965478 -0.53701496 -0.71174604 -0.074309714

transformer.encoder.layers.0.linear2.bias f4 [16]
00000000: f28b 863d 30fe 02bd 4319 213d 85a1 e8bb
00000010: 7000 a63c a508 0bbd 0a8c 86bd 4708 6dbd
00000020: 676c d23d 916e 503d 7296 93bd 8cc5 1e3c
00000030: 0e68 7f3e 5a53 1abe 2e85 663d f772 52bd
0.06569661 -0.031980693 0.039330732 -0.0070993328 0.02026388 -0.03394379 -0.06569679 -0.057869222
0.10274582 0.050886694 -0.072064295 0.0096906535 0.24942037 -0.15070859 0.056279354 -0.05137917

transformer.encoder.layers.0.norm1.weight f4 [16]
00000000: 97a7 413f eeb7 153f feaf 943f 744b 823f
00000010: 28c2 8e3f 1e33 223f 99ea a63f 8259 a93f
00000020: f822 883f f093 7d3f 6d91 ab3f 5330 9e3f
00000030: 1046 8f3f ec80 a33f fca6 913f a959 483f
0.75646347 0.5848378 1.1616209 1.0179276 1.1153002 0.6335925 1.3040344 1.3230441
1.0635672 0.9905386 1.3403755 1.2358497 1.1193256 1.2773719 1.1379085 0.7826181

transformer.encoder.layers.0.norm1.bias f4 [16]
00000000: 160a 0abc ef7f c83e 49b1 f1bd f34f 863e
00000010: 1002 1ebe 212a 773d 90a9 613b d3c6 a13d
00000020: 93d0 0ebe 51b2 a33c 00f2 363d 0b19 6c3d
00000030: 9a15 063e df50 ee3d 5e0b 36be bf75 b53d
-0.008425256 0.39160106 -0.118013926 0.2623287 -0.15430474 0.06034291 0.0034433343 0.07899251
-0.13946752 0.019982489 0.044664383 0.05764107 0.13094178 0.11636519 -0.17777774 0.08860349

transformer.encoder.layers.0.norm2.weight f4 [16]
00000000: 5d31 883f 4336 713f 1292 963f c010 9e3f
00000010: 1dc9 9c3f 8745 823f 8d8a 823f a0a2 6c3f
00000020: ea0b 523f 2242 693f 95cf 8d3f 6074 8f3f
00000030: 8278 483f a5ba 8c3f 51bb 503f d720 6f3f
1.0640064 0.9422342 1.1763327 1.2348862 1.2248875 1.0177468 1.0198532 0.92435646
0.8204943 0.91116536 1.1078974 1.120739 0.7830888 1.0994459 0.8153582 0.93409485

transformer.encoder.layers.0.norm2.bias f4 [16]
00000000: 53a8 5f3c 76dd a63d 48f1 1ebe fecc 403e
00000010: b091 2abd 565f 2b3e 3375 e23c 7c46 edbd
00000020: 77d4 a5bc 7038 a6bd 73e9 c7bd 1e4e 22be
00000030: 4ae8 633d bd2c 0fbd 55e4 8a3e a095 f2bd
0.013650971 0.08147709 -0.15521729 0.18828198 -0.041642845 0.16735587 0.027643776 -0.115857095
-0.020242913 -0.08116233 -0.09761324 -0.15850112 0.05564145 -0.034954775 0.2712733 -0.11844945

transformer.encoder.layers.1.self_attn.in_proj_weight f4 [48, 16]
00000000: fa80 5dbe 727b 8d3e 1981 843f 7c23 753e
00000010: 7044 393d 3022 b13d 67e4 2f3e 0542 48be
00000020: 6e6e 043f 5fc0 3dbe d373 66be 37cc 123e
00000030: ac1d 953d 67c9 2fbf 0fe0 65be 5843 01be
00000040: 32e2 b53d ef68 b73d 5aee 553e aec9 c13d
00000050: e465 efbe 4e74 79be a09f dc3d a5f9 fabd
00000060: f6e2 8abe f856 14bf 4ff2 173d 6083 103e
00000070: 25a9 ecbd 20e8 073f 4ee8 33be a864 713e
00000080: 3993 5ebe 4375 f53e 6b62 0abf f311 743e
00000090: f356 2b3f 7612 aa3e e42b ccbd 10a5 7c3e
000000a0: 6210 973e 55cd 5b3e 5592 86bc 30fb 4ebe
000000b0: 70a7 a7be b85b 1abf 2612 02bd e606 e4be
000000c0: 56ef 8a3e 3851 883e b824 063e 6f8f c6be
000000d0: b611 103f fc07 c0be b5f8 74be 7e3e 833e
000000e0: 0dbe bcbe 446c 3cbd dc85 43be ba51 4a3e
000000f0: aa59 6fbc 689f 093e 1cc2 00be 54ee e33d
00000100: 0f75 053f 2e1e d5be 9ebe d73d a7b2 5fbe
00000110: b14c f0be b288 c03e 66f2 a7be abfd 023e
00000120: 10c2 93be d0cf a83e 2256 203f ec2f b0be
00000130: c5b6 35bf 45d8 d23e 3826 3f3e c1aa 103d
00000140: 635c 953e 243c 38bd 54a6 2b3d 7fa6 143f
00000150: 75ef 7f3d 1a4f e53e c1a4 18be 2ee1 01bf
00000160: 803a 7b3e 6097 dd3d 2d69 b7bd 3410 733e
00000170: 48e3 ec3e 313a 10bf 6327 d5bd a86e a83e
00000180: 7e31 633e 29ff 743e 1ed2 8f3e 85a9 09bd
00000190: 8344 9cbd 0ab1 08be 1f71 cf3d 1c03 55be
000001a0: 9471 00be 4673 1c3e 20f2 973e 4864 013d
000001b0: 2272 15bf 6023 e8bd 5c4c 1dbe d1b1 383d
000001c0: 4d64 4b3e 4a06 44be b57a 563e cdb7 69be
000001d0: c8bf d03e 8ece 1bbd baac 25bf 2805 e43e
000001e0: 5a03 cabe 1e45 95be 5262 afbe 6350 ecbd
000001f0: 16c2 033d 74d1 283e 9771 013d 7929 483d
00000200: 07c5 333e 10b2 02bf 8d10 823e ccaa c3bc
00000210: d466 9ebe f7f7 10bf 4e77 12bd f4e4 6abe
00000220: 84d9 473d 96af 883e 3081 27be ea6d bd3e
00000230: 8807 f03d 9ac4 273f dd80 003d 10cb 543f
00000240: 960d 74be 9fba b1be ba84 2a3e ea96 0bbf
00000250: 90a5 bdbe bd3b 2c3e 1314 3e3e a600 3cbd
00000260: d500 a43b 902f 773e cc4b cf3e a82c bebd
00000270: a963 f6bb d041 da3b 5100 033e 7b6b 4b3e
00000280: 6fab d93d b2d3 53bd e59d 3cbe 6c1a 2fbf
00000290: fd31 02be 4049 3fbf 2e4f 403f 8c67 d6bd
000002a0: c3b7 dc3e b338 aa3e f8b0 fd3e 1100 56be
000002b0: 6282 cfbd 055b aabd 13f2 4bbe 3c7a 8e3e
000002c0: d1be 67be af9c a6be 8ddb 07bf 5fd3 043f
000002d0: c2f6 413d b9ac 893e aec8 c6be c812 1a3e
000002e0: aebe b6bd 9790 443e 6f42 103e c618 15be
000002f0: 89f7 ac3e 254a 3e3d c2fa 133e bf1d 4dbe
00000300: 247c 5ebe 76ae b1bd 2e47 d03e 4fd9 c83c
00000310: 4104 0fbf aaa2 433e f677 2a3f f8d2 66bd
00000320: 015e 533e a192 1fbe 1c58 953e 28a8 e5bd
00000330: 9bc2 0d3f 5022 d93d 4b48 37bd a7cb d93e
00000340: 403a 09be 5b22 98be b1f7 4e3e 0a99 e4be
00000350: e3c6 c23d 6c35 ca3d 4b43 4bbd 6671 c4bb
00000360: 4e6a 33be 3451 fb3d 963b 613d dcd2 fb3e
00000370: 19e3 5f3e 3fc8 123e 5931 03be 1cc4 603e
00000380: a40f f53e bbdf 5abe 430a 7f3e 5cc0 773b
00000390: 0b19 e3be b129 283f a4dd d0bd d113 38be
000003a0: 43c6 0ebb c742 41bd 59f5 e03d 7179 703b
000003b0: 2be0 b33d 894d 18be e55d c93e ad53 f03d
000003c0: b2ef 31bf 9d8b 303e e976 ee3e a948 fbbc
000003d0: 9fd3 2b3e 25b4 9abe 9d91 433d f9e4 28be
000003e0: 01e2 95be 09a0 883e 4323 803d c547 8c3d
000003f0: 2b46 32be 156d 97bd efa2 0e3e e8f2 233e
-0.21631232 0.27633244 1.0351897 0.23939317 0.045231283 0.08649099 0.17176972 -0.19556434
0.51731 -0.18530415 -0.22505121 0.14335714 0.0728105 -0.6866669 -0.22448753 -0.12623346
0.08881034 0.08955561 0.20891705 0.094622955 -0.46757424 -0.24360773 0.107726336 -0.12254647
-0.27126282 -0.57945204 0.037096318 0.14112616 -0.11555699 0.5308857 -0.17569086 0.23573554
-0.21735848 0.47941026 -0.54056424 0.23834972 0.6692955 0.3321721 -0.09969309 0.24672341
0.29504687 0.21465047 -0.016427198 -0.20213008 -0.32744932 -0.602962 -0.03175559 -0.44536513
0.27135724 0.26624465 0.13099945 -0.38781306 0.56277025 -0.37506092 -0.23922999 0.25633615
-0.36863747 -0.046001688 -0.19094032 0.19757739 -0.01460878 0.13439715 -0.12574047 0.11129442
0.5213174 -0.41624588 0.10534404 -0.21845494 -0.4693351 0.3760429 -0.32802123 0.12792079
-0.28858995 0.32971048 0.6263143 -0.3441156 -0.7098201 0.41180626 0.18666923 0.035319094
0.29172048 -0.04497923 0.04190667 0.5806655 0.062484223 0.44786912 -0.14906599 -0.5073422
0.24534035 0.10819888 -0.089556076 0.2373665 0.46267152 -0.56338793 -0.10407903 0.32896924
0.22186849 0.23925461 0.28089994 -0.033608932 -0.07630255 -0.13348785 0.10128998 -0.20801967
-0.12543327 0.15278348 0.29676914 0.031589776 -0.5837728 -0.11334872 -0.1536116 0.045091454
0.1986248 -0.19143024 0.20945247 -0.2282402 0.40771317 -0.038038783 -0.64716685 0.44535184
-0.39455682 -0.29154295 -0.342547 -0.1153877 0.032167517 0.1648615 0.03160247 0.048867676
0.17555629 -0.5105295 0.25403252 -0.023885153 -0.30937827 -0.56628364 -0.03575831 -0.22938901
0.048791423 0.2669646 -0.16357875 0.3699792 0.117201865 0.65534365 0.031372894 0.8312235
-0.23833308 -0.34712693 0.16652194 -0.5452715 -0.37040377 0.16819663 0.18562345 -0.045899056
0.005004982 0.24139237 0.40487516 -0.09285861 -0.0075192046 0.0066606775 0.1279309 0.1986522
0.106284015 -0.05171556 -0.18419607 -0.6839969 -0.12714382 -0.74721146 0.7512082 -0.10468969
0.4310895 0.33246383 0.4954908 -0.20898463 -0.101322904 -0.08318142 -0.19916563 0.27827632
-0.22631384 -0.32541415 -0.5306938 0.51885027 0.047354467 0.2688959 -0.3882498 0.15046227
-0.08923088 0.19195782 0.14087842 -0.14560232 0.33782604 0.04645743 0.14451125 -0.20030878
-0.21727043 -0.08675854 0.40679306 0.024517683 -0.55865866 0.1910502 0.66589296 -0.05635354
0.20641328 -0.15583278 0.29168785 -0.11213714 0.5537507 0.10602248 -0.04474668 0.42538187
-0.13401127 -0.2971371 0.20211674 -0.4464801 0.09510591 0.09873471 -0.049624722 -0.0059949635
-0.17521021 0.12271348 0.054988466 0.4918431 0.21863975 0.143342 -0.12811793 0.2194981
0.47863495 -0.21374409 0.24906258 0.0037803864 -0.44355044 0.65688616 -0.101985246 -0.1797631
-0.0021785654 -0.047182824 0.10984296 0.0036693478 0.08782991 -0.14873327 0.39329448 0.1173471
-0.6950637 0.17240758 0.46575096 -0.030674295 0.16779946 -0.30215564 0.04774629 -0.16493596
-0.2927399 0.26684597 0.06256726 0.068496265 -0.1740958 -0.073938526 0.13929342 0.1601063

transformer.encoder.layers.1.self_attn.in_proj_bias f4 [48]
00000000: 1ce7 55bf fb5a b33e 87bb c8be a2bb 813d
00000010: 477a 293e 0330 30be 0cf4 9c3e 5bab 45be
00000020: 49f7 e93e f342 753d ef1f 083d dd74 cf3e
00000030: 22fb aa3e ea5b 103e f81d 82be 9376 5dbd
00000040: d164 663a 1912 30ba 3142 58ba ec52 28b8
00000050: c1d0 c8b9 8044 91b8 5122 e9b8 b155 7a3a
00000060: 6247 e238 22be b439 1631 593a ebb1 e3b9
00000070: c849 7d39 191f 5dba 991b e3b8 bae6 7e39
00000080: 49b8 073e 1880 8abc 1f53 01bc 548a 18bc
00000090: 3105 e5bc afe1 21bd b00e d6bd 754a 83bd
000000a0: c399 0abd 383e a5bd 31bc fe3c 1e91 023d
000000b0: a041 ad3d 7a2a 513c 71f0 e73d f136 b5bd
-0.8355577 0.3503035 -0.39205572 0.06334616 0.16550551 -0.17205815 0.30654943 -0.19303648
0.45696476 0.0598783 0.03323358 0.40518847 0.33394724 0.14097562 -0.2541349 -0.05406816
0.00087888265 -0.0006716564 -0.00082496094 -4.013155e-05 -0.00038302506 -6.926898e-05 -0.00011116698 0.0009549512
0.00010789816 0.00034473935 0.00082852074 -0.00043429373 0.00024155446 -0.0008435115 -0.00010829344 0.0002430928
0.13253893 -0.016906783 -0.007893353 -0.009310324 -0.027956577 -0.03952187 -0.1045202 -0.06410686
-0.033838045 -0.08068508 0.031095596 0.031876676 0.084597826 0.012766475 0.113251574 -0.0884837

transformer.encoder.layers.1.self_attn.out_proj.weight f4 [16, 16]
00000000: b40b 243d cc9a 10be 291f 60be 53e3 89bd
00000010: a731 d03e e405 f63e b68e a8be f9e3 91be
00000020: ed1b 60be f935 de3e 14b0 3cbd 6e82 fb3e
00000030: 6b73 03be 5a95 c5be 02e4 d4bd e34e 20bf
00000040: e599 f03e abe6 d1be de2b 993d 7474 403f
00000050: da96 afbc 98e6 b53e c9ce 113e 7cbd bf3e
00000060: 0cb8 723e 6d26 a33d 8e1c 123f 2d68 8f3e
00000070: 811e 43be 02c9 9bbe 24c3 973d 34dc d2be
00000080: d9dd c0be 5b06 023e d4e8 763e be2d 943e
00000090: cbbf a43c a2df 7e3e fcec 93be 25c8 a0bd
000000a0: 0d67 a13d 51fb 543e 11ce 13bd a0fe 463e
000000b0: eeb0 0c3f 0c2c 023e bfd3 a23d df61 80be
000000c0: 4c4d bb3d 811e 80bd f733 c6be 55c3 783d
000000d0: b318 a8bd 2760 db3e e7c4 dabd 0f92 293f
000000e0: 4e62 083f e3f3 c53e 43f0 f3bd e2c3 953e
000000f0: 8b14 e2be b048 d3be ec6b 8fbe 6450 563e
00000100: 254c 4c3e 5dfb ac3e edea 043e cc52 61be
00000110: 353f 8c3e 1792 cbbd 59e3 143f eee7 fcbd
00000120: cab2 783d 847e 313e d2e9 093e 3574 32be
00000130: 775f c5be 4d25 7f3e f6d7 843b 5d94 ca3d
00000140: e38b 1ebf 3658 e0bd 8252 b23d e7de a43e
00000150: de3d 2e3e b470 20be 21fa 46bc ca41 55bb
00000160: e110 e43e 3382 80be 308a 843e d8d2 3e3d
00000170: 9ab2 2d3d be7c 063f 9c70 1a3c a1bf 393e
00000180: 38ee 29be b0d8 92be cfc5 a4be bdf9 a4be
00000190: 7287 60bd f42f 09bf 1d7e 9cbd 67a5 b73e
000001a0: 237a 003d a7b5 b5be 55d9 81be 02cb 923e
000001b0: c673 d93e 9d07 8bbc 33f1 74be ba38 e3be
000001c0: 09bd 50bc 9d80 49be cd07 263f ee47 98be
000001d0: a4cd e33e 3369 a93e c001 bebd 0a76 653e
000001e0: 738b ea3d f2c8 dfbe 42c1 75bc 7107 d8be
000001f0: 2b55 35be d932 c53e 8c5c 88be 162d b0be
00000200: 7a6d 0d3f a7fc 433e 1bf7 5fbe 8120 27bf
00000210: bee2 fc3e df82 9cbe e798 aebe 1a3b d13c
00000220: addf a4bd f7ef 5cbe a7ef 34be 7d1a 0cbf
00000230: dbd5 05bf aadb a2be acc0 39bf 65a3 ee3d
00000240: ec49 89be c615 7d3e 3dda b73e f894 f63e
00000250: e865 75bb beef c0bd a609 24bf a885 c4be
00000260: 22ea a3bc 2074 1bbe fcc2 14bf d3ca 9bbe
00000270: 1e22 513d 38cf 2ebe 58d2 65be 20e6 213e
00000280: 3e7d 8ebc 43aa 223e 691b 28be 6a9c 60be
00000290: 6f8d bebe 8cb0 473e 7dd3 afbe e708 84bd
000002a0: 20c9 7cbe 816c 98bc 4635 c03e 40ed 643d
000002b0: be86 e23d fc86 47be 863e fc3d 9ef9 2b3b
000002c0: 7726 9ebe 33fd 603e 9a0e 0e3e 4498 ea3c
000002d0: 1abf 84be 4772 93be 598d 8dbe b9eb 1dbf
000002e0: b6a4 303e 8c1d cb3e 4cb7 973d de4c d63e
000002f0: 38b5 913e eaa1 4d3e 2b07 21be dee0 353e
00000300: 6776 a33e d402 91be fab9 a83e 1c88 26bc
00000310: 76ee 20be e211 573d bb05 953e d1c6 3b3e
00000320: c5a3 dabe 55ea f73e b1d7 d2be a899 443e
00000330: 064e 953e ddc4 ae3e 9861 d73d a12a c23e
00000340: 0e74 95be cce7 9e3b d290 923e feda dbbe
00000350: 4748 8c3e 6d7a 85bd 46a3 363f 932e 3c3e
00000360: 1e39 d03e 3c1d 1ebe bd7d e63e 8e40 df3e
00000370: be7d 83be cf7d 6dbe 9236 0b3e f28f 8f3d
00000380: 1ef8 8fbe fc14 3fbf 7996 52bf 86d0 613d
00000390: 1f9a 473d 22d4 b7be 16c9 19be 3ae3 83be
000003a0: ae11 f03d 961f 21bd c5e6 803e 00a6 5fbe
000003b0: afea 833d 4f76 6abe 02d4 a53e a6f5 68bf
000003c0: 065a f03e b2a3 e0bd 37ed f0be c804 973e
000003d0: d93c 1a3f 8d63 2dbf 103d cd3d d5d8 183e
000003e0: 8193 b53d 888b 76be 9aa9 ea3e ef0f 823d
000003f0: 9d4b 8e3d c250 85be ee5a ac3e 01e9 b93e
0.040050223 -0.1412155 -0.21886887 -0.06732812 0.40662882 0.4805137 -0.3292138 -0.28494242
-0.21885653 0.43400553 -0.04606636 0.49122947 -0.12836997 -0.3859051 -0.103950515 -0.6262037
0.46992412 -0.40996298 0.0747907 0.75177693 -0.021434236 0.35527492 0.14239039 0.37449253
0.23703021 0.079663135 0.5707482 0.28009167 -0.19054605 -0.30426794 0.07410267 -0.41183627
-0.37669256 0.12697737 0.24112254 0.2894115 0.020110985 0.24889997 -0.28891742 -0.078506745
0.078809835 0.20798995 -0.036085192 0.19433069 0.54957473 0.12712115 0.079505436 -0.2507467
0.091456026 -0.06255818 -0.3871152 0.06073316 -0.08207836 0.42846796 -0.106820874 0.6623849
0.53275 0.38662633 -0.11911061 0.2925101 -0.44156298 -0.41266394 -0.28012025 0.20929104
0.19950922 0.33785525 0.12980242 -0.22004241 0.27391973 -0.09939974 0.58159405 -0.123489246
0.06071738 0.17333418 0.13468102 -0.17427142 -0.38549396 0.24916573 0.004054065 0.09891579
-0.619322 -0.10954325 0.08707143 0.3220131 0.17015788 -0.15667993 -0.012144596 -0.0032540434
0.44544128 -0.25099334 0.2588668 0.046587795 0.042406656 0.5253409 0.009426262 0.18139507
-0.1659478 -0.28680944 -0.32182166 -0.32221785 -0.05481667 -0.53588796 -0.07641242 0.3586838
0.03136648 -0.35490152 -0.25361124 0.28670508 0.4247114 -0.016971404 -0.23920135 -0.44379216
-0.012740382 -0.19677968 0.64855653 -0.29742378 0.4449283 0.33088073 -0.092776775 0.2240831
0.11452379 -0.43707997 -0.0149996895 -0.42193177 -0.1770827 0.38515356 -0.26633108 -0.34409398
0.5524517 0.19139348 -0.21871607 -0.6528397 0.4939174 -0.30568597 -0.3410103 0.025540877
-0.08050475 -0.21575914 -0.17669545 -0.5472792 -0.5227944 -0.31808215 -0.7255962 0.11652259
-0.2681421 0.24715337 0.3590869 0.4816053 -0.0037444774 -0.09420727 -0.6407722 -0.38383222
-0.020009104 -0.15181017 -0.5811002 -0.3042818 0.051057927 -0.17071235 -0.22443521 0.15810442
-0.017393705 0.15885262 -0.16416706 -0.21934667 -0.3721728 0.19500941 -0.3434104 -0.064470105
-0.24686098 -0.018606426 0.37540644 0.05589032 0.11060856 -0.19485086 0.12316613 0.0026241313
-0.3088872 0.21971588 0.13872758 0.028637059 -0.2592705 -0.28798124 -0.27646902 -0.6168781
0.17250332 0.3967098 0.07408008 0.4185552 0.2845857 0.20081297 -0.1572539 0.17761561
0.3192627 -0.2832247 0.3295439 -0.010164287 -0.15715966 0.05250729 0.29105935 0.18337561
-0.4270307 0.4842097 -0.41180184 0.1919924 0.2916109 0.3413457 0.105166614 0.37923148
-0.29190105 0.0048494097 0.28626114 -0.42940515 0.27398893 -0.065174915 0.71342885 0.18377142
0.40668577 -0.1544084 0.45017806 0.4360394 -0.2568187 -0.23192523 0.13595036 0.07009877
-0.28118986 -0.74641395 -0.82260853 0.055130504 0.048730966 -0.35904032 -0.15018114 -0.25759298
0.11722122 -0.039336763 0.25176063 -0.21840668 0.06441247 -0.22896694 0.32388312 -0.9099983
0.46943682 -0.109687224 -0.4705598 0.29495835 0.60249096 -0.6773003 0.100214124 0.14926465
0.08866025 -0.24076664 0.4583252 0.06350695 0.06948016 -0.26038176 0.33663124 0.3631058

transformer.encoder.layers.1.self_attn.out_proj.bias f4 [16]
00000000: 89e4 573d 3106 e0bc a1bb 1abe c850 883d
00000010: 2599 e73c daa8 3dbe af2d 3b3e 5d62 863d
00000020: d7a3 43bd ec87 3c3e 16ae cb3a f22c 5f3d
00000030: 2e8d 0c3d 0bec b2bd 6484 023e 8f9d 133e
0.052708182 -0.027346702 -0.15110637 0.06656033 0.028271267 -0.18521443 0.18279146 0.0656173
-0.04776367 0.18411225 0.0015539553 0.054486223 0.034314327 -0.08736428 0.12745816 0.14415573
