experiments/Datasets/darts_logs/REE_base_transformer_9_24/checkpoints/last-epoch=4.ckpt (torch, 378459 bytes, 201 tensors)

encoder.weight f4 [16, 1]
-0.48028883 -1.249074 -0.9450822 -0.9360483 0.5891301 1.6316353 0.76610106 1.3490512
-1.3793126 1.1234978 1.3973434 -1.1402799 -0.60982305 -1.1677303 0.9005238 0.51269525
00000000: 6be8 f5be a8e1 9fbf e8f0 71bf dda0 6fbf
00000010: 3bd1 163f 6dd9 d03f 331f 443f b6ad ac3f
00000020: 518d b0bf c7ce 8f3f 26dc b23f b1f4 91bf
00000030: 5d1d 1cbf 3078 95bf ba88 663f ff3f 033f

encoder.bias f4 [16]
0.31626964 0.11386635 0.1848412 0.34825966 -0.3869531 -1.2231652 -1.0593199 -0.99861056
0.21075033 -1.2140033 -0.5676543 -0.29043615 0.15083845 -0.31721848 -0.75176215 -1.1446993
00000000: 18ee a13e c332 e93d 0347 3d3e 174f b23e
00000010: b71e c6be ad90 9cbf cb97 87bf f1a4 7fbf
00000020: efce 573e 7664 9bbf cb51 11bf 0cb4 94be
00000030: 6575 1a3e 766a a2be 7c73 40bf 8285 92bf

transformer.encoder.layers.0.self_attn.in_proj_weight f4 [48, 16]
0.7260181 0.22794576 -1.1393577 -0.649268 -0.26382104 -0.40344268 -0.31169918 0.44237062
-0.100331634 -0.24219951 -0.22220075 -0.2132041 0.22077624 0.13693494 -0.33912694 0.07165063
-0.11433198 0.04964503 -0.27245337 0.15070187 0.2595991 0.39052093 0.31965452 -0.033447985
-0.2345489 0.93975365 0.6186718 -0.3154805 -1.2690985 -0.36917648 0.07846084 0.36051127
-0.079044126 0.44307113 -0.0892357 0.27092397 0.29461956 0.25618368 -0.35484788 0.23135634
-0.17622696 1.0751584 0.40272087 0.330626 -1.3671522 -0.007547372 0.085374996 0.5062163
-0.6018018 0.5595614 -0.68429685 0.6762831 -0.03957411 -0.124385744 0.057213 -0.18412173
0.19149865 -1.7833015 -1.0740827 0.18343149 1.4977306 -0.009879449 0.10845353 -0.39847842
-0.25374767 0.44474518 1.2440975 -0.2804669 -0.17452264 0.0010493952 0.30695617 -1.1379071
1.2241138 -0.7183078 -0.4974195 0.45957878 0.7092706 0.11852781 -0.014264394 -0.54233927
0.21568272 0.07348525 -0.18274759 -0.052495725 -0.3684794 0.2988204 0.010013991 0.14760713
0.16981205 0.38508603 0.37145188 0.26811725 0.048440695 0.030469298 -0.22131492 0.15159597
0.05257248 -0.29735723 -0.10653588 0.20873716 -0.12327304 0.34294707 -0.50427455 -0.60844386
0.6570833 -0.26199648 -0.5574561 0.3606673 0.9254844 0.49464542 -0.23087338 -0.7453081
-0.115784764 -0.13951318 0.015255152 0.4121663 -0.32053244 0.080417335 1.2857488 -0.5413661
0.029392464 0.604164 0.40409803 0.45276558 -0.272417 0.3302086 -0.4648002 0.42660502
-0.59500796 -0.21066962 -0.14248168 -0.6087289 0.11870958 -0.22896338 0.6902275 0.46137473
-0.6248144 0.4519836 0.8670843 -0.5295269 -0.017608836 -0.27198908 0.070007056 0.17479055
0.1748485 -0.4320661 -0.36809176 0.6483838 0.03500064 -0.1302902 0.044495333 0.11843793
0.04502347 0.10006821 0.11427653 0.14676502 0.03457462 0.43957958 0.024150185 -0.40140206
0.29631874 0.02132477 0.1282518 0.05007855 0.32504106 0.18856354 -1.328983 0.3434618
-0.21461107 -0.20905071 -0.25578222 0.36883497 0.62343293 0.78721726 -0.44925714 -0.35152194
-0.06198043 -0.092987016 0.15111956 -0.3947916 -0.23214017 0.15487736 0.22998735 -0.39027566
0.7352399 -0.21779269 -0.28903785 0.8016421 1.3255336 0.39608273 0.11830503 -0.27748987
0.24625382 0.26272374 -0.75141186 -0.3848345 -1.0437075 0.13655296 1.050843 -0.58127385
0.24997933 0.29855374 0.6342293 -0.65955687 -0.5935778 -0.6014819 0.45382157 0.07433358
-0.15137376 -0.19760028 0.19910415 -0.103291675 -0.6266473 0.60142094 1.1087495 -1.1634684
0.46786383 0.12587515 -0.03456427 -0.66463655 -0.08387916 -0.92836654 0.80915254 -0.6094274
-0.3246314 -0.22616705 -0.4809764 -0.017358534 -0.3300203 -0.13399622 -0.88327605 0.3524049
-0.5163236 0.62964654 0.287328 0.17988144 -0.8858057 0.003539039 -0.6332286 0.9005404
-0.1234291 -0.2776032 1.3050283 0.1244599 -0.604478 0.60414994 1.89318 -1.6141999
1.0524864 -0.046912774 0.64041775 -0.5542158 0.7466608 -0.5211346 0.8943415 -0.45999184
00000000: 52dc 393f 9d6a 693e 79d6 91bf 6d36 26bf
00000010: 8d13 87be 0a90 cebe 0997 9fbe 677e e23e
00000020: ac7a cdbd 2603 78be 9888 63be 2d52 5abe
00000030: 2b13 623e ac38 0c3e 0ca2 adbe 91bd 923d
00000040: e326 eabd 9658 4b3d 027f 8bbe 9751 1a3e
00000050: 2cea 843e 5cf2 c73e c2a9 a33e c100 09bd
00000060: 962d 70be b293 703f 4661 1e3f a986 a1be
00000070: d271 a2bf b304 bdbe 14b0 a03d ef94 b83e
00000080: e3e1 a1bd 38da e23e 35c1 b6bd 8cb6 8a3e
00000090: 60d8 963e 822a 833e 9fae b5be ade8 6c3e
000000a0: d774 34be ca9e 893f 6e31 ce3e d047 a93e
000000b0: d8fe aebf f24f f7bb 16d9 ae3d 6497 013f
000000c0: af0f 1abf 6a3f 0f3f 142e 2fbf e420 2d3f
000000d0: 7618 22bd f4bd febd 2e58 6a3d 688a 3cbe
000000e0: 3918 443e 3943 e4bf 8b7b 89bf 77d5 3b3e
000000f0: a3b5 bf3f 6add 21bc e21c de3d 5d05 ccbe
00000100: 37eb 81be a4b5 e33e 963e 9f3f 5c99 8fbe
00000110: 10b6 32be dc8b 893a 5c29 9d3e f1a6 91bf
00000120: c3af 9c3f 05e3 37bf c5ad febe e94d eb3e
00000130: c292 353f b5be f23d 34b5 69bc bfd6 0abf
00000140: eedb 5c3e 6f7f 963d 2f22 3bbe c205 57bd
00000150: 55a9 bcbe fdfe 983e b911 243c 5326 173e
00000160: 36e3 2d3e ff29 c53e f12e be3e aa46 893e
00000170: c069 463d c09a f93c 61a0 62be f93b 1b3e
00000180: 3e56 573d 353f 98be 7c2f dabd 32bf 553e
00000190: 9376 fcbd c296 af3e 2318 01bf fac2 1bbf
000001a0: 9c36 283f 6724 86be 71b5 0ebf 62a9 b83e
000001b0: 8cec 6c3f 2a42 fd3e 126a 6cbe 83cc 3ebf
000001c0: 9020 edbd 8bdc 0ebe bff0 793c 7607 d33e
000001d0: d41c a4be d8b1 a43d 6b93 a43f f896 0abf
000001e0: 77c8 f03c 7eaa 1a3f f0e5 ce3e e4d0 e73e
000001f0: 3e7a 8bbe 1a11 a93e 4bfa edbe f96b da3e
00000200: 7152 18bf c7b9 57be b8e6 11be a8d5 1bbf
00000210: 021e f33d 6075 6abe c0b2 303f 4f39 ec3e
00000220: d6f3 1fbf 656a e73e 3df9 5d3f 138f 07bf
00000230: 6840 90bc 2742 8bbe dc5f 8f3d 4bfc 323e
00000240: 7c0b 333e c537 ddbe 8676 bcbe 7bfc 253f
00000250: d55c 0f3d cb6a 05be bd40 363d 968f f23d
00000260: 886a 383d 90f0 cc3d d009 ea3d 9249 163e
00000270: 1e9e 0d3d 9310 e13e 9cd6 c53c 9284 cdbe
00000280: 17b7 973e 49b1 ae3c 7154 033e 2a1f 4d3d
00000290: c86b a63e cd16 413e 1d1c aabf 3ada af3e
000002a0: 01c3 5bbe 6411 56be e3f5 82be f0d7 bc3e
000002b0: 4d99 1f3f 1287 493f 0805 e6be affa b3be
000002c0: 31df 7dbd fa6f bebd 16bf 1a3e 2022 cabe
000002d0: 27b6 6dbe 2c98 1e3e ce81 6b3e 36d2 c7be
000002e0: af38 3c3f 0c05 5fbe c5fc 93be 6b38 4d3f
000002f0: 16ab a93f 5bcb ca3e e849 f23d 2713 8ebe
00000300: f629 7c3e ba83 863e 875c 40bf 0709 c5be
00000310: 3598 85bf 8ad4 0b3e 0682 863f 5dce 14bf
00000320: 95fa 7f3e 09dc 983e da5c 223f b8d8 28bf
00000330: b7f4 17bf b8fa 19bf 4d5b e83e 343c 983d
00000340: b901 1bbe ba57 4abe f5e1 4b3e 968a d3bd
00000350: f56b 20bf b9f6 193f 81eb 8d3f 88ec 94bf
00000360: d98b ef3e 6ae5 003e 4493 0dbd 9f25 2abf
00000370: d6c8 abbd 6ea9 6dbf 9f24 4f3f 6f03 1cbf
00000380: 1636 a6be 5698 67be 8a42 f6be 7c33 8ebc
00000390: 6cf8 a8be 4e36 09be 611e 62bf 6a6e b43e
000003a0: c92d 04bf 8430 213f a81c 933e d732 383e
000003b0: 2ac4 62bf 39ef 673b 451b 22bf d189 663f
000003c0: 65c8 fcbd 0222 8ebe 2b0b a73f d5e4 fe3d
000003d0: 12bf 1abf 92a9 1a3f b953 f23f 1a9e cebf
000003e0: e0b7 863f 9c27 40bd 6bf2 233f 16e1 0dbf
000003f0: 2a25 3f3f 1469 05bf 91f3 643f 0d84 ebbe

transformer.encoder.layers.0.self_attn.in_proj_bias f4 [48]
-0.17455983 0.13792345 0.51610297 -0.6626181 -0.62397176 0.41526586 -0.2516414 0.55588
0.089733414 -0.09620704 0.1516106 0.112088926 -0.18161702 -0.59448624 0.6179657 -0.3607105
0.0006352817 7.6277436e-05 -6.962351e-05 0.000844169 -0.00026241218 0.00034248654 0.0006939834 0.0009239377
5.033039e-05 0.00010596139 0.00055838015 0.0007077198 0.0007428689 0.0028713755 -0.0007170957 0.0012293119
-0.08701848 0.03908316 -0.07766789 0.025236106 -0.03342897 0.09282171 -0.061635423 0.01033132
-0.051106125 0.11677429 -0.09225631 -0.08222258 -0.0408032 -0.13239671 -0.06094611 -0.112757824
00000000: d0bf 32be ce3b 0d3e 531f 043f 57a1 29bf
00000010: 9dbc 1fbf ba9d d43e 24d7 80be 274e 0e3f
00000020: 27c6 b73d 3208 c5bd cf3f 1b3e e18e e53d
00000030: d0f9 39be 4030 18bf 0033 1e3f 0caf b8be
00000040: 0989 263a 23f7 9f38 d602 92b8 394b 5d3a
00000050: 5e94 89b9 c48f b339 70ec 353a 6934 723a
00000060: d819 5338 9737 de38 4260 123a 4686 393a
00000070: 17bd 423a b02d 3c3b 7afb 3bba dd20 a13a
00000080: bf36 b2bd aa15 203d 5810 9fbd f3bb ce3c
00000090: d1ec 08bd 4f19 be3d 6d75 7cbd b244 293c
000000a0: a854 51bd 5c27 ef3d e0f0 bcbd 5064 a8bd
000000b0: 4221 27bd 0193 07be a1a2 79bd 93ed e6bd

transformer.encoder.layers.0.self_attn.out_proj.weight f4 [16, 16]
0.22865449 -0.45226094 0.009485808 0.15073858 0.061202224 0.41352457 -0.11036465 0.29573935
0.09669017 0.41000098 -0.029587792 -0.050079405 -0.08700024 0.5697369 0.1698458 -0.08362117
-0.09661067 0.04266298 -0.25065804 0.18920453 0.19198333 0.25512376 -0.2504193 -0.23806272
-0.16255681 0.15642135 -0.06916759 -0.12550485 -0.01981134 -0.281769 -0.04780316 -0.16654958
0.1540827 0.17348538 -0.026237393 0.01675996 0.080054715 -0.12852728 -0.15261663 0.029871985
0.19912547 0.1045258 0.057215672 0.046857677 -0.053622447 0.10292833 0.07871846 -0.13854398
0.17869839 0.06755229 -0.26911163 0.138605 0.077031225 0.05253879 0.008435469 0.14497885
0.22484367 -0.16367997 -0.22654775 -0.060098004 -0.20861712 0.28655013 -0.037266865 -0.041872103
-0.19390249 0.0052274126 0.07489456 -0.19865139 -0.1731429 -0.07712356 -0.1001946 0.113781296
0.10450584 0.12066437 -0.29527882 -0.3180112 0.08208159 -0.07610943 0.167121 0.19650297
-0.2566374 -0.17851083 0.0686791 -0.15255837 -0.1372862 0.26267314 0.23167552 -0.26264876
0.10846965 -0.20064744 0.19832772 0.114656515 0.11813528 0.03464239 -0.0883131 -0.04900646
-0.09636873 0.03067859 -0.17319407 -0.29800612 -0.21099758 0.017553166 -0.11788762 -0.19955921
0.07029168 -0.103204794 -0.05343672 0.04373381 -0.17722522 -0.022498515 -0.11152195 0.14104576
0.07159284 0.073598556 0.020906143 0.089301884 0.2509319 -0.044491734 0.0014116316 -0.16411558
-0.04302939 -0.026739476 0.045805324 -0.21050216 0.10183532 -0.0578118 0.07278712 0.15905714
0.119971596 -0.14076099 -0.023990702 -0.35198054 0.21984753 -0.32033414 0.20195091 0.296658
0.015334664 0.06298033 -0.11229341 -0.14580749 0.028831027 0.079119734 0.082105435 -0.21878327
0.069174506 -0.10991236 -0.06697893 0.23706613 0.16550191 0.44469464 -0.0015672183 0.2818775
0.010232929 -0.015111042 0.09149646 -0.5048449 0.07702804 -0.5310398 0.13400666 -0.06364806
-0.1408878 -0.0130511625 0.031556174 0.02184739 0.1984012 -0.12450503 0.028919592 0.2798614
0.01949075 0.013382597 0.14255802 -0.025079912 0.18329383 0.101219244 -0.012940946 -0.13294056
0.24520858 0.051964387 0.13806842 -0.29786137 -0.034700144 -0.10945278 0.22163658 -0.43849543
-0.10001117 -0.07727884 -0.3371897 0.3257586 -0.41581723 -0.22548936 0.10619014 -0.0722305
0.07915751 -0.10486434 -0.056639507 -0.4054154 0.115668274 0.35466608 -0.081060484 -0.5332146
-0.0746479 -0.05455236 0.27025968 0.28539896 0.13419124 -0.13836944 0.08835248 0.06360491
0.02720823 0.15125027 0.008977574 0.11207231 0.04872186 0.040922437 -0.116079405 0.014207563
-0.18543983 -0.038572792 -0.22695658 0.21019047 0.14162096 0.13924049 -0.065442495 0.13776247
0.0751207 0.05110127 0.1686446 0.1519253 -0.09713451 0.06332152 -0.123193696 0.19407655
0.04436381 -0.09512178 0.2410643 0.07071126 0.0033262614 0.10179534 0.12555349 0.15489566
-0.19227375 0.43553206 0.1932614 -0.2087094 -0.72291 0.13282531 -0.08167448 -0.38792366
-0.01868164 0.07900234 -0.32035255 0.6866792 0.5654463 0.4555999 0.7273872 -0.63737506
00000000: 6724 6a3e bf8e e7be 5d6a 1b3c 375b 1a3e
00000010: 2faf 7a3d 7eb9 d33e dd06 e2bd 266b 973e
00000020: 7f05 c63d a6eb d13e 1962 f2bc 1020 4dbd
00000030: 2f2d b2bd 47da 113f 0fec 2d3e 9341 abbd
00000040: d1db c5bd 60bf 2e3d 4056 80be d5be 413e
00000050: 4797 443e 959f 823e f536 80be b7c6 73be
00000060: 4b75 26be eb2c 203e bda7 8dbd 5884 00be
00000070: 644b a2bc 0744 90be 3fcd 43bd f98b 2abe
00000080: dbc7 1d3e 27a6 313e cdef d6bc 2f4c 893c
00000090: baf3 a33d a89c 03be 8947 1cbe 18b6 f43c
000000a0: 8ce7 4b3e 9f11 d63d fb5a 6a3d d6ed 3f3d
000000b0: 36a3 5bbd 17cc d23d 2537 a13d 79de 0dbe
000000c0: b6fc 363e db58 8a3d 00c9 89be 78ee 0d3e
000000d0: 8cc2 9d3d ea32 573d ec34 0a3c 5675 143e
000000e0: 6b3d 663e b99b 27be 22fc 67be 5329 76bd
000000f0: ba9f 55be b3b6 923e 24a5 18bd 1582 2bbd
00000100: 608e 46be b74a ab3b 5262 993d 456b 4bbe
00000110: 5f4c 31be f5f2 9dbd d432 cdbd 2b06 e93d
00000120: 2807 d63d e21e f73d c92e 97be 5dd2 a2be
00000130: 651a a83d 43df 9bbd c421 2b3e 1338 493e
00000140: fa65 83be 8bcb 36be a1a7 8c3d 4338 1cbe
00000150: c194 0cbe 187d 863e 593c 6d3e e679 86be
00000160: 5625 de3d 8676 4dbe 6c16 4b3e 09d1 ea3d
00000170: e9f0 f13d 2ee5 0d3d 80dd b4bd ffba 48bd
00000180: f85c c5bd ab51 fb3c c959 31be 4294 98be
00000190: c00f 58be a8cb 8f3c 116f f1bd 4059 4cbe
000001a0: 16f5 8f3d 095d d3bd 76e0 5abd 3922 333d
000001b0: 877a 35be ce4e b8bc 9f65 e4bd 4d6e 103e
000001c0: 449f 923d d7ba 963d 5c43 ab3c e8e3 b63d
000001d0: 257a 803e f73c 36bd 7f06 b93a ea0d 28be
000001e0: 963f 30bd bf0c dbbc 5d9e 3b3d e18d 57be
000001f0: 098f d03d 11cc 6cbd 6a11 953d e0df 223e
00000200: abb3 f53d a623 10be 2688 c4bc cb36 b4be
00000210: b61f 613e d602 a4be 38cc 4e3e 8fe3 973e
00000220: 3e3e 7b3c d5fb 803d 16fa e5bd 8f4e 15be
00000230: 0c2f ec3c 8709 a23d e526 a83d b908 60be
00000240: 5dab 8d3d bb19 e1bd 402c 89bd 77c1 723e
00000250: 5579 293e 04af e33e 1f6b cdba 3f52 903e
00000260: 04a8 273c 4e94 77bc 7f62 bb3d 843d 01bf
00000270: e1c0 9d3d 39f2 07bf 0b39 093e ea59 82bd
00000280: e444 10be 8bd4 55bc 0c41 013d 4cf9 b23c
00000290: af29 4b3e 7efc febd c8e8 ec3c fe49 8f3e
000002a0: 11ab 9f3c ae42 5b3c bbfa 113e 6374 cdbc
000002b0: 61b1 3b3e 094c cf3d 4306 54bc 9221 08be
000002c0: f517 7b3e 9cd8 543d cf61 0d3e 4981 98be
000002d0: bd21 0ebd c728 e0bd b3f4 623e 7982 e0be
000002e0: a8d2 ccbd 5e44 9ebd 21a4 acbe d5c9 a63e
000002f0: ffe5 d4be afe6 66be 377a d93d 96ed 93bd
00000300: 551d a23d 1dc3 d6bd d4fe 67bd 9b92 cfbe
00000310: 7de3 ec3d cb96 b53e 0a03 a6bd c180 08bf
00000320: 00e1 98bd 4c72 5fbd 7a5f 8a3e d01f 923e
00000330: 6e69 093e b8b0 0dbe 25f2 b43d 4b43 823d
00000340: cbe3 de3c 5ae1 1a3e ad16 133c 2b86 e53d
00000350: 9390 473d 499e 273d 0abb edbd d7c6 683c
00000360: f0e3 3dbe 81fe 1dbd 4e67 68be 2c3c 573e
00000370: 1605 113e 0f95 0e3e b706 86bd 9b11 0d3e
00000380: e2d8 993d 914f 513d 2cb1 2c3e 4e92 1b3e
00000390: 75ee c6bd b7ae 813d fa4c fcbd 01bc 463e
000003a0: d4b6 353d 35cf c2bd 8fd9 763e 11d1 903d
000003b0: 68fd 593b 137a d03d 1891 003e f89c 1e3e
000003c0: 69e3 44be 0ffe de3e 51e6 453e ebb7 55be
000003d0: a110 39bf 5c03 083e f344 a7bd ee9d c6be
000003e0: 3d0a 99bc fbcb a13d 4005 a4be 35ca 2f3f
000003f0: 17c1 103f 6444 e93e 0c36 3a3f 032b 23bf

transformer.encoder.layers.0.self_attn.out_proj.bias f4 [16]
-0.048270654 -0.069387704 -0.04580003 -0.00067571533 -0.045576368 -0.10903602 0.12499096 -0.0025069336
-0.096986406 -0.0052279197 0.04715126 0.08258538 -0.14734042 0.082127884 -0.085931376 0.07638603
00000000: 73b7 45bd 241b 8ebd d098 3bbd 7d22 31ba
00000010: 49ae 3abd 474e dfbd 43fb ff3d 5e4b 24bb
00000020: cfa0 c6bd f84e abbb ae21 413d 8622 a93d
00000030: 68e0 16be aa32 a83d cafc afbd 4770 9c3d

transformer.encoder.layers.0.linear1.weight f4 [128, 16]
0.025350293 0.017590173 -0.54024035 0.006012345 -0.25570297 0.7181965 -0.5237642 0.11140507
0.15223616 0.008314284 -0.19226275 -0.08038673 0.08046213 -0.19946587 0.17713834 -0.3856753
-0.13867655 -0.2612769 -0.22476074 0.29954222 -0.29803792 0.06293843 0.11437958 -0.38434646
0.11313332 0.13469076 0.011154234 -0.41930473 0.08526648 -0.7468984 0.09260464 0.0057086702
-0.2640537 0.049761556 -0.27079803 0.054927643 0.21267578 0.015057396 -0.07157149 -0.022645023
0.51768106 0.011957666 -0.17441253 0.16116326 0.636619 -0.14267543 -0.007920088 -0.022091612
0.40272817 0.290257 -0.060883377 0.1648035 -0.20138136 -0.083999135 -0.09585579 -0.12172388
0.06731362 -0.0017993087 0.10479903 -0.29108188 -0.39046618 -0.5416978 0.14851135 -0.23521116
-0.51966953 0.10167091 0.45118827 0.020311758 0.14619586 -0.039816875 -0.035759147 -0.2195192
0.22229244 0.2925542 0.0526722 -0.5956037 -0.5306928 -0.13729388 0.18814401 -0.28700614
-0.3402928 -0.19642662 0.3451056 -0.00058554154 0.4120073 1.0996401 -0.5556759 0.1412657
-0.010227479 0.11873842 -0.32859808 -0.2356922 0.17313457 -0.51646096 -0.0329891 -0.19260019
-0.4425769 -0.024667948 -0.20109415 -0.113555856 0.18490243 -0.052760717 -0.012953428 0.3434881
-0.17482704 -0.094869815 -0.2743805 0.05415802 0.082137674 -0.8932127 0.5469241 -0.08200847
-0.27324197 0.0628283 0.30076244 -0.022535913 0.23955251 0.013370889 -0.24085212 -0.004408303
-0.24723674 -0.12179922 -0.7740376 0.32791463 0.29983962 -0.14393292 -0.11679422 -0.053611837
-0.075189345 -0.35948914 0.04640612 -0.063241735 -0.21367738 0.36053556 0.06552811 -0.27692017
0.6410358 0.20400295 -0.031970523 0.091809615 0.373049 0.04458139 0.17019224 0.021641407
-0.21245113 0.23343682 0.37904 -0.35309803 -0.13686448 0.2619537 0.35151446 -0.19483835
-0.24045707 -0.15448147 -0.066674165 -0.084251046 -0.12678738 -0.78447986 0.439644 -0.05290466
0.22806193 0.015873902 -0.44112903 -0.0077382675 -0.033987507 0.1381627 0.030492984 -0.05172732
0.020159157 0.10731568 0.08823796 -0.25984582 0.09017837 -0.75513756 0.9405122 -0.107914716
-0.12059285 -0.51974845 0.1872399 0.063168965 0.10693435 -0.30734938 0.12854852 -0.54835397
0.6031544 -0.3119067 -0.25506702 -0.26799542 0.3214127 -0.21966133 0.01830228 0.0019672925
0.13880235 0.17228524 0.32248715 -0.023212802 0.071445964 0.024740094 -0.29746813 -0.9869161
-0.10068971 -0.028057588 -0.14210497 -0.02334161 0.26089886 -0.39436924 0.0874704 -0.022933075
-0.19152144 0.060959592 0.12983003 -0.057722066 -0.13157493 -0.2405187 -0.010258445 0.28218675
0.8648382 -0.15682578 -0.3728306 -0.35155863 0.6573137 -0.27446765 0.05545736 -0.14817908
0.38914013 -0.17643836 -0.3844338 0.11796965 -0.2911217 1.0499226 -0.71861637 -0.1301429
-0.12978622 0.15660007 -0.15683375 -0.4246135 0.19199893 -0.84532773 0.3573221 -0.49534938
-0.13602677 -0.24964651 -0.33377612 -0.0715667 -0.03578586 0.0992963 -0.13578579 0.20218956
-0.011623589 -0.3196538 -0.11849195 0.059935983 -0.05895691 0.30814174 0.6943409 -0.740454
00000000: 6bab cf3c 4419 903c 314d 0abf 3503 c53b
00000010: 80eb 82be badb 373f 6915 06bf 5728 e43d
00000020: cce3 1b3e a238 083c 87e0 44be cca1 a4bd
00000030: 54c9 a43d c840 4cbe c163 353e 3c77 c5be
00000040: 3a01 0ebe 16c6 85be ae27 66be 995d 993e
00000050: 6d98 98be dde5 803d d73f ea3d 0fc9 c4be
00000060: 71b2 e73d 60ec 093e 40c0 363c 1caf d6be
00000070: 31a0 ae3d bc34 3fbf 80a7 bd3d cc0f bb3b
00000080: 0c32 87be c6d2 4b3d 0aa6 8abe cffb 603d
00000090: aec7 593e 4cb3 763c 1394 92bd 0e82 b9bc
000000a0: bf86 043f 16ea 433c 3399 32be fb07 253e
000000b0: 76f9 223f 8219 12be 42c3 01bc 78f9 b4bc
000000c0: 6332 ce3e 919c 943e d960 79bd 40c2 283e
000000d0: ea36 4ebe bd07 acbd 0a50 c4bd 5f4a f9bd
000000e0: b9db 893d c8d6 ebba e0a0 d63d af08 95be
000000f0: 2feb c7be b5ac 0abf 5c13 183e 32db 70be
00000100: 1009 05bf d738 d03d 2602 e73e d864 a63c
00000110: 5eb4 153e 0517 23bd 2f78 12bd a4c9 60be
00000120: a1a0 633e aac9 953e cebe 573d 7c79 18bf
00000130: 7cdb 07bf c496 0cbe d3a8 403e 78f2 92be
00000140: dc3a aebe 0f24 49be aeb1 b03e 077f 19ba
00000150: 9ff2 d23e 02c1 8c3f c740 0ebf f5a7 103e
00000160: 2891 27bc 212d f33d 023e a8be 4c59 71be
00000170: 304a 313e c936 04bf 941f 07bd fc38 45be
00000180: 7099 e2be 7014 cabc a0eb 4dbe f98f e8bd
00000190: 1057 3d3e 9f1b 58bd 9d3a 54bc acdd af3e
000001a0: dc05 33be 1b4b c2bd 9a7b 8cbe cdd4 5d3d
000001b0: cc37 a83d 96a9 64bf 3803 0c3f 0ff4 a7bd
000001c0: 5fe6 8bbe 20ac 803d 89fd 993e 3c9d b8bc
000001d0: 414d 753e 9311 5b3c f0a1 76be 8773 90bb
000001e0: a12b 7dbe df71 f9bd 5427 46bf 6de4 a73e
000001f0: 9484 993e 2763 13be cf31 efbd 1698 5bbd
00000200: dffc 99bd f60e b8be 5814 3e3d e284 81bd
00000210: 3ece 5abe 1e98 b83e 9a33 863d 7bc8 8dbe
00000220: ec1a 243f 26e6 503e 86f3 02bd ae06 bc3d
00000230: 4700 bf3e fa9a 363d e046 2e3e 5249 b13c
00000240: ca8c 59be 100a 6f3e 8811 c23e 44c9 b4be
00000250: 3426 0cbe cc1e 863e b4f9 b33e b483 47be
00000260: 613a 76be 6430 1ebe 778c 88bd d08b acbd
00000270: 8dd4 01be acd3 48bf 0519 e13e 8fb2 58bd
00000280: 1189 693e fc09 823c aadb e1be 4b91 fdbb
00000290: 7c36 0bbd 867a 0d3e 6ccc f93c 07e0 53bd
000002a0: d124 a53c 53c8 db3d 1bb6 b43d 830a 85be
000002b0: 70af b83d b250 41bf 68c5 703f 6402 ddbd
000002c0: 62f9 f6bd 3c0e 05bf d1bb 3f3e bb5e 813d
000002d0: 6600 db3d e65c 9dbe 39a2 033e ed60 0cbf
000002e0: 5468 1a3f 3cb2 9fbe 2598 82be b236 89be
000002f0: 3590 a43e e6ee 60be aaee 953c b1ed 003b
00000300: 3422 0e3e 8b6b 303e 091d a53e c628 bebc
00000310: 4352 923d bdab ca3c be4d 98be 89a6 7cbf
00000320: 6836 cebd 07d9 e5bc f783 11be e736 bfbc
00000330: 8994 853e c4ea c9be ae23 b33d 25de bbbc
00000340: 321e 44be c4b0 793d 2af2 043e f96d 6cbd
00000350: 94bb 06be 894a 76be 0913 28bc c87a 903e
00000360: 0966 5d3f f096 20be a7e3 bebe 7eff b3be
00000370: b645 283f 0687 8cbe 4227 633d 42bc 17be
00000380: 603d c73e 42ac 34be 82d4 c4be 129a f13d
00000390: e70d 95be dd63 863f 3ef7 37bf 2e44 05be
000003a0: aee6 04be c55b 203e 0799 20be f166 d9be
000003b0: 5e9b 443e 6667 58bf ecf2 b63e 6f9e fdbe
000003c0: 9a4a 0bbe 56a3 7fbe b4e4 aabe 9091 92bd
000003d0: 3294 12bd dc5b cb3d 6e0b 0bbe c80a 4f3e
000003e0: de70 3ebc aaa9 a3be e8ab f2bd 6f7f 753d
000003f0: cd7c 71bd c1c4 9d3e 53c0 313f 658e 3dbf

transformer.encoder.layers.0.linear1.bias f4 [128]
-0.21786578 -0.45931408 -0.2823924 -0.44044933 -0.27114624 -0.41700026 -0.05025303 -0.49336407
-0.3671226 -0.11496691 0.067456946 -0.18447429 -0.40692297 -0.003536464 -0.40385565 -0.19802244
-0.08390179 -0.10871739 -0.36575025 -0.12791818 -0.5190576 -0.24987091 -0.14257023 -0.18304487
-0.038461257 -0.59213865 -0.251096 -0.44255543 -0.57440263 -0.5246275 -0.33808297 -0.031342305
-0.4762792 -0.37835962 -0.22638594 0.11286633 -0.34327018 -0.23155272 -0.27927464 -0.69392025
-0.32475775 -0.13300045 -0.49957052 -0.08413178 -0.30833483 -0.08729148 -0.1176842 -0.13454333
-0.15078008 -0.24294053 -0.13012631 -0.14878161 -0.3725813 -0.40240166 -0.3669429 -0.050862312
-0.4073714 -0.12917699 -0.18907176 -0.2692067 -0.08843358 -0.27288267 -0.12151707 -0.50006396
-0.4080487 -0.371811 -0.58281684 -0.14360377 -0.37184957 -0.2505595 -0.327581 -0.26824024
-0.3211925 -0.70062196 -0.47035804 -0.08710807 -0.1798963 -0.24488312 -0.07327958 -0.005224656
-0.5844667 -0.32464793 -0.47542602 -0.4753559 -0.25121716 -0.18318607 -0.5093207 -0.079672925
-0.5333904 -0.26591194 -0.66596586 -0.4651412 -0.14547071 -0.36615342 -0.5065927 -0.29944095
-0.44293958 -0.23063782 -0.16577981 -0.50346035 -0.14578563 -0.14201708 -0.25254318 -0.17668949
-0.11554196 -0.33367458 -0.1182618 -0.35575154 -0.3334645 -0.5936658 -0.23912431 -0.16686526
-0.23716775 -0.06892693 -0.18465646 -0.3471482 -0.21663834 -0.352387 -0.4939217 -0.5234064
-0.22725585 -0.06375053 0.02521744 -0.51901144 -0.43569553 -0.3580282 -0.26672587 -0.28934595
00000000: 3518 5fbe 372b ebbe bd95 90be 9382 e1be
00000010: aed3 8abe 0f81 d5be 1fd6 4dbd 379a fcbe
00000020: 7ef7 bbbe c573 ebbd de26 8a3d d4e6 3cbe
00000030: 3558 d0be 05c4 67bb 2bc6 cebe 65c6 4abe
00000040: b4d4 abbd 39a7 debd 9e43 bbbe fcfc 02be
00000050: f5e0 04bf 29de 7fbe eefd 11be 1d70 3bbe
00000060: 8d89 1dbd 6696 17bf a88f 80be a096 e2be
00000070: 0d0c 13bf fd4d 06bf 3619 adbe ca60 00bd
00000080: deda f3be 5ab8 c1be b7d1 67be 7626 e73d
00000090: 1cc1 afbe 281c 6dbe 16fd 8ebe c2a4 31bf
000000a0: a646 a6be 4531 08be b5c7 ffbe 484d acbd
000000b0: 10de 9dbe e0c5 b2bd 6a04 f1bd bac5 09be
000000c0: 1866 1abe 67c5 78be d53f 05be 355a 18be
000000d0: fac2 bebe 9707 cebe f1df bbbe 0055 50bd
000000e0: fc92 d0be f946 04be 079c 41be 76d5 89be
000000f0: aa1c b5bd 47b7 8bbe f1dd f8bd 3104 00bf
00000100: c2eb d0be 035e bebe 7c33 15bf de0c 13be
00000110: 1163 bebe 5649 80be b2b8 a7be c956 89be
00000120: 5873 a4be f65b 33bf c5d2 f0be b765 b2bd
00000130: bc36 38be a4c2 7abe 9b13 96bd 9733 abbb
00000140: 9c9f 15bf 4138 a6be 0a6b f3be d961 f3be
00000150: 899f 80be 2195 3bbe d762 02bf 8f2b a3bd
00000160: 468c 08bf 9c25 88be bd7c 2abf fd26 eebe
00000170: 46f6 14be 7678 bbbe 0fb0 01bf 5350 99be
00000180: fac8 e2be 522c 6cbe 2fc2 29be c7e2 00bf
00000190: d448 15be ed6c 11be 574d 81be 17ee 34be
000001a0: 43a1 ecbd 65d7 aabe 3e33 f2bd 1125 b6be
000001b0: dcbb aabe 7bfa 17bf 01dd 74be bade 2abe
000001c0: 1adc 72be 9029 8dbd 9516 3dbe 69bd b1be
000001d0: 71d6 5dbe 126c b4be 4ee3 fcbe f6fd 05bf
000001e0: c2b5 68be a38f 82bd ce94 ce3c efdd 04bf
000001f0: 7c13 dfbe 794f b7be 4b90 88be 2725 94be

transformer.encoder.layers.0.linear2.weight f4 [16, 128]
0.5716012 0.36505705 0.09251123 0.25923336 -0.20032288 -0.25357196 -0.12168351 -0.018450918
0.011347995 -0.14986205 -0.0807006 -0.04805334 0.13552293 -0.02898781 0.5070202 -0.0073182127
0.050955553 0.30653328 0.4485122 -0.14386518 -0.11588254 0.03578186 -0.27504852 0.05768367
-0.2493769 -0.23423506 -0.08651497 -0.07389669 0.049083866 0.09790783 -0.08794932 -0.20643684
0.4944453 -0.105714396 -0.19523618 -0.0027617903 -0.11481991 -0.25777343 -0.033420727 0.21735907
-0.11882871 -0.28318623 0.07221545 0.3878483 -0.32740572 -0.08141961 -0.08314568 -0.2862613
0.45305252 0.38566244 0.006427607 0.19715093 -0.30048633 -0.44889095 0.035997953 0.023845116
-0.2378542 0.06357641 -0.07097076 -0.23215887 -0.32884026 0.08245225 -0.035786804 0.38016942
0.40528202 0.3450549 0.5696962 0.08313308 -0.2859506 -0.15679197 0.42627487 -0.06499766
-0.19186448 -0.3096822 -0.50651133 0.12482022 -0.41603395 -0.110830314 -0.10378589 0.07491498
-0.12551357 0.19415331 -0.01735656 0.24143912 0.11705111 0.07371161 -0.027930079 0.43891117
-0.30865556 -0.11537859 -0.23160386 -0.2355405 -0.24573998 0.05282953 0.06755107 0.1704397
-0.17709862 0.09990569 -0.24131131 -0.18294565 -0.0040650344 0.044100083 0.19199876 -0.20630716
-0.07332809 0.0909687 0.13971332 -0.17906864 -0.091200866 0.6496012 0.029718481 0.04401556
0.025657319 -0.24428423 -0.59785485 0.3541165 -0.0723119 0.4744337 0.47387677 -0.0790566
0.033085924 0.19975628 0.30225217 0.24457718 0.09054672 -0.2131504 0.29395914 0.29596245
0.07154212 -0.47227088 0.083863355 -0.70029414 0.19818401 -1.1274298 0.19153655 0.35907885
-0.11945292 -0.36027148 -0.11757138 -0.190036 0.753428 0.14161836 -0.31637833 0.26516998
-0.30857578 -0.35780856 0.183265 -0.16909629 0.26073465 0.446139 0.28981355 0.012165143
0.33859417 -0.3039997 -0.0129565755 0.4904085 -0.16301414 0.059286278 0.48471543 -0.12699534
-0.83931696 -0.07144294 -0.02630286 0.027622767 -0.13165113 0.10989605 0.14702727 0.28255847
0.25206208 -0.31706202 0.036887623 -0.2404921 -0.50493777 -0.07998239 -0.420462 0.035085138
0.23929802 0.51683646 -0.12596503 -0.122289 0.05222117 0.12048892 -0.089281626 -0.041337468
-0.008599057 -0.03344027 0.15869719 0.55135465 -0.26987627 -0.4902438 -0.08198393 0.3637064
-0.14792378 0.07630897 -0.5903923 0.08878534 0.12705268 -0.07843111 -0.31370804 -0.19868077
-0.19467777 -0.029508706 -0.18124911 0.24450092 -0.23806034 0.0830047 0.13894786 -0.10928997
-0.013611879 -0.3749764 -0.14848709 0.49026576 -0.08945921 -0.039190695 -0.105493166 0.47198442
0.6406034 -0.48145986 -0.47340608 0.043028485 -0.5449409 -0.028841233 -0.1495516 -0.8720735
0.2618904 0.27165586 0.123602375 0.043137174 0.62338203 0.0038138335 -0.42379984 0.04065026
0.06775608 -0.17734663 0.15307325 0.08823931 0.13670297 -0.21699746 -0.38173053 0.45629928
0.15654485 0.44909623 0.08701544 0.1659575 -0.22292861 -0.27485323 -0.07785531 -0.15887614
0.24403019 0.018793663 -0.11657833 -0.09617563 0.2360604 -0.4087187 -0.6059385 -0.15803327
00000000: 7554 123f c2e8 ba3e 8776 bd3d 3cba 843e
00000010: 7121 4dbe 2fd4 81be 3435 f9bd 6126 97bc
00000020: f1ec 393c 7075 19be 5b46 a5bd 94d3 44bd
00000030: 86c6 0a3e d877 edbc 13cc 013f 9ecd efbb
00000040: c5b6 503d eef1 9c3e 64a3 e53e 6551 13be
00000050: d353 edbd 0090 123d 29d3 8cbe b645 6c3d
00000060: a85c 7fbe 51db 6fbe c32e b1bd 2657 97bd
00000070: 2a0c 493d e683 c83d c61e b4bd 2e64 53be
00000080: ef27 fd3e ca80 d8bd feeb 47be 27ff 34bb
00000090: b326 ebbd e1fa 83be 2ce4 08bd 6093 5e3e
000000a0: 775c f3bd c9fd 90be b2e5 933d 0d94 c63e
000000b0: b9a1 a7be 53bf a6bd 4848 aabd d790 92be
000000c0: 80f6 e73e 8c75 c53e ad9e d23b efe1 493e
000000d0: 58d9 99be 09d5 e5be 9772 133d d556 c33c
000000e0: 0d90 73be 5934 823d 1e59 91bd 0ebb 6dbe
000000f0: c05d a8be badc a83d 2f95 12bd 91a5 c23e
00000100: 2081 cf3e 09ab b03e 9cd7 113f ad41 aa3d
00000110: 1e68 92be 138e 20be b340 da3e 7e1d 85bd
00000120: 1f78 44be aa8e 9ebe baaa 01bf bea1 ff3d
00000130: 6702 d5be 01fb e2bd b28d d4bd 066d 993d
00000140: a186 00be 20d0 463e 582f 8ebc d13b 773e
00000150: 7eb8 ef3d 1df6 963d 9fcd e4bc f7b8 e03e
00000160: 1a08 9ebe 9c4b ecbd 9029 6dbe 8731 71be
00000170: 43a3 7bbe c763 583d 3758 8a3d bf87 2e3e
00000180: 5759 35be 5b9b cc3d 501a 77be 1b56 3bbe
00000190: fb33 85bb 4aa2 343d 539b 443e 2f42 53be
000001a0: 0a2d 96bd cc4d ba3d 0211 0f3e c55d 37be
000001b0: 85c7 babd 444c 263f 2c74 f33c a949 343d
000001c0: 4c2f d23c a525 7abe 040d 19bf c24e b53e
000001d0: 4318 94bd f9e8 f23e fa9f f23e 6de8 a1bd
000001e0: 1b85 073d e98c 4c3e ccc0 9a3e 7172 7a3e
000001f0: 8f70 b93d 1944 5abe d081 963e 6488 973e
00000200: ad84 923d 7dcd f1be 8dc0 ab3d 7a46 33bf
00000210: c0f0 4a3e 9f4f 90bf 2822 443e 2fd9 b73e
00000220: bca3 f4bd 8175 b8be 44c9 f0bd cc98 42be
00000230: a8e0 403f 6704 113e 57fc a1be 5cc4 873e
00000240: a5fd 9dbe af32 b7be d2a9 3b3e 9427 2dbe
00000250: 037f 853e 556c e43e 7162 943e 4f50 473c
00000260: 375c ad3e d9a5 9bbe d147 54bc d316 fb3e
00000270: 2eed 26be 2bd6 723d 9f2c f83e 110b 02be
00000280: 7add 56bf ad50 92bd 1879 d7bc 2449 e23c
00000290: 8ecf 06be 2e11 e13d 518e 163e 81ab 903e
000002a0: 480e 813e f455 a2be 7a17 173d 9043 76be
000002b0: 9a43 01bf cfcd a3bd cc46 d7be 6fb5 0f3d
000002c0: 8a0a 753e 654f 043f fafc 00be a872 fabd
000002d0: dee5 553d e5c2 f63d 49d9 b6bd 7a51 29bd
000002e0: 0fe3 0cbc aaf8 08bd 8481 223e 9425 0d3f
000002f0: 392d 8abe 3c01 fbbe 31e7 a7bd ba37 ba3e
00000300: 5579 17be e147 9c3d f323 17bf 17d5 b53d
00000310: 191a 023e 7da0 a0bd 579e a0be f972 4bbe
00000320: 9c59 47be 3ebc f1bc 5e99 39be 735e 7a3e
00000330: 17c6 73be 5efe a93d 5948 0e3e 6bd3 dfbd
00000340: 5c04 5fbc e8fc bfbe 000d 18be 1d04 fb3e
00000350: 6436 b7bd 6c86 20bd cd0c d8bd f1a7 f13e
00000360: 96fe 233f e881 f6be 4862 f2be a33e 303d
00000370: 3f81 0bbf 7344 ecbc 0e24 19be 3540 5fbf
00000380: 8016 863e 7a16 8b3e 3e23 fd3d 9bb0 303d
00000390: f795 1f3f 82f1 793b 4bfc d8be e380 263d
000003a0: b3c3 8a3d 5b9a 35be 3cbf 1c3e d0b6 b43d
000003b0: ddfb 0b3e 9534 5ebe 2f72 c3be 0fa0 e93e
000003c0: 4b4d 203e f1ef e53e 2735 b23d c3f0 293e
000003d0: 6647 64be 90b9 8cbe 9b72 9fbd 6db0 22be
000003e0: 0de3 793e 2bf5 993c 9fc0 eebd bbf7 c4bd
000003f0: d1b9 713e 9443 d1be c91e 1bbf 79d3 21be

transformer.encoder.layers.0.linear2.bias f4 [16]
0.03794663 0.018642748 0.007142248 0.006070055 0.06430978 -0.12396501 -0.15701978 -0.03951127
0.053054813 0.012386088 -0.108191036 -0.0700806 0.23673452 -0.12419307 0.15851414 -0.15756261
00000000: ed6d 1b3d adb8 983c 8509 ea3b 50e7 c63b
00000010: d9b4 833d 5ee1 fdbd cbc9 20be 92d6 21bd
00000020: 0150 593d 05ef 4a3c 4393 ddbd 6b86 8fbd
00000030: 896a 723e f058 febd 8851 223e 1858 21be

transformer.encoder.layers.0.norm1.weight f4 [16]
0.71274954 0.5190431 1.1799555 1.0102993 1.0826335 0.6693487 1.3192465 1.4599159
1.1006496 0.96949637 1.4387227 1.3168864 1.097365 1.2834028 1.1777409 0.6542336
00000000: c176 363f 02e0 043f c808 973f 7d51 813f
00000010: bc93 8a3f 705a 2b3f 12dd a83f 86de ba3f
00000020: 16e2 8c3f ea30 783f 1128 b83f bc8f a83f
00000030: 7576 8c3f 8b46 a43f 37c0 963f da7b 273f

transformer.encoder.layers.0.norm1.bias f4 [16]
0.06796137 0.45885363 -0.14493035 0.38090718 -0.26819164 -0.052648827 0.02684024 0.08703524
-0.1908743 0.06504623 0.09358537 0.068162866 0.12737043 0.19942695 -0.29506537 0.14404395
00000000: 552f 8b3d ddee ea3e 9f68 14be 4406 c33e
00000010: 6a50 89be 4ca6 57bd 10e0 db3c 883f b23d
00000020: 8d74 43be f536 853d b0a9 bf3d f998 8b3d
00000030: 656d 023e 9436 4c3e cf12 97be 4280 133e

transformer.encoder.layers.0.norm2.weight f4 [16]
0.88732404 0.84508723 1.1972206 1.1870439 1.1885351 0.94076395 0.92912036 0.90505326
0.71346354 0.7130373 1.048133 1.0928594 0.65138155 0.93304926 0.7078438 0.8990697
00000000: ab27 633f a357 583f 863e 993f 0ef1 973f
00000010: eb21 983f e8d5 703f d5da 6d3f 92b1 673f
00000020: 8ca5 363f 9d89 363f 3929 863f d1e2 8b3f
00000030: f1c0 263f 51dc 6e3f 4035 353f 6f29 663f

transformer.encoder.layers.0.norm2.bias f4 [16]
-0.026193287 0.11814683 -0.16242738 0.20205536 0.010957789 0.20461719 -0.10670419 -0.12513603
-0.037143823 -0.106168725 -0.17887427 -0.21936083 0.04363997 -0.07593501 0.3421644 -0.17313962
00000000: 4e93 d6bc f7f6 f13d 5d53 26be 9ae7 4e3e
00000010: 4c88 333c 2b87 513e ba87 dabd a923 00be
00000020: 1f24 18bd fd6e d9bd d12a 37be 20a0 60be
00000030: d3bf 323d d183 9bbd 2c30 af3e 834b 31be

transformer.encoder.layers.1.self_attn.in_proj_weight f4 [48, 16]
0.25167838 0.33834538 0.9630354 0.19089186 -0.025583178 0.0018909379 0.32165048 -0.135318
0.58534235 0.01677224 -0.1932868 -0.004888372 0.16461053 -0.7417444 -0.2807354 -0.15459946
0.033190537 -0.004730482 0.24713506 0.14565794 -0.48726502 -0.4063863 0.22189985 -0.20554413
-0.21977064 -0.5110657 0.046317674 0.14052325 0.1356096 0.45382467 -0.14180164 0.20105846
-0.31091496 0.5081082 -0.46912804 0.32412142 0.7349798 0.29411036 -0.07248586 0.40131995
0.123274855 0.057180796 -0.05371846 -0.2597436 -0.26624176 -0.5162604 -0.16397835 -0.4503404
-0.014320507 0.41359583 0.007564396 -0.26427507 0.43383384 -0.35782242 -0.3450176 0.23355691
-0.32803252 -0.0053651826 -0.25921348 0.25303537 -0.060407363 0.21231394 0.06755676 0.3489828
0.63470215 -0.41619223 0.059940055 -0.2388941 -0.45618728 0.32532573 -0.33634332 0.1679126
-0.38616958 0.43495318 0.62541175 -0.22538204 -0.55251306 0.36243042 0.22954284 0.038731407
0.13173042 -0.10597385 0.032327052 0.6101768 -0.021506676 0.5565459 -0.11817246 -0.42974207
0.18796684 0.107589595 -0.05148254 0.29489183 0.29699725 -0.4957371 -0.05845978 0.121910855
0.24044955 0.21116744 0.32500434 0.026281573 -0.09280331 0.032431837 -0.1897692 -0.28330827
-0.06133573 0.007814966 0.31786004 -0.07572417 -0.5568568 -0.16466689 -0.1531707 0.07754757
0.2027839 -0.24373943 0.24361609 -0.20614058 0.46515223 -0.12884218 -0.5863843 0.46844593
-0.4728383 -0.43917367 -0.38042772 -0.09044334 -0.10988223 0.1663191 0.037611697 0.17111225
0.21585703 -0.43476903 0.34812322 0.1601559 -0.38074082 -0.3831612 -0.0886961 -0.34241554
0.039235998 0.07891192 -0.30959052 0.36967707 -0.09466733 0.5651433 0.14945203 0.75895876
-0.23588835 -0.2670053 0.08622515 -0.5316791 -0.546221 0.15227818 0.18028045 0.025263442
0.09650324 0.3947031 0.3287943 -0.06569021 -0.086147815 -0.080336235 0.14611349 0.258434
0.2589453 -0.06082382 -0.10677135 -0.6822854 -0.2877299 -0.7632551 0.84083337 -0.093007825
0.41709727 0.16926612 0.49325866 -0.053033385 -0.08302891 -0.092247285 -0.28959262 0.23663397
-0.2058351 -0.25704068 -0.6447753 0.49370897 0.09828623 0.23311652 -0.38378075 0.09605274
-0.081612244 0.0961726 0.12216797 -0.18482621 0.46965638 0.08189823 0.16820762 -0.111424744
0.015884228 -0.0064344644 0.30195278 0.037487954 -0.62233436 0.16429485 0.4519978 -0.12499213
0.3266896 -0.18962988 0.09677315 -0.12224192 0.5421013 0.22526519 0.10576717 0.5646935
0.05610091 -0.34201178 0.28519484 -0.40548626 -0.008615779 -0.09323681 -0.19330768 0.07475107
-0.179113 0.19998282 -0.026392575 0.5210313 0.23841625 0.19554856 -0.08962261 0.29274085
0.21389192 -0.057441883 0.22741054 0.04694761 -0.4998067 0.6108795 -0.0035072507 -0.13123688
-0.12269679 0.039712306 0.035870187 0.08225328 0.13689724 -0.021934703 0.36270317 0.014202431
-0.6716083 0.048300635 0.48976642 -0.14275067 0.07496811 -0.3254692 0.22028576 -0.38118654
-0.2881007 0.47647408 0.019633092 0.15823911 0.061711773 0.08052638 0.16264388 0.10193586
00000000: fddb 803e 9b3b ad3e 7d89 763f 2879 433e
00000010: d093 d1bc 59d9 f73a 5faf a43e cd90 0abe
00000020: ffd8 153f f065 893c faec 45be a32e a0bb
00000030: aa8f 283e f6e2 3dbf 8dbc 8fbe 524f 1ebe
00000040: cdf2 073d 2902 9bbb f910 7d3e 5b27 153e
00000050: cd7a f9be dd11 d0be b739 633e 297a 52be
00000060: 8e0b 61be 34d5 02bf 9ab7 3d3d 54e5 0f3e
00000070: 3edd 0a3e b55b e83e 7334 11be 45e2 4d3e
00000080: 3f30 9fbe 6113 023f 8d31 f0be 3ef3 a53e
00000090: a327 3c3f a295 963e 7773 94bd cf79 cd3e
000000a0: 8777 fc3d 6936 6a3d e307 5cbd 1dfd 84be
000000b0: d750 88be a429 04bf f1e9 27be 0493 e6be
000000c0: 8fa0 6abc d5c2 d33e c1de f73b 104f 87be
000000d0: 781f de3e 8034 b7be 26a6 b0be 8b29 6f3e
000000e0: e1f3 a7be 6ace afbb a1b7 84be da8d 813e
000000f0: b66d 77bd d368 593e 335b 8a3d e0ad b23e
00000100: d77b 223f 2617 d5be b483 753d a8a0 74be
00000110: 6191 e9be 1891 a63e 3135 acbe 48f1 2b3e
00000120: 05b8 c5be 2fb2 de3e fc1a 203f 8dca 66be
00000130: 7f71 0dbf 7b90 b93e 470d 6b3e d3a4 1e3d
00000140: 57e4 063e d108 d9bd 5f69 043d 8c34 1c3f
00000150: c52e b0bc cb79 0e3f 6704 f2bd 2707 dcbe
00000160: 617a 403e ef57 dc3d 5bdf 52bd 10fc 963e
00000170: 0610 983e 41d1 fdbe 8673 6fbd 66ac f93d
00000180: 6838 763e 473c 583e f866 a63e 744c d73c
00000190: a90f bebd 3fd7 043d db52 42be c80d 91be
000001a0: 2d3b 7bbd 580a 003c 8dbe a23e 4615 9bbd
000001b0: 2b8e 0ebf 709e 28be c8d8 1cbe 43d1 9e3d
000001c0: 95a6 4f3e d496 79be 7f76 793e 8416 53be
000001d0: 6f28 ee3e 34ef 03be 481d 16bf 25d8 ef3e
000001e0: dd17 f2be 5fdb e0be 6cc7 c2be 5c3a b9bd
000001f0: ef09 e1bd 8e4f 2a3e b90e 1a3d 0d38 2f3e
00000200: a009 5d3e 0c9a debe 353d b23e e9ff 233e
00000210: 76f0 c2be b42d c4be 4da6 b5bd 1751 afbe
00000220: edb5 203d 939c a13d a682 9ebe 5046 bd3e
00000230: f2e0 c1bd 3bad 103f f409 193e 1f4b 423f
00000240: b78c 71be ebb4 88be d096 b03d 1f1c 08bf
00000250: 24d5 0bbf d0ee 1b3e 709b 383e 47f5 ce3c
00000260: 7ea3 c53d 8616 ca3e ba57 a83e 9788 86bd
00000270: 446e b0bd 5387 a4bd c69e 153e 7651 843e
00000280: 7a94 843e 6622 79bd f0aa dabd 42aa 2ebf
00000290: 5551 93be b064 43bf db40 573f e37a bebd
000002a0: c68d d53e 1954 2d3e 668c fc3e 8939 59bd
000002b0: 100b aabd 25ec bcbd 7c45 94be 2d50 723e
000002c0: 70c6 52be d69a 83be fe0f 25bf 6cc7 fc3e
000002d0: 4a4a c93d 19b6 6e3e e97e c4be 4db7 c43d
000002e0: 5224 a7bd 24f6 c43d 3333 fa3d 1543 3dbe
000002f0: cd76 f03e 42ba a73d 9e3e 2c3e a832 e4bd
00000300: a41f 823c 33d8 d2bb 8e99 9a3e f88c 193d
00000310: 4e51 1fbf e93c 283e 416c e73e e0fb ffbd
00000320: dc43 a73e 562e 42be 0031 c63d f959 fabd
00000330: 27c7 0a3f ebab 663e 759c d83d c18f 103f
00000340: 11ca 653d 2b1c afbe 0f05 923e e59b cfbe
00000350: 3229 0dbc f1f2 bebd 73f2 45be 1717 993d
00000360: 6669 37be 4cc8 4c3e 3e35 d8bc 4f62 053f
00000370: 6423 743e e23d 483e 0f8c b7bd 21e2 953e
00000380: 7c06 5b3e 2e48 6bbd 4fde 683e 234c 403d
00000390: aae6 ffbe 9962 1c3f e7d9 65bb f662 06be
000003a0: 7448 fbbd 5fa9 223d 9eec 123d 6874 a83d
000003b0: ca2e 0c3e 68b0 b3bc 3bb4 b93e 50b1 683c
000003c0: 86ee 2bbf e3d6 453d aac2 fa3e 3b2d 12be
000003d0: e188 993d e6a3 a6be 9792 613e e22a c3be
000003e0: ef81 93be 69f4 f33e 94d5 a03c 6f09 223e
000003f0: 7cc5 7c3d 04eb a43d 1e8c 263e c0c3 d03d

transformer.encoder.layers.1.self_attn.in_proj_bias f4 [48]
-0.9713698 0.43290684 -0.39958984 -0.029018084 0.30085096 -0.06802409 0.33661786 -0.14280674
0.46189576 0.09301531 -0.008123964 0.5298041 0.25079903 0.055230606 -0.20827542 -0.052216195
-0.00050849933 -0.00026818932 -0.0014394782 0.00053161674 2.280625e-05 -0.0018819203 -0.00048091222 0.0012162655
-0.00023528846 0.00032753087 0.0016044356 -0.00028256522 -0.00012808005 -0.0009313531 -0.00011535809 -8.0085934e-05
0.1678485 -0.0037310412 0.04495915 0.14299175 0.016298607 -0.10530767 -0.12949498 -0.12466947
-0.040676035 -0.046843834 0.074503064 0.087072544 0.070829004 0.013852552 0.13798755 -0.16398077
00000000: b1ab 78bf f7a5 dd3e 0a97 ccbe 55b7 edbc
00000010: 2309 9a3e 3750 8bbd 2d59 ac3e ee3b 12be
00000020: 9a7d ec3e d07e be3d 601a 05bc 3ea1 073f
00000030: bb68 803e 7d39 623d 2746 55be a6e0 55bd
00000040: d04c 05ba c39b 8cb9 e0ac bcba 325c 0b3a
00000050: 0d50 bf37 c4aa f6ba f222 fcb9 196b 9f3a
00000060: c4b7 76b9 73b8 ab39 ed4b d23a 4325 94b9
00000070: 3a4d 06b9 0c26 74ba 67ec f1b8 cff3 a7b8
00000080: 7ae0 2b3e 7c84 74bb 1627 383d 6e6c 123e
00000090: a884 853c 8cab d7bd 559a 04be b552 ffbd
000000a0: ea9b 26bd 52df 3fbd 1095 983d 1753 b23d
000000b0: cc0e 913d d0f5 623c 9c4c 0d3e 93ea 27be

transformer.encoder.layers.1.self_attn.out_proj.weight f4 [16, 16]
-0.07535068 -0.06617547 -0.16827607 -0.03236938 0.3055765 0.47929117 -0.41623798 -0.2971915
-0.33048716 0.42825764 -0.21017075 0.5914849 -0.16621844 -0.38701668 -0.10156259 -0.576326
0.5320299 -0.36105332 0.15291953 0.74291486 -0.09985899 0.3250625 0.06627077 0.34094337
0.26025987 -0.080838256 0.77724403 0.21741532 -0.07167564 -0.27610052 0.24601822 -0.5557541
-0.29744464 0.0627883 0.2440619 0.3817292 -0.07307016 0.34346098 -0.30507624 0.028272877
0.056761768 0.25171727 0.019632556 0.18996982 0.5149888 0.052333444 0.0814059 -0.254669
-0.057246253 -0.19138314 -0.499429 0.090787284 -0.19042763 0.42011508 -0.037319936 0.656904
0.39265233 0.4144103 -0.1699196 -0.038144734 -0.51804316 -0.48218927 -0.48921773 0.06421048
0.17105934 0.26833102 -0.0879984 -0.14272353 0.44679052 -0.0066975895 0.5616355 -0.16016823
-0.016320037 0.21128707 0.09693699 -0.05209932 -0.38136372 0.07831879 -0.038405452 0.1781792
-0.6351012 -0.28022188 0.20218942 0.2693422 0.29049307 -0.0877158 -0.11845667 0.24370879
0.39145586 -0.18599477 0.2311401 0.075201176 0.12243538 0.4938454 0.04579166 0.120648935
-0.24310115 -0.09790788 -0.19923559 -0.23687422 -0.13953722 -0.6789365 -0.15296403 0.35035616
0.009208332 -0.48245496 -0.31211683 0.32728407 0.4894161 0.03536175 -0.34008086 -0.63354516
-0.022480246 -0.21116523 0.6235963 -0.31561834 0.53085554 0.2908791 -0.037135758 0.17943768
0.13602026 -0.4106445 -0.109693766 -0.2957117 -0.1937237 0.45259976 -0.20917307 -0.25382906
0.54165703 0.14701311 -0.15352757 -0.6566519 0.4503226 -0.20475444 -0.26340646 0.070971966
-0.05480622 -0.21494037 -0.14867224 -0.64008003 -0.5111575 -0.28268915 -0.50154096 -0.07079913
-0.35532367 0.46708068 0.22478957 0.6830356 0.041404735 -0.07276728 -0.5185984 -0.44400695
-0.07183208 -0.09554336 -0.64806706 -0.37627256 0.15660508 -0.2214587 -0.24033351 0.05833767
-0.020268468 0.091165304 -0.06154974 -0.33367532 -0.4002782 0.063862436 -0.32619515 0.03664592
-0.30711067 0.09019586 0.31969124 0.29533935 0.12339149 -0.11309333 0.18730062 -0.016556073
-0.21734118 0.21065593 0.17440264 -0.008135355 -0.34004986 -0.3183093 -0.35201406 -0.6043743
0.2580346 0.36170405 0.10525793 0.31983143 0.26295555 0.13681282 -0.16199228 0.23917124
0.24138536 -0.11125062 0.42203975 -0.042378627 -0.1226681 0.011393479 0.60415375 0.1429127
-0.4328311 0.46669608 -0.5038514 0.2428969 0.26842475 0.47892097 0.21777037 0.47525242
-0.2689929 -0.14328343 0.16239455 -0.46941397 0.1482554 -0.017148327 0.7093792 0.29974133
0.5645401 -0.13830678 0.38365817 0.32310274 -0.31059295 -0.37282875 -0.022147808 -0.0059146727
-0.13511647 -0.6254477 -0.96935457 0.00855462 0.18463324 -0.4086635 0.064812206 -0.44326448
-0.019812977 -0.13415836 0.11281558 -0.5003294 0.135678 -0.1392217 0.44966137 -0.88282406
0.5337892 -0.13372281 -0.4638943 0.25550902 0.55831254 -0.65996873 0.2852237 0.10378549
-0.0037446339 -0.20843127 0.36418062 0.09172209 0.046274465 -0.22019655 0.42210776 0.44477847
00000000: 7551 9abd 0187 87bd 9050 2cbe c195 04bd
00000010: 8674 9c3e a765 f53e 251d d5be 7c29 98be
00000020: 9d35 a9be 9644 db3e 0037 57be 8e6b 173f
00000030: 2b35 2abe 0d27 c6be 0c00 d0bd 1a8a 13bf
00000040: 1d33 083f fbdb b8be f096 1c3e ab2f 3e3f
00000050: df82 ccbd 986e a63e f8b8 873d 2190 ae3e
00000060: c840 853e 878e a5bd 77f9 463f 1fa2 5e3e
00000070: aeca 92bd 0c5d 8dbe 33ec 7b3e e745 0ebf
00000080: aa4a 98be 2797 803d 5deb 793e 0272 c33e
00000090: cfa5 95bd 1eda af3e f432 9cbe 859c e73c
000000a0: 077f 683d 16e1 803e 74d4 a03c 7387 423e
000000b0: 4ed6 033f 985b 563d 23b8 a63d fa63 82be
000000c0: 0c7b 6abd f1f9 43be 28b5 ffbe afee b93d
000000d0: 76ff 42be 5319 d73e cadc 18bd dc2a 283f
000000e0: ba09 c93e 962d d43e 67ff 2dbe a73d 1cbd
000000f0: 7a9e 04bf 83e1 f6be bf7a fabe c980 833d
00000100: 2e2a 2f3e af62 893e 8138 b4bd 1e26 12be
00000110: bac1 e43e 7477 dbbb 58c7 0f3f 2403 24be
00000120: 99b1 85bc a35b 583e e786 c63d 1966 55bd
00000130: 1b42 c3be 9a65 a03d 094f 1dbd 9c74 363e
00000140: fe95 22bf 3e79 8fbe be0a 4f3e 39e7 893e
00000150: 82bb 943e 57a4 b3bd 6999 f2bd cc8e 793e
00000160: e76c c83e 6a75 3ebe feaf 6c3e 1303 9a3d
00000170: 67bf fa3d 4ed9 fc3e 0990 3b3d ca16 f73d
00000180: 82ef 78be ed83 c8bd 6a04 4cbe 288f 72be
00000190: d8e2 0ebe c8ce 2dbf 9aa2 1cbe e261 b33e
000001a0: 8bde 163c 5604 f7be c7cd 9fbe c791 a73e
000001b0: bf94 fa3e 7bd7 103d 141f aebe 0430 22bf
000001c0: 7e28 b8bc b33b 58be 02a4 1f3f ba98 a1be
000001d0: 26e6 073f 1bee 943e aa1b 18bd 83be 373e
000001e0: e548 0b3e ff3f d2be 20a7 e0bd 8667 97be
000001f0: 815f 46be 28bb e73e 7731 56be e2f5 81be
00000200: 09aa 0a3f 9b8a 163e 5536 1dbe 571a 28bf
00000210: af90 e63e 26ab 51be 36dd 86be c059 913d
00000220: 7d7c 60bd 5419 5cbe 893d 18be 49dc 23bf
00000230: 38db 02bf a2bc 90be fd64 00bf 22ff 90bd
00000240: fcec b5be 3325 ef3e 3d2f 663e 6cdb 2e3f
00000250: 0398 293d 0307 95bd ddc2 04bf e154 e3be
00000260: b31c 93bd 3dac c3bd b9e7 25bf cca6 c0be
00000270: 155d 203e 12c6 62be fd19 76be 7bf3 6e3d
00000280: 0f0a a6bc e0b4 ba3d 951b 7cbd 7ed7 aabe
00000290: 44f1 ccbe 4fca 823d 0d03 a7be 081a 163d
000002a0: 9c3d 9dbe 9bb8 b83d 92ae a33e b836 973e
000002b0: adb4 fc3d 7a9d e7bd bccb 3f3e 9aa0 87bc
000002c0: b08e 5ebe 30b6 573e 9b96 323e 274a 05bc
000002d0: 041b aebe 70f9 a2be 303b b4be 46b8 1abf
000002e0: 1c1d 843e 4631 b93e 7891 d73d f2c0 a33e
000002f0: 1ca2 863e a918 0c3e 4ee1 25be 4ee9 743e
00000300: b92d 773e 5dd7 e3bd 9815 d83e 3695 2dbd
00000310: 6a39 fbbd b7ab 3a3c d2a9 1a3f b557 123e
00000320: 0a9c ddbe caf2 ee3e 68fc 00bf f7b9 783e
00000330: f86e 893e 2135 f53e 32ff 5e3e 4954 f33e
00000340: 70b9 89be e4b8 12be c24a 263e 0757 f0be
00000350: 43d0 173e a67a 8cbc e099 353f b277 993e
00000360: b385 103f 4ba0 0dbe d86e c43e b96d a53e
00000370: 0a06 9fbe 69e3 bebe 526f b5bc dfcf c1bb
00000380: f95b 0abe 571d 20bf 9f27 78bf ad28 0c3c
00000390: 7f10 3d3e 583c d1be 43bc 843d 90f3 e2be
000003a0: d34e a2bc cf60 09be db0b e73d 9615 00bf
000003b0: 2cef 0a3e 2290 0ebe 043a e63e c200 62bf
000003c0: 69a6 083f a2ee 08be 8e83 edbe 14d2 823e
000003d0: 92ed 0e3f b6f3 28bf d708 923e 7d8d d43d
000003e0: 8868 75bb 026f 55be e275 ba3e cbd8 bb3d
000003f0: 4b8a 3d3d 347b 61be 821e d83e 01ba e33e

transformer.encoder.layers.1.self_attn.out_proj.bias f4 [16]
0.16482632 0.08277314 -0.26045692 0.13862203 0.027466556 -0.25973365 0.22855635 0.06775857
-0.1646569 0.32160908 -0.01258745 0.06775002 -0.011025293 0.00880136 0.1213503 0.24944876
00000000: 3bc8 283e f784 a93d 9c5a 85be eff2 0d3e
00000010: 8b01 e13c cffb 84be ad0a 6a3e 01c5 8a3d
00000020: d29b 28be f2a9 a43e 983b 4ebc 86c0 8a3d
00000030: 6ea3 34bc 9433 103c 8286 f83d 7f6f 7f3e
