experiments/Datasets/darts_logs/REE_base_transformer_5_84/checkpoints/best-epoch=5-val_loss=0.00.ckpt (torch, 378459 bytes, 201 tensors)

encoder.weight f4 [16, 1]
000000 48 00 0d bf c1 b8 9b bf 78 6a 72 bf 35 04 81 bf
       -0.55078554 -1.2165757 -0.9469371 -1.0079409
000010 c7 35 1d 3f 8f 4c a1 3f c8 f7 3f 3f 88 89 a2 3f
       0.6141018 1.2601489 0.7498746 1.2698221
000020 e0 fe b8 bf 72 da 90 3f 5e 34 af 3f 3d c7 86 bf
       -1.4452782 1.1316664 1.3687856 -1.0529553
000030 e0 19 a3 3e 06 46 8c bf 05 c3 56 3f 1d 82 a5 3e
       0.3185568 -1.095887 0.83891326 0.3232583

encoder.bias f4 [16]
000000 f6 86 bf 3e 02 4b de 3c 9e 44 ef 3d c8 7c b6 3e
       0.37407655 0.027135376 0.116830096 0.35642076
000010 2a 0b e4 be 9f be 9d bf fb 3d 78 bf 7d 63 73 bf
       -0.44539768 -1.2323798 -0.96969575 -0.9507368
000020 0d 30 5b 3e c5 c0 9b bf 14 68 00 bf e4 c6 b8 be
       0.21405049 -1.2168204 -0.5015881 -0.36089242
000030 f3 8c 41 be f6 31 ca be f6 9c 27 bf 84 8e 56 bf
       -0.18901424 -0.39491242 -0.6547388 -0.8381121

transformer.encoder.layers.0.self_attn.in_proj_weight f4 [48, 16]
000000 00 18 8e be 92 15 bd 3d fc 4e 27 be 99 63 bc 3d
       -0.27752686 0.0923263 -0.16338724 0.09198684
000010 8f b1 fe 3e fb f1 b2 bc 1e 04 38 3f 05 f8 2f 3f
       0.4974484 -0.0218439 0.7188128 0.6873782
000020 ca a5 89 be ba 3a 82 3f 9c 49 b1 3e 30 f6 0c 3c
       -0.268843 1.0174172 0.34626472 0.008603618
000030 62 a2 a0 3f 9c ff 03 bf 22 ac 91 bb 34 19 24 3e
       1.2549555 -0.51561904 -0.0044455687 0.16025239
000040 2c a0 9a bd c8 52 39 3e 66 75 1a be e9 07 d4 3d
       -0.075500816 0.18097985 -0.15083846 0.10353071
000050 5c 58 3e 3c a2 bd a8 3e 6e 00 c9 3e 29 96 41 be
       0.011617746 0.32957178 0.3925814 -0.18904938
000060 cc 05 13 bd 29 b3 81 3f dc 89 0c 3f b4 21 4f be
       -0.0358942 1.01328 0.54897857 -0.202277
000070 df b0 bc 3f 42 32 c5 be cb 36 92 3e aa 9e a1 3e
       1.4741477 -0.38514906 0.2855743 0.31566364
000080 66 92 a6 bd b7 1f ec 3b 93 f3 54 be a2 8f f0 3e
       -0.08133392 0.007205929 -0.20796041 0.46984583
000090 38 f0 85 3e 02 21 e0 3e c9 9d b5 be d0 37 09 3f
       0.26159835 0.43775183 -0.35471943 0.5360079
0000a0 c8 a1 7e be b7 c8 fb 3e 37 66 a4 3e 36 95 59 3e
       -0.24866402 0.4917657 0.32109234 0.21248326
0000b0 16 a9 65 3e 60 e6 82 be c5 89 8f 3e 24 2c 85 3e
       0.22427782 -0.25566387 0.28034797 0.2601024
0000c0 68 b2 04 bf e3 dd 3f 3f c8 f6 9f be 71 93 00 3f
       -0.51834726 0.7494795 -0.31242967 0.5022498
0000d0 bb 2d d3 bc d8 b3 47 3d 53 ea 80 3e 2f 37 3e bf
       -0.025778642 0.048755497 0.25178775 -0.74302953
0000e0 96 59 87 3e a3 45 a9 bf 1d 78 49 bf be b2 d2 bd
       0.26435536 -1.3224376 -0.78698903 -0.102879986
0000f0 9f ea 33 be 22 cd bd bd 23 4c 81 3e 7e c7 d1 be
       -0.1756997 -0.092676416 0.252534 -0.40972513
000100 1b 6c 31 bf 98 b6 fc 3e 85 80 01 bd e0 32 45 bf
       -0.6930558 0.49358058 -0.031616706 -0.77030754
000110 72 33 82 bd b7 17 5e bd 66 95 76 3e 30 8d fc be
       -0.06357469 -0.054221835 0.24080428 -0.49326468
000120 95 92 27 3f b0 32 79 be 68 b8 52 bc 2f e3 3b bd
       0.6545804 -0.24335742 -0.012861349 -0.045870956
000130 bd cb 07 3f 94 69 b8 be ff 48 91 3e 21 ba 19 bf
       0.53045255 -0.3601805 0.28376004 -0.60049635
000140 ad fb 5f 3d 8f 3a d7 bd de 58 05 3c dc 55 26 3e
       0.054683376 -0.10509216 0.008138863 0.1624369
000150 9c 5b ba 3e ec 97 0a 3f 24 33 ba be 5c 2e af 3e
       0.36398017 0.54138064 -0.36367142 0.34215057
000160 92 68 20 bd fe 8b be 3e ec ef 79 3d cd 3d 8c 3e
       -0.039162226 0.3721618 0.061019823 0.273909
000170 28 3b cd bd f8 d6 b2 be 71 a1 8b be 4c 56 c0 3e
       -0.10021049 -0.34929633 -0.27271608 0.3756584
000180 30 28 7c 3d ef 3b 3c be 93 73 39 be e9 f1 de 3c
       0.061561763 -0.18382238 -0.18110494 0.027214961
000190 6f 6e ae be b7 76 d7 3e d6 2e 84 be 44 62 6a bf
       -0.3406863 0.4208276 -0.25816983 -0.9155619
0001a0 44 ef 3e 3f cc 76 6f be b1 c6 19 bf ca 10 f5 3b
       0.7458384 -0.23385161 -0.60068804 0.007478808
0001b0 24 78 25 bf 51 18 da 3e 63 4f 1a bc 7f 92 fb be
       -0.64636445 0.42596677 -0.009418341 -0.49135205
0001c0 c6 61 8f be ad da 41 be 6f 77 cb 3d e6 08 51 3e
       -0.28004283 -0.18931074 0.099348895 0.2041355
0001d0 ea 58 c9 be 98 5b 4c 3d 49 38 10 3f 59 2b d2 bd
       -0.3932565 0.049892038 0.56335884 -0.10262174
0001e0 7b ff 89 be e3 39 5b 3f 05 a9 a8 3e 8c be 0c 3f
       -0.2695273 0.85635203 0.32941452 0.5497825
0001f0 50 02 0c 3e ed a6 b6 3e 7f ea 26 bf 43 cb bc 3e
       0.13672757 0.3567423 -0.6520156 0.36873826
000200 bc 71 02 3e 2e ee b9 3d 46 5e 6e bd a4 15 c7 3e
       0.12738699 0.09078632 -0.058195375 0.38883698
000210 8a 72 16 3f aa 36 03 be f4 15 64 3f fd 0a ae 3e
       0.5876852 -0.12813821 0.89096 0.33992758
000220 a8 ee 76 3d a8 58 25 3e 10 f5 0b 3f e2 76 8c be
       0.060286194 0.16147101 0.5467081 -0.2743445
000230 e7 bb 05 40 db 4e 4b bf 9c 8f 51 3e 5e dc 22 bd
       2.0895936 -0.794172 0.20464939 -0.03976094
000240 38 da 15 be fa 97 01 bf 6b 58 31 be ab 27 a5 3e
       -0.14634025 -0.5062252 -0.17318885 0.32256827
000250 35 51 4f 3e 71 3d 4e 3c 52 f6 10 3f 46 2d a4 bd
       0.20245822 0.012587891 0.56625855 -0.08016448
000260 83 31 2e 3e 9a 1c ac 3e bc db 7e 3e 1d ef 85 be
       0.17011075 0.3361557 0.2488851 -0.2615899
000270 91 b1 ec 3f 48 82 db be 61 dd 66 3d 76 05 63 be
       1.8491689 -0.42872834 0.056363467 -0.22170052
000280 48 94 50 3e c6 21 34 bc 0e 77 a2 bd 08 6c 8f 3e
       0.20369065 -0.01099438 -0.07932864 0.2801211
000290 0d a7 ec 3e 2b f8 9f bd 91 79 3f bf 34 2c 26 3e
       0.462212 -0.07811006 -0.7479487 0.162278
0002a0 89 07 bf bd 5b 91 ca be 4d e1 2c be 5e 62 00 3f
       -0.09327609 -0.39564022 -0.1688282 0.50150096
0002b0 b6 f7 a3 bf e2 61 95 3f 38 3f 01 bf 2c 12 f4 bd
       -1.280997 1.1670496 -0.5048709 -0.119175285
0002c0 96 21 09 be 82 eb 35 3d 0c c6 65 3e c1 f3 6e be
       -0.13391718 0.04441405 0.2243883 -0.23335172
0002d0 de 29 ad be 0c 68 f2 3d 6c 09 23 3e 4a 76 30 bf
       -0.33821005 0.118362516 0.15921563 -0.68930495
0002e0 44 50 4a 3f 67 23 1f bd 55 2b ba bd ba 05 24 3f
       0.79028726 -0.03885212 -0.09090296 0.6407124
0002f0 19 33 0f bf c6 5a 3f 3f e1 e5 ee 3d 05 ff 47 3d
       -0.55937344 0.74747884 0.1166494 0.04882719
000300 8d 21 fe be 4c 20 19 bf 1f 12 9a bf fe 52 fc be
       -0.49634972 -0.59814906 -1.203678 -0.49282068
000310 4b 72 5d be 60 d5 29 be da 4c da 3d ee 12 52 3f
       -0.2162563 -0.16585302 0.106591895 0.82060134
000320 68 25 58 bf d5 9d 5b 3f a1 54 8f 3f a8 25 5d 3e
       -0.8443208 0.8578771 1.1197702 0.21596396
000330 c2 c7 e1 be ef aa 0e 3e ab 98 b7 be 6d bb 2f 3f
       -0.44097716 0.13932393 -0.35858664 0.68645364
000340 a2 0b 09 be 3c fc 05 bf 51 34 3a bf 48 25 f2 3d
       -0.13383344 -0.52338004 -0.7273608 0.11823517
000350 1c c3 4d bd 7e b7 ce 3e 86 25 0f 3f 19 ba a6 bd
       -0.0502349 0.40374368 0.5591663 -0.08140964
000360 af 37 02 bf df 0d 79 3f e3 51 32 3f 53 59 a4 be
       -0.50866216 0.9728679 0.696562 -0.320994
000370 1e a7 45 3f 5b bb 1c bf 7d 77 1a 3f 29 d1 96 3d
       0.77208126 -0.6122338 0.60338575 0.07364113
000380 11 8b 46 be b1 87 c3 be 69 a6 fe be 38 9e a2 3e
       -0.19388987 -0.38189462 -0.49736336 0.31761336
000390 4b 29 d6 bd 15 0f c3 bd 11 90 d3 be fa 47 22 3f
       -0.10457095 -0.09524361 -0.4132085 0.6339108
0003a0 79 1e 51 bf 9d 3a 60 3f fd 55 04 3f 81 56 74 3d
       -0.8168712 0.87589437 0.5169371 0.05965281
0003b0 c2 ab 16 bf ab ec 19 be 67 b2 0d bf 21 e8 54 3f
       -0.5885583 -0.15031688 -0.55350345 0.831667
0003c0 2e 52 e1 3e a1 0b 4d 3e ed 50 51 3f 44 a4 1a 3f
       0.4400801 0.20023967 0.8176411 0.604069
0003d0 4a e2 30 bf e1 b8 c5 3d df da 47 3f 8a 4f 84 bf
       -0.6909529 0.096544035 0.78068346 -1.0336773
0003e0 d9 49 77 3f dc 36 91 be da ca 2e 3d e2 42 13 bf
       0.9659706 -0.28362167 0.042673923 -0.5752393
0003f0 ce d5 5a 3f 2c 97 b8 be d6 76 57 3f d2 ae 3c bf
       0.8548249 -0.36052835 0.84165704 -0.73704255

transformer.encoder.layers.0.self_attn.in_proj_bias f4 [48]
000000 83 43 b6 3e c6 c0 1b 3e e3 c6 ea 3e 1c 09 75 bf
       0.35598382 0.15210256 0.45854864 -0.95717025
000010 e8 6a 1d bf 69 93 a2 3e 44 1d 7a be 3a 91 e4 3e
       -0.6149125 0.3175309 -0.24425226 0.4464205
000020 97 3f 8c 3d 5c 02 89 bd 9f fc 13 3e 40 93 61 3e
       0.06848066 -0.06689903 0.14451836 0.22028828
000030 63 28 45 3f ff ea eb 3e f7 5b 4b 3f 1f e6 24 bf
       0.7701475 0.46077725 0.794372 -0.64413637
000040 d8 9a 52 39 c0 4d bf 38 17 5a f0 b8 59 c3 47 3a
       0.00020084844 9.122072e-05 -0.00011460872 0.00076203566
000050 32 fb e6 b9 90 52 8a 39 99 a4 2c b9 e5 9e 15 38
       -0.00044056174 0.00026382925 -0.00016464516 3.567235e-05
000060 02 2f 3d 37 55 0f ed 38 79 2d 48 b8 cf 56 ba 39
       1.1276223e-05 0.000113038965 -4.7726066e-05 0.00035541362
000070 2d 15 2a 39 ab 5a f0 39 13 04 c5 b7 8b 6e dd ba
       0.00016220352 0.0004584392 -2.3486127e-05 -0.0016893906
000080 ba e2 84 bd 9b 3b 64 3d a5 5b 29 3c a3 42 b8 3c
       -0.06488557 0.055720907 0.010336791 0.022492712
000090 99 38 c5 bd ed 54 a5 3d bf 6f e4 3c ed 4c b8 bd
       -0.09629936 0.08072839 0.027885316 -0.089990474
0000a0 09 fd 88 bd be fb ba 3d 22 11 07 bd 3a fa b0 bb
       -0.066888876 0.09130047 -0.032975323 -0.005400923
0000b0 07 e2 1a 3d c7 5e 24 bd a7 9a 56 bd 00 d6 15 bd
       0.037813213 -0.04012945 -0.05239358 -0.03658104

transformer.encoder.layers.0.self_attn.out_proj.weight f4 [16, 16]
000000 8e be ab bd d8 d4 86 3c 05 e2 82 bd 2f 00 1a 3e
       -0.08385955 0.016458914 -0.06390766 0.15039133
000010 cf 29 fb 3e d3 d0 4e 3e d7 78 39 3d 35 53 48 3e
       0.49055335 0.20196848 0.045281257 0.19562991
000020 48 fe 88 bc f5 78 02 3f f2 d2 99 3d 2f fd d4 3d
       -0.016722813 0.50965816 0.07510938 0.103998534
000030 b8 fe 88 be 33 4a 15 3e 9a 8a 94 bd 9d 57 74 be
       -0.26756835 0.14579086 -0.07252999 -0.23861547
000040 e7 89 e5 3d 0c 00 22 3e 36 35 2f be 38 4e 42 3e
       0.112079434 0.1582033 -0.17110142 0.1897515
000050 a9 8b cd 3d 8e 57 7d 3e f1 b8 9a 3c 83 fc 00 bf
       0.10036404 0.2474043 0.018887015 -0.503853
000060 32 f0 33 bd 7c d4 d3 3c 8a 07 6c 3d 71 c1 54 be
       -0.04393024 0.025858156 0.057624377 -0.20776917
000070 f9 e5 67 3e aa 41 2b 3e 2f f3 8a 3d 96 74 35 3c
       0.22646321 0.16724268 0.06784665 0.01107516
000080 9a 18 19 bd 6d e6 fc 3d 54 ee 14 be 12 e4 02 3e
       -0.037376978 0.12348638 -0.1454404 0.12782314
000090 61 1b 06 3c 04 23 3d 3d ce 21 32 be 1b e8 d0 bd
       0.008185239 0.04617597 -0.17395708 -0.102005206
0000a0 ad 0e f8 3b f5 03 5b 3d 9c 12 8c 3c 5d ee 29 3e
       0.007570109 0.05347057 0.017098717 0.16594835
0000b0 0a 1d 7a 3d 48 b4 2b bd c6 8d 34 3e 66 c9 c1 3d
       0.06106285 -0.041919976 0.17632207 0.09462242
0000c0 6e 6e 97 3e 1c f5 f0 3d 4a 59 9a bd ce f2 ef 3d
       0.2957644 0.11765501 -0.07536562 0.11716233
0000d0 79 72 5c bc 41 b8 fb 3d d9 8d 8b bd b9 d7 53 3d
       -0.013455027 0.12291003 -0.06814165 0.0517194
0000e0 c6 bd 15 3c 60 22 45 bd 66 d0 01 bd 63 e5 6d bd
       0.009139484 -0.048128486 -0.031692885 -0.05808009
0000f0 e8 27 c8 3d 86 4b 6f 3e f5 d4 73 be ea 9b 09 bd
       0.097732365 0.23368654 -0.23811705 -0.033595957
000100 fe 70 a7 bd f2 fe dd 3d d6 1e 96 bd 41 b9 88 be
       -0.081758484 0.108396426 -0.073301 -0.26703838
000110 7b 13 56 be 42 d0 f2 bd 70 1d 3d be 12 de 41 be
       -0.20905869 -0.11856128 -0.18468261 -0.1893237
000120 b2 b4 85 3c a2 3f 89 3e 49 9e be be 40 60 88 be
       0.016321514 0.2680636 -0.37230137 -0.26635933
000130 a1 b4 25 3e 44 f6 dc bd fe d9 02 3e 16 f5 99 3e
       0.16182186 -0.10789159 0.1277847 0.30069798
000140 f7 fa 85 be 0d 9f 82 bd b4 1e 15 be 87 06 c7 be
       -0.26168033 -0.06377993 -0.14562494 -0.38872167
000150 c3 78 02 bf 91 45 8c 3e 0f 15 16 3f 41 76 8c be
       -0.5096552 0.27396825 0.5862588 -0.2743397
000160 4a 63 82 3e 97 bf 87 be c0 9c 33 3e 75 e5 b2 3e
       0.25466377 -0.2651336 0.17540264 0.34940687
000170 41 f1 34 be 1b e1 42 3e bd a6 55 3e 79 71 0a be
       -0.17670156 0.19031183 0.20864387 -0.13519849
000180 81 b4 72 bd da b4 05 3e bc bf 84 be c9 c5 de be
       -0.059254173 0.1305727 -0.25927532 -0.43510273
000190 11 10 5d be 99 4f 8a be 02 25 cf bb 2e a8 f8 be
       -0.2158816 -0.27013853 -0.0063215503 -0.4856581
0001a0 a9 ed 3e 3e ae b7 67 bd ec 67 f4 bd d5 21 e5 bd
       0.18645348 -0.056571655 -0.11933884 -0.111880936
0001b0 13 51 22 be d7 68 80 3c bd 12 57 bd a1 ae 3a 3d
       -0.1585124 0.015674992 -0.052508105 0.045576695
0001c0 e5 c2 e1 3d a9 44 d5 3d 13 05 07 bc b2 57 aa 3d
       0.11023501 0.104134865 -0.008240956 0.08317508
0001d0 6b 6a 9c bb db 99 10 be ba a6 74 3d 1e 00 33 bd
       -0.004773428 -0.14121191 0.059729315 -0.043701284
0001e0 6c 3e 1b bd 40 cf 7e 3e 8d 51 e0 3d 1d b6 34 be
       -0.037901327 0.24883747 0.109530546 -0.17647596
0001f0 b0 cb 8a 3c 76 29 d7 b9 4b 63 9a bc 85 bc c6 bb
       0.016942829 -0.00041038886 -0.018846175 -0.0060649537
000200 fd 21 6a 3e 5b 4c c8 3d 80 bb 05 3e 40 79 1e be
       0.22864528 0.09780189 0.13059807 -0.1547594
000210 a1 bb c4 3e 24 5c 6e 3d 2d c5 19 3e 78 27 2a 3e
       0.384244 0.05819334 0.15016623 0.16616619
000220 f3 65 53 bd d2 b3 07 3e c5 17 f6 bd 24 7c bb bd
       -0.0516109 0.1325219 -0.120162524 -0.09154537
000230 6b 6d b2 bd 14 4a 5d 3e 9f 9a 01 3e fa 66 d1 3c
       -0.08712276 0.2161029 0.1265664 0.025561798
000240 59 99 8b 3d a4 f8 d5 3d ac 8d 98 be b8 79 24 bd
       0.06816358 0.10447815 -0.29795587 -0.040155143
000250 54 1e 94 3e 9d 01 88 3e 94 9d 92 bd f7 dd 31 3e
       0.2892939 0.2656373 -0.07158962 0.17369829
000260 6f 5d 38 be c8 05 28 be 38 b6 a6 3d 64 bc bf be
       -0.18004392 -0.16408455 0.08140224 -0.37448418
000270 2e 83 bc be 74 f6 8e be 13 3a 15 3e 50 f9 31 3e
       -0.36818832 -0.27922404 0.14572935 0.17380261
000280 d1 ed aa be 48 ae dc 3c 1c e3 7e 3e da 03 0d 3e
       -0.33384565 0.026938573 0.24891323 0.13771
000290 d0 ce dd 3d 4b 65 cd bd f2 a6 24 3e 20 06 5e 3e
       0.10830462 -0.10029086 0.1607931 0.21682024
0002a0 bf 3b 1e 3e d7 a6 e9 3d df fa 0f 3e ec b3 aa 3c
       0.15452479 0.11408775 0.14060543 0.020837747
0002b0 5e bc 66 3e 3a 58 12 3e d7 60 64 3d f8 5f e7 bd
       0.22532794 0.14291468 0.055756416 -0.112976015
0002c0 22 6b 0e 3e e7 de e6 3d 14 47 4b 3e f0 90 0b bf
       0.13908055 0.11272984 0.19851333 -0.5451803
0002d0 6c ce 1c 3c b5 bf af bd 3a 2a 84 3e a5 d6 21 be
       0.009570699 -0.08581487 0.25813466 -0.15804537
0002e0 c4 12 97 be f3 85 30 3d 7c cc 23 be 9e 4a 40 3e
       -0.29506505 0.043096494 -0.15995973 0.18778464
0002f0 22 6e 1d bd bd 2c cf be 08 ea cd 3d f8 46 0a be
       -0.03843511 -0.4046382 0.100544035 -0.13503635
000300 e2 56 50 3e af 33 a1 3d f6 00 a5 3e 91 96 b5 bd
       0.20345643 0.07871186 0.32227296 -0.08866609
000310 d2 33 a3 bd 79 88 d2 bd c9 d4 f3 bd d6 97 ea be
       -0.07968868 -0.10279936 -0.1190582 -0.45818967
000320 ef 4a 68 be f5 80 75 be 98 6e 63 3e 7b 5a d9 3c
       -0.22684835 -0.23974974 0.22210157 0.026532402
000330 83 df 36 3e ea d7 38 3e bc 55 aa be ba 0c d2 3e
       0.178587 0.18051115 -0.33268535 0.41025335
000340 2b d2 69 bd 68 ad 16 3e cc 5d e3 bd 21 8d 72 3e
       -0.057085197 0.14714587 -0.11101875 0.23686649
000350 ea bd ab bd 50 0e 73 be e2 2f 2b be 1c 95 ac 3d
       -0.083858326 -0.23735929 -0.16717485 0.08426878
000360 8d d6 7e be 08 db 6c be a3 37 ce be fb fe ad 3e
       -0.24886532 -0.23130429 -0.40276822 0.33983597
000370 e1 d4 84 be bd aa cf 3e 4a c0 e8 bd 2d a5 98 3e
       -0.25943664 0.4055995 -0.11364801 0.2981352
000380 e7 49 e4 3c 10 55 48 3e a2 bc 33 3c e6 7a a9 bd
       0.02786727 0.19563699 0.010970267 -0.08275394
000390 87 27 30 be b4 e4 d5 bd 97 16 50 be 35 b1 eb 3e
       -0.17202578 -0.10444012 -0.20321117 0.46033636
0003a0 5e ab 0c 3e 6e d5 ce bd ab 37 06 3e 44 84 94 be
       0.13737246 -0.10099302 0.13107173 -0.2900716
0003b0 24 04 a8 3d eb b3 19 be 01 76 47 3c 36 2c a5 bb
       0.08203915 -0.1501004 0.01217413 -0.0050406707
0003c0 cb 99 1e bd 67 e5 64 3e 8b 17 a0 3e 4b 1e 3b bd
       -0.038720887 0.22353135 0.31267962 -0.045683187
0003d0 a1 c7 eb bd 03 95 b6 3e 95 f7 0f 3d f5 0d ac be
       -0.115126856 0.35660562 0.035148222 -0.33604398
0003e0 1b 24 e9 bd ea bb e0 3c 3c d3 55 be 40 9c ed 3e
       -0.1138384 0.027433354 -0.20881361 0.46408272
0003f0 28 d9 1e 3f bf 79 cb 3e a2 48 1d 3f 57 b8 20 bf
       0.62050104 0.39741322 0.61438954 -0.6278128

transformer.encoder.layers.0.self_attn.out_proj.bias f4 [16]
000000 3a bf 0c bd a1 70 a3 bc 95 00 58 bd e8 e0 08 3d
       -0.034362055 -0.019951167 -0.05273493 0.033417612
000010 e1 bc 48 bd 2d c3 81 bd af 15 8b 3d 93 c1 e9 3c
       -0.049008254 -0.06336055 0.06791245 0.028534686
000020 49 d1 b5 bd e8 df 22 3c bc d7 78 3d 5d c3 03 3d
       -0.088778086 0.009941079 0.060752615 0.032168735
000030 26 a6 a6 3d df 52 75 3d 80 39 b3 bd 37 f5 03 3d
       0.08137159 0.059893485 -0.08751202 0.032216277

transformer.encoder.layers.0.linear1.weight f4 [128, 16]
000000 47 df cd 3d 57 89 e4 3e 69 78 d4 be 1b 22 38 3e
       0.100523524 0.44636032 -0.41498116 0.1798176
000010 83 45 ab be 5c 9a bc 3e 31 e1 bc be 9f 63 e1 3b
       -0.3345147 0.36836517 -0.36890557 0.006878331
000020 38 7b 07 3d 17 79 0e 3e cb b3 27 be 02 08 86 3d
       0.033076495 0.1391338 -0.1637718 0.06544496
000030 8d 61 f5 bd e2 24 c5 be b3 28 00 3e 1d ea a3 be
       -0.11981497 -0.38504702 0.12515526 -0.32014552
000040 84 04 ad bd 86 c7 9c bc d0 13 ab be 3c cf 6c be
       -0.08448127 -0.019138109 -0.33413553 -0.23125929
000050 7c 5d ff bd 1f 42 d0 3d aa 73 14 3e c3 c3 92 bd
       -0.124690026 0.101688616 0.14497247 -0.07166245
000060 74 fa fe 3d d1 c8 69 3d fc 08 5b 3d 7a 2a fd be
       0.12450114 0.05707628 0.053475365 -0.4944647
000070 4e ef 26 be 52 34 05 bf b6 1a 8e 3e 56 b8 0b 3e
       -0.16302225 -0.5203296 0.27754754 0.13644537
000080 a4 e6 89 bd b7 af 6d 3d 3e ce 7f be 20 78 5b 3e
       -0.06733444 0.058028903 -0.24981019 0.21432543
000090 81 e1 86 3d e8 81 35 3e 45 04 19 bf 8d 79 18 3d
       0.0658598 0.17725337 -0.5977214 0.037225295
0000a0 78 e7 14 3e 83 5e 01 bd 41 6f e9 bd 8b 25 d1 3e
       0.14541423 -0.031584274 -0.11398173 0.40848956
0000b0 89 12 f2 bd ad 75 fe be c1 92 3d 3d 74 06 9e 3c
       -0.118199416 -0.49699154 0.046282534 0.019290186
0000c0 b3 33 27 3c 49 26 71 bd 47 6c 08 3e 49 6b 8e 3d
       0.010205197 -0.058874402 0.13322555 0.06954057
0000d0 74 cd 33 3e 12 de 85 bd a8 58 ad 3e e6 40 38 bf
       0.17558843 -0.06536497 0.33856702 -0.7197403
0000e0 76 70 55 3e 89 cb 2e be 74 39 84 3e c2 2b 8f be
       0.20843682 -0.1706983 0.25825083 -0.27963072
0000f0 a5 7a e5 3c a3 c7 16 be f9 74 11 be cb f4 bb 3d
       0.028012583 -0.14724593 -0.14204778 0.0917755
000100 80 b9 ec be 5b 6c 9a 3e f9 68 d4 3e fb 95 3a 3e
       -0.46235275 0.30160794 0.41486338 0.18221276
000110 a1 9b 22 3e 13 54 d1 bd 9c 3b 42 be 80 98 20 be
       0.1587968 -0.10221114 -0.18968052 -0.15683174
000120 68 06 6e 3d 0e 94 4a 3e e5 91 90 be 14 43 02 be
       0.05811158 0.19783041 -0.2823631 -0.12720901
000130 e0 95 3c 3d 2e 51 77 be 0c 75 77 3e d4 c3 9c be
       0.04604137 -0.24152061 0.24165744 -0.30618155
000140 0c 45 97 bd a3 f6 12 be d5 a6 33 3d 5d bd 15 be
       -0.073862165 -0.14351897 0.043860275 -0.14623018
000150 75 2a b3 3e cc c3 69 3f 46 44 9d be 78 51 0b 3e
       0.3499333 0.9131439 -0.3071615 0.13605297
000160 44 b7 d5 bc 88 18 b7 3c c2 ad 45 bd 59 b2 34 bd
       -0.026088364 0.022350565 -0.04826141 -0.044115398
000170 69 1c 52 3e ec 16 16 bf fa e3 1b 3e 50 8d 4a bd
       0.2051865 -0.58628726 0.15223685 -0.049451172
000180 70 16 e4 be 09 9b 3a 3d 32 59 51 be 07 07 8c 3e
       -0.44548368 0.04555801 -0.20444182 0.2734911
000190 9c 87 82 be f4 2f 88 3e f4 e1 26 bd 42 d0 a8 3d
       -0.25494087 0.26599085 -0.04074283 0.08242847
0001a0 11 ac e3 bd c4 72 9a 3c 8c 3f 7f be 6e 1e 5f be
       -0.111168034 0.018853553 -0.24926585 -0.21788952
0001b0 5e 04 d4 3e ed e8 46 bf 44 bd e5 3e 5e f5 ef be
       0.41409582 -0.77699167 0.4487096 -0.46866888
0001c0 fb 58 22 3c c7 50 f7 bd 37 a2 3f 3d ce 6b 48 3c
       0.00990891 -0.12075954 0.04678556 0.012232734
0001d0 31 69 c1 bd 52 12 84 bd 1b 6a b9 bc a4 ef d3 3c
       -0.09443892 -0.06448807 -0.022633603 0.025871105
0001e0 e9 7c a1 be 89 e1 76 be d1 28 1b bf 72 35 b5 3e
       -0.3154061 -0.24109472 -0.60609156 0.35392338
0001f0 26 8b 3a 3e ee dd 3c 3e 12 a3 a2 bc 1a 34 bf bd
       0.18217143 0.18444034 -0.019853149 -0.093361095
000200 c7 2e 17 bc 98 1c 81 bd 7f 36 ae 3c 5f ee bd bd
       -0.009227461 -0.06304282 0.02126622 -0.09273981
000210 82 76 87 3b 18 0b 1a 3f 4c 9a 85 3e 09 17 32 be
       0.0041340003 0.6017318 0.26094282 -0.173916
000220 a8 09 d7 bd 49 29 10 3e 13 ca b0 3d 43 91 af be
       -0.10499889 0.14078249 0.086322926 -0.34290513
000230 e4 f6 88 be ba f1 7a bd d8 f0 44 3e f6 47 d9 bd
       -0.26750863 -0.061265685 0.192325 -0.106094286
000240 54 9e 5f be ef 05 26 be 95 bd 85 3e c4 8e 6b be
       -0.21837741 -0.16213201 0.26121202 -0.2300368
000250 3b 92 a3 bd f4 7e 5a 3e 46 5e a7 3e da 1a 0f be
       -0.079868756 0.21337491 0.32689112 -0.13975087
000260 5b 74 c9 3d 17 24 c3 3d 15 b5 be 3d ee 83 a5 bd
       0.09836646 0.09528368 0.093118824 -0.08081804
000270 4d ce 9b be e6 d6 55 3c 2e 29 fb 3d c3 6e c1 be
       -0.30430833 0.013051724 0.12263714 -0.37779817
000280 fe 3e 5d 3c 79 51 b1 3c 9a 27 a8 be 6b 0b c7 bd
       0.013503788 0.021645295 -0.32842714 -0.09718975
000290 31 f1 72 3e 2c ba 44 3e fb 9d 8e 3d ea a5 7c bd
       0.2372482 0.19211644 0.06963726 -0.061681665
0002a0 2f 51 8d be 12 43 74 3e 89 b9 9c 3c 4b e0 7e bc
       -0.27601 0.2385371 0.019131439 -0.015556405
0002b0 d7 c3 2b 3e e5 6b 13 bf 20 fc ff 3e c7 b9 98 be
       0.16773926 -0.5758651 0.49997044 -0.29829237
0002c0 41 45 35 be 51 98 9b 3e b9 28 d5 3d 0e f4 59 3e
       -0.177022 0.30389646 0.10408158 0.21284506
0002d0 d8 10 25 be 06 57 eb bc 43 30 14 be 8d 39 dc be
       -0.16119707 -0.02872802 -0.14471535 -0.43012658
0002e0 ac 8a 0e 3f af 9b e8 be cb 52 2f bf d7 77 9e be
       0.55680346 -0.45431277 -0.6848571 -0.30950806
0002f0 57 02 fa 3c 12 3c 8e be 52 20 c0 bc e6 f4 9f be
       0.030518694 -0.27780205 -0.023452912 -0.3124153
000300 93 5c 14 be 0b 82 62 3e 14 b7 85 3e 6b 3a 57 3e
       -0.1448844 0.2211992 0.2611624 0.21018378
000310 d5 19 f5 3b 08 38 3c 3e e9 96 ba bd c6 95 65 bf
       0.007479886 0.18380749 -0.09110815 -0.8968166
000320 03 b9 9f 3e 57 e9 0a be 8b 79 d7 be 69 b8 01 be
       0.3119584 -0.13565575 -0.42084917 -0.12668003
000330 45 34 b9 bc 1a 81 08 bd ca dd 65 3e a7 76 3e bd
       -0.022607932 -0.033326246 0.22447887 -0.046499874
000340 90 c5 1e be 62 b3 5f 3d e9 39 43 bc 84 00 f7 bc
       -0.15505052 0.054614432 -0.011915662 -0.030151613
000350 76 54 7b bd fc d7 32 be d4 95 03 3e f7 67 62 3c
       -0.061359845 -0.17465204 0.12850124 0.013818732
000360 0e e2 58 3f 6d ca c4 be ec 27 1a bf 7d d8 3a be
       0.8471993 -0.3843569 -0.60217166 -0.18246646
000370 6c 28 bb bd 1a f3 af be 8a 53 0f 3e 05 5e 90 3d
       -0.09138569 -0.3436516 0.13996711 0.07049183
000380 a7 c1 fc 3e 04 2d 2d 3e 24 24 c2 3d df ea 4b be
       0.49366495 0.16911703 0.094795495 -0.19913815
000390 e5 4c b6 be 28 81 49 3e e4 73 1e be 08 cf 88 be
       -0.3560554 0.19678175 -0.15473896 -0.26720452
0003a0 1c 85 28 be 8c 8f 10 be 29 75 35 3d af 6a 5e be
       -0.16457027 -0.14117259 0.044301186 -0.21720384
0003b0 77 6c 9e be 51 a4 92 be b0 ba 95 3e 9e 0a 16 be
       -0.30942127 -0.28640988 0.29243994 -0.14652488
0003c0 96 0c 82 bd c3 22 5b be 4b d2 03 be db 53 20 3a
       -0.06350057 -0.2139998 -0.12873189 0.0006116011
0003d0 99 d0 19 3e d4 7e 8f bd e1 63 b1 3e b7 43 85 3d
       0.1502098 -0.070066124 0.34646514 0.06507056
0003e0 af 56 4b be 14 11 86 be 11 5f 4f be e2 fb 2e be
       -0.19857286 -0.26184905 -0.20251109 -0.17088273
0003f0 c9 b1 3d be 2c c6 43 3e 1f 7c c4 3e f9 84 10 bf
       -0.18524851 0.19118565 0.38375947 -0.564529

transformer.encoder.layers.0.linear1.bias f4 [128]
000000 de a1 85 3d 5f 72 ce be 61 08 52 be cd e5 86 be
       0.06525014 -0.40321633 -0.20511009 -0.263472
000010 47 9f 44 be 77 e3 3d be 15 2a 0a bd 12 d2 cd be
       -0.19201384 -0.18543802 -0.03373154 -0.40199333
000020 a3 05 b2 be a6 e1 25 bd 9d 67 29 3d 38 cc 9c be
       -0.34769925 -0.0404984 0.04135858 -0.30624557
000030 c8 df bb be 9d ff 9c bc 2d 79 ea bd b7 b3 cb bd
       -0.3669417 -0.019164855 -0.11448894 -0.09946387
000040 3b 38 82 be 6a 40 15 bd 9c 10 8c be 59 3a c2 bd
       -0.25433525 -0.036438383 -0.27356422 -0.09483785
000050 8f 81 d5 be 38 3f a4 be 22 f8 42 be b1 47 70 3c
       -0.41700408 -0.32079482 -0.19039968 0.01466553
000060 02 bd 22 bd a8 7b bd be 64 70 a9 be b6 79 d5 be
       -0.039731033 -0.37008405 -0.3309356 -0.4169442
000070 31 98 08 bf b4 51 f1 be d0 8e f1 be 5e fe 6e 3d
       -0.53357226 -0.47132647 -0.4717927 0.058348052
000080 4b 46 c0 be cc aa 32 be 8f 15 3f be 52 f6 2c 3c
       -0.3755363 -0.17447966 -0.18660568 0.010556774
000090 23 78 85 be c1 a9 61 be 22 bb 15 be 71 52 d5 be
       -0.2606822 -0.22037412 -0.14622167 -0.4166446
0000a0 7b 64 48 3d ec 68 59 bd 73 c2 08 bf be 9b a8 bd
       0.04892395 -0.053078577 -0.53421706 -0.082328305
0000b0 0f 33 08 be 7a cf 00 be 3d a6 4a be fd f6 4c be
       -0.13300727 -0.12579146 -0.19789977 -0.20016094
0000c0 e5 5e 20 be d0 a5 79 be cf f7 4b bd 72 2f 66 be
       -0.156612 -0.24379659 -0.049796876 -0.22479036
0000d0 aa d8 dc be f2 72 51 be 8e 6b cd be db 3d 83 be
       -0.43134052 -0.20454004 -0.4012112 -0.2563313
0000e0 0c 7e c4 be a3 4a 0e be c9 fb f9 bd ba 1e 50 be
       -0.38377416 -0.13895659 -0.12206227 -0.20324221
0000f0 c3 7f f8 bd af 7a 9c be 1f 1c 57 be b4 6d 02 bf
       -0.121337436 -0.3056235 -0.21006821 -0.50948644
000100 9e 59 cc be 30 ec 0c bd e1 f0 ed be e5 9c 33 be
       -0.39912122 -0.034404933 -0.4647284 -0.1754032
000110 e6 b5 d3 be 3b 64 d0 be 56 c3 00 be 7a 1d 98 be
       -0.41349715 -0.4070147 -0.12574515 -0.2970999
000120 30 f0 b8 be c3 5a 25 bf f9 8e 9c be 59 6e e3 b8
       -0.3612075 -0.64591616 -0.3057783 -0.00010844757
000130 7d f8 3d be cc 4a 9f be c2 23 1f be ec 4c 27 be
       -0.18551822 -0.31111753 -0.15540984 -0.16337937
000140 8a 4a aa be 88 0f eb be dd 3a ca be dc 02 9c be
       -0.33259994 -0.45910287 -0.39498034 -0.30470932
000150 9f 8c 5e be d8 96 9f 3d a2 2e e5 be 6d 1f 43 bd
       -0.2173333 0.07792443 -0.4476214 -0.04763739
000160 ab 16 9d be fd 8b 76 be cc 0f 09 bf 2d 68 ca be
       -0.30681357 -0.24076839 -0.5353973 -0.39532605
000170 e9 bd 2d be cc 81 c1 be 24 88 cb be a7 ed bd be
       -0.16966976 -0.3779434 -0.39752305 -0.37095377
000180 01 96 d5 be 96 a0 e1 bd 54 35 0d be 09 de b4 be
       -0.41716006 -0.110169575 -0.13789874 -0.3532565
000190 19 c9 0e 3c 60 49 13 bd 1a 86 39 be 37 d0 5b be
       0.008714938 -0.035958648 -0.18117562 -0.21466146
0001a0 8c da 33 bd b5 33 7e be f0 fc 1f 3d 70 c3 21 be
       -0.043909594 -0.24824412 0.03905958 -0.1579721
0001b0 56 72 d4 be ad 0f 94 be 60 4f 99 be 60 25 f6 bd
       -0.4149348 -0.2891821 -0.2994337 -0.120188475
0001c0 51 b6 6f be bb fe 91 bd 8a 81 36 bb 18 d2 2a be
       -0.23409392 -0.07128664 -0.0027848207 -0.16681707
0001d0 13 a5 74 be 32 4d 54 be cf f8 2c be d8 96 66 be
       -0.23891096 -0.20732573 -0.16891788 -0.2251848
0001e0 c3 42 cc bd 8d 86 0a be c1 ad 77 3d 8e b6 a3 be
       -0.09973671 -0.1352789 0.06046844 -0.31975216
0001f0 d3 92 a1 be a9 70 8d be d5 0f af bc 00 ae 96 be
       -0.3155733 -0.27625015 -0.021369854 -0.29429626

transformer.encoder.layers.0.linear2.weight f4 [16, 128]
000000 3c 96 24 3f 44 ef 81 be 2a 40 29 3d bb a1 c7 3d
       0.6429174 -0.25377858 0.041320957 0.097476445
000010 47 d3 89 bd db aa 3d be b1 80 55 3f 35 cc 93 bd
       -0.06729751 -0.18522207 0.8339949 -0.07216684
000020 38 59 56 be 57 08 84 bd 83 d2 1d 3d 81 95 8d be
       -0.20932472 -0.06446903 0.038530838 -0.27653125
000030 00 b9 cf 3d 41 3c 3c bd e0 a2 94 3e b0 35 1c be
       0.10142708 -0.0459559 0.29030514 -0.15254855
000040 fb df 0d 3e 94 10 75 3d d8 eb 80 3e 84 a9 03 be
       0.13854973 0.059830263 0.25179935 -0.12857634
000050 0b c1 69 3e 4d 57 cf bd fa db 1e be 7d 24 c8 bd
       0.22827546 -0.10124073 -0.15513602 -0.097725846
000060 9c 85 0e be 44 4a 54 be 46 4a f8 3e fe 63 19 bc
       -0.13918155 -0.20731455 0.48494166 -0.009362219
000070 08 bb fe bd 87 a9 16 3f 18 fd 06 be f8 9c 55 bc
       -0.12438017 0.5885243 -0.13182485 -0.013037913
000080 84 29 cc 3e 1f 66 1c 3e 9b 7b 39 bc 32 e3 31 be
       0.39875424 0.15273331 -0.011320974 -0.17371824
000090 c6 5e 7a be cd 9e 92 bd a0 d1 40 3e f2 9a 5a bd
       -0.24450216 -0.07159195 0.18829966 -0.053370424
0000a0 9e 1d c3 3e 35 13 fc bd 18 9e 2c be 1e 9a ed bd
       0.38108534 -0.12308351 -0.16857183 -0.11601661
0000b0 3d 78 3f be 4e 8e 1f bd 68 22 23 be 69 2e 31 be
       -0.18698211 -0.03895407 -0.15931094 -0.1730286
0000c0 31 ae 46 bd 12 0f 6f be dc 6c ef 3c bf dd b5 bd
       -0.048505966 -0.23345593 0.029226713 -0.08880185
0000d0 7c 7d 4b 3e e6 b4 de bd b9 1c 3e be a5 05 39 be
       0.19872087 -0.108743474 -0.18565644 -0.1806856
0000e0 c9 1b 2b be 34 9c 10 be 16 83 0b be dc 0e 3d be
       -0.16709818 -0.14122087 -0.13624224 -0.184627
0000f0 0c de ca bd d9 b0 8a 3e 61 24 3f 3d af d1 e8 bd
       -0.09905633 0.2708805 0.046665553 -0.11368119
000100 f8 9e b6 3e 7d 7b ce 3d 5f 0a 9b 3e 20 6b a9 3d
       0.3566816 0.10082147 0.3028135 0.082723856
000110 64 01 ac be f4 84 a4 3e c9 e2 1b 3f 74 c1 d1 be
       -0.3359481 0.32132685 0.6089292 -0.40967906
000120 3b 85 8a be 7c 64 44 be c2 88 f0 bd b5 55 0d 3e
       -0.27054772 -0.19178957 -0.117448345 0.13802226
000130 a0 8a 9f bd c2 db f4 bd 10 8d 4a be 7a 4c 69 bd
       -0.077901125 -0.11955978 -0.19780374 -0.0569577
000140 ef dc 33 3b 0b 4c 7e be 72 18 c1 be fc e0 8f 3e
       0.002744492 -0.24833696 -0.37713963 0.28101337
000150 14 00 7e 3e f6 da 21 bd 96 48 a3 bb ff 7c 32 3e
       0.24804717 -0.039515458 -0.004983018 0.17430495
000160 20 8b fd 3d 3d 0a c9 be 40 62 8a 3e 26 7d 7a 3d
       0.123800516 -0.39265624 0.27028084 0.061154507
000170 f8 e4 c7 3e 47 88 4e 3d 0c 64 36 be 26 c7 49 3e
       0.39041877 0.050422933 -0.17811602 0.19704875
000180 56 ff 17 3e 3f 42 29 be 32 19 68 3e 0d 4b 7b 3d
       0.14843497 -0.16529177 0.22665861 0.06135087
000190 1f 02 d6 3d b5 23 60 3d 87 e4 30 3d 90 33 cb 3d
       0.10449623 0.054721553 0.04318669 0.09921944
0001a0 78 bb 0a be f1 52 84 bc aa ac e2 bd f3 f5 0e 3e
       -0.13548076 -0.01615283 -0.11068089 0.1396101
0001b0 b8 1b 2c bf fe dd 59 bc c2 cc 76 be 1c 6c 17 be
       -0.67229795 -0.013297556 -0.24101546 -0.14787334
0001c0 3a 6a 1e bc a6 09 a9 bd b4 dc 9c be a9 0f b0 3d
       -0.009668881 -0.082537934 -0.30637133 0.08596737
0001d0 1e bc e1 3e e4 81 15 3d b7 10 c6 3d d9 de 3a bd
       0.44088835 0.036500826 0.09671157 -0.04562268
0001e0 1f 8e 9a 3d 8b 40 a6 3d c1 d4 e6 bd 00 70 ae be
       0.07546639 0.08117779 -0.11271048 -0.34069824
0001f0 49 aa aa bd 1d c8 a6 3d b2 c7 5a 3e 81 8c 71 be
       -0.083332606 0.08143637 0.2136524 -0.23588754
000200 33 a6 86 3c ba 20 86 bd 16 e9 d1 3e e1 48 11 bd
       0.016436672 -0.06549211 0.40998143 -0.035469893
000210 38 fe 52 3d c6 d9 d3 be b9 8c 20 be c0 9e b4 3e
       0.051511973 -0.41377085 -0.15678681 0.35277367
000220 6d 7a b8 3c bb 1c c2 3d 7f ed a0 3d e1 cd 69 3e
       0.022519315 0.09478136 0.07857799 0.22832443
000230 61 c4 9a 3e 4c 9e 88 3e 15 b9 9d be 98 9a 50 bd
       0.3022795 0.2668327 -0.3080527 -0.050928682
000240 8e 6c 16 bf 40 29 ed bd 23 9a 17 3d 05 e5 81 3e
       -0.5875939 -0.115801334 0.03701223 0.2537004
000250 9b ed a1 3e 45 61 47 3e f3 72 2b be db 64 b0 3c
       0.3162659 0.19470699 -0.16743068 0.021532467
000260 63 c4 b7 3e 2f 89 3e 3e 1d 66 1a bd d1 22 08 3e
       0.3589202 0.18607019 -0.03769504 0.13294531
000270 65 e8 c4 bd f1 af 89 be c9 50 69 bd 96 e3 e9 bc
       -0.09614638 -0.26892045 -0.05696181 -0.028550904
000280 24 10 bb be 2d 51 2a 3d ad 43 a1 3d 2f 8c 66 bd
       -0.36535752 0.04158132 0.07874236 -0.056286033
000290 b6 6a 55 be 92 e6 5e 3d 91 e8 9b bc 12 2c 7b 3d
       -0.20841488 0.054419108 -0.019031795 0.061321326
0002a0 5b c4 10 3e a1 6e 7e bd 05 fb ac be 95 2b c6 bc
       0.14137404 -0.062117223 -0.33785263 -0.024190703
0002b0 37 32 2d bf f4 a2 93 3d 96 df cd be e2 df 9d 3d
       -0.67654747 0.07208815 -0.40209645 0.07708718
0002c0 7d b9 f9 3c a1 f2 0e 3e f5 34 da be 49 7c 8f bd
       0.030483956 0.13959743 -0.42618528 -0.070061274
0002d0 93 0a 03 3f b8 09 75 3e cb 82 13 3e ce f8 a6 be
       0.5118801 0.23929489 0.14405362 -0.32611698
0002e0 12 19 d0 3b 0f 03 16 3e 05 41 c9 bd 06 b3 10 3e
       0.006350645 0.14649604 -0.098268546 0.14130792
0002f0 86 52 12 3e 4c 2f 04 bf f5 c3 04 be 58 c2 58 3d
       0.14289293 -0.5163467 -0.12965377 0.052919716
000300 3e 97 21 3e 2f c2 84 be 0b a9 00 bf b1 47 90 3e
       0.1578035 -0.259294 -0.5025794 0.28179696
000310 e3 71 18 bd cf 4d d0 bc f0 ff 18 be 7d 0d fb 3d
       -0.037217986 -0.025427727 -0.14941382 0.12258432
000320 fb e6 2e 3e 1c 8e 12 bf a8 6c f0 bd 18 53 08 be
       0.170803 -0.5724809 -0.117394745 -0.13312948
000330 21 a1 76 3d bf b5 93 3d b7 ad 92 3d 12 f1 9f 3a
       0.06021226 0.072124 0.0716204 0.0012202582
000340 02 ab 96 be 26 10 e9 be 2d 50 6b be fb b9 97 3e
       -0.29427344 -0.45520133 -0.22979803 0.2963408
000350 dd aa f9 3d 20 04 51 be 4b 87 e4 3e fe a3 63 3e
       0.12190793 -0.2041173 0.4463447 0.22230527
000360 8e 31 12 bd 23 cc 86 3d c9 2d 0e bf 4e 4d f6 3d
       -0.03569179 0.06581905 -0.5553861 0.120264634
000370 b5 7f 67 be 9f aa 3f 3e 8e 80 a9 bd 49 df a2 be
       -0.2260731 0.1871743 -0.08276473 -0.31810978
000380 ee 27 92 3e 2f 9c 1f 3f 7d 1d a2 3d e9 8e 57 be
       0.2854609 0.6234769 0.07915781 -0.2105061
000390 e4 56 62 3a 45 aa 8b 3e df 20 29 be 69 b1 97 bd
       0.00086341635 0.27278343 -0.16516446 -0.07406885
0003a0 a5 30 29 3d bf d1 b4 3d a9 73 d4 3d 62 79 ff 3e
       0.041306157 0.088290684 0.10373623 0.49897295
0003b0 23 a5 8d 3e 0e f3 e3 bd 98 38 25 3e c0 1d af 3e
       0.27665052 -0.111303434 0.1613487 0.34202385
0003c0 d4 74 ce 3d 44 55 ac 3e 7d 80 f4 3d f7 53 7c 3e
       0.10080877 0.33658803 0.1193857 0.24641405
0003d0 69 3b 6c bb b4 19 72 bd 01 72 85 3e c5 c9 0c be
       -0.0036046153 -0.059106544 0.2606354 -0.13748844
0003e0 5d 38 2f 3d 8d 87 6b bd 83 4d 8a 3d a9 78 a9 3e
       0.04277836 -0.05750232 0.067530654 0.3309987
0003f0 55 61 38 bd a3 6f 05 bf 45 59 1a bf 3b cc 17 be
       -0.045014698 -0.5212347 -0.60292464 -0.14824001

transformer.encoder.layers.0.linear2.bias f4 [16]
000000 1d f2 50 3d 8c c6 68 bc 51 5b a8 38 a3 17 8d bd
       0.051012147 -0.0142074935 8.027873e-05 -0.06889274
000010 db e4 c7 3d 4e 7b 07 bd f6 d9 32 3d 0f 7b 84 bd
       0.097604476 -0.033076577 0.043664895 -0.06468784
000020 7d 90 d4 3d ce 0f cc ba 9f c4 7c bd 1d d9 e1 3c
       0.103791215 -0.0015568675 -0.06171095 0.027569348
000030 97 2e 8d 3d 35 77 ec bd e1 99 31 3d a2 dc 0d be
       0.06893652 -0.115461744 0.04335964 -0.13853696

transformer.encoder.layers.0.norm1.weight f4 [16]
000000 89 33 29 3f 42 cd 3d 3f b3 36 a4 3f 05 a0 86 3f
       0.6609426 0.74141324 1.2829193 1.0517584
000010 10 fd 90 3f f9 e3 2a 3f d4 79 95 3f e1 ee 9a 3f
       1.1327229 0.6675411 1.1677804 1.210415
000020 28 30 9f 3f 74 53 84 3f 7e 2c a4 3f a4 62 95 3f
       1.2436571 1.0337968 1.2826078 1.1670728
000030 83 b3 63 3f 4e 71 7d 3f 55 64 8c 3f a2 3c 22 3f
       0.8894579 0.99001014 1.0968119 0.6337377

transformer.encoder.layers.0.norm1.bias f4 [16]
000000 d3 2f a1 3c 8e 50 b5 3e 05 1f e1 bd 5c ee d5 3d
       0.019676125 0.3541302 -0.10992245 0.10445854
000010 45 8d 8e be 63 fe a7 3d de d2 36 3e ad bd 3f 3e
       -0.27842155 0.08202817 0.17853877 0.187247
000020 1f b7 85 bd 72 b0 a3 3c c1 e0 a4 3d 7e b4 a4 3d
       -0.06529068 0.019981597 0.08050681 0.08042239
000030 a6 f0 14 3e fb 5a 3d 3d ee 49 51 be 5b 45 d4 3d
       0.14544925 0.046229344 -0.20438358 0.10364791

transformer.encoder.layers.0.norm2.weight f4 [16]
000000 0e ae 89 3f 85 85 5c 3f 38 11 a7 3f f4 0c 94 3f
       1.0756242 0.86141235 1.305213 1.1566453
000010 2a e3 83 3f 80 4f 6b 3f cf 03 74 3f be 25 5a 3f
       1.03037 0.9191818 0.9531831 0.8521384
000020 cc 8a 8d 3f 9d 03 68 3f 4a 29 84 3f 20 23 81 3f
       1.1057982 0.90630513 1.03251 1.0088844
000030 c1 52 6d 3f c4 8f 7a 3f c5 e5 77 3f 09 d7 54 3f
       0.927044 0.9787562 0.96834975 0.8314062

transformer.encoder.layers.0.norm2.bias f4 [16]
000000 36 95 20 3d a6 39 44 bc 38 85 a9 bd 8e 0c 6b 3e
       0.0392048 -0.011976635 -0.082773626 0.22954008
000010 dd a9 10 be 82 ac b1 3d 30 d3 2d 3d 38 68 ba bc
       -0.14127298 0.086754814 0.042437732 -0.022754773
000020 f3 54 d5 bd b6 0d 15 3b 25 ec 3b bd 49 54 db bd
       -0.104165934 0.0022743768 -0.0458795 -0.107094355
000030 83 4a cd 3c 3a a3 9e 3d 9f 26 81 3e 21 37 bd bd
       0.025059944 0.07745977 0.25224778 -0.09239031

transformer.encoder.layers.1.self_attn.in_proj_weight f4 [48, 16]
000000 93 76 9f be 0e 93 05 bc bb c3 2d 3f 89 24 87 3c
       -0.31145152 -0.008152736 0.67876786 0.016496914
000010 f2 a8 b0 3e f9 01 48 bd 4b 67 3f 3f 24 a7 f9 be
       0.34503895 -0.048830006 0.7476699 -0.4876033
000020 c3 1b f7 3e 26 84 38 3e ae cc 27 be 08 9f 03 3e
       0.48263368 0.1801916 -0.16386673 0.12853634
000030 0c ba a5 3d 30 64 ce be 55 52 94 be 0e e7 92 3e
       0.08092126 -0.40310812 -0.28969064 0.28691906
000040 d8 a6 af bc 5b a0 2a 3e 4c 31 a6 3e 0b f2 85 be
       -0.021441862 0.16662733 0.32459486 -0.26161227
000050 d6 dc f7 be 63 03 e3 bc 23 c8 e7 3c 98 21 a3 be
       -0.48410672 -0.027711576 0.028293675 -0.31861567
000060 fa 90 e1 bc cf 7c 8a be 24 b3 28 be c4 66 94 3e
       -0.02753495 -0.27048346 -0.16474587 0.28984654
000070 b6 a8 3d be fa b2 0c 3f 5e d4 ad be 03 e3 04 be
       -0.1852139 0.54960597 -0.33951086 -0.12977223
000080 07 11 bd be 83 ac 64 3e d9 85 e4 be 1e 0f 3f 3e
       -0.36927053 0.22331433 -0.44633368 0.1865811
000090 77 a1 06 3f c0 1e 2b 3e 38 f8 9f bc 78 e0 c0 bd
       0.52590126 0.16710949 -0.01952754 -0.09417814
0000a0 ae 14 93 3e 93 ea 86 3e 4a 76 9d be f2 77 9f be
       0.28726715 0.2635084 -0.3075431 -0.311462
0000b0 f4 0c 61 3d 8a 42 04 be cd 13 76 3e 84 96 6a be
       0.054943994 -0.12916008 0.24030991 -0.2290898
0000c0 79 75 1b 3d b2 2e 9b be e3 8b 59 bd ea f7 df be
       0.037953828 -0.30309063 -0.053111922 -0.4374383
0000d0 56 52 a4 3d 76 f1 9e bc 9c 33 fe 3d 33 ec 19 3f
       0.08023517 -0.019402247 0.124121875 0.60126036
0000e0 7f 78 85 be 6d b1 18 3f 80 6a 14 3f 26 27 9b be
       -0.26068494 0.5964573 0.57975006 -0.30303305
0000f0 13 8e bb be 3b 89 59 be 95 aa 93 3b 32 0a 0c bd
       -0.36631832 -0.21243756 0.004506419 -0.03418941
000100 ea 42 70 3d 04 c6 58 be 1c 18 af be f7 7e f8 3d
       0.058657564 -0.21169287 -0.34198081 0.121335916
000110 38 33 0d 3e 4d f6 08 3e 88 25 6d be 69 14 4f 3e
       0.1378907 0.13375206 -0.23158848 0.2022263
000120 64 48 11 bf 8c c9 f1 3e 2a dd 17 3f 95 70 f2 be
       -0.56751084 0.4722408 0.59321845 -0.47351518
000130 89 27 0d bf c8 96 9b 3e 46 bc cb 3e f5 0e b2 3d
       -0.5513845 0.30388474 0.3979208 0.08694259
000140 70 12 b6 3e 39 2b 48 3d 8a dc 92 bd 65 b5 35 3f
       0.35560942 0.048869345 -0.07170971 0.7097991
000150 c1 c6 4c 3e 2b 00 5e 3e b2 6c 2f bd 07 00 02 bf
       0.19997694 0.21679752 -0.04282827 -0.5078129
000160 eb 05 fc 3e d7 70 75 3e 2f ae df bd cc d4 fa 3d
       0.49223265 0.23968826 -0.10921895 0.12247619
000170 a7 94 d6 bd 5b 8e d8 be 60 b9 1d bd 5f 3b 3a bd
       -0.10477572 -0.4229611 -0.038506866 -0.045466777
000180 da b7 b6 3e 50 ee 1c 3e 78 e0 85 bd 72 b2 64 bd
       0.35687143 0.15325284 -0.06536955 -0.05583424
000190 36 0c 88 bc a7 61 53 be 49 3c 1e 3f 7e c3 85 bd
       -0.016607385 -0.2064272 0.6181074 -0.06531428
0001a0 76 00 82 bd 7b 1b 7f 3c ef 57 02 3f ad fe a7 bd
       -0.06347744 0.015570517 0.50915426 -0.082028724
0001b0 79 0a db bd e6 5f ac 3d 9d 30 24 3e 9a 7e 55 bf
       -0.10695357 0.08416729 0.1603417 -0.83396304
0001c0 27 5d 57 3d dd 91 6f bd 18 45 0d 3e e6 1c 53 be
       0.05257907 -0.058488715 0.13795888 -0.20616493
0001d0 0d dd 07 3f 12 b7 5d be 0e 73 00 bf 8a 42 fa 3e
       0.5307167 -0.21651867 -0.5017556 0.4887889
0001e0 24 ab c2 be f4 e0 91 be c3 a4 cb bd a0 64 e8 be
       -0.38021195 -0.28491938 -0.09943535 -0.4538927
0001f0 83 e9 b8 3e c4 4a c3 3e ed c6 76 3e bc d2 6b be
       0.36115655 0.3814298 0.24099322 -0.23029608
000200 77 9a 38 3d f8 e5 55 be 16 21 28 3e 34 5a 8a 3c
       0.045069184 -0.20888507 0.16418871 0.016888715
000210 18 8c b2 be 3c 74 e6 be 4e 53 29 bd 75 b3 a3 be
       -0.34872508 -0.45010555 -0.04133921 -0.31972852
000220 ca 91 1b 3e cd fa ea 3d 50 a0 15 3c 35 dd cb 3e
       0.15192333 0.11473618 0.00913246 0.39817205
000230 5e 04 73 3f a6 3c 31 3f d2 e6 58 be 25 5c 4e 3e
       0.9492854 0.6923317 -0.21181801 0.20152338
000240 86 9b 0c bb 37 97 00 3e dd bf 0d bc 85 37 46 3e
       -0.0021455004 0.12557684 -0.008651701 0.19357117
000250 fe ec a0 be 8f 57 0d 3e 69 9b ee bb 1e a2 45 be
       -0.3143081 0.13802932 -0.00728171 -0.19300124
000260 88 1c cc 3e 2d 58 52 be 11 2a e5 be 0d d4 be 3e
       0.39865518 -0.20541449 -0.44758657 0.37271157
000270 da a5 bb bd 6d e4 53 bf c6 cb 46 be 90 71 68 be
       -0.09162493 -0.82770425 -0.19413671 -0.2269957
000280 ca 3b 3b 3d 59 26 24 3e d3 84 51 b8 0c f4 18 be
       0.045711316 0.16030253 -4.9953185e-05 -0.14936846
000290 96 99 b9 be 55 a9 37 be 40 d2 76 3e 50 fe 9a be
       -0.3624999 -0.17935689 0.24103642 -0.3027215
0002a0 91 73 42 3e 1e 04 cc b9 4b 16 0b 3e 34 00 22 be
       0.18989398 -0.0003891298 0.13582723 -0.1582039
0002b0 5f 02 dd be 4a ad 54 3e 4d 29 27 bf ab 7e 27 3f
       -0.43165872 0.2076923 -0.65297395 0.65427655
0002c0 47 b3 ad 3e 02 7c 25 3d 59 f3 2d bf c0 76 97 3e
       0.3392584 0.040401466 -0.67949444 0.29582787
0002d0 99 b3 ae 3d db ef 5d 3e 6d 5f 8d bd e3 05 7b 3d
       0.08530349 0.21673529 -0.06902967 0.06128491
0002e0 a7 58 a2 bd f9 1b 05 be 16 30 9e be 63 21 a2 3e
       -0.07927065 -0.12998952 -0.30896062 0.31666097
0002f0 2e 9b af be 31 a1 a8 3e 67 ac ea bd 1b f2 f8 be
       -0.3429808 0.3293548 -0.114586644 -0.48622212
000300 17 7b ae bd 90 92 4b 3d ca 12 16 3f df c6 82 3d
       -0.08519571 0.04970032 0.5862242 0.06385588
000310 30 53 82 be 2a bd a1 3e 9c 39 0d be 9b 0a 83 bd
       -0.25454092 0.31589633 -0.13791507 -0.06398507
000320 cd 14 15 3e 3c 29 b0 be a7 72 5a be ae 55 85 3e
       0.14558716 -0.3440646 -0.21332799 0.2604193
000330 a2 6f 5d 3e b5 b5 f5 bb fb d7 33 3c c9 53 0a 3f
       0.21624616 -0.007498468 0.010976787 0.54034096
000340 10 cb b6 3d cc 18 e4 3d 1d a7 18 3e dc a9 b4 be
       0.0892545 0.11137542 0.14907499 -0.35285842
000350 f8 f0 ac 3e 92 8b 58 3e f0 7f 28 bd 76 d2 b5 bd
       0.33777595 0.21146992 -0.041137636 -0.08878033
000360 fe b2 89 be b3 92 7a 3c 70 ae 1e be 63 fc de 3e
       -0.26894373 0.015293765 -0.1549623 0.4355193
000370 0c b5 a2 be de 14 12 bd 4c 90 1a be e5 22 8e 3e
       -0.31778753 -0.03566443 -0.15094107 0.27760997
000380 5e 47 09 3e a6 f1 0c 3e 7c 66 e0 3e 9b 22 2c 3d
       0.1340613 0.13764057 0.4382819 0.04202519
000390 49 2e 2b be ec ed 83 3e d0 db d6 be 71 05 11 bf
       -0.16716875 0.25767457 -0.4196458 -0.5664893
0003a0 e5 cb d3 3e 6d d2 d6 be 0a 00 5d be 11 02 8b 3d
       0.41366497 -0.41957417 -0.21582046 0.067875035
0003b0 47 9f c8 3e ce 45 4e be d5 c4 b7 3e 86 d4 6c bc
       0.3918402 -0.20143816 0.35892358 -0.014454966
0003c0 67 7b 18 3d 7a da ce bc 2b 3a 00 bd f3 82 fc 3e
       0.03722706 -0.025250662 -0.031305473 0.49318656
0003d0 51 b9 be 3c 17 9f f9 3d ef 73 74 be 25 e6 e7 3d
       0.023281725 0.12188547 -0.2387235 0.113231935
0003e0 00 99 b4 be 5a 29 0d be d1 c6 55 be cf 7a 1f 3e
       -0.3527298 -0.13785306 -0.20876624 0.15574192
0003f0 5a 03 f1 be 5e 60 f3 bd 7c c2 05 3d c1 0a 92 bd
       -0.4707287 -0.11883615 0.032656178 -0.071309574

transformer.encoder.layers.1.self_attn.in_proj_bias f4 [48]
000000 26 b5 11 bf 9e fe 76 3e 1f e4 f7 be 89 59 fb 3e
       -0.56917036 0.24120566 -0.4841623 0.49091747
000010 9f eb 90 3e fe d9 9d be 34 ec d6 bc 1b 94 63 3d
       0.28304765 -0.30830377 -0.026235677 0.055561166
000020 59 c2 11 3f c6 c2 33 bf 32 91 c9 3c 85 72 23 3e
       0.56937176 -0.70219076 0.024605367 0.15961654
000030 a9 c4 48 bc e8 b1 42 3e 2f 60 a3 be 4c 39 cd 3d
       -0.012253919 0.19013178 -0.3190932 0.10020694
000040 95 81 04 3b 42 da a0 b7 1b c3 d1 b9 ad c2 9c 39
       0.0020218838 -1.917512e-05 -0.0004000895 0.00029899683
000050 2f 98 b1 3a b4 5a 5f 38 0f b0 e9 b8 73 ab 2c ba
       0.0013549383 5.3251817e-05 -0.00011143099 -0.0006586827
000060 4b cd 6c b8 74 07 a8 38 e8 65 10 ba d9 48 05 3a
       -5.645798e-05 8.0122525e-05 -0.0005508349 0.00050844025
000070 86 f6 9b b9 b5 15 74 38 68 98 3b 39 ee 93 c0 39
       -0.00029747578 5.819435e-05 0.00017890485 0.0003673131
000080 c3 8a a0 3d a7 f3 45 3d 53 34 b6 3c 78 b8 5b bd
       0.07838967 0.048328068 0.022241747 -0.05364272
000090 8b d5 1d bd cf 47 a0 bc 40 29 52 bc 1f 12 8e 3d
       -0.03853373 -0.019565491 -0.012827218 0.0693705
0000a0 55 b6 9e bd 51 aa e6 bc 49 ab 1f bd 9e bc e1 3b
       -0.07749621 -0.028157385 -0.03898171 0.00688894
0000b0 3e 56 1d bb 51 59 70 bd 74 bb e1 3c 9d 10 39 3d
       -0.0024007703 -0.05867893 0.027555205 0.04518186
