experiments/Datasets/darts_logs/modwt_pred_transformer_5_84_2/checkpoints/last-epoch=8.ckpt (torch, 668891 bytes, 206 tensors)

encoder.weight f8 [16, 1]
000000 35 e8 3b 62 0b b8 fb 3f 8c d6 94 de fd 3f 0b c0
       1.7324327313676922 -3.406245936314752
000010 5e 67 ac 14 ea 70 0f c0 5f 68 83 63 9d f6 05 c0
       -3.9301339736093004 -2.745417382667298
000020 fc 4e f3 23 d4 3c be 3f 62 d7 ae 82 d4 c1 02 40
       0.11811567189880273 2.3446436128241865
000030 18 ae b6 f1 3d 8a 0b 40 47 be fd 65 07 f9 12 40
       3.4425009616732147 4.743192285167942
000040 14 a2 d8 f4 43 da 0e c0 9e 70 b5 e8 8d ea 08 40
       -3.8565749291049176 3.1145284824725215
000050 a7 a1 95 60 e3 33 06 40 00 58 c9 77 05 65 0e c0
       2.7753360315002342 -3.7993268354721295
000060 e5 8a 6e 22 b8 3c f6 bf 69 d8 f6 dc 56 e7 0b c0
       -1.3898240418426948 -3.4879586470442985
000070 a3 a8 51 6e ac eb fb 3f 90 9b 1c e3 4c a7 05 40
       1.7450374898276457 2.706689619360482

encoder.bias f8 [16]
000000 ee a2 a0 8c 28 cc 70 bf 26 ab 9d ba be b6 c9 bf
       -0.00410095061855807 -0.2008894358835615
000010 c9 bd 1b e1 fb 84 d5 bf 16 7c d2 c4 40 ca b2 bf
       -0.3362416933368562 -0.07339863591413151
000020 e6 35 8f e8 57 f2 b2 bf 30 c0 2f c9 8a 06 ef bf
       -0.07401036670417901 -0.9695486001419393
000030 7c 1d 3b 2a 65 e5 e3 bf ff 58 37 a8 34 27 df bf
       -0.6217523407766943 -0.48676792552340936
000040 92 46 d4 b0 1f 8c d2 bf 47 7e e7 be 52 4a ee bf
       -0.28980247753597965 -0.9465726593588862
000050 f0 6a d2 1b a9 8d a4 bf 81 99 3b c5 a2 c4 e9 bf
       -0.04014328446029036 -0.8052533962443676
000060 0a 3f e0 dc 18 0a ab bf c6 61 d4 00 4f 76 e6 bf
       -0.05281140991439599 -0.70194196855578
000070 77 5e 5c 42 2e 75 b8 bf af 62 58 81 05 1c ee bf
       -0.09553803558480377 -0.9409205938601043

transformer.encoder.layers.0.self_attn.in_proj_weight f8 [48, 16]
000000 a9 bf 13 8f 92 25 c2 3f 9f bb aa 24 a1 b0 af bf
       0.14177162157238613 -0.061894450879996336
000010 49 c5 11 9b ad e0 d2 bf c5 c8 60 6d 83 e2 d1 3f
       -0.29496326583383287 0.279450280012622
000020 cd 0a 9a b4 c7 81 e1 3f c0 04 0e 72 f4 96 c8 3f
       0.5470922973039137 0.19210677689628675
000030 f6 cd 43 14 3a b7 d6 3f 58 ba 08 ee 02 5b c7 3f
       0.35493328074446084 0.18246494887121645
000040 6a d4 6d 4d 0e ff c5 3f 8b 14 6f 5d bf b1 e2 3f
       0.17184618740762697 0.5841976952439308
000050 32 d7 66 c5 d0 73 f5 3f 01 95 ab 04 48 d2 f0 bf
       1.340775271511529 -1.0513382131987898
000060 88 7e 2e 4d c7 8e db bf aa 0a 74 ca 89 d0 e2 bf
       -0.4305895093657246 -0.5879563287893081
000070 9e 43 5e 91 d0 be d6 3f b3 e2 17 52 a6 ed d8 bf
       0.35539640613665735 -0.3895049859707271
000080 8d 97 fb 89 b8 58 9e 3f 64 54 42 cb 6b 52 76 3f
       0.02963531820468961 0.005449696607816443
000090 eb df 46 84 41 23 c8 3f 10 99 5d 30 63 63 d4 3f
       0.18857592543440602 0.3185661289520718
0000a0 7c 18 5a 4a 6a 24 bf 3f 35 2e 39 69 e4 55 76 bf
       0.12164940181000533 -0.0054530069642840144
0000b0 52 41 49 8d fd 32 c9 3f be bc e3 76 2b d5 d6 bf
       0.1968686046479982 -0.35676085100471855
0000c0 51 51 f2 0a c0 a6 de 3f 3e ac 3a e1 25 bd ea 3f
       0.4789276224994597 0.835589351559413
0000d0 d2 a3 ec ba d3 c7 fb 3f 5a 12 b8 53 7a d6 cf bf
       1.7362859060033213 -0.2487328442367865
0000e0 f1 49 04 a6 a6 5c e5 bf 8a 20 89 9c 6c 4e 95 3f
       -0.6675599329485619 0.020806977323701882
0000f0 cf 62 0d bb ac 11 ec 3f 92 7c 81 c7 c5 73 f3 3f
       0.8771575597157496 1.2157647889323795
000100 d8 26 a5 56 45 22 ca bf d3 df 1d c4 99 04 c6 3f
       -0.20417086344450897 0.17201540065775464
000110 02 e9 44 d7 9e 43 b1 bf e9 61 0d 9a eb bc c9 bf
       -0.06743805652232385 -0.20107789060672523
000120 19 51 49 4d 85 8f d2 3f 1c 7b 05 e8 15 98 c0 3f
       0.2900098089933337 0.1296412833134689
000130 e7 00 e7 f8 5a 7c bf bf 63 a8 99 b4 e6 6f d4 3f
       -0.1229912622138759 0.31932990681401047
000140 92 cc fd 1e 4a 4f d2 bf f2 74 74 a9 4d d1 e9 3f
       -0.2860894491815965 0.8067997274080467
000150 1d 51 dc 84 7b e2 ba bf 33 0c bb cb 3b 8b a5 3f
       -0.10501834863345434 0.04207789289423438
000160 83 99 1a 17 d7 5a f8 bf 17 49 a1 54 fc 0b a5 bf
       -1.5221777822967801 -0.04110706837731664
000170 03 88 8c e3 c7 18 d6 3f 6d c0 24 a9 6d 69 f3 3f
       0.3452625009687155 1.2132393462343558
000180 1c 6c 55 05 fa 56 c6 bf 33 0c 48 a7 a1 df c4 3f
       -0.1745293165248264 0.16307469051398157
000190 a7 ab 8f 3c 7f 82 c8 bf d6 71 72 fa 97 33 b0 bf
       -0.19148245293703534 -0.06328725685529632
0001a0 96 b0 68 89 38 fd d6 3f 14 8f d0 24 75 d2 ce 3f
       0.35920537394373164 0.2407976560363002
0001b0 cf c6 9d fc b0 4e d5 bf 44 03 87 1b 8f 36 d3 bf
       -0.3329279391246986 -0.3002050179311946
0001c0 2a 53 92 82 ed 19 c2 bf bd d2 d9 6a 65 ca ec bf
       -0.14141625285687925 -0.8997065627032367
0001d0 a4 7b 14 9c d1 84 e1 3f 48 e3 a8 6b c3 d7 73 3f
       0.547463230937741 0.004844439851290634
0001e0 b5 1a ae b2 50 27 f3 3f 0d 4f 70 20 6c af c2 bf
       1.197098443955537 -0.14597846588059618
0001f0 6f 27 a0 00 78 f9 7a 3f e3 f4 52 00 43 e0 e9 bf
       0.006585568198724675 -0.8086256986931882
000200 5d b9 c9 37 96 c4 78 3f 00 3f 6b a9 df 54 c5 3f
       0.006046854771382418 0.1666526391259069
000210 e6 da f4 84 48 d3 b9 3f 3b 00 16 1c 06 3b db bf
       0.10088017698295068 -0.4254775308872955
000220 ed 46 cd e6 e4 f9 a8 3f 27 31 7d 49 9c af 9e bf
       0.04878154103665886 -0.029966775880255227
000230 36 e7 cc 30 21 30 d5 bf 1c b8 df 15 d0 55 c2 3f
       -0.3310626007620273 0.1432437998586814
000240 dd 63 83 3b 1e 8c d7 3f da 1b 2f 20 d8 4a e0 bf
       0.3679271298583993 -0.5091362598985782
000250 91 2b b7 7f 16 36 c7 3f 88 bd 85 da ae a0 e0 3f
       0.18133813129528822 0.519614626695259
000260 a9 93 53 df 33 b1 f6 3f 19 43 e2 5d 87 4f a3 bf
       1.4182623599710757 -0.03771613141100811
000270 e5 c2 33 71 2d 8c d5 bf 96 a3 ae 69 d1 2e e3 bf
       -0.33668075613881704 -0.5994650901894711
000280 c4 56 ff 97 b5 47 c6 bf c0 8d a8 e1 40 8c d0 3f
       -0.17406339570759688 0.2585603908248366
000290 5f ce 07 01 cc 85 c7 3f 03 c5 e8 57 ce 00 b3 3f
       0.18377065706555393 0.07423104902479243
0002a0 d3 ec 60 e2 17 0d b4 3f da e7 79 67 ce 2b 6b bf
       0.07832478787252066 -0.0033167868930918777
0002b0 77 f4 ad d8 2c 32 ce 3f 2a 64 24 ae 73 34 c4 3f
       0.2359062250142505 0.15785070422205766
0002c0 e1 57 c2 90 13 1b c1 bf 52 0e e5 bf c2 0a f9 3f
       -0.1336388069946102 1.5651271339310324
0002d0 ed 1a ca c9 2c ae f1 3f 9b 40 17 5a 08 de bf bf
       1.1050231821442893 -0.12448169898493903
0002e0 59 f7 9d 93 dc 5e f5 bf 92 3e c8 de 3d a1 cb bf
       -1.335659577015994 -0.21585820558583585
0002f0 84 ba 99 f7 2b 6e 81 bf 87 c5 f4 96 70 18 e2 3f
       -0.008510917180698081 0.5654833744394389
000300 cf 99 f5 f0 bc af b3 3f db d3 fd 92 ca 57 73 3f
       0.07690029986188239 0.004722396188175683
000310 81 e7 47 ee 4d 9f b6 bf 42 1c c1 46 1a 43 e0 3f
       -0.08836829249767499 0.5081912404938367
000320 a5 3f 40 d9 b0 34 d0 3f 22 31 9f 23 7c b4 da 3f
       0.25321599212565565 0.41726592520423555
000330 6f 2e 0c 88 f2 ad a0 3f 6a df f1 01 06 db c3 bf
       0.03257711325394729 -0.1551215657707375
000340 5d 09 70 52 a8 99 ce 3f 7d 97 46 0e 6d 1c ea 3f
       0.23906425500178843 0.8159699705908988
000350 11 3d 95 4a c8 2e ea 3f 68 ff 71 d3 56 8b c7 bf
       0.818210740728235 -0.18393979382016856
000360 cc a8 71 cf 6d a9 e1 bf ef 6c 4b d3 cb 6c e4 bf
       -0.5519322444572707 -0.6382807852600346
000370 ca d6 27 58 d0 ed ea 3f 35 70 6d 67 86 3c d9 bf
       0.8415300103940464 -0.39431915378895904
000380 e9 76 dc 3f 78 8c ca 3f 50 79 20 6e fe c7 cd 3f
       0.20741179578992977 0.23266582848823214
000390 e5 c9 e0 1e dc 69 b7 3f 80 ab 0c cf f1 64 e5 3f
       0.09145904306277648 0.6685723346648587
0003a0 57 41 d4 3c 77 aa da bf 2f b0 f1 31 11 ed aa 3f
       -0.4166544050249476 0.05258992895764469
0003b0 78 d0 2c 34 0f e2 c0 3f b7 c0 f9 e4 b3 d6 cc bf
       0.131898785091497 -0.22530220680665078
0003c0 40 69 82 89 cf 41 90 bf 46 ea 71 73 d1 94 c4 3f
       -0.015876047866734355 0.16079157006227457
0003d0 12 aa fc 99 de ee ee bf e2 ae 2d 6e 9c 8c e2 3f
       -0.9666588790472039 0.5796644355700347
0003e0 73 fb 53 53 1d 0e e2 3f 55 6d 9f 16 7e bb e7 3f
       0.5642229678631864 0.7416372720576115
0003f0 42 b0 f2 69 91 18 f1 bf 06 17 b3 1f 8b fe ca bf
       -1.0684980524629428 -0.21089304969626016
000400 16 2d f1 db 08 02 ba 3f 9a 83 b4 9c 35 e3 d2 3f
       0.10159354562454256 0.2951177625964704
000410 7f c2 ef 2f f5 39 ca 3f 8c db d8 57 e4 d1 df 3f
       0.2048937305512659 0.4971857889062725
000420 e4 d7 60 b0 be e6 bc 3f 36 de e5 e9 9d 8c d0 3f
       0.1128958874331541 0.2585825714263338
000430 81 f6 55 1e 18 45 d9 3f 76 49 f2 33 63 df 80 bf
       0.3948421760795569 -0.008238577864436474
000440 ac 88 3a 99 93 e0 d1 3f 35 0d 9a bf 11 61 df bf
       0.27933206523642684 -0.4902996417151429
000450 57 89 14 93 b4 6a b0 3f 6d a1 d4 39 06 a4 d2 bf
       0.06412819472146701 -0.29126124999540687
000460 b4 0d 29 bf 3c 93 d8 3f 18 40 3e 62 97 b7 d9 bf
       0.3839866511154597 -0.40183052629527216
000470 b0 a6 98 4d c9 50 d5 3f 44 fc 16 ab 9e be c2 3f
       0.3330558069015792 0.14644225458138938
000480 bf 5c 35 98 83 c4 c5 3f 47 75 17 09 ef b8 ad bf
       0.17005963260701226 -0.05805155740720607
000490 2e 8a 85 5c b7 d5 c0 3f af 32 1a ca 25 13 ca 3f
       0.13152210252435864 0.20370933883932227
0004a0 a0 c5 4d 99 91 85 ba 3f 86 a1 d1 71 0c 12 d4 bf
       0.10360059731262661 -0.3136015998375331
0004b0 c4 21 e6 88 f9 ac d0 bf d1 ff e7 af 69 04 c4 3f
       -0.2605575405982814 0.15638466920063235
0004c0 58 de 46 ef 23 e4 e4 bf 0b 53 89 08 cc 48 ea 3f
       -0.6528491662383642 0.821386353180601
0004d0 3b 88 7e 27 0b 46 c2 bf 7f c9 85 90 c3 6e de 3f
       -0.1427625601618859 0.47551049340759016
0004e0 2e fd a3 26 e5 4c ea bf 91 07 92 01 47 b1 e1 3f
       -0.8218866114329211 0.5528903036758824
0004f0 00 9b 5c 1f 05 db d3 bf 8b 8e 8a 5b e8 32 e0 bf
       -0.31024292051954205 -0.5062143123545452
000500 0d 26 aa 53 72 dd a2 3f 52 4d 96 8d 9f 1f ac 3f
       0.0368457533960048 0.05492876628263822
000510 c0 bb ff 99 36 1b dd bf 23 c0 64 e3 1f 1a d0 3f
       -0.4547859672447281 0.2515945168152049
000520 6b dd 4d 96 40 86 b7 3f 16 cb 14 44 0f 7e 74 3f
       0.0918922774270549 0.0050030323339338625
000530 08 dd 34 21 3f 7e 9c 3f 22 63 82 7a 97 43 e2 bf
       0.02782534256149652 -0.5707509415397889
000540 10 b6 e5 48 8b 20 c7 3f 9f d9 62 05 97 55 d3 3f
       0.18068066653670245 0.3020989945029217
000550 06 5a 22 ec 31 c4 f1 3f 1c ae e7 2a 6b 5d e1 bf
       1.1103991722098967 -0.5426536405552187
000560 a0 af 5a 71 e4 55 f4 bf 56 8a 0b a4 b5 97 c6 bf
       -1.2709698131465998 -0.17650480756772663
000570 a1 20 d1 6c 3c 90 eb 3f 8e fb 3c 53 40 e1 e0 3f
       0.8613569379167708 0.5274964929338795
000580 f9 b5 58 d4 d9 a1 d0 bf 6f 77 b0 6b 14 76 ca 3f
       -0.259878594751029 0.20672850855128952
000590 ac 4f c8 e5 84 80 ae bf a2 20 f8 c9 b5 4a cd bf
       -0.05957427315675487 -0.22884247171191868
0005a0 55 17 37 34 8a 09 d4 bf 14 8d 99 63 d1 84 b3 bf
       -0.3130822667993603 -0.07624539071689568
0005b0 5e d4 c3 9d d0 a0 c9 3f ee dc b7 b2 4e ae 9a bf
       0.20022018149726056 -0.02605555501756112
0005c0 be 08 f4 33 70 a0 c5 bf 55 02 8b 23 d1 bf da bf
       -0.16895868813305087 -0.41795757742878453
0005d0 b2 3a f1 86 8c 76 f4 bf 58 d8 a2 12 91 07 b9 bf
       -1.2789426108535449 -0.09777170853598827
0005e0 2e 04 39 37 f7 32 f0 3f ff 67 14 98 d0 2b c6 bf
       1.0124427945268155 -0.17321212220923596
0005f0 1d f0 e9 0a c0 f5 a5 3f d2 5e 86 b1 28 e0 e7 bf
       0.042890549976590565 -0.7461131541521928
000600 04 ba 8f 83 0d 2a b1 bf 0c 12 32 a2 fa e8 d2 3f
       -0.06704792463254 0.2954699119511879
000610 db 76 20 33 96 2e e9 bf 85 d6 6b 73 8e a2 e7 3f
       -0.7869368551798418 0.7385933164902815
000620 ba 6b cf 55 be d2 b8 3f d3 b8 12 df 8f 1c c2 bf
       0.09696569056488516 -0.1414966429924279
000630 63 66 10 ad 43 5a 6d 3f 48 ad 91 0a ff 9b e6 3f
       0.0035830804631700615 0.7065425115992321
000640 07 be e8 95 06 10 e9 bf d1 3e 4f cf 52 a6 f8 3f
       -0.7832062652504995 1.540606317332209
000650 6b 2e 6a a3 06 ba f1 3f 7c 9e 27 ac b8 f4 c3 3f
       1.1079164870633587 0.15590580373758545
000660 23 e8 5f 54 27 d7 f5 bf bd 28 1c 34 2a 1f d1 3f
       -1.3650277419933523 0.2675271519552885
000670 3f 65 07 4a 99 86 cf bf 4b b9 ef 05 c0 47 de 3f
       -0.24629512896243885 0.4731292779896605
000680 c6 fd 9d 4e 3a 5d b6 bf 2d 9f 19 42 9c 15 da bf
       -0.08736004275669193 -0.40756899314009126
000690 1e fc 70 3c 23 f3 ec bf 60 53 8b 00 67 57 cf 3f
       -0.9046798878188189 0.24485480810713067
0006a0 9d 22 42 07 d0 0a e6 bf 08 44 59 81 f9 fc db bf
       -0.6888198987736193 -0.4373153460665553
0006b0 38 02 d6 73 d1 7a c2 3f 88 8f 48 7d b2 61 c5 bf
       0.14437311321309365 -0.16704398267131304
0006c0 56 0e 69 3b e8 85 e9 bf 38 b4 74 12 6a 76 ef 3f
       -0.7975960884436499 0.9832048759905154
0006d0 78 e2 19 77 85 92 cc 3f 8c 8c e4 18 73 87 8a 3f
       0.22322147670253734 0.012953662106673279
0006e0 aa b4 66 08 b2 41 f7 bf 2b 43 d2 f7 f4 c7 b2 3f
       -1.4535389259502076 0.0733636002571642
0006f0 71 fa 1a 09 d7 5e a4 bf 68 54 41 a5 35 34 e7 3f
       -0.039786071645257055 0.7251232364311706
000700 bf 95 6f 56 f1 d9 cb 3f fd c5 ed 10 4b 9f bf bf
       0.21758858414174928 -0.12352437175083959
000710 19 fd f1 d8 1d 6b e1 bf 62 ff a8 cd 83 11 a1 3f
       -0.5443257558071394 0.03333675275325622
000720 d6 a1 c3 02 2c 50 55 3f ec c9 85 09 b0 a0 d1 bf
       0.001300852755827466 -0.2754325955385457
000730 dc 4f 70 dd d5 e1 e3 bf e8 0c 1d 68 2f 24 c8 bf
       -0.6213177990889522 -0.18860428413072516
000740 47 f3 96 7b c0 43 c8 bf 1a 46 af a3 4b de d5 3f
       -0.1895676234688841 0.3416928385241548
000750 40 bc 1b 83 fc 08 d2 3f e9 72 58 d7 68 24 ba 3f
       0.2817984848360915 0.1021180654283388
000760 46 c0 30 00 c8 50 ea bf f9 61 b5 93 72 85 cb bf
       -0.8223609927863513 -0.21500999653177624
000770 92 2a 10 82 01 ac 9d bf 0d b8 01 28 a8 90 c9 3f
       -0.0289764629015204 0.19972707704022277
000780 d8 42 5e e0 af cb b8 bf 4d da 2a 4f 7f f6 dc bf
       -0.09685801723231735 -0.45254500132742664
000790 9c c6 a7 b9 8f 85 d1 3f 3e 68 98 26 b2 ef eb 3f
       0.2737769425431027 0.8730097535910841
0007a0 54 dc 01 c5 53 1f af 3f 8e f2 bc fb 75 44 b4 bf
       0.06078588275789146 -0.07916963001202701
0007b0 2e 96 bc 3a 85 b8 dd bf 99 d3 75 7b d8 2c d7 3f
       -0.46438723312380403 0.3621121602694131
0007c0 12 ea 66 b2 41 7e a8 bf 03 ec 53 c5 d1 01 da 3f
       -0.04783826163062001 0.4063610484151356
0007d0 bf d0 ce 2c cb 47 e9 3f f7 f6 a9 3c 8a bc b0 3f
       0.790013873591782 0.06537689190914962
0007e0 46 77 c3 b2 cf 0f e4 3f cd 57 ad 04 95 25 a6 bf
       0.6269300929522863 -0.04325547868818056
0007f0 2a 7f 1e 57 ea 33 ca bf 7b 22 27 11 99 cb d1 bf
       -0.20470933202613512 -0.2780516307362075

transformer.encoder.layers.0.self_attn.in_proj_bias f8 [48]
000000 ff 5f 37 53 71 34 e3 bf 0f 86 a1 6a d5 58 8c bf
       -0.6001516938513304 -0.013841311756723788
000010 16 68 9d 29 04 cb dd 3f 3f 9a df 0f 83 01 e2 bf
       0.4655161291499338 -0.5626845655468243
000020 e1 3e 6c b2 f1 04 bb 3f 21 54 19 f1 25 9b d6 3f
       0.10554419141794426 0.35321949524706225
000030 83 d7 7b 78 cf 80 e0 bf a7 7e 93 09 b8 2a d7 3f
       -0.515723929710234 0.3619823544995406
000040 ff 61 31 c9 c5 df a6 bf e2 45 d0 f8 50 81 c5 bf
       -0.04467599945991551 -0.16800892018413466
000050 ef 59 69 6b 23 57 c0 bf 2b 5d 19 4d c1 a7 e6 bf
       -0.12765925163939992 -0.7079779153672566
000060 aa 83 40 37 e4 71 e0 3f a3 62 ed 20 f5 4e d7 3f
       0.5139027670994569 0.36419418540530496
000070 31 2d 89 bb 7d dc b3 bf f3 d5 fc e4 f1 08 d2 3f
       -0.07758317783843861 0.28179595338892155
000080 d2 4e 14 da 34 5d 1b bd 26 71 c7 65 36 d8 1d 3d
       -2.4304192174870663e-14 2.6507311937531156e-14
000090 c9 57 ee 88 fc ab 08 3d 6e ec da 67 b6 99 08 3d
       1.0956489993749307e-14 1.092478975722062e-14
0000a0 82 bc b5 85 e7 d1 e0 3c 86 33 c0 43 13 6f f0 bc
       1.8673883550596166e-15 -3.649056102895394e-15
0000b0 07 83 38 b5 53 32 16 3d 11 b8 53 3c c2 fa 23 3d
       1.9714532034500977e-14 3.5490768192490596e-14
0000c0 02 27 2e ee a9 b5 24 3d 6f 49 34 2c 71 00 0b bd
       3.6787682557109324e-14 -1.1991175553812645e-14
0000d0 a0 3e 41 7f 0b f7 da bc 47 22 91 e8 38 7c 29 3d
       -1.4968592577469255e-15 4.527088633611368e-14
0000e0 06 39 96 c7 67 dd 23 3d 30 ed 01 18 a0 c6 1e 3d
       3.528708845403764e-14 2.7334472762783358e-14
0000f0 2d a9 da 21 8c 59 f0 bc 89 5d 9e 89 f7 f2 cc 3c
       -3.630383659987795e-15 8.034986460516448e-16
000100 2c 93 c2 08 0d 23 bd bf 06 64 2a e4 af 1c 9d 3f
       -0.11381608451717956 0.028429745007631645
000110 93 b2 83 b6 ee bc 90 bf 20 e4 b2 ed f2 ed a8 bf
       -0.01634572018604048 -0.048690406337705605
000120 b6 5d fc eb ea c2 a1 bf 47 c9 ff 72 bf fa 9a bf
       -0.034690228754864647 -0.026347152132026676
000130 51 5a d4 b2 68 3d ac 3f 33 35 25 3d c6 aa bc 3f
       0.05515601332642873 0.1119808100968001
000140 65 6b 57 27 3c ae ae bf ec 29 5f c7 f9 e2 a0 bf
       -0.059923057367732104 -0.032981687152261546
000150 36 96 78 7b 95 89 a6 bf 3b 54 2c 6f a3 24 b6 bf
       -0.04401843197073811 -0.08649655784786685
000160 7d c1 ad 83 87 b6 70 3f a4 0c 84 54 71 ee ab 3f
       0.004080323555953999 0.05455354839980345
000170 57 e0 db 46 27 2f 42 3f 04 44 ce 5c b3 b1 a9 bf
       0.0005549375325406652 -0.05018387325174703

transformer.encoder.layers.0.self_attn.out_proj.weight f8 [16, 16]
000000 2c 3c e9 36 a1 24 64 bf 2b 8f ad 04 5c 21 d9 3f
       -0.0024588726730949886 0.3926610990222225
000010 89 a2 b5 48 64 c5 c0 bf 16 43 f0 a6 ce 75 cd 3f
       -0.13102391767758473 0.23015769149108029
000020 e2 32 c1 2b ca 25 bd 3f 2e f2 d1 d5 49 e6 d3 3f
       0.11385787552098806 0.31093068962926196
000030 7e ef c3 0f f5 e5 d8 bf 71 06 00 5e c0 79 dd 3f
       -0.38903547801577776 0.46055611781785105
000040 06 7a 69 32 1e ab db 3f 5d 89 24 bc a2 2c d5 3f
       0.4323192112259736 0.33084934590637777
000050 21 96 56 db bc 63 c1 3f 15 01 ba eb 6c 85 c0 bf
       0.13585625371813229 -0.12907182226263872
000060 40 01 12 e5 58 bd d8 bf 8b 39 7b 90 d2 2f ae 3f
       -0.3865568387045819 0.05895860685051265
000070 d8 7b 2b b0 75 74 ba 3f 1b 8a ed a0 d2 a8 a9 3f
       0.10333953429243026 0.050116140503423355
000080 27 b9 3a 31 c4 bc ab bf fa c9 db a9 74 ba cb 3f
       -0.054174548158118 0.21662767690538925
000090 79 bb 95 7e a3 0a cb 3f 96 fa cb 16 7f 23 c4 3f
       0.21126216584113047 0.15733326542973164
0000a0 9d 23 53 5d b8 af d5 bf 23 01 10 77 81 b9 ba bf
       -0.33885010827776246 -0.10439309269714107
0000b0 e3 77 a3 20 af 0d ba bf 5d 21 e1 59 23 77 79 bf
       -0.10177130266990235 -0.006217134561730423
0000c0 2a db 7f 9d ba 90 c0 3f 31 01 cc 5d f3 d0 ad bf
       0.12941677751924746 -0.058234791946235716
0000d0 61 f4 9c 75 fb 02 b6 bf ff 25 c1 00 41 a2 ce bf
       -0.08598300572789831 -0.23932659661140573
0000e0 ad 84 4b 52 10 29 c5 bf 2d 28 78 3d db 44 af 3f
       -0.1653156663733503 0.061072207692703585
0000f0 7a c4 1b 6e 39 58 d3 3f a2 d7 05 e6 88 e6 cc bf
       0.3022597861555095 -0.2257853625448521
000100 4f 10 46 2d 0a db b1 bf d5 0a 59 c2 15 c3 a9 bf
       -0.06974853139223679 -0.05031650540742808
000110 88 49 43 95 a4 03 cb bf a5 8d ef 88 a4 ed aa bf
       -0.2110486725637879 -0.05259432002619783
000120 d7 c8 04 e0 52 c7 ba bf 17 7f 9e 63 c5 c1 cd bf
       -0.10460393876272477 -0.2324759231969373
000130 8a 08 e7 e4 10 ab a7 3f d3 58 07 71 c8 cd a0 bf
       0.046227004949757136 -0.03281999950165617
000140 e0 e4 64 dd 73 99 b0 3f 53 15 66 66 13 43 b5 3f
       0.06484150080804651 0.0830547451970081
000150 08 a8 0c 1d a4 22 9b bf 79 8d c2 04 cf 3f d6 3f
       -0.026499332688366933 0.34764457192269266
000160 4c a0 5f 99 1e 40 b9 3f 3b a8 a0 33 f7 8c b4 3f
       0.09863463634940323 0.08027596483648917
000170 8b e2 cb dd af 20 bb 3f 51 19 dd 57 a3 2b c5 3f
       0.10596751370384021 0.16539422788828032
000180 5e a2 7d e5 55 2c c5 3f 09 83 e5 12 06 d8 b2 3f
       0.16541551309207397 0.07360876046506006
000190 b8 b4 b6 74 f1 23 8a 3f db c4 8d fd cb 35 af bf
       0.012763868688887889 -0.060957312299146436
0001a0 ed c3 cb ac 75 13 c7 bf 58 96 61 2c 00 50 c8 3f
       -0.18028136193564084 0.18994142691660687
0001b0 04 74 ff 39 6f 67 98 bf 71 22 03 b9 f5 98 b8 bf
       -0.023832071223171894 -0.09608398215198989
0001c0 44 e5 37 cc 12 9b b6 3f c7 f4 88 53 8f 67 b6 bf
       0.08830373273658149 -0.08751769818714471
0001d0 62 63 f6 0c c5 ff 98 3f 8f 95 78 99 81 fe bc 3f
       0.024413184086003688 0.11325845715381021
0001e0 eb 0b 3c 13 67 06 60 bf 93 4c 1f bb 84 76 cd 3f
       -0.00195617801534941 0.2301793969805642
0001f0 8a 70 ed 9e 25 ca d3 bf e6 90 16 c6 83 ed c9 bf
       -0.3092130710626938 -0.20256087467453837
000200 84 e6 e6 21 db b6 ad bf 4d 40 14 4d df 49 c6 3f
       -0.058035705459997394 0.17412940276745062
000210 12 51 b2 00 65 0e b8 3f 5e 79 2e 67 b1 9f cd bf
       0.09396964327817539 -0.23143594301377396
000220 a9 dc fa cd b0 86 cc bf 8a 1e 29 12 35 7e a6 3f
       -0.22286043222059007 0.04393163534819873
000230 ea 08 21 e3 f1 04 bf bf fb a9 54 21 71 c5 a0 bf
       -0.12116920275824197 -0.0327563622652924
000240 7b 0b fd 2d d3 88 b6 3f b5 a3 8d aa 24 78 cb 3f
       0.08802528260006952 0.21460398032948338
000250 78 95 06 fa e3 5a c8 bf 38 c3 89 2a f8 0a ab bf
       -0.19027375896727583 -0.05281806487335533
000260 76 f6 6f c9 73 3b a0 3f 4c 89 94 cc 19 ad 92 3f
       0.03170358499481278 0.018238452064119046
000270 f1 1e 6b 64 eb 4a 97 3f 97 88 9c b0 6d 7a d4 3f
       0.02274673271565936 0.31997244116986095
000280 e4 83 0d 74 ec 56 9f 3f 2d 4b b2 86 33 52 d7 3f
       0.030605024894047164 0.3643921676058877
000290 45 47 d3 1a e2 96 c2 3f 5a ac 6f 71 33 94 c3 bf
       0.1452295905096951 -0.152960234059125
0002a0 33 fa e1 cb 01 b4 c7 bf c9 e9 a8 e9 8e 8a d1 3f
       -0.18518087821208126 0.27408192461339503
0002b0 55 ff 63 dc ab 25 9a bf c3 05 d3 4e 05 37 b3 3f
       -0.025534329725814448 0.07505829977437543
0002c0 57 2c d6 0e 95 79 c6 3f 9e 49 08 a1 51 20 76 bf
       0.17558539604610487 -0.005401915419968621
0002d0 72 d9 b4 b1 58 55 aa 3f 5f f3 64 71 ef 7a c9 bf
       0.051432391827279114 -0.1990641883548063
0002e0 67 43 b3 92 32 be cd 3f 4f 94 fd cb 8a 81 bb 3f
       0.2323668686208535 0.10744540672529122
0002f0 db ac 43 9a f8 d3 d7 bf 15 50 dd e7 12 70 b5 bf
       -0.3723126894462447 -0.08374136124376748
000300 dc 8e be 18 9a 13 d1 bf 73 53 61 c0 c8 3c ca 3f
       -0.26682140747491956 0.20497998612941223
000310 32 ad eb 26 78 08 b6 3f ca 85 b6 28 a5 36 db bf
       0.08606673193178407 -0.42521027541996814
000320 76 cd 8b 4e 2d 92 d8 bf 1d 0d d2 9c f4 9d bb 3f
       -0.3839219348003192 0.10787895992875858
000330 34 b9 21 c1 d2 20 c3 3f 84 ab 25 2c ba 67 b5 3f
       0.1494391863847767 0.0836140020161747
000340 bd 17 69 b4 0f 98 cb 3f 51 cd 81 a7 e5 7d db bf
       0.21557804402453754 -0.4295591483889512
000350 07 7e ef 25 00 21 ca 3f dd 4a 77 27 c9 20 da bf
       0.20413209774322658 -0.4082510838899632
000360 4d c2 01 7d 43 13 d2 bf 39 11 dc 9a e4 fd 8c 3f
       -0.2824257584352708 0.014156137443486304
000370 28 e2 2d dd 4f af de bf cd 3a d5 75 c9 d0 a7 3f
       -0.47945019340071093 0.04651479304685822
000380 36 f8 37 8d de 46 8d bf e8 01 b4 93 ee 44 b8 3f
       -0.01429532879319249 0.09480181795152698
000390 51 19 c5 d8 40 61 94 3f cc 12 b2 ee 1e 73 b9 3f
       0.019902241926751888 0.09941285445718079
0003a0 bb 2e b6 2a e3 9a a2 3f 19 1d dc 03 83 19 a5 bf
       0.03633794685728505 -0.04121026441685611
0003b0 2d 78 c7 02 ff cf ab 3f 97 82 6d ac f4 45 c0 3f
       0.054321259583716454 0.12713488025021455
0003c0 b3 2e ba 01 6e 42 b2 bf 65 95 bd 06 97 23 7c 3f
       -0.07132613699121286 0.006869878717997356
0003d0 1e f5 c6 6c 82 93 9e 3f e8 9b df cd 5a 85 b9 bf
       0.02985957898066715 -0.09969108129699544
0003e0 ba ce 21 97 a0 ea a3 bf d3 50 20 6f 06 0c b5 bf
       -0.03889943928598201 -0.08221473897021107
0003f0 80 8d f0 99 2d 70 7e 3f c2 1f 34 12 be 36 9e 3f
       0.0074312001516178006 0.029505700932560115
000400 9c 54 aa d8 f3 61 b2 3f 06 a1 67 80 27 a7 5f 3f
       0.07180713691407664 0.0019319425351743149
000410 d2 69 a2 8c 90 5a 7c bf 44 f2 04 7a dc 6a d1 bf
       -0.006922306676779804 -0.27214729228925116
000420 0b ae 94 a4 a8 eb d1 3f c0 3f 00 b7 4a e1 d2 3f
       0.28000846931783546 0.2950007235640406
000430 39 91 3e aa 4a 45 c0 3f 32 1e 5b 1b a8 a2 c9 bf
       0.1271146136542798 -0.20027638755549187
000440 b4 94 5d d8 c6 58 a7 bf 8e 5e e2 bf e0 db 8c bf
       -0.04559918776684793 -0.014091258865206482
000450 82 42 78 09 84 3b ce bf 2c e7 6b d4 58 07 a7 3f
       -0.23619127714529858 0.044977928095205705
000460 a5 26 ae a8 9f 09 b7 3f 2a c9 d1 b4 03 c8 cb 3f
       0.08999059551401929 0.2170414574534985
000470 bd 5a a1 73 c1 b6 a0 3f 41 db 7e 79 7e 20 90 bf
       0.03264431511404584 -0.015748954930781215
000480 cb 94 59 a5 ff fc b6 3f 12 2d 78 67 1d eb 9d bf
       0.08979795252669757 -0.029217204513810442
000490 04 42 4c 47 e9 1b c1 bf ae be dc 3d 65 a9 ae 3f
       -0.133664283574504 0.05988613491206017
0004a0 ef 51 b4 9c 3e ef c2 3f f6 c6 97 15 6e 30 86 bf
       0.14792616511898823 -0.01083456042667617
0004b0 86 ff 02 64 0d e6 ab bf 20 ce 2d 8d 73 b8 c3 3f
       -0.05448953481527412 0.15406650918485898
0004c0 a3 b4 6d a2 12 f5 c5 bf 37 51 88 c7 cd ee c0 bf
       -0.1715415280445188 -0.1322877144126637
0004d0 7c 71 d1 4d 1d df a1 3f 1e fc 69 ad de dd c4 bf
       0.03490535330704156 -0.16302092998009327
0004e0 a2 0d 37 81 a7 29 be bf ab 01 5f 89 57 43 9c bf
       -0.11782309441246366 -0.027600639113872266
0004f0 c9 11 1d 38 7f db d3 3f be af 61 1d bc 52 ac 3f
       0.3102720306381142 0.055318716608638394
000500 6c 4d 39 28 60 7c ba bf b6 03 ab ed 1d bf 9a 3f
       -0.10346032125499044 0.026119678145508828
000510 bb 35 8c de 70 8c d3 3f 98 f9 5a a7 90 0a b1 bf
       0.30544683201955153 -0.0665674599249314
000520 36 01 b7 d8 e2 7b ab 3f e8 db 7d f3 0e 39 c4 bf
       0.0536795510811338 -0.15799128426780773
000530 80 a7 d7 41 5f fd b6 3f 56 bf a4 b2 da 87 bd 3f
       0.08980365140419444 0.11535422192969
000540 e3 98 e1 92 d7 35 92 3f 63 26 7a 66 47 b2 ad bf
       0.017783516254348163 -0.05800078512136222
000550 44 22 e9 ef 3e 47 ba 3f dc 4a 54 02 12 3d 9a 3f
       0.10264962536997141 0.025623589889685813
000560 e8 f8 d3 74 18 ca c2 3f cb be c4 d5 8e 20 c9 3f
       0.1467924662064839 0.196306089762848
000570 96 83 df 1d 5b 75 b0 3f 53 23 46 56 f4 b7 9f 3f
       0.06429070929836053 0.030975168004747044
000580 0d 56 78 51 f2 62 d5 3f fe da 7c 63 db c0 ad 3f
       0.33416421848355143 0.058112007040497446
000590 3c de a0 bd c5 5a a0 bf ad 1a be c0 6a 7a d3 bf
       -0.031942538640973045 -0.30434674093741415
0005a0 41 ce 9a 49 af c4 9c bf ec 7b 1d 73 e9 f0 c8 bf
       -0.028094042651629406 -0.19485204811914458
0005b0 b7 65 b2 18 27 7c cc 3f a0 d0 90 49 3f dd ce bf
       0.22253884035016622 -0.24112692920755752
0005c0 99 71 c5 bf 1f a3 cd bf 6d d3 a8 35 af da c4 bf
       -0.23154065002280502 -0.1629237186440621
0005d0 50 4f e4 13 dd 04 b0 3f a2 1a 67 5f 6c d9 a1 bf
       0.06257421241417416 -0.03486193337044098
0005e0 3d 1d b2 01 bf a8 a8 bf e1 e6 d0 51 46 20 9d bf
       -0.04816243072223834 -0.02844343065610289
0005f0 88 cb 57 d7 97 ef 9d 3f cd ad 9b bf 4e 65 c1 bf
       0.029234287756434024 -0.13590416293969412
000600 d3 f1 f4 ec 37 ea c9 3f de 0f 83 22 1f 1e c8 3f
       0.20246028013379078 0.1884192389026102
000610 02 10 ae 2f 4a c9 c2 3f 5b 3a 3c 26 75 92 c2 bf
       0.14676787689325016 -0.14509453169781036
000620 6b 05 14 7c 11 6b d0 3f 12 fd 3b d6 b6 14 af 3f
       0.25653493039143055 0.06070491185345807
000630 1e 40 38 16 43 23 5d 3f 51 30 ed 0b 40 35 ca bf
       0.0017784266609659548 -0.2047500665888742
000640 50 d1 bc 1d 91 7a b6 3f 60 0e ae 6c d1 4c c3 3f
       0.08780772186293473 0.15078180128704144
000650 ea 56 2d f2 dc 48 92 bf fe 08 e5 36 ea b6 b7 3f
       -0.017856075555150598 0.09263480987741343
000660 ad 29 b6 09 66 e8 a9 3f 04 42 97 e8 cd fc a3 3f
       0.05060118549870949 0.03903811897510326
000670 76 56 09 22 68 50 b8 3f 82 55 f8 f0 bc 26 60 bf
       0.09497690993279115 -0.001971596742587679
000680 b2 80 cd 64 b5 0a b4 3f d6 80 3f f3 c4 00 d6 3f
       0.07828839980129734 0.34379695658391307
000690 75 f6 7f 59 15 05 b5 bf 7f f4 dd 6f 82 a3 7f 3f
       -0.08210881648116149 0.007724294204192294
0006a0 fc c6 8a 47 0e 25 e1 bf 9c 50 3b aa bc 25 c7 3f
       -0.5357734105402581 0.18083914100737253
0006b0 ef 87 b8 b9 60 44 c0 bf bb 77 48 44 17 8e d7 3f
       -0.12708672588729494 0.36804753940839036
0006c0 f1 51 ad 60 19 8d bd 3f a4 54 a7 0a 43 f5 cc bf
       0.11543425188330737 -0.2262347986240104
0006d0 62 79 a0 b0 11 99 d4 bf 2c 7f 1a 3e ce 17 cd bf
       -0.3218425965186694 -0.2272889903297196
0006e0 07 a3 74 b0 ee 32 9f 3f da 55 52 14 f5 22 e0 3f
       0.03046772911071385 0.5042672535807313
0006f0 8a fd 30 7a e5 09 dc bf 69 8e e7 9d d9 79 d4 3f
       -0.43810402806044435 0.31993713779795613
000700 ab 18 1c fe 12 24 d4 bf 5c 53 51 e7 ad 9c d5 3f
       -0.31470179381757174 0.3376879462205602
000710 cf c2 44 b3 f1 0b ac bf 69 9b 98 96 78 63 c5 3f
       -0.05477862656915066 0.16709811547590483
000720 78 bd c5 c9 bc 05 c0 bf 76 c8 20 2a 91 3c 71 3f
       -0.12517509319466646 0.004208151864121592
000730 63 78 92 6a bc 14 ad bf 14 b3 39 1d bf 1c c0 3f
       -0.05679882813386496 0.12587727477093635
000740 39 38 a7 29 9c 68 78 3f 84 0c 62 e4 65 19 b1 3f
       0.005959138880326669 0.06679379297024651
000750 ab d2 8b 8a 84 3a 91 3f ba a1 5e 35 cc 74 8e 3f
       0.016824789959133096 0.01487121141310942
000760 09 f9 1b 2f 25 65 d2 3f d7 8b 23 fb 3c 4b d9 bf
       0.2874234161426022 -0.3952171757247788
000770 fa 49 b9 80 1e 02 da bf 6f 7c 93 0e a8 e4 d8 3f
       -0.40637934275323995 0.3889560835213563
000780 ef e0 58 08 7e 18 bb bf d2 25 28 c5 cf b1 e4 3f
       -0.1058424730662215 0.6467055178374557
000790 13 56 eb 5b 76 35 bd 3f 0b 9c 17 cf 2e a3 cd bf
       0.11409702057002162 -0.23154244529652632
0007a0 91 06 97 a6 c6 8a e0 bf d8 fc 3d df 31 20 b2 3f
       -0.5169404271802752 0.07080375385520499
0007b0 e9 7c 27 e9 dd 58 c1 3f 07 f6 8b 4c ce bd e2 3f
       0.1355245006988988 0.5856696600964718
0007c0 db 80 f2 a0 75 b3 e3 3f 37 85 92 0c 28 0c c0 3f
       0.6156566756726777 0.12537098516353648
0007d0 f2 fb 45 fb e5 9c 78 bf 9a 7b 53 41 f0 28 a1 bf
       -0.006009004941346584 -0.033515460943582556
0007e0 a1 5c c5 c1 f5 01 cb 3f 1c 94 8c 0b f7 30 82 bf
       0.21099731408569247 -0.008882455863906506
0007f0 cc e2 11 86 50 cb a8 3f a6 31 55 b6 05 dc aa bf
       0.04842616688342147 -0.05245988703481723

transformer.encoder.layers.0.self_attn.out_proj.bias f8 [16]
000000 ca be 22 2b 01 a4 83 3f 16 38 a5 2a a1 33 a2 3f
       0.009590157631776636 0.03555015225957463
000010 29 36 70 e6 ff a0 82 bf 70 41 6f 62 58 32 7f bf
       -0.009096144885940198 -0.007616372348778419
000020 5f 04 84 d1 38 9e 85 bf 2a f3 ea 6e d7 3e a4 3f
       -0.010555690664206972 0.03954194287277908
000030 92 f5 bf 0c 62 c1 6c 3f a5 25 22 8f d7 79 27 3f
       0.0035101809535251294 0.00017910724961138244
000040 c1 8e 76 08 11 98 78 3f 83 8e 59 c3 07 5a 92 bf
       0.006004396949183367 -0.017921563432891318
000050 24 db 4e 74 df bb 87 3f f8 fe af ff a0 9a a3 3f
       0.011588807808818276 0.0382890998953353
000060 8e a0 06 31 6c c3 91 bf fa 2c 39 9a 88 0b a9 3f
       -0.01734704064588804 0.04891611940964853
000070 b4 7d db 5f ff 9c af bf 3a a3 e8 81 5e 4e a3 3f
       -0.0617446712983524 0.03770728431510979

transformer.encoder.layers.0.linear1.weight f8 [128, 16]
000000 10 0b a4 04 32 ac c0 bf 56 14 53 ca 8d e4 c8 bf
       -0.13025498606301555 -0.1944749105370273
000010 c1 65 8a 4d d6 06 b1 bf 8e 69 09 98 29 6c 9d bf
       -0.06651057618218827 -0.02873291960200102
000020 e4 38 ad 60 cc 98 a3 bf 86 00 12 a5 f9 c0 dd 3f
       -0.038275133897160335 0.46490326995991216
000030 ff 3b 30 27 9b 66 c3 bf 12 aa 79 be 40 5f d2 bf
       -0.15156878865715837 -0.28706377602671396
000040 92 b1 b2 15 df 9c bb bf b7 64 86 d7 8d 57 d4 3f
       -0.10786241798149934 0.31784387633667727
000050 f8 83 2c 12 50 7c be bf a5 bd 9a 05 60 4e b1 3f
       -0.11908436244677023 0.06760215889766259
000060 76 8b 1e 9c 78 17 cd bf d1 fd 44 e1 d0 f7 c6 bf
       -0.22727878211034253 -0.17943774222838596
000070 82 ec 38 36 94 b3 cd bf 3b d3 34 dc 3b ce bf bf
       -0.23204281470848193 -0.12424062849170252
000080 4e ce fd 03 4a 30 b3 3f 6f 63 c5 5d 21 ae 93 bf
       0.07495558354804041 -0.01921894202073154
000090 05 c9 2e 66 18 16 b8 bf 58 e1 d2 ea ff ca ca bf
       -0.09408714766212618 -0.20932005849841562
0000a0 66 2c db 80 43 65 c9 bf 2f c9 38 47 47 99 b6 bf
       -0.19840282241634383 -0.0882763432389637
0000b0 57 ee fd 5b 4a aa a6 bf 7f 89 6c cd e0 c3 cc 3f
       -0.04426796315143793 0.2247277262732261
0000c0 68 8d 27 4a 34 30 c1 bf 83 25 16 c4 15 14 b2 3f
       -0.13428357716393724 0.07061897313373859
0000d0 bc a9 d2 fd b3 7e b4 bf 9d bf 8c b4 c5 ae e5 bf
       -0.08005833575103954 -0.6775845075953729
0000e0 6e 93 34 43 d4 99 a5 3f 62 69 42 20 5a 80 e2 bf
       0.042189248279362754 -0.5781679754320914
0000f0 86 1b 65 87 9c e6 e0 3f 46 cb 95 33 28 86 c0 3f
       0.5281508106644288 0.12909414786153145
000100 a3 66 17 b8 ff 7f b5 3f a4 fc 10 18 a1 9f 98 3f
       0.08398435825747667 0.024046437353032815
000110 a7 67 d9 7b 3a 1f ba 3f ee a6 3c fe f3 58 b8 3f
       0.10203900836623224 0.09510731656032664
000120 1d 2a d0 59 57 a3 c8 3f b3 08 0a 27 48 b0 d7 bf
       0.19248477826506952 -0.37013438999577913
000130 59 90 65 7c a3 79 d0 3f 18 92 03 d8 9f 19 aa 3f
       0.25742423198812997 0.050976748579874165
000140 c2 24 2b 6f 0d bb ce 3f 66 0e 8e 4b 7e 44 cc 3f
       0.24008338859701978 0.22084025086597875
000150 9b 17 68 dc 1c 0d 8b 3f ac e3 12 43 b6 c2 b9 bf
       0.013208604313159891 -0.100627318740307
000160 a7 96 5c 42 1e 05 ca 3f f4 dd 6c 2f 77 d1 b3 bf
       0.20328119507137396 -0.07741494090884499
000170 dd 03 c0 b9 b2 3e d8 3f 88 06 7a b2 3a 32 af bf
       0.3788267911878032 -0.06093009403867905
000180 88 44 26 bb be 9a ca bf 6d fe 8d 63 0c bc ce 3f
       -0.20784744394453392 0.24011378155772736
000190 0e 16 09 ca b0 55 c1 bf e9 62 bb 0d 23 fc d0 3f
       -0.1354275690556936 0.26538921681416966
0001a0 96 3b 72 69 c0 6b b3 bf d9 8f cb 96 0a 22 a0 bf
       -0.07586290907259605 -0.03150971499215389
0001b0 b9 1d 9b e4 55 81 d6 3f 7f cc 3a 40 23 ec b0 bf
       0.35164401364132974 -0.06610317533595554
0001c0 a5 51 c1 21 04 82 a6 bf 1e dd 14 d4 0e e1 bd bf
       -0.04396069442796894 -0.11671536138316127
0001d0 99 b5 54 ec fb fa d0 3f 85 f6 b8 9d c9 9a d3 bf
       0.265318852226153 -0.306322483087435
0001e0 a1 40 b2 1c cd b7 b1 bf c1 24 68 b6 79 0f b7 bf
       -0.06921083403199414 -0.09007988646785049
0001f0 34 7c 40 55 8b dc ce 3f f4 29 be af 87 fd c1 bf
       0.24110547697725482 -0.14054962235634572
000200 e9 82 67 7c e3 1c c3 bf e6 ed 3c e4 d1 c3 90 3f
       -0.14931911062651373 0.016371993594686794
000210 3e c4 80 6d fd 77 d5 3f a8 a2 33 3d c0 8c a2 bf
       0.3354486054768734 -0.03623009440508912
000220 04 db f2 6c 4d 96 a7 3f c9 09 22 89 11 0b a1 bf
       0.04606859164180402 -0.03328757094370222
000230 16 91 a9 d0 03 bd 7c bf 0e cd 47 03 dc 4d e2 bf
       -0.0070161961581087975 -0.5720043243476611
000240 a9 e6 63 6d 52 9b cf bf 1c 5a b7 2a 56 83 da 3f
       -0.24692755070991737 0.4142661492491315
000250 12 af f4 d0 c7 74 97 bf e4 7e d0 80 ab 54 c2 bf
       -0.022906419876718216 -0.14320892133490937
000260 8f 36 eb de ee 89 c4 bf 33 9f c9 4d 9d 5f c8 bf
       -0.16045938381869404 -0.19041792200300164
000270 c7 b0 30 55 42 81 c7 3f 20 86 c4 b8 13 d9 6c bf
       0.18363217506101234 -0.0035214791479496604
000280 9b 4e 03 2a da 8f af bf 00 a9 ab 9c 11 a3 c8 3f
       -0.06164438021519666 0.1924764647477062
000290 9f 00 53 49 82 d7 d9 3f 8c 7f 90 27 d5 d8 c8 3f
       0.4037786212975422 0.19411720687730527
0002a0 cf 9f e4 db 73 75 cc bf ef f6 d9 10 2a 6d af 3f
       -0.22233436810461035 0.0613797326632105
0002b0 f8 c6 85 e6 d3 8c 9a 3f 66 12 f0 3d 26 2a 92 3f
       0.02592784018037883 0.017738912134534955
0002c0 30 ff 4d 8a b1 7f c8 bf 5e 3a 30 70 1b fd b2 3f
       -0.19139689686925854 0.07417460907911663
0002d0 47 8e c7 a4 32 43 bd bf cb 07 21 e1 eb ba c6 bf
       -0.11430660746514675 -0.1775793885481661
0002e0 65 80 9e fc 6e 22 c5 bf 44 fe 9d df 42 06 c9 bf
       -0.1651133283130576 -0.19550357741171542
0002f0 01 7d 55 9e 3d 36 c3 3f 54 f6 f2 65 58 d6 c8 bf
       0.1500927947153983 -0.1940412996099662
000300 a9 c0 bc 13 7f 3a bd bf 07 66 18 8d c5 95 71 3f
       -0.11417383415096317 0.004293224033540272
000310 9b 51 29 ad df 8c bd bf 44 1e 1f 2b d1 e9 cc 3f
       -0.11543081262181547 0.2258855305246802
000320 ff c8 bb 40 c2 19 c3 bf 6e 0a ee d9 5b df c9 bf
       -0.14922359619919942 -0.20212886944871705
000330 cc 43 46 92 12 06 d5 3f 8d 44 e8 0d 3a 36 be bf
       0.3284956387006417 -0.11801493491681665
000340 b4 bf e8 89 a7 93 b0 bf 13 c3 5e 37 ba 40 9d bf
       -0.06475302807734701 -0.028567227963949792
000350 b0 f0 48 64 5c 4e c2 bf a1 e3 77 27 c8 9c cc bf
       -0.14301638504719483 -0.2235346024242775
000360 3c 63 83 ae fd ac a5 3f 01 6d c6 67 6e 58 b4 bf
       0.04233544116295326 -0.0794743541104488
000370 d3 99 8a 0a ac c5 b3 bf 1f 93 89 8f 84 3e c2 bf
       -0.07723498589857707 -0.1425328923097817
000380 8a 0f b5 95 e0 cf af bf a8 76 ef 91 7d 09 c9 bf
       -0.06213285281640342 -0.19560212732078708
000390 cc 29 9b 78 d0 ba b1 bf 63 3a 63 78 75 c9 b3 bf
       -0.06925681061253569 -0.07729276837492587
0003a0 f1 db 76 fb 93 5f bf bf 5d 30 09 02 ed 31 b8 3f
       -0.1225521553923128 0.09451180743889283
0003b0 69 1b 34 d0 ec f3 b7 3f d6 e7 b9 fd 1d 35 ce 3f
       0.09356575091451948 0.235996006860488
0003c0 73 b9 1f fd bc 52 d1 bf 3b be d2 34 10 bf 60 bf
       -0.2706749412453952 -0.0020442310838786593
0003d0 04 04 0a 5c 14 6a c6 bf c5 e5 cf 02 fb d5 d5 3f
       -0.17511229032609787 0.3411853339635765
0003e0 7a 29 cc 7b f9 63 c1 3f 55 ed 4c df ed c7 c3 3f
       0.13586348099518003 0.15453885463089514
0003f0 6a 69 c4 9a f0 4b ce bf c5 a2 ba 08 6c a7 c6 bf
       -0.23669250065797637 -0.17698431421492536
000400 4e 13 b5 f5 4a 40 ce bf ca 4a 9a 8c ed a7 b7 3f
       -0.2363370609038164 0.09240612681086727
000410 cd b7 0e 20 0d 89 db 3f f2 08 4b 86 a6 bc b3 bf
       0.4302399457036444 -0.07709732798233285
000420 a9 5b 74 74 37 c8 90 3f b4 7b 74 92 ba 92 a2 bf
       0.016388765795536085 -0.03627570188313403
000430 27 fc 67 7d 0a a7 a8 3f b6 cf a7 ad 3c 73 ad 3f
       0.048149421509144745 0.057519813726599464
000440 83 80 58 40 13 93 aa 3f af 94 52 8b b4 92 b8 3f
       0.05190334473104576 0.09598854447775083
000450 bc 1b d1 f8 81 d9 c5 3f 00 a2 f3 ff 1c 33 ae bf
       0.17070030831584215 -0.05898371338281905
000460 87 aa 27 63 4a b2 c1 bf c9 74 8d 68 d1 d0 b1 bf
       -0.13825349656629646 -0.06959255983879865
000470 fb bb ad cd 3d b4 a4 3f 34 33 1c 18 ab a9 c3 bf
       0.040437632901436836 -0.1536153667188046
000480 b3 9c aa 24 d5 a1 c7 bf e4 f5 11 4a 25 ef b1 bf
       -0.18462623873094727 -0.07005532320359681
000490 62 48 08 57 7e ad b8 3f 8e b5 06 9c 20 66 be 3f
       0.09639730095685331 0.1187458401606902
0004a0 5b 46 22 d2 df e0 a2 bf cb f2 18 c0 62 95 83 bf
       -0.036871904755696426 -0.009562274443959315
0004b0 27 83 70 38 14 3a d2 3f 2e 5f cb 59 db 09 d0 3f
       0.2847948599974636 0.25060161370264467
0004c0 5d bb f6 f4 7a 38 d4 bf 59 c9 71 b7 dc a1 b5 bf
       -0.315947283956964 -0.0845010707724091
0004d0 11 53 1a b3 5d a3 c4 bf e6 11 be 4c 23 90 e1 bf
       -0.1612355350995576 -0.5488449572445091
0004e0 93 28 6d 43 a1 67 b4 bf 77 2f d5 6c cb d6 d9 bf
       -0.07970626732017853 -0.4037350237674597
0004f0 1d 9d 07 31 91 6d d4 3f 62 65 95 10 65 47 a1 bf
       0.31918744838772445 -0.033747823976862504
000500 03 09 7f 74 21 53 b1 3f df c2 11 53 5b be a5 bf
       0.0676747235693576 -0.04246793164282336
000510 ff 91 45 43 d9 13 8d 3f 5e f4 91 d0 1b 4f b5 bf
       0.014198014607878838 -0.08323835222286521
000520 b0 bd c9 a5 be 1e 84 3f 35 23 e2 d5 05 7a c9 3f
       0.009824265894365108 0.19903634017489372
000530 6a 1e 9f 34 19 3f bc 3f d8 1f 09 e4 5a 0f c2 3f
       0.11033780607896806 0.14109359869530524
000540 28 5e ad c7 0b 20 da bf bb d3 61 71 be 0e b5 bf
       -0.40820593356827084 -0.08225622432821826
000550 e6 ad 95 23 1f 6c b8 3f 93 b1 25 a6 84 47 d8 bf
       0.09539980524794309 -0.3793651220828675
000560 4d 35 a0 85 0a af d1 3f aa c3 c0 8e 1d fa e5 bf
       0.2763086609782775 -0.686781672300744
000570 a4 c2 57 ad 51 0e e3 3f de ac 78 e3 94 87 ad bf
       0.5954979310609656 -0.05767503048658694
000580 ed ae 02 9d 75 82 9b bf 64 9d b6 12 ca e8 c2 bf
       -0.026864850719603806 -0.14772916711556683
000590 70 a2 1b 9a c4 75 72 bf 94 d4 62 56 9a 1a d5 3f
       -0.004506843544483816 0.3297487109769659
0005a0 18 85 0d 80 55 2c c4 bf ed 9f fd 44 e8 14 c1 bf
       -0.15760296585634914 -0.13345054024398398
0005b0 65 d8 c1 4d e5 e8 a8 bf 05 ab e9 9e 03 42 c0 bf
       -0.048651853315207196 -0.12701459178364174
0005c0 23 7d 18 64 fc 21 aa 3f 09 86 93 ee e8 1c c6 bf
       0.051040541857441356 -0.17275725983840598
0005d0 04 cc 07 d2 42 09 a2 3f 54 07 b9 0c 93 20 c5 bf
       0.03522690595482206 -0.16505659219006452
0005e0 e9 0f 12 21 4e 60 a5 bf 8a 3c 61 e9 2a 28 c7 bf
       -0.041750375306065575 -0.1809133185911132
0005f0 7b e3 09 b9 5f be c0 bf 4a 2c 29 60 ec 20 c7 bf
       -0.13080975089158273 -0.18069224067071082
000600 9b d0 78 ee aa e1 a3 3f 4f 4c 2a ae 67 9a 90 3f
       0.03883108292612399 0.016214008336259685
000610 8d d6 87 1b 73 bf a6 3f 39 6d ce 8a 84 95 bd bf
       0.044429394827529035 -0.11556270970179562
000620 7c c3 ee d9 23 2c d8 3f 7d b0 30 22 2b 96 9c bf
       0.3776940944908842 -0.027916597329906246
000630 92 77 f9 70 d3 0c a5 bf 0b 99 f1 ce 15 48 e1 bf
       -0.04111347917635934 -0.5400494615430785
000640 18 d4 a8 f7 0b b1 a0 bf 60 8e 1b ce 28 75 c9 3f
       -0.032600759488936315 0.19888792098855657
000650 ee d4 4f cc c8 02 d4 3f 0a b6 1a 53 97 3b ad bf
       0.3126699443085518 -0.0570952691026428
000660 33 72 00 02 9f aa ca bf 64 54 a1 59 d1 0c c0 bf
       -0.20833194349042258 -0.1253911674163276
000670 5e 00 fa 69 d4 c8 81 3f 9a 0b 6f cc 1e c2 ba 3f
       0.008683833583973118 0.1045245408159147
000680 3b 94 b2 0d 82 b5 b3 bf 4c 4b 17 95 a0 2f c5 bf
       -0.07698834261334835 -0.1655159690841067
000690 9f 66 50 07 9a d8 c3 bf e0 ed 7d 15 d6 18 a7 3f
       -0.15504765851146815 0.045111360667728695
0006a0 af ac 53 51 90 e8 b8 3f 76 e7 2b 5c bc 5a be bf
       0.09729864106673135 -0.11857201814919258
0006b0 d1 40 40 2e 84 b7 d7 bf c6 e7 22 00 00 94 af bf
       -0.3705759479207816 -0.06167602540649812
0006c0 b9 82 a5 c9 c4 17 bc 3f 80 5c f3 9b 15 b0 c8 bf
       0.1097376816083039 -0.19287366976525178
0006d0 29 6c a1 42 7a 5b cc bf 61 2c ca ab a5 27 97 bf
       -0.22154167416997098 -0.022612179384435275
0006e0 7c a9 e1 ce 81 7c d0 3f 36 cd fb 4e f8 b8 a5 bf
       0.2575993080451082 -0.042426833764603364
0006f0 3b 84 93 9b 6d 45 b8 3f ba d5 2c c3 a5 dd c8 bf
       0.09480938957450828 -0.19426414518390606
000700 1f dc c7 97 f1 e4 d1 bf 00 4f 86 5f 44 c9 c4 bf
       -0.27959861585935813 -0.16239218391694266
000710 11 67 84 7c 1b e8 d3 3f de dc c2 51 68 01 b7 3f
       0.31104170951731286 0.08986522670862793
000720 63 5d 61 d1 ad 98 be 3f ec cc 83 9e 99 96 d2 3f
       0.11951719629120343 0.29044189910855667
000730 18 76 79 0b 24 b0 d5 bf 00 08 23 54 42 91 b4 3f
       -0.3388757812552696 0.08034147791025248
000740 32 96 fd 90 93 c6 d4 bf c5 31 ce ff 74 33 94 3f
       -0.3246201435016217 0.019727542985082076
000750 4a 88 69 8f 60 97 c0 bf 01 68 db b7 00 38 cf bf
       -0.12961966517019824 -0.24389656999011325
000760 9e 74 9e cb 5d 01 cd 3f dc 76 02 03 fd 08 ca bf
       0.2266041988595235 -0.20339930197672274
000770 56 69 cf fa 21 a2 d1 3f f4 3a 13 4e 4e 01 bb bf
       0.27552079671081253 -0.10548867612963503
000780 fd 26 76 59 39 4b ce bf 85 60 ef 18 72 f2 c4 bf
       -0.23667065494765174 -0.16364885537655396
000790 90 7d 37 2e 51 9d 99 3f 25 d6 3d a5 c7 e0 c1 bf
       0.025014179654929303 -0.13967223709521295
0007a0 19 0d eb 20 a8 8e b1 3f c7 30 42 04 eb f6 c3 bf
       0.06858301929155565 -0.15597284038483947
0007b0 5b d1 35 29 09 17 84 bf 3e 10 3b 96 2a 20 b0 bf
       -0.009809562273155483 -0.062990819623395
0007c0 e4 d9 5c 29 d3 b2 92 3f 8b 66 10 78 0f 89 c7 bf
       0.018260287665919153 -0.18387025225165518
0007d0 c1 6c e0 98 03 61 d6 bf 42 9e 3e aa 7a da c6 3f
       -0.3496712677894714 0.17854245484089587
0007e0 a7 33 2d 5b 1d 35 ce 3f dd 7e 33 88 17 b7 af bf
       0.23599593116742065 -0.061943755508534905
0007f0 3e dd 3d 70 43 a5 c5 3f dd eb 94 17 b5 88 da bf
       0.16910593967961945 -0.4145939569750093
