experiments/Datasets/darts_logs/London_base_transformer_9_168/checkpoints/last-epoch=3.ckpt (torch, 376027 bytes, 201 tensors)

encoder.weight f4 [16, 1]
000000 a8 34 71 bf 19 2e 0b c0 c3 39 6c bf d0 dc e4 bf
       -0.9422097 -2.1746886 -0.9227564 -1.7879887
000010 66 56 ab 3f 24 49 c2 3f 0e 30 55 3f aa 1e 2a 40
       1.3385742 1.5178571 0.8327645 2.6581216
000020 8b 81 4f c0 f1 ff d1 3f 39 9d f3 3f 2b bf 9d bf
       -3.2422817 1.6406232 1.9032356 -1.2323965
000030 5c f4 7c bf 42 27 95 bf 93 ac 8c 3f 88 6f 9c 3f
       -0.9881036 -1.1652606 1.0990165 1.2221537

encoder.bias f4 [16]
000000 e4 4f 09 3f 88 fa a0 3e 8b 49 3c 3e 63 97 11 3f
       0.5363753 0.3144114 0.1838743 0.5687162
000010 15 87 3d bf 31 6b a8 bf 93 74 b0 be dd 55 89 bf
       -0.74034244 -1.3157712 -0.3446394 -1.0729328
000020 9f 23 28 3d d0 23 93 bf a4 3a 2b be 39 de 15 bf
       0.041049596 -1.1495304 -0.16721588 -0.5854221
000030 af 09 0c 3e e9 20 ef be ed cc 03 bf ff 2c 9d bf
       0.13675569 -0.46704796 -0.51484567 -1.2279357

transformer.encoder.layers.0.self_attn.in_proj_weight f4 [48, 16]
000000 df 42 27 3d bc b3 94 be e0 3e 01 bf 7d 22 85 be
       0.040835258 -0.29043376 -0.50486565 -0.26002875
000010 c5 70 2c 3f 88 cd 43 3e f4 30 57 3f b1 9e ec 3e
       0.6735957 0.19121373 0.8405907 0.46214822
000020 6a 07 98 3e 0b 05 c4 3e e1 27 ed 3e bb 7c 7c bf
       0.29693156 0.38285097 0.46319488 -0.98627824
000030 a2 56 48 be 81 e2 21 bf b8 e9 91 3e ed 23 79 3e
       -0.19564298 -0.6323624 0.28498626 0.24330111
000040 1a 43 f2 be 63 ea 96 3e 91 46 9a bf d2 e9 08 3d
       -0.4731682 0.29475698 -1.2052785 0.033426113
000050 2d a2 5a be 76 18 d0 3d 36 5c 47 3f 19 16 8a be
       -0.21350928 0.101609156 0.7787508 -0.26969984
000060 14 70 bf 3e 8c a4 2e 3f 4d 23 6a 3f 3b c4 ec be
       0.37390196 0.6821983 0.91460115 -0.46243462
000070 5a 05 78 be 70 bf 83 bc 56 9f c7 3e 99 b0 7c 3e
       -0.24220791 -0.016082495 0.3898875 0.24676742
000080 f5 b5 1f 3e 2c 5e f6 3e 02 4b a1 3c c4 dd 1b be
       0.15596755 0.48118722 0.019689087 -0.15221316
000090 87 a1 15 be 3c 1f 0d 3f 5c 55 8a 3e 3a dc 91 be
       -0.14612399 0.55125785 0.2701825 -0.28488332
0000a0 bc 87 8c 3d ee 91 1a be e8 31 9c 3d b0 f5 19 bf
       0.06861827 -0.1509473 0.07626706 -0.60140514
0000b0 2c 02 95 bd cd ec cc be cf 72 cc 3e fb 74 a3 be
       -0.07275805 -0.40024415 0.39931342 -0.31925187
0000c0 8b d9 11 bf c0 e3 80 be 99 36 35 3e 52 ec c0 3d
       -0.5697257 -0.2517376 0.17696609 0.094200745
0000d0 8e bd e2 3e 39 da c8 be c2 21 a4 be ac ea da bd
       0.44285244 -0.3922899 -0.32057005 -0.10689291
0000e0 b6 db e9 bd 2e d3 6d be 70 9a 28 3e e0 0f 82 3f
       -0.1141886 -0.2322509 0.16465163 1.0161095
0000f0 9c 27 59 3c e2 99 da 3e d1 65 dd be 76 ad 82 3e
       0.0132540725 0.42695528 -0.43241742 0.25522965
000100 b5 c0 b6 be 76 06 f1 bd 2b 63 47 3d d7 cf 91 3e
       -0.356939 -0.117688105 0.04867856 0.28478882
000110 e0 9e 9f be 05 1f 4b 3e 3e bc d6 3d 85 e7 a9 be
       -0.311759 0.19836052 0.10485123 -0.33184448
000120 34 1f 0f 3f 60 a8 91 be 00 0a 52 bc e0 9e c1 3d
       0.5590699 -0.28448772 -0.012819767 0.09454131
000130 79 bb a8 3e e1 0c 88 be e5 6f 0e 3e c3 28 0f 3e
       0.3295553 -0.26572326 0.13909872 0.13980393
000140 96 89 c0 be b6 c2 8f 3e d4 04 60 be cc 1c 4c 3d
       -0.3760497 0.2807824 -0.21876842 0.04983215
000150 f6 71 19 be 03 1d 36 be 67 01 13 3e b6 92 00 3c
       -0.14984879 -0.17784505 0.14356004 0.007847479
000160 4b be f3 3d aa f0 3b 3e f3 86 b7 3e 01 41 00 3e
       0.1190153 0.18353525 0.35845146 0.12524797
000170 8e d5 f9 3d ae 4e 59 3e ba 37 1a bf ec 05 1c 3e
       0.121989354 0.2122142 -0.6024128 0.15236634
000180 3b 3b 40 3e f7 e0 c8 be 09 b6 1e 3f 00 3e 9f 3d
       0.18772595 -0.39234135 0.61996514 0.077754974
000190 98 af 51 3e 34 8f f7 3e d5 13 04 40 46 8b b1 3f
       0.2047714 0.48351443 2.0637105 1.3870628
0001a0 7c ca b9 3d ab 5a 1f 40 0d 23 19 40 51 e7 c2 3e
       0.09071824 2.489909 2.3927643 0.38067105
0001b0 c0 c1 6d bf 9a 9a a8 bb 91 fd 59 bd f5 92 09 3f
       -0.92873764 -0.005145383 -0.053220335 0.53739864
0001c0 36 89 e9 3c c4 53 d8 be ec 1f d6 be 4f 8e b3 3e
       0.02850781 -0.42251408 -0.4182123 0.3506951
0001d0 66 47 1a bf 48 a5 c6 3e 1a d1 af bf 7f 5f bd bf
       -0.60265195 0.38797975 -1.3735688 -1.4794768
0001e0 cf 4e 7e be 36 f5 f4 bf bd d7 17 c0 07 fe b4 bd
       -0.2483475 -1.9137332 -2.3725426 -0.08837514
0001f0 68 7a 17 3f f1 12 3f be 79 04 6e be ef 0c 47 bf
       0.5917115 -0.1865957 -0.23243894 -0.7775411
000200 9f 10 f4 3d 33 fd 2c 3f b0 47 07 3e bb 0d 88 bb
       0.11917233 0.6757385 0.1321094 -0.0041520274
000210 dd bf 4f 3f 9d 3f 91 3e bf 3a a6 3f c5 4d c3 3e
       0.81152135 0.28368846 1.2986678 0.3814527
000220 da 7e b5 3e 8d 0c 85 3f a9 bb 53 3f 71 08 0c 3e
       0.35448343 1.0394455 0.8270822 0.13675095
000230 cb 57 fe be 4b 28 30 bd a8 0e e3 3d 65 2e 1d 3f
       -0.49676356 -0.043007176 0.1108678 0.6139892
000240 e6 54 ac 3e 31 f2 c4 bd 0b 86 16 3f 8f 61 e6 3e
       0.33658522 -0.09616507 0.58798283 0.44996306
000250 9b f8 82 be 81 5d 2b 3f c1 a7 ec 3e b0 86 7b 3e
       -0.25580296 0.6693955 0.46221736 0.24563098
000260 00 f0 0f bf dd 1a b8 3f 22 7e 1c 3f c5 94 c5 bd
       -0.56225586 1.4383198 0.61129963 -0.09647516
000270 e2 bb 75 bf cb 3d 17 3e b4 b3 7d 3e 8b 61 03 3f
       -0.9598981 0.14769666 0.24775583 0.51320714
000280 72 93 16 bd 78 48 61 be 1b 86 14 bf 02 8b 8d 3d
       -0.03676171 -0.22000301 -0.5801713 0.06911279
000290 c8 a7 f6 3d 70 b2 79 3e 0f 8d 85 3f 65 8d cf be
       0.120437205 0.24384475 1.0433673 -0.40537563
0002a0 27 6b 9c 3d dd ff fe bd 67 80 14 3f 03 4c 3c bf
       0.07637625 -0.12451146 0.58008426 -0.73553485
0002b0 40 1a af be a1 3b eb bd 74 98 dd 3e c6 d5 35 bf
       -0.34199715 -0.11485983 0.43280375 -0.7102932
0002c0 ae 84 00 bf bd 6a 92 3e c4 af 13 bf e1 2b 44 be
       -0.50202453 0.2859706 -0.5769007 -0.19157363
0002d0 8d 04 05 bf 8e 32 09 be cb d5 85 3f 36 74 39 bf
       -0.5196007 -0.13398191 1.045587 -0.7244295
0002e0 8a 19 16 3f 1c 18 4e be a9 d8 9c bd d1 bd 2d be
       0.5863272 -0.20126384 -0.07658512 -0.1696694
0002f0 88 a5 d0 bc 03 24 1a bf 2c aa 59 3f 26 d0 0c bf
       -0.025469556 -0.602112 0.85025287 -0.5500511
000300 e1 24 0f be 2f bc a4 3e e9 23 2d bd 43 58 1a 3f
       -0.13978912 0.32174823 -0.042270575 0.60290927
000310 d4 6a 10 bf d3 13 86 3e 70 80 80 be ba 54 7d 3f
       -0.56413007 0.26187 -0.2509799 0.9895741
000320 93 c0 84 bf b4 ca 7b 3f e8 09 5f 3f d2 b6 58 be
       -1.0371269 0.98356175 0.8712449 -0.2116349
000330 2b 71 9d bf 46 3c d0 bd c9 19 95 bd 13 4c 61 3f
       -1.2300161 -0.10167746 -0.07280309 0.88006705
000340 92 fd 7d 3e 62 12 c9 bd 7a 76 33 3e d7 84 b5 3e
       0.2480376 -0.09817959 0.17525664 0.3545291
000350 b0 6a e5 be ba 53 fc bc 56 93 ef be 5a 25 9e be
       -0.4480796 -0.030801643 -0.46792096 -0.30887872
000360 a0 31 7a 3e 8c bb 13 bf a3 26 de be 46 ae a6 3e
       0.24432993 -0.5770805 -0.43388852 0.32554835
000370 71 98 77 3f ec e9 ec 3d be 4f b3 be 92 38 6d bf
       0.9671698 0.115680546 -0.35021776 -0.92664444
000380 64 d7 dc 3c a9 a3 2c 3d c5 27 59 3d 03 9d b2 3e
       0.026958175 0.042148266 0.053016443 0.34885415
000390 10 07 5e bf b5 1b a3 be e1 d4 ad bd 0d 80 66 bf
       -0.86729527 -0.31857076 -0.08487869 -0.9003914
0003a0 6f 16 89 3f fa 28 44 bf 71 b8 93 bf a5 c3 91 be
       1.0709971 -0.76625025 -1.1540662 -0.28469577
0003b0 80 60 0b 3f 41 f9 1a be 54 67 02 3e ab 66 b4 be
       0.5444412 -0.15134145 0.12734729 -0.3523458
0003c0 6d 96 d1 be 36 fe 70 be 13 1e c8 3d f4 2a c3 3d
       -0.40935078 -0.23534474 0.09771361 0.09529677
0003d0 d7 fd 20 bf e3 08 d9 bc 16 36 92 bd 42 b3 20 c0
       -0.6288733 -0.026493495 -0.07139222 -2.510941
0003e0 17 83 0e 40 68 90 db bf a2 62 f0 bf 36 64 a7 be
       2.226751 -1.7153444 -1.87801 -0.32693642
0003f0 f6 6c b3 3f c7 03 bc be c4 45 17 3e bf ff a6 bf
       1.4017627 -0.36721632 0.14772707 -1.3046798

transformer.encoder.layers.0.self_attn.in_proj_bias f4 [48]
000000 f0 ee 5f be 4b c1 b8 be 06 3b 0d bf f2 64 0a 3f
       -0.21868491 -0.3608497 -0.5516819 0.5406028
000010 4b 22 50 be a9 dd 9c 3e 49 10 b2 3e 65 4c a7 be
       -0.20325582 0.30637863 0.3477805 -0.32675472
000020 68 90 e6 bc c8 30 41 bb 49 91 7d bf b9 9c af bf
       -0.02814503 -0.0029478539 -0.9904981 -1.3719703
000030 d3 3b ec 3d f2 63 95 3e d6 fb a1 be f9 4b f3 be
       0.11534848 0.29177815 -0.31637448 -0.475189
000040 40 e2 2e b8 ea 14 9d b8 07 aa f0 b8 f6 f3 9b b7
       -4.1695544e-05 -7.490239e-05 -0.00011475762 -1.8591043e-05
000050 9c 8b b9 38 19 d4 79 b7 32 95 c6 b8 ad 08 42 39
       8.847492e-05 -1.4890939e-05 -9.4691655e-05 0.00018504514
000060 77 d4 e3 38 14 a6 2a 38 ef 1b 31 3a 1e 32 9f 38
       0.00010863778 4.068583e-05 0.00067561766 7.591046e-05
000070 10 c5 a4 39 59 96 8e b9 9a 35 33 38 c0 12 60 b8
       0.0003142734 -0.00027196368 4.2726846e-05 -5.3423224e-05
000080 bc 49 77 bc 7c 9c 1a 3d cb e2 b6 3d 0d fc 7e 3d
       -0.015093263 0.03774689 0.08929976 0.062252093
000090 ef 83 20 be 88 88 8b 3d 12 e2 1a 3d cc 2f 76 3d
       -0.15675329 0.06813151 0.037813254 0.060104176
0000a0 fe 17 4e 3c 70 fb fb 3d a3 16 26 be 64 70 33 be
       0.012578962 0.12303817 -0.16219573 -0.17523342
0000b0 52 fc 08 3e cf 1a 7d 3d 1d 01 9f bd 1b b7 c7 bd
       0.13377503 0.061793145 -0.07763884 -0.097517215

transformer.encoder.layers.0.self_attn.out_proj.weight f4 [16, 16]
000000 a5 7d 42 be ed 44 16 3f 8d 53 d3 3d e4 9e 92 3d
       -0.18993242 0.5869892 0.103186704 0.07159212
000010 36 cb 4a 3e e8 9b e5 3d d0 11 2a bd 75 b2 0a 3e
       0.19804081 0.112113774 -0.041520894 0.13544638
000020 22 9d ce 3d c7 6a 60 be de a0 92 3e 87 38 f6 be
       0.100885645 -0.21915732 0.28638357 -0.48090002
000030 d5 3a e1 3d a0 76 26 be 25 86 06 be 9d 54 c1 be
       0.109975494 -0.1625619 -0.1313711 -0.37759867
000040 47 08 02 bd 63 50 6b bd 89 00 03 bd 2f 46 f5 bd
       -0.031746175 -0.05744971 -0.031982932 -0.11976277
000050 f1 a5 8c 3b 07 68 ac bd 34 36 41 3c af 10 89 be
       0.0042922427 -0.08418279 0.011792708 -0.2677054
000060 3f 31 82 3d f9 db 19 be 87 25 b8 3c af 92 5c 3d
       0.06357049 -0.15025319 0.022478832 0.053850826
000070 5e 89 4a 3d 78 0f 8b 3c 18 37 95 3e 00 bd 00 3d
       0.04944741 0.01697515 0.29143596 0.031430244
000080 8a 9d e2 bd 49 70 68 bc d2 0d 51 bd fb f3 cf bd
       -0.110652044 -0.014186927 -0.05103857 -0.101539575
000090 87 aa 59 bd d9 11 cb 3d 71 89 94 bd ea 7e 98 3d
       -0.053141143 0.099155135 -0.07252777 0.07446082
0000a0 68 c4 ea bd 19 42 f2 bc 7f c3 a4 3c b4 f4 19 3d
       -0.11463243 -0.029572533 0.020112751 0.037586883
0000b0 52 5d 42 be b9 92 a7 bd c6 0c ef bd fe d5 87 bd
       -0.18980911 -0.08182282 -0.11672358 -0.06632613
0000c0 b0 a2 5b 3e b2 0d 8b bd 19 84 d1 bc 80 af 22 be
       0.21448779 -0.067897215 -0.025575684 -0.1588726
0000d0 55 87 a5 be 4d fe 97 bd 70 86 0c bc a3 30 80 bb
       -0.32329813 -0.07421551 -0.008576974 -0.003912048
0000e0 e9 fa 99 bd 36 cf b5 be b2 d2 ae be c6 91 7c be
       -0.075185604 -0.35509652 -0.34145123 -0.24664983
0000f0 71 c8 80 3d 1c 13 0f be 45 f4 91 be 90 be 3a bd
       0.06288231 -0.13972133 -0.28506675 -0.04559189
000100 ab 30 8b 3d 92 84 83 3e 52 4b e0 bb 9f 4e 06 be
       0.06796392 0.2568708 -0.0068449164 -0.13115929
000110 27 cf ae bd 01 8b 8e 3d a3 6e b9 bd ea 3e 97 bd
       -0.08535605 0.06960107 -0.090543054 -0.07385047
000120 6b 9a e8 bd e6 e0 29 3e 7c 82 d6 be 38 25 8f be
       -0.11357578 0.16589698 -0.41896427 -0.27958083
000130 7d 25 d9 3d 26 82 ae be 63 1e 84 3d 9d 1f f1 bd
       0.106028534 -0.3408367 0.06451108 -0.11773608
000140 12 6b 32 bc ba 6d 2e 3d 9d cb bf bc 52 06 6d bd
       -0.010889785 0.042585112 -0.02341252 -0.057867356
000150 c5 40 bf bc 55 4e 94 3c d8 b9 87 bd 7f 3d 94 3d
       -0.023346314 0.018103758 -0.06627244 0.07238292
000160 22 c0 44 3b ff 3e a5 3d 6b 25 1e bb 20 c8 d9 bd
       0.0030021747 0.08068656 -0.002413119 -0.10633874
000170 7a 41 0f bd 54 f7 81 bc 6b da 21 bd 90 fa 54 3c
       -0.034974553 -0.015865006 -0.03951494 0.012999192
000180 90 91 cb bd 20 36 47 3e cf 51 29 bd 83 42 8b bd
       -0.09939873 0.19454241 -0.041337784 -0.067997955
000190 7c ca c7 3d d4 04 1b 3d 81 2c 8c 3e 34 be 2c be
       0.09755418 0.0378464 0.27377704 -0.16869432
0001a0 d8 83 2b 3e cf c1 db bd a7 cd 4f 3e 22 e2 34 3e
       0.16749513 -0.107303254 0.20293294 0.17664388
0001b0 4f 85 c4 bd 53 db bb 3d 24 74 23 bd 9e 55 24 be
       -0.09595739 0.09172692 -0.039905682 -0.16048285
0001c0 7b 7e 20 bc 24 a0 53 bd b4 59 95 3c 3a e5 31 bc
       -0.00979578 -0.051666394 0.01823125 -0.0108578745
0001d0 67 31 1d bd 3e 8f b9 3c cc 40 bb 3c 97 c2 b0 3d
       -0.038377192 0.022651311 0.022858046 0.08630865
0001e0 99 cf a2 3c ed ac 8c 3d aa 29 44 bc a1 48 11 3d
       0.01987438 0.068689205 -0.011972824 0.035469655
0001f0 25 d2 dc bc 73 00 33 3c ca 25 04 3c cf 8d a9 3d
       -0.026955673 0.0109254 0.00806565 0.08279001
000200 be 66 90 3b 68 5b a7 3c 66 16 d7 bc 99 24 d0 bc
       0.004406779 0.020429328 -0.026255798 -0.025408076
000210 88 fc ce bc ee b1 5b 3c c2 7a d2 bc 7b fc 98 3a
       -0.0252669 0.013409121 -0.025693301 0.0011671925
000220 b8 f2 8a 3c e7 23 12 3c 89 f8 32 bd e9 44 78 bc
       0.01696144 0.008919693 -0.043694053 -0.015153148
000230 9b 05 94 bc 0a c7 86 bb 4f bc cb bc 95 e8 44 3d
       -0.01806908 -0.004113083 -0.024870066 0.04807337
000240 e0 07 67 bd 16 5e e1 3d 22 94 8d bd 76 16 ba bd
       -0.056403995 0.110042736 -0.0691302 -0.09086315
000250 8f df a5 bc 44 e4 1e 3d a0 3e 08 3e 2a 0e 1a be
       -0.020248203 0.03879191 0.1330514 -0.15044466
000260 54 e6 7f 3d 95 23 06 be f6 9b 90 3e cf 00 52 be
       0.062475517 -0.13099511 0.2824399 -0.20508121
000270 10 0c 7e bd 60 02 47 be 3d 2a c6 3e 00 f8 1a 3d
       -0.062023222 -0.194345 0.387041 0.037834167
000280 91 4d ab bc 01 16 c4 bd b9 b7 10 bd a4 4e 3e bb
       -0.02091101 -0.095745094 -0.03533146 -0.0029038573
000290 83 24 1b bd b7 64 6b 3d bb 25 a2 3d d8 d2 00 bc
       -0.037876617 0.057469096 0.07917353 -0.007862769
0002a0 0b 75 81 bd ae 27 3e 3d dc ee 67 3c 8b 37 0f bd
       -0.06321152 0.04642456 0.01415607 -0.03496508
0002b0 67 11 0d 3d 2c b1 5c 3c 5b f3 35 3d 31 cc 92 bc
       0.034440424 0.013469975 0.044421535 -0.017919632
0002c0 e3 fb c0 3c 3f ac e5 bd 8f 05 51 bc d4 ad 09 bd
       0.023557609 -0.11214494 -0.012757673 -0.03361304
0002d0 de 8a 1b 3a 4b 4f b9 bd b5 36 d4 3d ea fe c3 3d
       0.00059334736 -0.09048327 0.10361997 0.095701054
0002e0 c5 9d 07 bb 4d 44 8f bd 0c 0b 2c 3d 08 5b 6d 3e
       -0.0020693403 -0.06995449 0.042002723 0.23179257
0002f0 64 88 67 bd 2d aa cb 3d 1c 83 66 bb fc a8 11 bd
       -0.056526557 0.09944568 -0.0035173362 -0.035561547
000300 48 79 84 3d da 49 c3 3c 43 ca d0 bd a4 dd be bd
       0.06468445 0.023838926 -0.10194828 -0.09319618
000310 a6 91 aa bc 30 66 7c 3d a8 1a 1c be 37 70 2c be
       -0.020821404 0.06162089 -0.15244544 -0.16839682
000320 c6 65 0f bd c0 fd 43 be 32 10 f1 3d c0 0e fc bd
       -0.035009168 -0.19139767 0.11770667 -0.12307501
000330 d5 9a 32 bc 6a 4e ab 3d 63 8a b4 3c eb 23 3d 3c
       -0.010901173 0.08364566 0.022038644 0.011544208
000340 c0 1e 3e bc 3c c6 de 3d ec c8 83 3d fb 9c cd 3c
       -0.011604011 0.10877654 0.06434807 0.025099268
000350 4a 14 62 bd af 7a a7 bd 88 e7 e3 3d 82 c7 ee 3c
       -0.05519513 -0.08177697 0.111281455 0.029147867
000360 03 a2 a6 3d e4 e5 90 3d 2d 53 d0 bd e1 75 3f 3e
       0.0813637 0.07075098 -0.101721145 0.18697311
000370 b9 f9 1a bd 07 79 32 3e cc b1 df bd dc 57 3d 3e
       -0.03783581 0.17428981 -0.10922584 0.18490547
000380 ad b9 d0 bd 64 a5 2f 3e a6 ba 2a bd e4 33 fc 3d
       -0.10191665 0.17152935 -0.041681908 0.12314585
000390 f8 7d 50 3c 9b 49 2c be 5c 76 08 bf 1e e9 98 bc
       0.012725346 -0.16824953 -0.533056 -0.018665846
0003a0 93 36 d1 3a 6f 56 1d be f4 c7 05 3d 0d 42 66 bb
       0.0015961699 -0.15365003 0.032661393 -0.0035134584
0003b0 61 6c 80 bd 2c 3e 3c bd 16 06 6d bd f8 1b e3 3d
       -0.06270672 -0.04595773 -0.057867132 0.11089319
0003c0 20 0e 16 be 8e 83 85 3e b9 6f 76 bd 8d 41 46 be
       -0.14653826 0.2607693 -0.06016514 -0.19360943
0003d0 82 c5 cd 3b 6c ff 56 3e 43 34 21 3e b5 4c a4 3e
       0.0062796483 0.20995873 0.15742593 0.32089773
0003e0 5e 41 8b bc 4f dd ea 3e 73 14 09 bf 92 ce 15 3f
       -0.016998943 0.4587197 -0.5354683 0.58518326
0003f0 d0 88 07 3e 01 4c 66 3e cf ac 91 be fe 24 91 3d
       0.13235784 0.2248993 -0.28452155 0.07087134

transformer.encoder.layers.0.self_attn.out_proj.bias f4 [16]
000000 ca 9c e5 3d 95 24 ab 3c de a9 be 3c 07 dd 9a bd
       0.11211546 0.020891467 0.023274358 -0.07561689
000010 6a 09 c0 3c e2 5a 56 bd a8 4b f4 bb fe 9c 73 3a
       0.023441989 -0.052332766 -0.007455308 0.0009293108
000020 26 1a 01 bc 06 62 16 3d fb e0 36 3c 69 52 05 3e
       -0.007879769 0.036714576 0.011162038 0.13019718
000030 e3 36 a8 3c 0f b0 9e 3e e5 7c 2f be b0 b1 0b be
       0.020533985 0.30993697 -0.17137487 -0.13642001

transformer.encoder.layers.0.linear1.weight f4 [128, 16]
000000 fc e0 00 bf bf e1 cd 3c 86 8c 95 be 2c 32 7c bc
       -0.503433 0.025132058 -0.29208773 -0.015392821
000010 05 c8 52 be 1f 3a 43 3f f8 d3 57 be 29 c9 cb 3c
       -0.20584114 0.7626056 -0.21076953 0.024876194
000020 30 b9 82 3e 71 95 00 bd ee b3 8d 3c 74 40 07 bf
       0.25531912 -0.03139252 0.017297711 -0.5283272
000030 c0 ff 97 be 14 32 58 bf 8e 7e 90 3d 8c 5a c5 3e
       -0.2968731 -0.84451413 0.070553884 0.38545644
000040 63 d7 87 be 70 d1 35 be 95 3f 84 3d 80 31 a8 3d
       -0.26531515 -0.17755675 0.0645744 0.082125664
000050 d2 62 65 be 26 62 fe 3e e0 12 06 bd c2 2a 95 be
       -0.22400978 0.49684256 -0.032732844 -0.29134184
000060 0d 99 3a 3e 78 5f 0f be bc c3 6f be df f6 8b be
       0.18222447 -0.14001262 -0.2341451 -0.27336785
000070 5d e3 e1 3e 08 a3 49 bf fe 66 7f 3f 6a f2 10 bd
       0.44118777 -0.7876439 0.9976653 -0.035387434
000080 d8 cf 9b 3e 4d 8d 2a 3f 7f a7 75 3d 98 d9 0c be
       0.3043201 0.6662186 0.05997419 -0.1375488
000090 dc 79 bb be 70 b5 03 3e 46 d6 33 be 00 90 07 be
       -0.3661641 0.12862182 -0.17562208 -0.13238525
0000a0 13 01 aa 3e e1 86 9b bd 71 cc d6 be 91 13 97 3e
       0.33203945 -0.075940855 -0.4195285 0.29507115
0000b0 2e e9 91 bd 49 b4 76 bd 15 53 76 be 63 f0 a4 be
       -0.071245536 -0.060230527 -0.24055131 -0.3221465
0000c0 ac a7 6a 3d 28 6b 2d 3f 57 b5 4e bd 81 cf 47 3f
       0.05728881 0.6774163 -0.050465908 0.78051
0000d0 ce b9 85 bf 63 b2 41 3d 3f 5e 22 bf 44 f3 2c bd
       -1.0447328 0.047289263 -0.6342506 -0.042224184
0000e0 ab 21 43 3e fd 75 1a bf f5 5a 1c bd 1e 24 7e bd
       0.19055812 -0.60336286 -0.03817268 -0.062046163
0000f0 d1 aa 72 be 29 7e 71 3e 09 83 03 bd 58 ae 58 3e
       -0.23697974 0.23583283 -0.032107387 0.21160257
000100 9c 04 9f 3d f7 8c 33 3e b4 8c 8d 3e 18 cb 26 3f
       0.07764551 0.17534243 0.2764641 0.65153646
000110 d1 64 4b be ff b6 8d 3d b0 53 ad be d8 50 72 bc
       -0.19862677 0.06919669 -0.3385291 -0.014789782
000120 f3 0f d3 bc 38 3d 42 3f 35 c1 b1 be c6 50 28 3d
       -0.025764441 0.7587466 -0.34717718 0.041092657
000130 94 9f 1b 3e 34 30 c5 be 41 bb f4 bc 91 a8 52 bf
       0.15197593 -0.3851334 -0.029874446 -0.8228846
000140 39 2e a6 be 86 af 9b 3e 9d 58 ca 3e f4 22 8f 3e
       -0.3245714 0.3040735 0.39520732 0.27956355
000150 52 1c 28 be 1f cc e9 3d 79 93 e5 be 41 4e c8 bd
       -0.16417053 0.11415886 -0.44839075 -0.09780551
000160 66 d7 62 3e c7 0b 9f be 5c d6 6d be e2 f4 8f bc
       0.2215248 -0.31063673 -0.23226303 -0.017572824
000170 1f 9c 9f be 99 ff 0c bf 64 ae c2 bc f1 d9 14 3e
       -0.31173798 -0.5507751 -0.023764797 0.14536263
000180 68 df ce be 35 ea 0e 3f 60 bb 36 bf 66 98 01 3f
       -0.4040482 0.5582612 -0.7137966 0.50623167
000190 98 0c e0 be fd b1 34 3f a9 8f e0 bd 19 27 85 3d
       -0.43759608 0.7058409 -0.10964901 0.06501598
0001a0 eb 69 87 be d6 65 81 3e 53 a0 bb bd e7 43 0e bf
       -0.26447996 0.25273007 -0.09161439 -0.5557236
0001b0 d7 74 1c 3d c6 d7 58 bf 8e de d8 3d 38 18 4c be
       0.038197365 -0.84704244 0.10589324 -0.19931114
0001c0 59 70 9f 3d 57 52 bf ba 25 46 b9 3d 13 f1 68 3d
       0.077851005 -0.0014596683 0.09046582 0.05687053
0001d0 f3 85 8f 3d 52 2f 97 3d d8 b0 42 3e a7 37 3c be
       0.07007971 0.073820725 0.19012773 -0.18380605
0001e0 80 5c c2 3d 01 ce 2f bd dd 15 82 bd 3b dd 14 bd
       0.09490299 -0.04292107 -0.06351826 -0.036343794
0001f0 86 34 e4 3d 49 d2 3e be 55 68 13 3d 89 79 40 3d
       0.111428306 -0.18634905 0.03598817 0.046990905
000200 2f 48 ae bd 51 de c7 3e 62 ee 3c 3f 67 c0 6f 3d
       -0.08509862 0.390368 0.73801243 0.0585331
000210 60 e6 d5 be 41 13 3c 3f cc bd 8a bc e8 e6 85 3e
       -0.41777325 0.7346688 -0.016936205 0.2615273
000220 4d 22 b4 bc ce 78 3e 3e e9 9e 4d 3e b4 20 55 bf
       -0.021989012 0.18600771 0.2008015 -0.83253026
000230 dc 14 95 bf 0e 92 c8 be be 89 e7 bd 06 50 fe 3e
       -1.1646991 -0.3917393 -0.11305569 0.49670428
000240 6a 31 00 bf 52 63 c4 3e 87 4c 17 3e 73 92 dc 3e
       -0.500754 0.38357025 0.14775287 0.43080482
000250 08 92 f9 be 2b 16 c7 3d b8 a0 2c 3d 50 34 09 be
       -0.48744226 0.09721025 0.04214546 -0.13398862
000260 13 22 1b bd e4 96 f1 3e 13 20 39 3c 76 fd 40 3e
       -0.037874293 0.47185433 0.011299151 0.18846688
000270 67 52 23 3f b2 31 e4 be fb 1c 8b 3c 06 ef 81 bf
       0.6379761 -0.44569165 0.016981592 -1.0151069
000280 06 29 29 3d 14 cf 82 be 6e a0 17 3d 02 66 18 3f
       0.04129889 -0.25548613 0.037018232 0.5953065
000290 9c b8 e9 bd a8 4b 82 3f b1 e5 7c bd 4b 70 61 be
       -0.114121646 1.0179338 -0.06174249 -0.22015493
0002a0 5d ba cd bd 06 f9 a3 3e b9 7e 0b be 64 41 7c be
       -0.100453116 0.32025927 -0.1362256 -0.2463432
0002b0 24 59 93 3e 93 cd 10 bf 2a 58 1b 3f 33 4d 91 be
       0.28778946 -0.5656368 0.606814 -0.2837921
0002c0 d3 fa d1 bd f6 e2 32 bd 69 46 90 bd b4 32 91 bd
       -0.10252919 -0.043673478 -0.0704468 -0.07089749
0002d0 b5 9f f8 bd 02 3a 6d 3c ce fc 1a bd 15 45 97 bd
       -0.12139837 0.014479162 -0.03783875 -0.07386223
0002e0 a9 cb 58 3e 73 77 d9 bd 2d f3 0a be 99 c2 54 be
       0.2117144 -0.10618486 -0.13569327 -0.20777358
0002f0 29 4d a6 ba 27 d7 58 be f9 1f 1d bc 5c 65 57 be
       -0.001268779 -0.21175824 -0.009590142 -0.2103476
000300 91 4a 56 be 0f 59 65 bd 3a c2 63 be 22 ff d8 3c
       -0.20926882 -0.055993136 -0.2224206 0.026488844
000310 14 a7 14 3e 76 d7 90 3d e0 32 c4 3d ff f1 9c bf
       0.1451686 0.07072346 0.09580016 -1.2261351
000320 5c 4f 74 3f 23 38 a6 3e dc d1 01 3f ed bf d7 3c
       0.9543359 0.32464704 0.50710845 0.026336635
000330 5c bf 99 be 1b 1e 92 3d 72 79 a3 3d 13 e4 20 3e
       -0.30028808 0.071346484 0.07982148 0.15712003
000340 75 fd f3 3c 3c a5 2e be e9 83 a4 3e 90 9e 01 bd
       0.029783944 -0.1705522 0.3213189 -0.031645358
000350 8a f3 4c be 00 6f 3b be 73 04 7f be c3 4a a4 bf
       -0.20014778 -0.18304062 -0.24904041 -1.2835315
000360 06 35 e8 3f 4e 15 c2 be c0 67 7c bf b4 1a 1a 3d
       1.8141181 -0.3790688 -0.9859581 0.037623122
000370 be 5e 7f 3e 68 51 03 bd 23 eb 17 3d c1 0b db 3b
       0.24938485 -0.032060057 0.03708948 0.006684751
000380 a9 6d 12 bf c0 26 cd be 5c b3 ad 3e 9a 10 62 3e
       -0.5719858 -0.40068626 0.33925903 0.22076645
000390 4e b3 33 bf 7f 02 59 3f 7b 6d a6 3d ff 7e 57 bc
       -0.7019547 0.84769434 0.081263505 -0.013152837
0003a0 27 b7 37 be 05 05 74 be 4a 31 40 3e 4e 47 81 be
       -0.17940961 -0.2383004 0.18768802 -0.25249714
0003b0 99 b5 a2 be 93 e8 9e bd c8 e7 96 3e 75 00 0e 3f
       -0.31779173 -0.07759204 0.2947371 0.5546945
0003c0 cd 5f b7 be 9e f2 95 3e 4d 18 a0 be 2d 1a 0c bd
       -0.35815278 0.29286665 -0.3126854 -0.03420465
0003d0 cb db 17 be 45 cd f0 bd af 26 06 3d 1f ab 8f bf
       -0.14829938 -0.11757902 0.032751735 -1.1224097
0003e0 e9 0d 09 40 64 de 86 bd 88 61 73 bf 86 48 63 3e
       2.141474 -0.065853864 -0.95070696 0.22195634
0003f0 1b 1f 7a be 52 cf 39 3a a0 3a 3d 3d 1c 01 c8 3d
       -0.24425928 0.0007088083 0.046198487 0.097658366

transformer.encoder.layers.0.linear1.bias f4 [128]
000000 22 ca 97 be 81 57 e4 be c8 a3 b9 3d 1f e4 6e be
       -0.29646403 -0.4459801 0.09064442 -0.23329209
000010 dc 87 eb 3c 2d 02 3a be 8f ed d0 bc 17 18 fa be
       0.028751306 -0.18164892 -0.025503902 -0.48846504
000020 7c c0 9c bc 7d 9e b4 bd 5a 80 eb 3c 55 a6 b1 be
       -0.019134752 -0.08819292 0.028747726 -0.34697214
000030 d4 4e 58 be 6f 39 14 3d f5 8f 2e 3c 05 e0 16 be
       -0.2112382 0.036187585 0.010654439 -0.14733894
000040 46 2a b2 bc 36 20 de 3d df dd aa be c4 ce 74 be
       -0.021748673 0.108459875 -0.333724 -0.23907
000050 c7 14 fd be 14 2d f7 3d cf 55 29 be 71 e5 b6 bc
       -0.49429914 0.12069145 -0.1653664 -0.022326203
000060 c3 31 9f bd 65 29 21 bf 9e 92 cf be 9f 53 7d be
       -0.07773163 -0.6295379 -0.40541548 -0.2473893
000070 74 3c 10 bf 65 eb 07 bf 36 4e bc be 0c f5 12 bf
       -0.56342244 -0.5309356 -0.3677842 -0.5740516
000080 0d 0e 52 be e9 4f 1f be 3c ba 8f be 4e c8 85 be
       -0.20513172 -0.15557827 -0.28071773 -0.26129383
000090 a0 7b 6a be b3 c1 09 be c7 32 cb bc 0f ab 74 bf
       -0.22898722 -0.13452797 -0.024804486 -0.95573515
0000a0 18 d2 92 be 24 71 76 be 7e 78 16 bf 73 d8 b7 be
       -0.28675914 -0.24066597 -0.58777606 -0.35907325
0000b0 92 bd 37 be 87 88 81 be 3f a0 f4 be ff 73 d1 bd
       -0.17943409 -0.25299475 -0.47778508 -0.102272026
0000c0 e4 5d 8c 3e 02 56 84 be 91 c8 25 3d b9 9a a2 bc
       0.27415383 -0.2584687 0.04047448 -0.019849168
0000d0 de b1 f7 be 34 72 79 bd 67 a7 06 bf c4 16 55 be
       -0.4837789 -0.06089993 -0.52599186 -0.20809466
0000e0 dd 53 77 be e4 91 25 bd 7e 17 94 be c1 a8 e7 be
       -0.24153085 -0.040422335 -0.28924173 -0.45245937
0000f0 7a aa 88 bd ea 38 93 bd ca 47 b4 be d2 64 1b bf
       -0.06673141 -0.0718859 -0.3521102 -0.60700715
000100 43 e1 e4 be 30 96 d0 3d 41 0c db be 21 b7 8d bd
       -0.4470311 0.10184896 -0.42782786 -0.06919695
000110 e1 ce e2 be 34 3c f9 be ca 61 f2 3d 6d 40 cb be
       -0.4429846 -0.48678744 0.11835058 -0.3969759
000120 0f 31 86 be 19 cb 12 bf 62 07 59 be a3 c7 e8 bd
       -0.26209304 -0.5734115 -0.21194223 -0.11366203
000130 75 5e de be d1 5b 46 be ea 43 91 be c8 98 61 bd
       -0.4343144 -0.19370963 -0.28372127 -0.055077344
000140 e2 5f 7d be 1a f5 a3 be 48 11 75 be e5 ea 38 be
       -0.24743608 -0.32022935 -0.23932374 -0.18058355
000150 3f 25 7e be 8b 14 6f 3d a1 97 04 bf cc f8 39 be
       -0.24818896 0.0583692 -0.5179387 -0.18161315
000160 9a 20 00 bf 75 6d 64 be 71 55 9c be c1 13 9c be
       -0.50049746 -0.2230738 -0.30533937 -0.3048382
000170 fc 33 ee be 7b 9b 3a bf c9 0b 75 bd bc 33 f5 bd
       -0.46524036 -0.72893494 -0.059825692 -0.11972758
000180 6f 62 82 be 3c 7e d5 bd 3d d7 9b bd 89 16 b8 be
       -0.25465724 -0.10424468 -0.07609413 -0.35954693
000190 3a 04 8f be 0b cf f3 bd aa ca f4 bd d8 a8 ce bd
       -0.27932912 -0.11904725 -0.119527176 -0.10090798
0001a0 ee 44 15 bc 05 fa 30 be a5 2a 1e 3e 36 62 f1 bd
       -0.009110672 -0.17282875 0.15445955 -0.117863104
0001b0 3e 70 ac be 79 b8 24 bf 3b 10 6c be eb 0e 9e be
       -0.33679384 -0.6434398 -0.23053066 -0.30870757
0001c0 5e 5e a8 be 6c 26 f0 3b d3 97 b0 bc bc ce b9 3d
       -0.32884496 0.007328799 -0.02155677 0.090726346
0001d0 82 05 3c be 61 35 68 be cd 2c c7 be ac a8 1a be
       -0.18361476 -0.22676612 -0.38901368 -0.15103406
0001e0 9c f2 1c be 62 bc 8b be 2d 83 c7 bd 36 6e d0 be
       -0.15326923 -0.27292162 -0.09741817 -0.40709084
0001f0 f4 78 f4 be f8 7c 00 be 38 c1 9e 3b e8 68 c6 be
       -0.4774853 -0.12547672 0.004844811 -0.38751912

transformer.encoder.layers.0.linear2.weight f4 [16, 128]
000000 75 9a 1e bd eb 0f 24 be ce 5a a1 3e 4f c2 0e 3f
       -0.03872152 -0.16021697 0.3151459 0.5576524
000010 77 7b 64 be 06 9f 78 bd 46 37 59 bd 00 9e fe 3d
       -0.22312723 -0.06069853 -0.05303123 0.1243248
000020 ff a1 88 3e d4 af 86 3d 11 15 b8 3d 4d 01 95 bc
       0.26686093 0.06576505 0.08988393 -0.018189097
000030 2e 0b ac 3d 6b ad 52 3e 5f e5 af bd c2 03 51 be
       0.0840057 0.20573966 -0.08588671 -0.2041159
000040 0b 97 08 3f a3 cf 1e 3e 26 05 0a be 5d 26 a1 3e
       0.53355473 0.15508895 -0.13478526 0.3147458
000050 26 bf f0 3d 28 2c ec 3d d9 a4 1f be 7c 3a 9c be
       0.11755209 0.1153186 -0.15590228 -0.3051337
000060 77 54 c3 3e 3d 68 5d be bd 33 f5 3a 3b 17 e4 be
       0.3815038 -0.21621795 0.0018707436 -0.44548973
000070 bf 0e 3f bd be b6 89 3c 68 bb ae be 14 bc 2f bc
       -0.046644922 0.016810771 -0.34127355 -0.010725994
000080 f2 f6 ae 3e 96 c0 3a bd 2b bf 42 be bb 09 fc be
       0.3417278 -0.04559382 -0.19018237 -0.49226174
000090 94 79 4c be c3 ea 14 be 14 5b c1 3e 24 41 73 3d
       -0.19968253 -0.1454268 0.377648 0.059388295
0000a0 7d b8 d3 3c 51 62 65 be 70 aa 16 3e 57 c3 12 bf
       0.025844807 -0.22400786 0.14713454 -0.57329315
0000b0 8a 72 b6 be ec 14 0b be f7 b6 2d 3e c8 95 c1 bd
       -0.3563426 -0.135822 0.16964327 -0.09452397
0000c0 7b f8 be bd fc c1 c6 3b 57 0b 29 3e f5 f9 e3 bd
       -0.09324738 0.006065605 0.16508232 -0.1113166
0000d0 a4 7f 35 be e7 8b 93 bd d5 55 52 3e 96 77 be bd
       -0.17724472 -0.07204419 0.20540555 -0.09300153
0000e0 38 54 9b be 14 09 32 bc 2f 9b a9 be 0f 85 71 bd
       -0.3033769 -0.010866422 -0.33126208 -0.058964785
0000f0 e9 f6 40 3f 3d 0c 0c 3f 92 d9 26 3e d4 1a 8e 3c
       0.75376755 0.54706174 0.16293934 0.017346777
000100 4f 8a cd be ed 93 8c 3e 05 ac 7f bd 64 4d d6 3e
       -0.40144584 0.27456608 -0.06241991 0.4185592
000110 98 89 24 be ed 47 33 3e 68 ec 30 3e 93 b4 02 3e
       -0.16068113 0.17507906 0.17277682 0.12764196
000120 c9 0b f3 be ff bb de be e1 72 3e be 99 a8 02 3f
       -0.4746993 -0.43502805 -0.1859851 0.5103851
000130 33 61 17 3d c6 55 1a bd 57 55 20 3d d2 67 92 bd
       0.03695793 -0.037679456 0.039143886 -0.071487084
000140 dd 41 0f bf 68 54 cd 3d 73 64 50 be b1 43 6a 3e
       -0.55959874 0.10025865 -0.20350818 0.22877385
000150 7a 45 f1 3d 42 c5 a0 bd cd bc a2 bd d8 28 1c 3f
       0.1178083 -0.07850124 -0.07946167 0.6099982
000160 b2 f0 0b 3f 9e d5 75 3e a9 d5 7d 3e d8 96 96 3e
       0.54664147 0.2400727 0.24788536 0.2941196
000170 1f 1a 05 3d b6 bb 3a bd ba fb fb bd cf bb 4d be
       0.032495614 -0.04558917 -0.123038724 -0.20091175
000180 20 4a 0c be da 3b a0 be 72 5f 45 3e d3 23 a5 ba
       -0.13700151 -0.31295663 0.19274691 -0.0012599177
000190 e9 51 45 3e c3 1a 8b 3e 43 e6 d6 3e 3b a1 e6 3d
       0.19269527 0.27168855 0.4197255 0.11261221
0001a0 9d 0f 97 3e 70 63 4f be 70 45 b9 3d 4e 07 11 3e
       0.295041 -0.20252776 0.09046447 0.14162943
0001b0 15 e8 ad 3d 48 f2 3a 3e e4 f1 78 be ff 4d e8 3c
       0.08491532 0.18256485 -0.24311024 0.028357504
0001c0 1e d5 0a be 49 03 c5 3d e5 94 05 bd 79 e2 1c 3e
       -0.1355786 0.09619767 -0.0326127 0.15320767
0001d0 66 ab 25 3f 94 65 7d 3e ff db 58 be dc 4d 9a 3e
       0.6471466 0.2474578 -0.21177672 0.30137527
0001e0 86 de 71 3e 3c f8 4b 3e bd 01 dd be f6 69 68 be
       0.23620042 0.19918913 -0.4316539 -0.22696671
0001f0 03 26 f3 be 3b 3a 43 be 5d 01 2e 3e 22 71 02 3e
       -0.47489938 -0.19065182 0.16992708 0.12738469
000200 dd 0d 4d 3e eb 93 43 bd d0 b2 e8 3c 7d 3a 48 bf
       0.2002482 -0.047748487 0.028405577 -0.78214246
000210 bc 11 b0 3e c5 0b 36 be 0b 0d ee 3d 23 34 ab 3d
       0.3438853 -0.17777927 0.116235815 0.08359554
000220 fc d4 d1 3e 0e 91 90 3e 6d 54 a2 3e 97 e0 d2 3d
       0.40982807 0.28235668 0.31705037 0.10296743
000230 d9 87 18 3e 3f 22 49 be eb 3b 19 3e 37 2b 93 3e
       0.14895572 -0.1964197 0.14964263 0.28743908
000240 42 30 ee be e8 75 30 be 85 6f b5 3e 1c 47 06 3e
       -0.46521193 -0.17232478 0.35436645 0.13113064
000250 9e e4 c1 3e 80 f1 fa bd a4 7f 0a 3f 91 0a 3d 3e
       0.37869734 -0.12253094 0.54101014 0.18461062
000260 3a 30 65 bc d7 f7 5e 3e 8a 55 89 bd 7f df 5b 3e
       -0.013988549 0.21774231 -0.067057684 0.21471976
000270 4b 8e eb 3c 9d 20 18 3e c2 fe 92 3e c2 30 1b 3e
       0.028754374 0.14856191 0.2870999 0.15155318
000280 07 66 93 3e 15 46 75 3e 19 67 ea 3d 36 3b 94 3e
       0.28788778 0.23952515 0.114454456 0.28951424
000290 e5 d8 d5 be 0c fd 69 3d d2 58 86 3e 23 26 e1 3d
       -0.4176704 0.05712609 0.2623964 0.10993602
0002a0 cf e0 66 bd 7d 46 90 3d 2d bf 09 3e 31 2c 8f 3e
       -0.056366738 0.070446946 0.13451834 0.27963403
0002b0 be 6a 9b be 98 6b a8 3e d9 91 1b be 19 5d 3c be
       -0.30354875 0.32894588 -0.15192355 -0.18394889
0002c0 89 d5 9e bd d8 9f 64 3e 8c 85 18 be f0 cb 4d 3e
       -0.07755572 0.223266 -0.14894694 0.20097327
0002d0 0d 5a a3 ba 07 55 f4 bd fc 99 8c be 4a 5d 06 3e
       -0.001246275 -0.1193028 -0.2746123 0.13121524
0002e0 d9 e1 82 3e c0 3b cb bd 98 92 39 3d a1 7d bb 3c
       0.25562933 -0.09923506 0.04530582 0.022887053
0002f0 4b 1e 8d 3e 25 e9 d9 be 34 0a 72 3e 73 34 90 3c
       0.27562174 -0.42560688 0.23636705 0.017603135
000300 e9 aa a6 3e ff 55 03 3e 17 27 1e be 2e 1e c7 bd
       0.3255227 0.12825774 -0.15444599 -0.09722553
000310 20 c1 dc 3e a5 26 82 3d b6 09 ec 3b 05 e6 d1 3e
       0.43116093 0.06355027 0.007203306 0.40995803
000320 83 89 8e be 9d fb 91 3d 65 bd 8b be 80 b0 61 3e
       -0.27839288 0.071280695 -0.27292934 0.22039986
000330 bf de eb bd bf 36 1f 3e 8e af b4 bd 72 5c 8c 3e
       -0.11517095 0.15548228 -0.08822547 0.2741428
000340 77 0e 0b be 10 41 97 3e c3 23 fb 3c d9 76 8d 3c
       -0.13579737 0.29541826 0.030656701 0.017268585
000350 b2 02 a8 bd 88 b3 de 3e a3 ce 2a 3e d9 25 10 3c
       -0.08203639 0.43496346 0.16680388 0.008798086
000360 e9 78 ec be bf 0e 1b be c7 33 07 bd 59 34 65 bf
       -0.46185997 -0.15142344 -0.033008363 -0.89533
000370 86 1c 03 be a4 17 25 3e 0b 6e de bd 98 e8 9a 3e
       -0.1280385 0.161223 -0.10860833 0.3025558
000380 9a 5f 3f bd 7d 08 d1 3d d7 14 2c 3f 4d dc 15 3e
       -0.046722032 0.10206697 0.672193 0.1463482
000390 d6 60 8e 3e cb 97 b6 be 9d 90 ae be 6d fa 8a 3e
       0.27808255 -0.35662684 -0.34094706 0.27144185
0003a0 2f c2 5c be 08 45 cc bd 8f b5 0f be 05 de 99 3c
       -0.2155845 -0.09974104 -0.14034103 0.018782625
0003b0 3d 60 ec bb 98 1f 31 3e 7c 35 c8 3e 26 d7 92 3e
       -0.007213621 0.17297208 0.39103305 0.2867977
0003c0 c5 19 bb bd 61 19 60 3e 63 33 3a 3e 80 de a3 3d
       -0.091357745 0.21884681 0.18183665 0.08001423
0003d0 46 30 9f 3d 50 75 e0 be c6 44 b8 3e 42 a7 3f 3d
       0.07772879 -0.43839502 0.3598997 0.04679037
0003e0 cc 31 b3 3d 4d cf 20 3d af 13 97 3e 8e 2d 15 bd
       0.087497324 0.039260197 0.29507205 -0.036420397
0003f0 ad 97 34 3f db df 88 3d 16 35 7c 3d e5 19 f5 be
       0.7054394 0.06683322 0.061574064 -0.47871318

transformer.encoder.layers.0.linear2.bias f4 [16]
000000 4f 2c 82 bd f4 84 89 3d 62 24 35 be 56 0c 0c bd
       -0.063561074 0.06714812 -0.1768966 -0.034191452
000010 a2 bb 4b bd 76 68 2a 3d f9 71 05 3e e1 3b ae bd
       -0.049739487 0.041603528 0.13031758 -0.08507515
000020 92 0b a6 3d 6f 40 2c bc 85 cc e7 bb fd dd c8 3d
       0.081076756 -0.010513409 -0.007073941 0.09807966
000030 c4 58 8f be f9 92 e7 bd 0f 80 2a 3d f6 e5 34 bd
       -0.2799741 -0.1130733 0.041626032 -0.04416462

transformer.encoder.layers.0.norm1.weight f4 [16]
000000 0b c0 0a 3f 8e 60 84 3f 43 ad 86 3f 46 0e 33 3f
       0.54199284 1.0341966 1.0521625 0.69943655
000010 b2 60 44 3f ac c3 d1 3f 27 f8 7d 3f db 0f b7 3f
       0.76710045 1.6387839 0.99206775 1.4301714
000020 bf 92 01 40 1c d6 8c 3f d4 9e b7 3f bb 15 74 3f
       2.0245817 1.1002841 1.4345345 0.9534566
000030 91 60 a6 3f bf b0 83 3f 0c ad 4f 3f 05 26 2e 3f
       1.299822 1.0288314 0.81123424 0.68026763

transformer.encoder.layers.0.norm1.bias f4 [16]
000000 d8 f2 be 3e 1b a1 85 bd 2f fe d4 be 29 aa c1 3d
       0.3729465 -0.06524869 -0.41600177 0.094562836
000010 52 ab 84 3c 55 cc 7f be 4c 65 95 3e ab 1b 6b bd
       0.016194973 -0.2498029 0.29178846 -0.057399433
000020 50 3b 0d be fa 74 1d bd 1c cf cc 3d 93 0d 04 3d
       -0.13792157 -0.038441636 0.100004405 0.032239508
000030 c2 82 62 3d ec 4f 4f 3e 9e e4 01 bc 0c a3 ff 3d
       0.05530048 0.20245332 -0.007928042 0.124822706

transformer.encoder.layers.0.norm2.weight f4 [16]
000000 8f eb 97 3f b7 bc 9d 3f 85 d0 91 3f 1a 72 09 3f
       1.1868762 1.2323216 1.139176 0.5368973
000010 29 23 42 3f 62 18 b4 3f 52 e8 4a 3f e3 28 40 3f
       0.758349 1.4069941 0.7926074 0.7506239
000020 80 1e ac 3f 3d 51 90 3f a2 e8 7c 3f 77 5a 54 3f
       1.3446808 1.1274792 0.9879247 0.8295054
000030 65 e9 83 3f 82 dc 88 3f 4f f8 da 3e f9 d5 32 3f
       1.0305601 1.0692294 0.4276757 0.69857746

transformer.encoder.layers.0.norm2.bias f4 [16]
000000 c4 86 58 3d 4b a3 3e 3e e3 7e a8 bc 4a c1 83 3e
       0.052862898 0.18616979 -0.020568317 0.25733405
000010 12 95 f0 bc d5 ea 49 3e 7f 4d bb be 48 ef a8 be
       -0.029367957 0.19718488 -0.36582562 -0.32995057
000020 54 ac cf 3d bb 59 6e be 0c 40 31 be d3 80 8e be
       0.10140291 -0.23276417 -0.17309588 -0.2783266
000030 3d fb 83 3e 5d 95 31 be 2b 9d 9e 3e 20 ac 73 bd
       0.25777617 -0.17342134 0.30979285 -0.059490323

transformer.encoder.layers.1.self_attn.in_proj_weight f4 [48, 16]
000000 2b 30 06 bf 2e 1a 9a be 86 88 03 bd 1a 34 79 be
       -0.5241725 -0.300981 -0.03211262 -0.24336281
000010 15 7f ce 3e ee 8a 1f 3f 34 b5 5c 3f d6 41 c4 3e
       0.4033133 0.62321365 0.86213994 0.3833148
000020 f8 89 dd bd 6a 76 80 3e f9 22 43 3e b8 82 1b 3e
       -0.10817331 0.25090343 0.1905631 0.15186584
000030 1e 9f 41 3d 34 1e e5 be 06 82 aa 3c 34 5e 05 3f
       0.047270887 -0.44749606 0.020813953 0.5209687
000040 31 a5 2c bd d5 87 f7 bd 24 c7 9d bd 07 03 a9 be
       -0.042149726 -0.12086455 -0.07703999 -0.33010122
000050 d4 87 74 be e4 0d 46 bd 41 73 f3 3e 2f 01 67 3e
       -0.2387994 -0.04835309 0.4754887 0.22559045
000060 f5 0c 12 bf fe fd 97 3e fb 60 cc 3d cd 83 84 3c
       -0.5705102 0.29685968 0.09979435 0.016176129
000070 79 e2 c4 be c9 7b ba 3e 0d f2 95 be bc df ea 3b
       -0.38454035 0.36422566 -0.29286233 0.0071677845
000080 b8 2d 2f bf e4 c2 0f 3f 4f d6 f0 be dc b1 95 be
       -0.68429136 0.56156754 -0.47038504 -0.29237258
000090 5e ba 07 bd e6 c9 5b 3e c5 a3 34 3e a9 59 17 3f
       -0.033136718 0.21463737 0.17640598 0.59121186
0000a0 90 ba ae bd 27 f1 1a 3f 68 38 94 3d 58 2e ba 3e
       -0.08531678 0.6052422 0.07237321 0.36363482
0000b0 a2 11 19 bf 2d 95 bb be 0b 4b 84 be 79 36 0c be
       -0.5979253 -0.3663725 -0.25838503 -0.13692655
0000c0 da b6 08 3f 70 19 c1 be c9 a5 4c bd f2 c3 13 bb
       0.5340401 -0.3771472 -0.049962793 -0.0022547212
0000d0 11 ad d3 3e 43 7f e3 be bb c8 cb 3e 3e 57 8d 3d
       0.41342977 -0.4443303 0.39801583 0.06901406
0000e0 d1 78 34 3e 55 79 3a 3c 58 d3 80 3e 60 58 26 3e
       0.17624213 0.011381467 0.25161242 0.1624465
0000f0 6e d8 14 bd 4d a6 82 bd d1 e3 ee be b8 ea 1d bf
       -0.036339216 -0.063793756 -0.46658185 -0.6168628
000100 eb 07 8d be 8c 39 91 3e 43 4f c1 be 82 6d 9c bd
       -0.27545103 0.28364217 -0.37755784 -0.076380745
000110 cf ea 16 be 81 3d 84 be 44 91 4f 3e 1a 02 03 3e
       -0.1473801 -0.25828174 0.20270258 0.1279377
000120 43 d3 82 3d 1d 66 9b 3d eb 8d f5 3d 75 37 b5 3e
       0.06387951 0.07587836 0.11989959 0.35393873
000130 5a 3e b3 be 13 64 bd 3e ce 35 bd 3e cf a6 2f 3e
       -0.35008508 0.36990413 0.36955112 0.17153476
000140 96 9a 06 bf 87 03 0c 3e 04 19 ba be 14 6e 1b be
       -0.5257963 0.1367322 -0.3634721 -0.1517871
000150 0d 46 ff 3e d2 cb 90 3d 82 d1 17 3e eb 5c a6 3e
       0.49858132 0.07070126 0.14826015 0.32492766
000160 4a 2f 09 3e 2d 63 3b 3e 43 a4 4e bc d3 4c b4 bb
       0.13396946 0.18299551 -0.012612405 -0.005502322
000170 fe db 40 3f a2 b3 5b bd 1f 23 48 3f 25 63 80 3e
       0.7533568 -0.053638108 0.7817859 0.2507564
000180 e8 fb 06 3e 33 32 1d 3f 7f 5b 2c 3d e4 bf b7 3e
       0.13182032 0.6140472 0.042079445 0.35888588
000190 82 e6 b5 bd a2 0c 84 be a0 20 c6 be 72 8f 8f be
       -0.088818565 -0.25790888 -0.38696766 -0.28039128
0001a0 45 71 48 3e 91 fb 0d bf 59 c5 07 3e f1 a2 d9 3e
       0.19574459 -0.55461985 0.13258876 0.42507127
0001b0 91 85 b6 bc d4 fe 18 3e 7f 12 2b be 54 70 1e bf
       -0.022280486 0.14940959 -0.16706274 -0.6189015
0001c0 9e 26 c4 3e 77 f3 a5 3e 89 87 0f 3f d5 a0 48 3e
       0.38310713 0.3241231 0.56066185 0.19592603
0001d0 92 27 03 bf 62 15 06 be f4 e4 3b be 48 7f 35 bf
       -0.51232255 -0.13094094 -0.18349057 -0.7089734
0001e0 3b f6 c4 3e 3f 1f 0c bf 5d 5c 71 be 16 39 9a be
       0.3846911 -0.5473518 -0.2357039 -0.30121678
0001f0 a9 c8 a6 bc 9e c8 0c 3e 79 bd 0f be f7 78 1c 3d
       -0.020359354 0.13748404 -0.14037122 0.0382013
000200 e2 4e 67 3f 4f 5d e9 be b8 c5 98 3e 4f a5 22 3f
       0.9035474 -0.45579 0.29838347 0.6353349
000210 26 42 91 3e d0 a1 a4 bd 3f 7d 05 bf fe 25 c7 be
       0.2837078 -0.08038676 -0.52144235 -0.38896173
000220 e2 3a 46 be 8a ac 15 3f e2 97 10 bd 9e e5 29 be
       -0.193584 0.584664 -0.035301097 -0.16591498
000230 a5 22 d0 3d 4f 6a 8e be 1d b5 3d 3e 07 17 e7 be
       0.10162858 -0.27815482 0.1852612 -0.45134756
000240 4f 8b 5e be 9a fd 8d 3d 8f e6 ae bd e2 fe 78 be
       -0.2173283 0.06933136 -0.08540069 -0.2431598
000250 05 28 87 3e c3 00 01 bf fe 61 40 be c2 e1 16 3e
       0.2639772 -0.5039179 -0.18787381 0.14734557
000260 ab d0 b0 be 0a 82 81 be 53 1f 91 3e 6f 75 7b be
       -0.345342 -0.25294524 0.2834421 -0.24556516
000270 15 1b 20 3e 16 dc 88 3e 1a f8 93 3d f7 00 01 3f
       0.15635331 0.26730412 0.07225056 0.503921
000280 1f cb 20 bf bc 9a 3b 3f d0 3c 3b bf 77 97 bf be
       -0.6280994 0.7328298 -0.7313967 -0.37420246
000290 e4 10 2c 3e 86 2f 14 bf 53 cb 76 3e d3 fa 28 3e
       0.16803318 -0.57885015 0.24101 0.16501932
0002a0 bb d1 bc 3e 98 be ca 3e 7c 58 57 be 9d 67 30 be
       0.36878762 0.39598536 -0.21029848 -0.17227025
0002b0 bf fb 05 bd a5 04 90 be 09 19 41 be ba c7 37 3e
       -0.032710787 -0.28128543 -0.18857206 0.17947283
0002c0 01 00 4a 3d cb 65 45 be 4b 8c fe be 55 cc 0e 3e
       0.04931641 -0.19277112 -0.4971641 0.13945134
0002d0 79 79 c2 3e af 2d dd be 18 5c 3f be 80 a8 e2 3d
       0.379833 -0.43198916 -0.18687475 0.11067295
0002e0 f6 7d 83 bd 1e a3 36 3c 99 67 d9 3d bd a7 b1 3c
       -0.064205095 0.011147289 0.10615463 0.02168643
0002f0 03 34 3b 3f a6 7c 5a 3e b6 a6 fd bc 9a d6 58 bf
       0.7312624 0.21336612 -0.030963283 -0.84702456
000300 d2 72 be be 9d 4a ad 3e 3b 78 82 be ef 9e b5 3d
       -0.37196976 0.33845988 -0.25482354 0.08868205
000310 ae 48 0d 3f 4e ed af bc 9d ff ac 3e e4 96 0f 3e
       0.55189025 -0.02147546 0.33788767 0.14022404
000320 cb e4 45 3f b2 23 7e be 2c e9 2d be 01 ab da bd
       0.77302235 -0.24818304 -0.1698348 -0.10677148
000330 34 35 23 bd 47 b2 35 be 63 06 fb be 94 9c 78 3e
       -0.03984566 -0.17743789 -0.4902831 0.2427848
000340 04 d0 f9 bd f0 7c 9c 3e 47 66 40 3e ab 4e d0 3e
       -0.12197879 0.3056407 0.18789016 0.4068502
000350 da 1d 84 be 67 74 c4 3e d5 ab 46 be c4 1c 94 be
       -0.25804025 0.38370058 -0.19401486 -0.28928196
000360 23 54 8a be e8 6a d3 be eb 14 ee 3d 37 84 17 3e
       -0.27017316 -0.412925 0.116250835 0.1479653
000370 77 20 4e bf a5 04 1d 3e 70 a1 9b 3d 4a 4c 11 3f
       -0.8051829 0.15333803 0.07599151 0.5675703
000380 0d e2 4a be f0 be e4 3e e1 25 9e be 85 88 99 3d
       -0.19812794 0.44676924 -0.30888274 0.07496742
000390 22 97 0a 3f f6 7e a8 3f 46 0c a5 3e 8e fd 76 3e
       0.5413686 1.3163745 0.32235926 0.24120161
0003a0 6e c9 d4 bd b6 ef a5 3d 1a ee 5d 3e 21 d7 66 bd
       -0.10389982 0.08102362 0.2167286 -0.056357507
0003b0 53 7c 5e bf 40 0e 49 bf 80 ac 2f 3f 84 d8 f3 3d
       -0.86908454 -0.7853737 0.6862259 0.119065315
0003c0 4d f3 b7 bd 6b aa 1c 3f 5c 7e 38 3f 65 bb 52 3e
       -0.08981953 0.6119754 0.7206781 0.20579298
0003d0 c2 87 00 bf ba d5 4d bf 55 9a b6 be 9a 46 1c bf
       -0.5020715 -0.80404246 -0.3566462 -0.6104523
0003e0 8d 31 9a 3d c2 55 bf be f0 e5 9a bd 64 6b 3e 3e
       0.07528982 -0.37370116 -0.07563388 0.18595654
0003f0 b1 c4 fe bd 50 73 66 3c 2c 64 1a bd 63 54 1d be
       -0.1243986 0.014065579 -0.037693188 -0.15364222

transformer.encoder.layers.1.self_attn.in_proj_bias f4 [48]
000000 9b 40 07 bf f3 43 13 3e ab 8d 39 bf d2 14 c6 be
       -0.52832955 0.1438139 -0.72481793 -0.3868776
000010 39 2b fe bd 5b a4 a8 3d bf 6a f0 bc da b6 1b be
       -0.12410588 0.08234473 -0.029347776 -0.15206471
000020 17 44 5b 3f 5f e2 7b 3f 54 35 cf be 9e 40 a5 3e
       0.8565077 0.9839229 -0.40470374 0.32275862
000030 83 23 da be 5c 1c 69 be b7 22 d0 be 4d 66 95 3e
       -0.42605218 -0.22764724 -0.40651485 0.29179612
000040 38 6e 93 39 4c e7 08 39 00 b6 d4 39 6f 8f 0a 39
       0.00028120144 0.00013056136 0.00040571392 0.00013214139
000050 da 73 f1 b8 56 28 9f 38 52 70 a8 b7 a0 38 84 b9
       -0.000115133545 7.589224e-05 -2.0079464e-05 -0.0002521919
000060 9f 83 be b8 39 ea be b8 8e cd 12 ba fa 51 29 b9
       -9.084422e-05 -9.1035334e-05 -0.0005600088 -0.00016147635
000070 19 9e 05 39 d7 27 8d 38 d6 6e 42 39 31 c2 ce b8
       0.00012742764 6.730825e-05 0.00018542571 -9.8590164e-05
000080 43 99 78 3c 08 56 80 3e 82 27 58 3c 12 76 b2 be
       0.015173259 0.25065637 0.013193013 -0.34855705
000090 c7 1b 6d 3c 5f 98 07 bd 7b f4 4e be af fc 67 be
       0.014471955 -0.033104297 -0.2021045 -0.22654985
0000a0 3f c1 df be f4 1d 18 3e 06 9b 1d 3e 63 95 82 bc
       -0.43702123 0.14855176 0.15391168 -0.015940374
0000b0 1b d7 1f be bc 94 08 be 0d 9a 79 3e ba 8c 0b 3e
       -0.156094 -0.13337988 0.24375172 0.13627902
